…
snapshot_prefix: "./snapshot/douyu_2700_train"
test_initialization: false
average_loss: 20
iter_size: 10
I0322 11:00:55.843832  4785 solver.cpp:77] Creating training net from train_net file: trainval.prototxt
I0322 11:00:55.850630  4785 net.cpp:51] Initializing net from parameters: 
state {
  phase: TRAIN
}
layer {
  name: "data"
  type: "Python"
  top: "data"
  top: "sem"
  python_param {
    module: "data_layers"
    layer: "Douyu1000SegDataLayer"
    param_str: "{\'data_dir\': \'../../data/douyu_2700\', \'seed\': 1337, \'split\': \'trainval\'}"
  }
}
layer {
  name: "conv1/7x7_s2"
  type: "Convolution"
  bottom: "data"
  top: "conv1/7x7_s2"
  param {
    lr_mult: 1
    decay_mult: 1
  }
  param {
    lr_mult: 2
    decay_mult: 0
  }
  convolution_param {
    num_output: 64
    pad: 9
    kernel_size: 7
    stride: 2
    weight_filler {
      type: "xavier"
    }
    bias_filler {
      type: "constant"
      value: 0.2
    }
  }
}
layer {
  name: "conv1/relu_7x7"
  type: "ReLU"
  bottom: "conv1/7x7_s2"
  top: "conv1/7x7_s2"
}
layer {
  name: "pool1/3x3_s2"
  type: "Pooling"
  bottom: "conv1/7x7_s2"
  top: "pool1/3x3_s2"
  pooling_param {
    pool: MAX
    kernel_size: 3
    stride: 2
  }
}
layer {
  name: "pool1/norm1"
  type: "LRN"
  bottom: "pool1/3x3_s2"
  top: "pool1/norm1"
  lrn_param {
    local_size: 5
    alpha: 0.0001
    beta: 0.75
  }
}
layer {
  name: "conv2/3x3_reduce"
  type: "Convolution"
  bottom: "pool1/norm1"
  top: "conv2/3x3_reduce"
  param {
    lr_mult: 1
    decay_mult: 1
  }
  param {
    lr_mult: 2
    decay_mult: 0
  }
  convolution_param {
    num_output: 64
    kernel_size: 1
    weight_filler {
      type: "xavier"
    }
    bias_filler {
      type: "constant"
      value: 0.2
    }
  }
}
layer {
  name: "conv2/relu_3x3_reduce"
  type: "ReLU"
  bottom: "conv2/3x3_reduce"
  top: "conv2/3x3_reduce"
}
layer {
  name: "conv2/3x3"
  type: "Convolution"
  bottom: "conv2/3x3_reduce"
  top: "conv2/3x3"
  param {
    lr_mult: 1
    decay_mult: 1
  }
  param {
    lr_mult: 2
    decay_mult: 0
  }
  convolution_param {
    num_output: 192
    pad: 1
    kernel_size: 3
    weight_filler {
      type: "xavier"
    }
    bias_filler {
      type: "constant"
      value: 0.2
    }
  }
}
layer {
  name: "conv2/relu_3x3"
  type: "ReLU"
  bottom: "conv2/3x3"
  top: "conv2/3x3"
}
layer {
  name: "conv2/norm2"
  type: "LRN"
  bottom: "conv2/3x3"
  top: "conv2/norm2"
  lrn_param {
    local_size: 5
    alpha: 0.0001
    beta: 0.75
  }
}
layer {
  name: "pool2/3x3_s2"
  type: "Pooling"
  bottom: "conv2/norm2"
  top: "pool2/3x3_s2"
  pooling_param {
    pool: MAX
    kernel_size: 3
    stride: 2
  }
}
layer {
  name: "inception_3a/1x1"
  type: "Convolution"
  bottom: "pool2/3x3_s2"
  top: "inception_3a/1x1"
  param {
    lr_mult: 1
    decay_mult: 1
  }
  param {
    lr_mult: 2
    decay_mult: 0
  }
  convolution_param {
    num_output: 64
    kernel_size: 1
    weight_filler {
      type: "xavier"
    }
    bias_filler {
      type: "constant"
      value: 0.2
    }
  }
}
layer {
  name: "inception_3a/relu_1x1"
  type: "ReLU"
  bottom: "inception_3a/1x1"
  top: "inception_3a/1x1"
}
layer {
  name: "inception_3a/3x3_reduce"
  type: "Convolution"
  bottom: "pool2/3x3_s2"
  top: "inception_3a/3x3_reduce"
  param {
    lr_mult: 1
    decay_mult: 1
  }
  param {
    lr_mult: 2
    decay_mult: 0
  }
  convolution_param {
    num_output: 96
    kernel_size: 1
    weight_filler {
      type: "xavier"
    }
    bias_filler {
      type: "constant"
      value: 0.2
    }
  }
}
layer {
  name: "inception_3a/relu_3x3_reduce"
  type: "ReLU"
  bottom: "inception_3a/3x3_reduce"
  top: "inception_3a/3x3_reduce"
}
layer {
  name: "inception_3a/3x3"
  type: "Convolution"
  bottom: "inception_3a/3x3_reduce"
  top: "inception_3a/3x3"
  param {
    lr_mult: 1
    decay_mult: 1
  }
  param {
    lr_mult: 2
    decay_mult: 0
  }
  convolution_param {
    num_output: 128
    pad: 1
    kernel_size: 3
    weight_filler {
      type: "xavier"
    }
    bias_filler {
      type: "constant"
      value: 0.2
    }
  }
}
layer {
  name: "inception_3a/relu_3x3"
  type: "ReLU"
  bottom: "inception_3a/3x3"
  top: "inception_3a/3x3"
}
layer {
  name: "inception_3a/5x5_reduce"
  type: "Convolution"
  bottom: "pool2/3x3_s2"
  top: "inception_3a/5x5_reduce"
  param {
    lr_mult: 1
    decay_mult: 1
  }
  param {
    lr_mult: 2
    decay_mult: 0
  }
  convolution_param {
    num_output: 16
    kernel_size: 1
    weight_filler {
      type: "xavier"
    }
    bias_filler {
      type: "constant"
      value: 0.2
    }
  }
}
layer {
  name: "inception_3a/relu_5x5_reduce"
  type: "ReLU"
  bottom: "inception_3a/5x5_reduce"
  top: "inception_3a/5x5_reduce"
}
layer {
  name: "inception_3a/5x5"
  type: "Convolution"
  bottom: "inception_3a/5x5_reduce"
  top: "inception_3a/5x5"
  param {
    lr_mult: 1
    decay_mult: 1
  }
  param {
    lr_mult: 2
    decay_mult: 0
  }
  convolution_param {
    num_output: 32
    pad: 2
    kernel_size: 5
    weight_filler {
      type: "xavier"
    }
    bias_filler {
      type: "constant"
      value: 0.2
    }
  }
}
layer {
  name: "inception_3a/relu_5x5"
  type: "ReLU"
  bottom: "inception_3a/5x5"
  top: "inception_3a/5x5"
}
layer {
  name: "inception_3a/pool"
  type: "Pooling"
  bottom: "pool2/3x3_s2"
  top: "inception_3a/pool"
  pooling_param {
    pool: MAX
    kernel_size: 3
    stride: 1
    pad: 1
  }
}
layer {
  name: "inception_3a/pool_proj"
  type: "Convolution"
  bottom: "inception_3a/pool"
  top: "inception_3a/pool_proj"
  param {
    lr_mult: 1
    decay_mult: 1
  }
  param {
    lr_mult: 2
    decay_mult: 0
  }
  convolution_param {
    num_output: 32
    kernel_size: 1
    weight_filler {
      type: "xavier"
    }
    bias_filler {
      type: "constant"
      value: 0.2
    }
  }
}
layer {
  name: "inception_3a/relu_pool_proj"
  type: "ReLU"
  bottom: "inception_3a/pool_proj"
  top: "inception_3a/pool_proj"
}
layer {
  name: "inception_3a/output"
  type: "Concat"
  bottom: "inception_3a/1x1"
  bottom: "inception_3a/3x3"
  bottom: "inception_3a/5x5"
  bottom: "inception_3a/pool_proj"
  top: "inception_3a/output"
}
layer {
  name: "inception_3b/1x1"
  type: "Convolution"
  bottom: "inception_3a/output"
  top: "inception_3b/1x1"
  param {
    lr_mult: 1
    decay_mult: 1
  }
  param {
    lr_mult: 2
    decay_mult: 0
  }
  convolution_param {
    num_output: 128
    kernel_size: 1
    weight_filler {
      type: "xavier"
    }
    bias_filler {
      type: "constant"
      value: 0.2
    }
  }
}
layer {
  name: "inception_3b/relu_1x1"
  type: "ReLU"
  bottom: "inception_3b/1x1"
  top: "inception_3b/1x1"
}
layer {
  name: "inception_3b/3x3_reduce"
  type: "Convolution"
  bottom: "inception_3a/output"
  top: "inception_3b/3x3_reduce"
  param {
    lr_mult: 1
    decay_mult: 1
  }
  param {
    lr_mult: 2
    decay_mult: 0
  }
  convolution_param {
    num_output: 128
    kernel_size: 1
    weight_filler {
      type: "xavier"
    }
    bias_filler {
      type: "constant"
      value: 0.2
    }
  }
}
layer {
  name: "inception_3b/relu_3x3_reduce"
  type: "ReLU"
  bottom: "inception_3b/3x3_reduce"
  top: "inception_3b/3x3_reduce"
}
layer {
  name: "inception_3b/3x3"
  type: "Convolution"
  bottom: "inception_3b/3x3_reduce"
  top: "inception_3b/3x3"
  param {
    lr_mult: 1
    decay_mult: 1
  }
  param {
    lr_mult: 2
    decay_mult: 0
  }
  convolution_param {
    num_output: 192
    pad: 1
    kernel_size: 3
    weight_filler {
      type: "xavier"
    }
    bias_filler {
      type: "constant"
      value: 0.2
    }
  }
}
layer {
  name: "inception_3b/relu_3x3"
  type: "ReLU"
  bottom: "inception_3b/3x3"
  top: "inception_3b/3x3"
}
layer {
  name: "inception_3b/5x5_reduce"
  type: "Convolution"
  bottom: "inception_3a/output"
  top: "inception_3b/5x5_reduce"
  param {
    lr_mult: 1
    decay_mult: 1
  }
  param {
    lr_mult: 2
    decay_mult: 0
  }
  convolution_param {
    num_output: 32
    kernel_size: 1
    weight_filler {
      type: "xavier"
    }
    bias_filler {
      type: "constant"
      value: 0.2
    }
  }
}
layer {
  name: "inception_3b/relu_5x5_reduce"
  type: "ReLU"
  bottom: "inception_3b/5x5_reduce"
  top: "inception_3b/5x5_reduce"
}
layer {
  name: "inception_3b/5x5"
  type: "Convolution"
  bottom: "inception_3b/5x5_reduce"
  top: "inception_3b/5x5"
  param {
    lr_mult: 1
    decay_mult: 1
  }
  param {
    lr_mult: 2
    decay_mult: 0
  }
  convolution_param {
    num_output: 96
    pad: 2
    kernel_size: 5
    weight_filler {
      type: "xavier"
    }
    bias_filler {
      type: "constant"
      value: 0.2
    }
  }
}
layer {
  name: "inception_3b/relu_5x5"
  type: "ReLU"
  bottom: "inception_3b/5x5"
  top: "inception_3b/5x5"
}
layer {
  name: "inception_3b/pool"
  type: "Pooling"
  bottom: "inception_3a/output"
  top: "inception_3b/pool"
  pooling_param {
    pool: MAX
    kernel_size: 3
    stride: 1
    pad: 1
  }
}
layer {
  name: "inception_3b/pool_proj"
  type: "Convolution"
  bottom: "inception_3b/pool"
  top: "inception_3b/pool_proj"
  param {
    lr_mult: 1
    decay_mult: 1
  }
  param {
    lr_mult: 2
    decay_mult: 0
  }
  convolution_param {
    num_output: 64
    kernel_size: 1
    weight_filler {
      type: "xavier"
    }
    bias_filler {
      type: "constant"
      value: 0.2
    }
  }
}
layer {
  name: "inception_3b/relu_pool_proj"
  type: "ReLU"
  bottom: "inception_3b/pool_proj"
  top: "inception_3b/pool_proj"
}
layer {
  name: "inception_3b/output"
  type: "Concat"
  bottom: "inception_3b/1x1"
  bottom: "inception_3b/3x3"
  bottom: "inception_3b/5x5"
  bottom: "inception_3b/pool_proj"
  top: "inception_3b/output"
}
layer {
  name: "pool3/3x3_s2"
  type: "Pooling"
  bottom: "inception_3b/output"
  top: "pool3/3x3_s2"
  pooling_param {
    pool: MAX
    kernel_size: 3
    stride: 2
  }
}
layer {
  name: "inception_4a/1x1"
  type: "Convolution"
  bottom: "pool3/3x3_s2"
  top: "inception_4a/1x1"
  param {
    lr_mult: 1
    decay_mult: 1
  }
  param {
    lr_mult: 2
    decay_mult: 0
  }
  convolution_param {
    num_output: 192
    kernel_size: 1
    weight_filler {
      type: "xavier"
    }
    bias_filler {
      type: "constant"
      value: 0.2
    }
  }
}
layer {
  name: "inception_4a/relu_1x1"
  type: "ReLU"
  bottom: "inception_4a/1x1"
  top: "inception_4a/1x1"
}
layer {
  name: "inception_4a/3x3_reduce"
  type: "Convolution"
  bottom: "pool3/3x3_s2"
  top: "inception_4a/3x3_reduce"
  param {
    lr_mult: 1
    decay_mult: 1
  }
  param {
    lr_mult: 2
    decay_mult: 0
  }
  convolution_param {
    num_output: 96
    kernel_size: 1
    weight_filler {
      type: "xavier"
    }
    bias_filler {
      type: "constant"
      value: 0.2
    }
  }
}
layer {
  name: "inception_4a/relu_3x3_reduce"
  type: "ReLU"
  bottom: "inception_4a/3x3_reduce"
  top: "inception_4a/3x3_reduce"
}
layer {
  name: "inception_4a/3x3"
  type: "Convolution"
  bottom: "inception_4a/3x3_reduce"
  top: "inception_4a/3x3"
  param {
    lr_mult: 1
    decay_mult: 1
  }
  param {
    lr_mult: 2
    decay_mult: 0
  }
  convolution_param {
    num_output: 208
    pad: 1
    kernel_size: 3
    weight_filler {
      type: "xavier"
    }
    bias_filler {
      type: "constant"
      value: 0.2
    }
  }
}
layer {
  name: "inception_4a/relu_3x3"
  type: "ReLU"
  bottom: "inception_4a/3x3"
  top: "inception_4a/3x3"
}
layer {
  name: "inception_4a/5x5_reduce"
  type: "Convolution"
  bottom: "pool3/3x3_s2"
  top: "inception_4a/5x5_reduce"
  param {
    lr_mult: 1
    decay_mult: 1
  }
  param {
    lr_mult: 2
    decay_mult: 0
  }
  convolution_param {
    num_output: 16
    kernel_size: 1
    weight_filler {
      type: "xavier"
    }
    bias_filler {
      type: "constant"
      value: 0.2
    }
  }
}
layer {
  name: "inception_4a/relu_5x5_reduce"
  type: "ReLU"
  bottom: "inception_4a/5x5_reduce"
  top: "inception_4a/5x5_reduce"
}
layer {
  name: "inception_4a/5x5"
  type: "Convolution"
  bottom: "inception_4a/5x5_reduce"
  top: "inception_4a/5x5"
  param {
    lr_mult: 1
    decay_mult: 1
  }
  param {
    lr_mult: 2
    decay_mult: 0
  }
  convolution_param {
    num_output: 48
    pad: 2
    kernel_size: 5
    weight_filler {
      type: "xavier"
    }
    bias_filler {
      type: "constant"
      value: 0.2
    }
  }
}
layer {
  name: "inception_4a/relu_5x5"
  type: "ReLU"
  bottom: "inception_4a/5x5"
  top: "inception_4a/5x5"
}
layer {
  name: "inception_4a/pool"
  type: "Pooling"
  bottom: "pool3/3x3_s2"
  top: "inception_4a/pool"
  pooling_param {
    pool: MAX
    kernel_size: 3
    stride: 1
    pad: 1
  }
}
layer {
  name: "inception_4a/pool_proj"
  type: "Convolution"
  bottom: "inception_4a/pool"
  top: "inception_4a/pool_proj"
  param {
    lr_mult: 1
    decay_mult: 1
  }
  param {
    lr_mult: 2
    decay_mult: 0
  }
  convolution_param {
    num_output: 64
    kernel_size: 1
    weight_filler {
      type: "xavier"
    }
    bias_filler {
      type: "constant"
      value: 0.2
    }
  }
}
layer {
  name: "inception_4a/relu_pool_proj"
  type: "ReLU"
  bottom: "inception_4a/pool_proj"
  top: "inception_4a/pool_proj"
}
layer {
  name: "inception_4a/output"
  type: "Concat"
  bottom: "inception_4a/1x1"
  bottom: "inception_4a/3x3"
  bottom: "inception_4a/5x5"
  bottom: "inception_4a/pool_proj"
  top: "inception_4a/output"
}
layer {
  name: "inception_4b/1x1"
  type: "Convolution"
  bottom: "inception_4a/output"
  top: "inception_4b/1x1"
  param {
    lr_mult: 1
    decay_mult: 1
  }
  param {
    lr_mult: 2
    decay_mult: 0
  }
  convolution_param {
    num_output: 160
    kernel_size: 1
    weight_filler {
      type: "xavier"
    }
    bias_filler {
      type: "constant"
      value: 0.2
    }
  }
}
layer {
  name: "inception_4b/relu_1x1"
  type: "ReLU"
  bottom: "inception_4b/1x1"
  top: "inception_4b/1x1"
}
layer {
  name: "inception_4b/3x3_reduce"
  type: "Convolution"
  bottom: "inception_4a/output"
  top: "inception_4b/3x3_reduce"
  param {
    lr_mult: 1
    decay_mult: 1
  }
  param {
    lr_mult: 2
    decay_mult: 0
  }
  convolution_param {
    num_output: 112
    kernel_size: 1
    weight_filler {
      type: "xavier"
    }
    bias_filler {
      type: "constant"
      value: 0.2
    }
  }
}
layer {
  name: "inception_4b/relu_3x3_reduce"
  type: "ReLU"
  bottom: "inception_4b/3x3_reduce"
  top: "inception_4b/3x3_reduce"
}
layer {
  name: "inception_4b/3x3"
  type: "Convolution"
  bottom: "inception_4b/3x3_reduce"
  top: "inception_4b/3x3"
  param {
    lr_mult: 1
    decay_mult: 1
  }
  param {
    lr_mult: 2
    decay_mult: 0
  }
  convolution_param {
    num_output: 224
    pad: 1
    kernel_size: 3
    weight_filler {
      type: "xavier"
    }
    bias_filler {
      type: "constant"
      value: 0.2
    }
  }
}
layer {
  name: "inception_4b/relu_3x3"
  type: "ReLU"
  bottom: "inception_4b/3x3"
  top: "inception_4b/3x3"
}
layer {
  name: "inception_4b/5x5_reduce"
  type: "Convolution"
  bottom: "inception_4a/output"
  top: "inception_4b/5x5_reduce"
  param {
    lr_mult: 1
    decay_mult: 1
  }
  param {
    lr_mult: 2
    decay_mult: 0
  }
  convolution_param {
    num_output: 24
    kernel_size: 1
    weight_filler {
      type: "xavier"
    }
    bias_filler {
      type: "constant"
      value: 0.2
    }
  }
}
layer {
  name: "inception_4b/relu_5x5_reduce"
  type: "ReLU"
  bottom: "inception_4b/5x5_reduce"
  top: "inception_4b/5x5_reduce"
}
layer {
  name: "inception_4b/5x5"
  type: "Convolution"
  bottom: "inception_4b/5x5_reduce"
  top: "inception_4b/5x5"
  param {
    lr_mult: 1
    decay_mult: 1
  }
  param {
    lr_mult: 2
    decay_mult: 0
  }
  convolution_param {
    num_output: 64
    pad: 2
    kernel_size: 5
    weight_filler {
      type: "xavier"
    }
    bias_filler {
      type: "constant"
      value: 0.2
    }
  }
}
layer {
  name: "inception_4b/relu_5x5"
  type: "ReLU"
  bottom: "inception_4b/5x5"
  top: "inception_4b/5x5"
}
layer {
  name: "inception_4b/pool"
  type: "Pooling"
  bottom: "inception_4a/output"
  top: "inception_4b/pool"
  pooling_param {
    pool: MAX
    kernel_size: 3
    stride: 1
    pad: 1
  }
}
layer {
  name: "inception_4b/pool_proj"
  type: "Convolution"
  bottom: "inception_4b/pool"
  top: "inception_4b/pool_proj"
  param {
    lr_mult: 1
    decay_mult: 1
  }
  param {
    lr_mult: 2
    decay_mult: 0
  }
  convolution_param {
    num_output: 64
    kernel_size: 1
    weight_filler {
      type: "xavier"
    }
    bias_filler {
      type: "constant"
      value: 0.2
    }
  }
}
layer {
  name: "inception_4b/relu_pool_proj"
  type: "ReLU"
  bottom: "inception_4b/pool_proj"
  top: "inception_4b/pool_proj"
}
layer {
  name: "inception_4b/output"
  type: "Concat"
  bottom: "inception_4b/1x1"
  bottom: "inception_4b/3x3"
  bottom: "inception_4b/5x5"
  bottom: "inception_4b/pool_proj"
  top: "inception_4b/output"
}
layer {
  name: "inception_4c/1x1"
  type: "Convolution"
  bottom: "inception_4b/output"
  top: "inception_4c/1x1"
  param {
    lr_mult: 1
    decay_mult: 1
  }
  param {
    lr_mult: 2
    decay_mult: 0
  }
  convolution_param {
    num_output: 128
    kernel_size: 1
    weight_filler {
      type: "xavier"
    }
    bias_filler {
      type: "constant"
      value: 0.2
    }
  }
}
layer {
  name: "inception_4c/relu_1x1"
  type: "ReLU"
  bottom: "inception_4c/1x1"
  top: "inception_4c/1x1"
}
layer {
  name: "inception_4c/3x3_reduce"
  type: "Convolution"
  bottom: "inception_4b/output"
  top: "inception_4c/3x3_reduce"
  param {
    lr_mult: 1
    decay_mult: 1
  }
  param {
    lr_mult: 2
    decay_mult: 0
  }
  convolution_param {
    num_output: 128
    kernel_size: 1
    weight_filler {
      type: "xavier"
    }
    bias_filler {
      type: "constant"
      value: 0.2
    }
  }
}
layer {
  name: "inception_4c/relu_3x3_reduce"
  type: "ReLU"
  bottom: "inception_4c/3x3_reduce"
  top: "inception_4c/3x3_reduce"
}
layer {
  name: "inception_4c/3x3"
  type: "Convolution"
  bottom: "inception_4c/3x3_reduce"
  top: "inception_4c/3x3"
  param {
    lr_mult: 1
    decay_mult: 1
  }
  param {
    lr_mult: 2
    decay_mult: 0
  }
  convolution_param {
    num_output: 256
    pad: 1
    kernel_size: 3
    weight_filler {
      type: "xavier"
    }
    bias_filler {
      type: "constant"
      value: 0.2
    }
  }
}
layer {
  name: "inception_4c/relu_3x3"
  type: "ReLU"
  bottom: "inception_4c/3x3"
  top: "inception_4c/3x3"
}
layer {
  name: "inception_4c/5x5_reduce"
  type: "Convolution"
  bottom: "inception_4b/output"
  top: "inception_4c/5x5_reduce"
  param {
    lr_mult: 1
    decay_mult: 1
  }
  param {
    lr_mult: 2
    decay_mult: 0
  }
  convolution_param {
    num_output: 24
    kernel_size: 1
    weight_filler {
      type: "xavier"
    }
    bias_filler {
      type: "constant"
      value: 0.2
    }
  }
}
layer {
  name: "inception_4c/relu_5x5_reduce"
  type: "ReLU"
  bottom: "inception_4c/5x5_reduce"
  top: "inception_4c/5x5_reduce"
}
layer {
  name: "inception_4c/5x5"
  type: "Convolution"
  bottom: "inception_4c/5x5_reduce"
  top: "inception_4c/5x5"
  param {
    lr_mult: 1
    decay_mult: 1
  }
  param {
    lr_mult: 2
    decay_mult: 0
  }
  convolution_param {
    num_output: 64
    pad: 2
    kernel_size: 5
    weight_filler {
      type: "xavier"
    }
    bias_filler {
      type: "constant"
      value: 0.2
    }
  }
}
layer {
  name: "inception_4c/relu_5x5"
  type: "ReLU"
  bottom: "inception_4c/5x5"
  top: "inception_4c/5x5"
}
layer {
  name: "inception_4c/pool"
  type: "Pooling"
  bottom: "inception_4b/output"
  top: "inception_4c/pool"
  pooling_param {
    pool: MAX
    kernel_size: 3
    stride: 1
    pad: 1
  }
}
layer {
  name: "inception_4c/pool_proj"
  type: "Convolution"
  bottom: "inception_4c/pool"
  top: "inception_4c/pool_proj"
  param {
    lr_mult: 1
    decay_mult: 1
  }
  param {
    lr_mult: 2
    decay_mult: 0
  }
  convolution_param {
    num_output: 64
    kernel_size: 1
    weight_filler {
      type: "xavier"
    }
    bias_filler {
      type: "constant"
      value: 0.2
    }
  }
}
layer {
  name: "inception_4c/relu_pool_proj"
  type: "ReLU"
  bottom: "inception_4c/pool_proj"
  top: "inception_4c/pool_proj"
}
layer {
  name: "inception_4c/output"
  type: "Concat"
  bottom: "inception_4c/1x1"
  bottom: "inception_4c/3x3"
  bottom: "inception_4c/5x5"
  bottom: "inception_4c/pool_proj"
  top: "inception_4c/output"
}
layer {
  name: "inception_4d/1x1"
  type: "Convolution"
  bottom: "inception_4c/output"
  top: "inception_4d/1x1"
  param {
    lr_mult: 1
    decay_mult: 1
  }
  param {
    lr_mult: 2
    decay_mult: 0
  }
  convolution_param {
    num_output: 112
    kernel_size: 1
    weight_filler {
      type: "xavier"
    }
    bias_filler {
      type: "constant"
      value: 0.2
    }
  }
}
layer {
  name: "inception_4d/relu_1x1"
  type: "ReLU"
  bottom: "inception_4d/1x1"
  top: "inception_4d/1x1"
}
layer {
  name: "inception_4d/3x3_reduce"
  type: "Convolution"
  bottom: "inception_4c/output"
  top: "inception_4d/3x3_reduce"
  param {
    lr_mult: 1
    decay_mult: 1
  }
  param {
    lr_mult: 2
    decay_mult: 0
  }
  convolution_param {
    num_output: 144
    kernel_size: 1
    weight_filler {
      type: "xavier"
    }
    bias_filler {
      type: "constant"
      value: 0.2
    }
  }
}
layer {
  name: "inception_4d/relu_3x3_reduce"
  type: "ReLU"
  bottom: "inception_4d/3x3_reduce"
  top: "inception_4d/3x3_reduce"
}
layer {
  name: "inception_4d/3x3"
  type: "Convolution"
  bottom: "inception_4d/3x3_reduce"
  top: "inception_4d/3x3"
  param {
    lr_mult: 1
    decay_mult: 1
  }
  param {
    lr_mult: 2
    decay_mult: 0
  }
  convolution_param {
    num_output: 288
    pad: 1
    kernel_size: 3
    weight_filler {
      type: "xavier"
    }
    bias_filler {
      type: "constant"
      value: 0.2
    }
  }
}
layer {
  name: "inception_4d/relu_3x3"
  type: "ReLU"
  bottom: "inception_4d/3x3"
  top: "inception_4d/3x3"
}
layer {
  name: "inception_4d/5x5_reduce"
  type: "Convolution"
  bottom: "inception_4c/output"
  top: "inception_4d/5x5_reduce"
  param {
    lr_mult: 1
    decay_mult: 1
  }
  param {
    lr_mult: 2
    decay_mult: 0
  }
  convolution_param {
    num_output: 32
    kernel_size: 1
    weight_filler {
      type: "xavier"
    }
    bias_filler {
      type: "constant"
      value: 0.2
    }
  }
}
layer {
  name: "inception_4d/relu_5x5_reduce"
  type: "ReLU"
  bottom: "inception_4d/5x5_reduce"
  top: "inception_4d/5x5_reduce"
}
layer {
  name: "inception_4d/5x5"
  type: "Convolution"
  bottom: "inception_4d/5x5_reduce"
  top: "inception_4d/5x5"
  param {
    lr_mult: 1
    decay_mult: 1
  }
  param {
    lr_mult: 2
    decay_mult: 0
  }
  convolution_param {
    num_output: 64
    pad: 2
    kernel_size: 5
    weight_filler {
      type: "xavier"
    }
    bias_filler {
      type: "constant"
      value: 0.2
    }
  }
}
layer {
  name: "inception_4d/relu_5x5"
  type: "ReLU"
  bottom: "inception_4d/5x5"
  top: "inception_4d/5x5"
}
layer {
  name: "inception_4d/pool"
  type: "Pooling"
  bottom: "inception_4c/output"
  top: "inception_4d/pool"
  pooling_param {
    pool: MAX
    kernel_size: 3
    stride: 1
    pad: 1
  }
}
layer {
  name: "inception_4d/pool_proj"
  type: "Convolution"
  bottom: "inception_4d/pool"
  top: "inception_4d/pool_proj"
  param {
    lr_mult: 1
    decay_mult: 1
  }
  param {
    lr_mult: 2
    decay_mult: 0
  }
  convolution_param {
    num_output: 64
    kernel_size: 1
    weight_filler {
      type: "xavier"
    }
    bias_filler {
      type: "constant"
      value: 0.2
    }
  }
}
layer {
  name: "inception_4d/relu_pool_proj"
  type: "ReLU"
  bottom: "inception_4d/pool_proj"
  top: "inception_4d/pool_proj"
}
layer {
  name: "inception_4d/output"
  type: "Concat"
  bottom: "inception_4d/1x1"
  bottom: "inception_4d/3x3"
  bottom: "inception_4d/5x5"
  bottom: "inception_4d/pool_proj"
  top: "inception_4d/output"
}
layer {
  name: "inception_4e/1x1"
  type: "Convolution"
  bottom: "inception_4d/output"
  top: "inception_4e/1x1"
  param {
    lr_mult: 1
    decay_mult: 1
  }
  param {
    lr_mult: 2
    decay_mult: 0
  }
  convolution_param {
    num_output: 256
    kernel_size: 1
    weight_filler {
      type: "xavier"
    }
    bias_filler {
      type: "constant"
      value: 0.2
    }
  }
}
layer {
  name: "inception_4e/relu_1x1"
  type: "ReLU"
  bottom: "inception_4e/1x1"
  top: "inception_4e/1x1"
}
layer {
  name: "inception_4e/3x3_reduce"
  type: "Convolution"
  bottom: "inception_4d/output"
  top: "inception_4e/3x3_reduce"
  param {
    lr_mult: 1
    decay_mult: 1
  }
  param {
    lr_mult: 2
    decay_mult: 0
  }
  convolution_param {
    num_output: 160
    kernel_size: 1
    weight_filler {
      type: "xavier"
    }
    bias_filler {
      type: "constant"
      value: 0.2
    }
  }
}
layer {
  name: "inception_4e/relu_3x3_reduce"
  type: "ReLU"
  bottom: "inception_4e/3x3_reduce"
  top: "inception_4e/3x3_reduce"
}
layer {
  name: "inception_4e/3x3"
  type: "Convolution"
  bottom: "inception_4e/3x3_reduce"
  top: "inception_4e/3x3"
  param {
    lr_mult: 1
    decay_mult: 1
  }
  param {
    lr_mult: 2
    decay_mult: 0
  }
  convolution_param {
    num_output: 320
    pad: 1
    kernel_size: 3
    weight_filler {
      type: "xavier"
    }
    bias_filler {
      type: "constant"
      value: 0.2
    }
  }
}
layer {
  name: "inception_4e/relu_3x3"
  type: "ReLU"
  bottom: "inception_4e/3x3"
  top: "inception_4e/3x3"
}
layer {
  name: "inception_4e/5x5_reduce"
  type: "Convolution"
  bottom: "inception_4d/output"
  top: "inception_4e/5x5_reduce"
  param {
    lr_mult: 1
    decay_mult: 1
  }
  param {
    lr_mult: 2
    decay_mult: 0
  }
  convolution_param {
    num_output: 32
    kernel_size: 1
    weight_filler {
      type: "xavier"
    }
    bias_filler {
      type: "constant"
      value: 0.2
    }
  }
}
layer {
  name: "inception_4e/relu_5x5_reduce"
  type: "ReLU"
  bottom: "inception_4e/5x5_reduce"
  top: "inception_4e/5x5_reduce"
}
layer {
  name: "inception_4e/5x5"
  type: "Convolution"
  bottom: "inception_4e/5x5_reduce"
  top: "inception_4e/5x5"
  param {
    lr_mult: 1
    decay_mult: 1
  }
  param {
    lr_mult: 2
    decay_mult: 0
  }
  convolution_param {
    num_output: 128
    pad: 2
    kernel_size: 5
    weight_filler {
      type: "xavier"
    }
    bias_filler {
      type: "constant"
      value: 0.2
    }
  }
}
layer {
  name: "inception_4e/relu_5x5"
  type: "ReLU"
  bottom: "inception_4e/5x5"
  top: "inception_4e/5x5"
}
layer {
  name: "inception_4e/pool"
  type: "Pooling"
  bottom: "inception_4d/output"
  top: "inception_4e/pool"
  pooling_param {
    pool: MAX
    kernel_size: 3
    stride: 1
    pad: 1
  }
}
layer {
  name: "inception_4e/pool_proj"
  type: "Convolution"
  bottom: "inception_4e/pool"
  top: "inception_4e/pool_proj"
  param {
    lr_mult: 1
    decay_mult: 1
  }
  param {
    lr_mult: 2
    decay_mult: 0
  }
  convolution_param {
    num_output: 128
    kernel_size: 1
    weight_filler {
      type: "xavier"
    }
    bias_filler {
      type: "constant"
      value: 0.2
    }
  }
}
layer {
  name: "inception_4e/relu_pool_proj"
  type: "ReLU"
  bottom: "inception_4e/pool_proj"
  top: "inception_4e/pool_proj"
}
layer {
  name: "inception_4e/output"
  type: "Concat"
  bottom: "inception_4e/1x1"
  bottom: "inception_4e/3x3"
  bottom: "inception_4e/5x5"
  bottom: "inception_4e/pool_proj"
  top: "inception_4e/output"
}
layer {
  name: "pool4/3x3_s2"
  type: "Pooling"
  bottom: "inception_4e/output"
  top: "pool4/3x3_s2"
  pooling_param {
    pool: MAX
    kernel_size: 3
    stride: 2
  }
}
layer {
  name: "inception_5a/1x1"
  type: "Convolution"
  bottom: "pool4/3x3_s2"
  top: "inception_5a/1x1"
  param {
    lr_mult: 1
    decay_mult: 1
  }
  param {
    lr_mult: 2
    decay_mult: 0
  }
  convolution_param {
    num_output: 256
    kernel_size: 1
    weight_filler {
      type: "xavier"
    }
    bias_filler {
      type: "constant"
      value: 0.2
    }
  }
}
layer {
  name: "inception_5a/relu_1x1"
  type: "ReLU"
  bottom: "inception_5a/1x1"
  top: "inception_5a/1x1"
}
layer {
  name: "inception_5a/3x3_reduce"
  type: "Convolution"
  bottom: "pool4/3x3_s2"
  top: "inception_5a/3x3_reduce"
  param {
    lr_mult: 1
    decay_mult: 1
  }
  param {
    lr_mult: 2
    decay_mult: 0
  }
  convolution_param {
    num_output: 160
    kernel_size: 1
    weight_filler {
      type: "xavier"
    }
    bias_filler {
      type: "constant"
      value: 0.2
    }
  }
}
layer {
  name: "inception_5a/relu_3x3_reduce"
  type: "ReLU"
  bottom: "inception_5a/3x3_reduce"
  top: "inception_5a/3x3_reduce"
}
layer {
  name: "inception_5a/3x3"
  type: "Convolution"
  bottom: "inception_5a/3x3_reduce"
  top: "inception_5a/3x3"
  param {
    lr_mult: 1
    decay_mult: 1
  }
  param {
    lr_mult: 2
    decay_mult: 0
  }
  convolution_param {
    num_output: 320
    pad: 1
    kernel_size: 3
    weight_filler {
      type: "xavier"
    }
    bias_filler {
      type: "constant"
      value: 0.2
    }
  }
}
layer {
  name: "inception_5a/relu_3x3"
  type: "ReLU"
  bottom: "inception_5a/3x3"
  top: "inception_5a/3x3"
}
layer {
  name: "inception_5a/5x5_reduce"
  type: "Convolution"
  bottom: "pool4/3x3_s2"
  top: "inception_5a/5x5_reduce"
  param {
    lr_mult: 1
    decay_mult: 1
  }
  param {
    lr_mult: 2
    decay_mult: 0
  }
  convolution_param {
    num_output: 32
    kernel_size: 1
    weight_filler {
      type: "xavier"
    }
    bias_filler {
      type: "constant"
      value: 0.2
    }
  }
}
layer {
  name: "inception_5a/relu_5x5_reduce"
  type: "ReLU"
  bottom: "inception_5a/5x5_reduce"
  top: "inception_5a/5x5_reduce"
}
layer {
  name: "inception_5a/5x5"
  type: "Convolution"
  bottom: "inception_5a/5x5_reduce"
  top: "inception_5a/5x5"
  param {
    lr_mult: 1
    decay_mult: 1
  }
  param {
    lr_mult: 2
    decay_mult: 0
  }
  convolution_param {
    num_output: 128
    pad: 2
    kernel_size: 5
    weight_filler {
      type: "xavier"
    }
    bias_filler {
      type: "constant"
      value: 0.2
    }
  }
}
layer {
  name: "inception_5a/relu_5x5"
  type: "ReLU"
  bottom: "inception_5a/5x5"
  top: "inception_5a/5x5"
}
layer {
  name: "inception_5a/
I0322 11:00:55.851749  4785 layer_factory.hpp:77] Creating layer data
I0322 11:00:56.033589  4785 net.cpp:84] Creating Layer data
I0322 11:00:56.033649  4785 net.cpp:380] data -> data
I0322 11:00:56.033671  4785 net.cpp:380] data -> sem
I0322 11:00:58.461853  4785 net.cpp:122] Setting up data
I0322 11:00:58.461913  4785 net.cpp:129] Top shape: 1 3 640 368 (706560)
I0322 11:00:58.461925  4785 net.cpp:129] Top shape: 1 1 640 368 (235520)
I0322 11:00:58.461930  4785 net.cpp:137] Memory required for data: 3768320
I0322 11:00:58.461941  4785 layer_factory.hpp:77] Creating layer data_data_0_split
I0322 11:00:58.462399  4785 net.cpp:84] Creating Layer data_data_0_split
I0322 11:00:58.462414  4785 net.cpp:406] data_data_0_split <- data
I0322 11:00:58.462425  4785 net.cpp:380] data_data_0_split -> data_data_0_split_0
I0322 11:00:58.462443  4785 net.cpp:380] data_data_0_split -> data_data_0_split_1
I0322 11:00:58.462509  4785 net.cpp:122] Setting up data_data_0_split
I0322 11:00:58.462528  4785 net.cpp:129] Top shape: 1 3 640 368 (706560)
I0322 11:00:58.462537  4785 net.cpp:129] Top shape: 1 3 640 368 (706560)
I0322 11:00:58.462543  4785 net.cpp:137] Memory required for data: 9420800
I0322 11:00:58.462548  4785 layer_factory.hpp:77] Creating layer conv1/7x7_s2
I0322 11:00:58.462570  4785 net.cpp:84] Creating Layer conv1/7x7_s2
I0322 11:00:58.462576  4785 net.cpp:406] conv1/7x7_s2 <- data_data_0_split_0
I0322 11:00:58.462585  4785 net.cpp:380] conv1/7x7_s2 -> conv1/7x7_s2
I0322 11:00:59.127229  4785 net.cpp:122] Setting up conv1/7x7_s2
I0322 11:00:59.127279  4785 net.cpp:129] Top shape: 1 64 326 190 (3964160)
I0322 11:00:59.127287  4785 net.cpp:137] Memory required for data: 25277440
I0322 11:00:59.127310  4785 layer_factory.hpp:77] Creating layer conv1/relu_7x7
I0322 11:00:59.127327  4785 net.cpp:84] Creating Layer conv1/relu_7x7
I0322 11:00:59.127336  4785 net.cpp:406] conv1/relu_7x7 <- conv1/7x7_s2
I0322 11:00:59.127344  4785 net.cpp:367] conv1/relu_7x7 -> conv1/7x7_s2 (in-place)
I0322 11:00:59.128983  4785 net.cpp:122] Setting up conv1/relu_7x7
I0322 11:00:59.129009  4785 net.cpp:129] Top shape: 1 64 326 190 (3964160)
I0322 11:00:59.129016  4785 net.cpp:137] Memory required for data: 41134080
I0322 11:00:59.129024  4785 layer_factory.hpp:77] Creating layer pool1/3x3_s2
I0322 11:00:59.129039  4785 net.cpp:84] Creating Layer pool1/3x3_s2
I0322 11:00:59.129045  4785 net.cpp:406] pool1/3x3_s2 <- conv1/7x7_s2
I0322 11:00:59.129055  4785 net.cpp:380] pool1/3x3_s2 -> pool1/3x3_s2
I0322 11:00:59.129158  4785 net.cpp:122] Setting up pool1/3x3_s2
I0322 11:00:59.129173  4785 net.cpp:129] Top shape: 1 64 163 95 (991040)
I0322 11:00:59.129179  4785 net.cpp:137] Memory required for data: 45098240
I0322 11:00:59.129184  4785 layer_factory.hpp:77] Creating layer pool1/norm1
I0322 11:00:59.129199  4785 net.cpp:84] Creating Layer pool1/norm1
I0322 11:00:59.129206  4785 net.cpp:406] pool1/norm1 <- pool1/3x3_s2
I0322 11:00:59.129215  4785 net.cpp:380] pool1/norm1 -> pool1/norm1
I0322 11:00:59.129544  4785 net.cpp:122] Setting up pool1/norm1
I0322 11:00:59.129565  4785 net.cpp:129] Top shape: 1 64 163 95 (991040)
I0322 11:00:59.129570  4785 net.cpp:137] Memory required for data: 49062400
I0322 11:00:59.129576  4785 layer_factory.hpp:77] Creating layer conv2/3x3_reduce
I0322 11:00:59.129595  4785 net.cpp:84] Creating Layer conv2/3x3_reduce
I0322 11:00:59.129601  4785 net.cpp:406] conv2/3x3_reduce <- pool1/norm1
I0322 11:00:59.129611  4785 net.cpp:380] conv2/3x3_reduce -> conv2/3x3_reduce
I0322 11:00:59.133586  4785 net.cpp:122] Setting up conv2/3x3_reduce
I0322 11:00:59.133621  4785 net.cpp:129] Top shape: 1 64 163 95 (991040)
I0322 11:00:59.133631  4785 net.cpp:137] Memory required for data: 53026560
I0322 11:00:59.133651  4785 layer_factory.hpp:77] Creating layer conv2/relu_3x3_reduce
I0322 11:00:59.133666  4785 net.cpp:84] Creating Layer conv2/relu_3x3_reduce
I0322 11:00:59.133674  4785 net.cpp:406] conv2/relu_3x3_reduce <- conv2/3x3_reduce
I0322 11:00:59.133685  4785 net.cpp:367] conv2/relu_3x3_reduce -> conv2/3x3_reduce (in-place)
I0322 11:00:59.133992  4785 net.cpp:122] Setting up conv2/relu_3x3_reduce
I0322 11:00:59.134009  4785 net.cpp:129] Top shape: 1 64 163 95 (991040)
I0322 11:00:59.134016  4785 net.cpp:137] Memory required for data: 56990720
I0322 11:00:59.134021  4785 layer_factory.hpp:77] Creating layer conv2/3x3
I0322 11:00:59.134038  4785 net.cpp:84] Creating Layer conv2/3x3
I0322 11:00:59.134044  4785 net.cpp:406] conv2/3x3 <- conv2/3x3_reduce
I0322 11:00:59.134054  4785 net.cpp:380] conv2/3x3 -> conv2/3x3
I0322 11:00:59.140030  4785 net.cpp:122] Setting up conv2/3x3
I0322 11:00:59.140059  4785 net.cpp:129] Top shape: 1 192 163 95 (2973120)
I0322 11:00:59.140066  4785 net.cpp:137] Memory required for data: 68883200
I0322 11:00:59.140082  4785 layer_factory.hpp:77] Creating layer conv2/relu_3x3
I0322 11:00:59.140094  4785 net.cpp:84] Creating Layer conv2/relu_3x3
I0322 11:00:59.140100  4785 net.cpp:406] conv2/relu_3x3 <- conv2/3x3
I0322 11:00:59.140107  4785 net.cpp:367] conv2/relu_3x3 -> conv2/3x3 (in-place)
I0322 11:00:59.140411  4785 net.cpp:122] Setting up conv2/relu_3x3
I0322 11:00:59.140432  4785 net.cpp:129] Top shape: 1 192 163 95 (2973120)
I0322 11:00:59.140439  4785 net.cpp:137] Memory required for data: 80775680
I0322 11:00:59.140445  4785 layer_factory.hpp:77] Creating layer conv2/norm2
I0322 11:00:59.140456  4785 net.cpp:84] Creating Layer conv2/norm2
I0322 11:00:59.140462  4785 net.cpp:406] conv2/norm2 <- conv2/3x3
I0322 11:00:59.140470  4785 net.cpp:380] conv2/norm2 -> conv2/norm2
I0322 11:00:59.140770  4785 net.cpp:122] Setting up conv2/norm2
I0322 11:00:59.140787  4785 net.cpp:129] Top shape: 1 192 163 95 (2973120)
I0322 11:00:59.140794  4785 net.cpp:137] Memory required for data: 92668160
I0322 11:00:59.140799  4785 layer_factory.hpp:77] Creating layer pool2/3x3_s2
I0322 11:00:59.140810  4785 net.cpp:84] Creating Layer pool2/3x3_s2
I0322 11:00:59.140815  4785 net.cpp:406] pool2/3x3_s2 <- conv2/norm2
I0322 11:00:59.140825  4785 net.cpp:380] pool2/3x3_s2 -> pool2/3x3_s2
I0322 11:00:59.140877  4785 net.cpp:122] Setting up pool2/3x3_s2
I0322 11:00:59.140888  4785 net.cpp:129] Top shape: 1 192 81 47 (730944)
I0322 11:00:59.140893  4785 net.cpp:137] Memory required for data: 95591936
I0322 11:00:59.140898  4785 layer_factory.hpp:77] Creating layer pool2/3x3_s2_pool2/3x3_s2_0_split
I0322 11:00:59.140908  4785 net.cpp:84] Creating Layer pool2/3x3_s2_pool2/3x3_s2_0_split
I0322 11:00:59.140913  4785 net.cpp:406] pool2/3x3_s2_pool2/3x3_s2_0_split <- pool2/3x3_s2
I0322 11:00:59.140921  4785 net.cpp:380] pool2/3x3_s2_pool2/3x3_s2_0_split -> pool2/3x3_s2_pool2/3x3_s2_0_split_0
I0322 11:00:59.140931  4785 net.cpp:380] pool2/3x3_s2_pool2/3x3_s2_0_split -> pool2/3x3_s2_pool2/3x3_s2_0_split_1
I0322 11:00:59.140943  4785 net.cpp:380] pool2/3x3_s2_pool2/3x3_s2_0_split -> pool2/3x3_s2_pool2/3x3_s2_0_split_2
I0322 11:00:59.140951  4785 net.cpp:380] pool2/3x3_s2_pool2/3x3_s2_0_split -> pool2/3x3_s2_pool2/3x3_s2_0_split_3
I0322 11:00:59.141029  4785 net.cpp:122] Setting up pool2/3x3_s2_pool2/3x3_s2_0_split
I0322 11:00:59.141041  4785 net.cpp:129] Top shape: 1 192 81 47 (730944)
I0322 11:00:59.141047  4785 net.cpp:129] Top shape: 1 192 81 47 (730944)
I0322 11:00:59.141053  4785 net.cpp:129] Top shape: 1 192 81 47 (730944)
I0322 11:00:59.141059  4785 net.cpp:129] Top shape: 1 192 81 47 (730944)
I0322 11:00:59.141063  4785 net.cpp:137] Memory required for data: 107287040
I0322 11:00:59.141069  4785 layer_factory.hpp:77] Creating layer inception_3a/1x1
I0322 11:00:59.141083  4785 net.cpp:84] Creating Layer inception_3a/1x1
I0322 11:00:59.141088  4785 net.cpp:406] inception_3a/1x1 <- pool2/3x3_s2_pool2/3x3_s2_0_split_0
I0322 11:00:59.141098  4785 net.cpp:380] inception_3a/1x1 -> inception_3a/1x1
I0322 11:00:59.144729  4785 net.cpp:122] Setting up inception_3a/1x1
I0322 11:00:59.144757  4785 net.cpp:129] Top shape: 1 64 81 47 (243648)
I0322 11:00:59.144764  4785 net.cpp:137] Memory required for data: 108261632
I0322 11:00:59.144776  4785 layer_factory.hpp:77] Creating layer inception_3a/relu_1x1
I0322 11:00:59.144788  4785 net.cpp:84] Creating Layer inception_3a/relu_1x1
I0322 11:00:59.144794  4785 net.cpp:406] inception_3a/relu_1x1 <- inception_3a/1x1
I0322 11:00:59.144804  4785 net.cpp:367] inception_3a/relu_1x1 -> inception_3a/1x1 (in-place)
I0322 11:00:59.146078  4785 net.cpp:122] Setting up inception_3a/relu_1x1
I0322 11:00:59.146105  4785 net.cpp:129] Top shape: 1 64 81 47 (243648)
I0322 11:00:59.146111  4785 net.cpp:137] Memory required for data: 109236224
I0322 11:00:59.146117  4785 layer_factory.hpp:77] Creating layer inception_3a/3x3_reduce
I0322 11:00:59.146134  4785 net.cpp:84] Creating Layer inception_3a/3x3_reduce
I0322 11:00:59.146140  4785 net.cpp:406] inception_3a/3x3_reduce <- pool2/3x3_s2_pool2/3x3_s2_0_split_1
I0322 11:00:59.146152  4785 net.cpp:380] inception_3a/3x3_reduce -> inception_3a/3x3_reduce
I0322 11:00:59.147603  4785 net.cpp:122] Setting up inception_3a/3x3_reduce
I0322 11:00:59.147625  4785 net.cpp:129] Top shape: 1 96 81 47 (365472)
I0322 11:00:59.147631  4785 net.cpp:137] Memory required for data: 110698112
I0322 11:00:59.147650  4785 layer_factory.hpp:77] Creating layer inception_3a/relu_3x3_reduce
I0322 11:00:59.147661  4785 net.cpp:84] Creating Layer inception_3a/relu_3x3_reduce
I0322 11:00:59.147668  4785 net.cpp:406] inception_3a/relu_3x3_reduce <- inception_3a/3x3_reduce
I0322 11:00:59.147676  4785 net.cpp:367] inception_3a/relu_3x3_reduce -> inception_3a/3x3_reduce (in-place)
I0322 11:00:59.148985  4785 net.cpp:122] Setting up inception_3a/relu_3x3_reduce
I0322 11:00:59.149013  4785 net.cpp:129] Top shape: 1 96 81 47 (365472)
I0322 11:00:59.149020  4785 net.cpp:137] Memory required for data: 112160000
I0322 11:00:59.149026  4785 layer_factory.hpp:77] Creating layer inception_3a/3x3
I0322 11:00:59.149044  4785 net.cpp:84] Creating Layer inception_3a/3x3
I0322 11:00:59.149051  4785 net.cpp:406] inception_3a/3x3 <- inception_3a/3x3_reduce
I0322 11:00:59.149061  4785 net.cpp:380] inception_3a/3x3 -> inception_3a/3x3
I0322 11:00:59.153343  4785 net.cpp:122] Setting up inception_3a/3x3
I0322 11:00:59.153370  4785 net.cpp:129] Top shape: 1 128 81 47 (487296)
I0322 11:00:59.153378  4785 net.cpp:137] Memory required for data: 114109184
I0322 11:00:59.153389  4785 layer_factory.hpp:77] Creating layer inception_3a/relu_3x3
I0322 11:00:59.153399  4785 net.cpp:84] Creating Layer inception_3a/relu_3x3
I0322 11:00:59.153406  4785 net.cpp:406] inception_3a/relu_3x3 <- inception_3a/3x3
I0322 11:00:59.153417  4785 net.cpp:367] inception_3a/relu_3x3 -> inception_3a/3x3 (in-place)
I0322 11:00:59.153725  4785 net.cpp:122] Setting up inception_3a/relu_3x3
I0322 11:00:59.153743  4785 net.cpp:129] Top shape: 1 128 81 47 (487296)
I0322 11:00:59.153748  4785 net.cpp:137] Memory required for data: 116058368
I0322 11:00:59.153754  4785 layer_factory.hpp:77] Creating layer inception_3a/5x5_reduce
I0322 11:00:59.153772  4785 net.cpp:84] Creating Layer inception_3a/5x5_reduce
I0322 11:00:59.153779  4785 net.cpp:406] inception_3a/5x5_reduce <- pool2/3x3_s2_pool2/3x3_s2_0_split_2
I0322 11:00:59.153791  4785 net.cpp:380] inception_3a/5x5_reduce -> inception_3a/5x5_reduce
I0322 11:00:59.156136  4785 net.cpp:122] Setting up inception_3a/5x5_reduce
I0322 11:00:59.156163  4785 net.cpp:129] Top shape: 1 16 81 47 (60912)
I0322 11:00:59.156169  4785 net.cpp:137] Memory required for data: 116302016
I0322 11:00:59.156180  4785 layer_factory.hpp:77] Creating layer inception_3a/relu_5x5_reduce
I0322 11:00:59.156191  4785 net.cpp:84] Creating Layer inception_3a/relu_5x5_reduce
I0322 11:00:59.156198  4785 net.cpp:406] inception_3a/relu_5x5_reduce <- inception_3a/5x5_reduce
I0322 11:00:59.156209  4785 net.cpp:367] inception_3a/relu_5x5_reduce -> inception_3a/5x5_reduce (in-place)
I0322 11:00:59.156508  4785 net.cpp:122] Setting up inception_3a/relu_5x5_reduce
I0322 11:00:59.156527  4785 net.cpp:129] Top shape: 1 16 81 47 (60912)
I0322 11:00:59.156533  4785 net.cpp:137] Memory required for data: 116545664
I0322 11:00:59.156538  4785 layer_factory.hpp:77] Creating layer inception_3a/5x5
I0322 11:00:59.156555  4785 net.cpp:84] Creating Layer inception_3a/5x5
I0322 11:00:59.156563  4785 net.cpp:406] inception_3a/5x5 <- inception_3a/5x5_reduce
I0322 11:00:59.156574  4785 net.cpp:380] inception_3a/5x5 -> inception_3a/5x5
I0322 11:00:59.158998  4785 net.cpp:122] Setting up inception_3a/5x5
I0322 11:00:59.159026  4785 net.cpp:129] Top shape: 1 32 81 47 (121824)
I0322 11:00:59.159032  4785 net.cpp:137] Memory required for data: 117032960
I0322 11:00:59.159044  4785 layer_factory.hpp:77] Creating layer inception_3a/relu_5x5
I0322 11:00:59.159056  4785 net.cpp:84] Creating Layer inception_3a/relu_5x5
I0322 11:00:59.159063  4785 net.cpp:406] inception_3a/relu_5x5 <- inception_3a/5x5
I0322 11:00:59.159072  4785 net.cpp:367] inception_3a/relu_5x5 -> inception_3a/5x5 (in-place)
I0322 11:00:59.159361  4785 net.cpp:122] Setting up inception_3a/relu_5x5
I0322 11:00:59.159379  4785 net.cpp:129] Top shape: 1 32 81 47 (121824)
I0322 11:00:59.159384  4785 net.cpp:137] Memory required for data: 117520256
I0322 11:00:59.159390  4785 layer_factory.hpp:77] Creating layer inception_3a/pool
I0322 11:00:59.159402  4785 net.cpp:84] Creating Layer inception_3a/pool
I0322 11:00:59.159409  4785 net.cpp:406] inception_3a/pool <- pool2/3x3_s2_pool2/3x3_s2_0_split_3
I0322 11:00:59.159420  4785 net.cpp:380] inception_3a/pool -> inception_3a/pool
I0322 11:00:59.159492  4785 net.cpp:122] Setting up inception_3a/pool
I0322 11:00:59.159503  4785 net.cpp:129] Top shape: 1 192 81 47 (730944)
I0322 11:00:59.159509  4785 net.cpp:137] Memory required for data: 120444032
I0322 11:00:59.159514  4785 layer_factory.hpp:77] Creating layer inception_3a/pool_proj
I0322 11:00:59.159530  4785 net.cpp:84] Creating Layer inception_3a/pool_proj
I0322 11:00:59.159536  4785 net.cpp:406] inception_3a/pool_proj <- inception_3a/pool
I0322 11:00:59.159548  4785 net.cpp:380] inception_3a/pool_proj -> inception_3a/pool_proj
I0322 11:00:59.161880  4785 net.cpp:122] Setting up inception_3a/pool_proj
I0322 11:00:59.161907  4785 net.cpp:129] Top shape: 1 32 81 47 (121824)
I0322 11:00:59.161913  4785 net.cpp:137] Memory required for data: 120931328
I0322 11:00:59.161931  4785 layer_factory.hpp:77] Creating layer inception_3a/relu_pool_proj
I0322 11:00:59.161942  4785 net.cpp:84] Creating Layer inception_3a/relu_pool_proj
I0322 11:00:59.161948  4785 net.cpp:406] inception_3a/relu_pool_proj <- inception_3a/pool_proj
I0322 11:00:59.161960  4785 net.cpp:367] inception_3a/relu_pool_proj -> inception_3a/pool_proj (in-place)
I0322 11:00:59.162242  4785 net.cpp:122] Setting up inception_3a/relu_pool_proj
I0322 11:00:59.162259  4785 net.cpp:129] Top shape: 1 32 81 47 (121824)
I0322 11:00:59.162264  4785 net.cpp:137] Memory required for data: 121418624
I0322 11:00:59.162271  4785 layer_factory.hpp:77] Creating layer inception_3a/output
I0322 11:00:59.162279  4785 net.cpp:84] Creating Layer inception_3a/output
I0322 11:00:59.162284  4785 net.cpp:406] inception_3a/output <- inception_3a/1x1
I0322 11:00:59.162292  4785 net.cpp:406] inception_3a/output <- inception_3a/3x3
I0322 11:00:59.162297  4785 net.cpp:406] inception_3a/output <- inception_3a/5x5
I0322 11:00:59.162303  4785 net.cpp:406] inception_3a/output <- inception_3a/pool_proj
I0322 11:00:59.162312  4785 net.cpp:380] inception_3a/output -> inception_3a/output
I0322 11:00:59.162356  4785 net.cpp:122] Setting up inception_3a/output
I0322 11:00:59.162369  4785 net.cpp:129] Top shape: 1 256 81 47 (974592)
I0322 11:00:59.162374  4785 net.cpp:137] Memory required for data: 125316992
I0322 11:00:59.162379  4785 layer_factory.hpp:77] Creating layer inception_3a/output_inception_3a/output_0_split
I0322 11:00:59.162389  4785 net.cpp:84] Creating Layer inception_3a/output_inception_3a/output_0_split
I0322 11:00:59.162394  4785 net.cpp:406] inception_3a/output_inception_3a/output_0_split <- inception_3a/output
I0322 11:00:59.162400  4785 net.cpp:380] inception_3a/output_inception_3a/output_0_split -> inception_3a/output_inception_3a/output_0_split_0
I0322 11:00:59.162410  4785 net.cpp:380] inception_3a/output_inception_3a/output_0_split -> inception_3a/output_inception_3a/output_0_split_1
I0322 11:00:59.162418  4785 net.cpp:380] inception_3a/output_inception_3a/output_0_split -> inception_3a/output_inception_3a/output_0_split_2
I0322 11:00:59.162430  4785 net.cpp:380] inception_3a/output_inception_3a/output_0_split -> inception_3a/output_inception_3a/output_0_split_3
I0322 11:00:59.162520  4785 net.cpp:122] Setting up inception_3a/output_inception_3a/output_0_split
I0322 11:00:59.162531  4785 net.cpp:129] Top shape: 1 256 81 47 (974592)
I0322 11:00:59.162539  4785 net.cpp:129] Top shape: 1 256 81 47 (974592)
I0322 11:00:59.162544  4785 net.cpp:129] Top shape: 1 256 81 47 (974592)
I0322 11:00:59.162549  4785 net.cpp:129] Top shape: 1 256 81 47 (974592)
I0322 11:00:59.162554  4785 net.cpp:137] Memory required for data: 140910464
I0322 11:00:59.162559  4785 layer_factory.hpp:77] Creating layer inception_3b/1x1
I0322 11:00:59.162573  4785 net.cpp:84] Creating Layer inception_3b/1x1
I0322 11:00:59.162580  4785 net.cpp:406] inception_3b/1x1 <- inception_3a/output_inception_3a/output_0_split_0
I0322 11:00:59.162591  4785 net.cpp:380] inception_3b/1x1 -> inception_3b/1x1
I0322 11:00:59.165047  4785 net.cpp:122] Setting up inception_3b/1x1
I0322 11:00:59.165072  4785 net.cpp:129] Top shape: 1 128 81 47 (487296)
I0322 11:00:59.165078  4785 net.cpp:137] Memory required for data: 142859648
I0322 11:00:59.165089  4785 layer_factory.hpp:77] Creating layer inception_3b/relu_1x1
I0322 11:00:59.165101  4785 net.cpp:84] Creating Layer inception_3b/relu_1x1
I0322 11:00:59.165107  4785 net.cpp:406] inception_3b/relu_1x1 <- inception_3b/1x1
I0322 11:00:59.165117  4785 net.cpp:367] inception_3b/relu_1x1 -> inception_3b/1x1 (in-place)
I0322 11:00:59.166342  4785 net.cpp:122] Setting up inception_3b/relu_1x1
I0322 11:00:59.166366  4785 net.cpp:129] Top shape: 1 128 81 47 (487296)
I0322 11:00:59.166373  4785 net.cpp:137] Memory required for data: 144808832
I0322 11:00:59.166378  4785 layer_factory.hpp:77] Creating layer inception_3b/3x3_reduce
I0322 11:00:59.166395  4785 net.cpp:84] Creating Layer inception_3b/3x3_reduce
I0322 11:00:59.166401  4785 net.cpp:406] inception_3b/3x3_reduce <- inception_3a/output_inception_3a/output_0_split_1
I0322 11:00:59.166414  4785 net.cpp:380] inception_3b/3x3_reduce -> inception_3b/3x3_reduce
I0322 11:00:59.167918  4785 net.cpp:122] Setting up inception_3b/3x3_reduce
I0322 11:00:59.167939  4785 net.cpp:129] Top shape: 1 128 81 47 (487296)
I0322 11:00:59.167945  4785 net.cpp:137] Memory required for data: 146758016
I0322 11:00:59.167955  4785 layer_factory.hpp:77] Creating layer inception_3b/relu_3x3_reduce
I0322 11:00:59.167966  4785 net.cpp:84] Creating Layer inception_3b/relu_3x3_reduce
I0322 11:00:59.167973  4785 net.cpp:406] inception_3b/relu_3x3_reduce <- inception_3b/3x3_reduce
I0322 11:00:59.167981  4785 net.cpp:367] inception_3b/relu_3x3_reduce -> inception_3b/3x3_reduce (in-place)
I0322 11:00:59.169230  4785 net.cpp:122] Setting up inception_3b/relu_3x3_reduce
I0322 11:00:59.169257  4785 net.cpp:129] Top shape: 1 128 81 47 (487296)
I0322 11:00:59.169263  4785 net.cpp:137] Memory required for data: 148707200
I0322 11:00:59.169270  4785 layer_factory.hpp:77] Creating layer inception_3b/3x3
I0322 11:00:59.169291  4785 net.cpp:84] Creating Layer inception_3b/3x3
I0322 11:00:59.169297  4785 net.cpp:406] inception_3b/3x3 <- inception_3b/3x3_reduce
I0322 11:00:59.169311  4785 net.cpp:380] inception_3b/3x3 -> inception_3b/3x3
I0322 11:00:59.174286  4785 net.cpp:122] Setting up inception_3b/3x3
I0322 11:00:59.174311  4785 net.cpp:129] Top shape: 1 192 81 47 (730944)
I0322 11:00:59.174319  4785 net.cpp:137] Memory required for data: 151630976
I0322 11:00:59.174329  4785 layer_factory.hpp:77] Creating layer inception_3b/relu_3x3
I0322 11:00:59.174338  4785 net.cpp:84] Creating Layer inception_3b/relu_3x3
I0322 11:00:59.174345  4785 net.cpp:406] inception_3b/relu_3x3 <- inception_3b/3x3
I0322 11:00:59.174355  4785 net.cpp:367] inception_3b/relu_3x3 -> inception_3b/3x3 (in-place)
I0322 11:00:59.174631  4785 net.cpp:122] Setting up inception_3b/relu_3x3
I0322 11:00:59.174649  4785 net.cpp:129] Top shape: 1 192 81 47 (730944)
I0322 11:00:59.174654  4785 net.cpp:137] Memory required for data: 154554752
I0322 11:00:59.174659  4785 layer_factory.hpp:77] Creating layer inception_3b/5x5_reduce
I0322 11:00:59.174674  4785 net.cpp:84] Creating Layer inception_3b/5x5_reduce
I0322 11:00:59.174679  4785 net.cpp:406] inception_3b/5x5_reduce <- inception_3a/output_inception_3a/output_0_split_2
I0322 11:00:59.174690  4785 net.cpp:380] inception_3b/5x5_reduce -> inception_3b/5x5_reduce
I0322 11:00:59.176872  4785 net.cpp:122] Setting up inception_3b/5x5_reduce
I0322 11:00:59.176898  4785 net.cpp:129] Top shape: 1 32 81 47 (121824)
I0322 11:00:59.176903  4785 net.cpp:137] Memory required for data: 155042048
I0322 11:00:59.176913  4785 layer_factory.hpp:77] Creating layer inception_3b/relu_5x5_reduce
I0322 11:00:59.176925  4785 net.cpp:84] Creating Layer inception_3b/relu_5x5_reduce
I0322 11:00:59.176933  4785 net.cpp:406] inception_3b/relu_5x5_reduce <- inception_3b/5x5_reduce
I0322 11:00:59.176939  4785 net.cpp:367] inception_3b/relu_5x5_reduce -> inception_3b/5x5_reduce (in-place)
I0322 11:00:59.177209  4785 net.cpp:122] Setting up inception_3b/relu_5x5_reduce
I0322 11:00:59.177227  4785 net.cpp:129] Top shape: 1 32 81 47 (121824)
I0322 11:00:59.177233  4785 net.cpp:137] Memory required for data: 155529344
I0322 11:00:59.177238  4785 layer_factory.hpp:77] Creating layer inception_3b/5x5
I0322 11:00:59.177254  4785 net.cpp:84] Creating Layer inception_3b/5x5
I0322 11:00:59.177260  4785 net.cpp:406] inception_3b/5x5 <- inception_3b/5x5_reduce
I0322 11:00:59.177268  4785 net.cpp:380] inception_3b/5x5 -> inception_3b/5x5
I0322 11:00:59.180011  4785 net.cpp:122] Setting up inception_3b/5x5
I0322 11:00:59.180035  4785 net.cpp:129] Top shape: 1 96 81 47 (365472)
I0322 11:00:59.180042  4785 net.cpp:137] Memory required for data: 156991232
I0322 11:00:59.180052  4785 layer_factory.hpp:77] Creating layer inception_3b/relu_5x5
I0322 11:00:59.180061  4785 net.cpp:84] Creating Layer inception_3b/relu_5x5
I0322 11:00:59.180068  4785 net.cpp:406] inception_3b/relu_5x5 <- inception_3b/5x5
I0322 11:00:59.180078  4785 net.cpp:367] inception_3b/relu_5x5 -> inception_3b/5x5 (in-place)
I0322 11:00:59.180362  4785 net.cpp:122] Setting up inception_3b/relu_5x5
I0322 11:00:59.180382  4785 net.cpp:129] Top shape: 1 96 81 47 (365472)
I0322 11:00:59.180387  4785 net.cpp:137] Memory required for data: 158453120
I0322 11:00:59.180392  4785 layer_factory.hpp:77] Creating layer inception_3b/pool
I0322 11:00:59.180402  4785 net.cpp:84] Creating Layer inception_3b/pool
I0322 11:00:59.180408  4785 net.cpp:406] inception_3b/pool <- inception_3a/output_inception_3a/output_0_split_3
I0322 11:00:59.180418  4785 net.cpp:380] inception_3b/pool -> inception_3b/pool
I0322 11:00:59.180492  4785 net.cpp:122] Setting up inception_3b/pool
I0322 11:00:59.180505  4785 net.cpp:129] Top shape: 1 256 81 47 (974592)
I0322 11:00:59.180510  4785 net.cpp:137] Memory required for data: 162351488
I0322 11:00:59.180515  4785 layer_factory.hpp:77] Creating layer inception_3b/pool_proj
I0322 11:00:59.180528  4785 net.cpp:84] Creating Layer inception_3b/pool_proj
I0322 11:00:59.180534  4785 net.cpp:406] inception_3b/pool_proj <- inception_3b/pool
I0322 11:00:59.180544  4785 net.cpp:380] inception_3b/pool_proj -> inception_3b/pool_proj
I0322 11:00:59.182788  4785 net.cpp:122] Setting up inception_3b/pool_proj
I0322 11:00:59.182813  4785 net.cpp:129] Top shape: 1 64 81 47 (243648)
I0322 11:00:59.182819  4785 net.cpp:137] Memory required for data: 163326080
I0322 11:00:59.182829  4785 layer_factory.hpp:77] Creating layer inception_3b/relu_pool_proj
I0322 11:00:59.182842  4785 net.cpp:84] Creating Layer inception_3b/relu_pool_proj
I0322 11:00:59.182848  4785 net.cpp:406] inception_3b/relu_pool_proj <- inception_3b/pool_proj
I0322 11:00:59.182857  4785 net.cpp:367] inception_3b/relu_pool_proj -> inception_3b/pool_proj (in-place)
I0322 11:00:59.183121  4785 net.cpp:122] Setting up inception_3b/relu_pool_proj
I0322 11:00:59.183137  4785 net.cpp:129] Top shape: 1 64 81 47 (243648)
I0322 11:00:59.183145  4785 net.cpp:137] Memory required for data: 164300672
I0322 11:00:59.183149  4785 layer_factory.hpp:77] Creating layer inception_3b/output
I0322 11:00:59.183159  4785 net.cpp:84] Creating Layer inception_3b/output
I0322 11:00:59.183164  4785 net.cpp:406] inception_3b/output <- inception_3b/1x1
I0322 11:00:59.183171  4785 net.cpp:406] inception_3b/output <- inception_3b/3x3
I0322 11:00:59.183177  4785 net.cpp:406] inception_3b/output <- inception_3b/5x5
I0322 11:00:59.183183  4785 net.cpp:406] inception_3b/output <- inception_3b/pool_proj
I0322 11:00:59.183190  4785 net.cpp:380] inception_3b/output -> inception_3b/output
I0322 11:00:59.183233  4785 net.cpp:122] Setting up inception_3b/output
I0322 11:00:59.183244  4785 net.cpp:129] Top shape: 1 480 81 47 (1827360)
I0322 11:00:59.183249  4785 net.cpp:137] Memory required for data: 171610112
I0322 11:00:59.183254  4785 layer_factory.hpp:77] Creating layer inception_3b/output_inception_3b/output_0_split
I0322 11:00:59.183264  4785 net.cpp:84] Creating Layer inception_3b/output_inception_3b/output_0_split
I0322 11:00:59.183269  4785 net.cpp:406] inception_3b/output_inception_3b/output_0_split <- inception_3b/output
I0322 11:00:59.183277  4785 net.cpp:380] inception_3b/output_inception_3b/output_0_split -> inception_3b/output_inception_3b/output_0_split_0
I0322 11:00:59.183286  4785 net.cpp:380] inception_3b/output_inception_3b/output_0_split -> inception_3b/output_inception_3b/output_0_split_1
I0322 11:00:59.183336  4785 net.cpp:122] Setting up inception_3b/output_inception_3b/output_0_split
I0322 11:00:59.183347  4785 net.cpp:129] Top shape: 1 480 81 47 (1827360)
I0322 11:00:59.183353  4785 net.cpp:129] Top shape: 1 480 81 47 (1827360)
I0322 11:00:59.183357  4785 net.cpp:137] Memory required for data: 186228992
I0322 11:00:59.183362  4785 layer_factory.hpp:77] Creating layer pool3/3x3_s2
I0322 11:00:59.183372  4785 net.cpp:84] Creating Layer pool3/3x3_s2
I0322 11:00:59.183377  4785 net.cpp:406] pool3/3x3_s2 <- inception_3b/output_inception_3b/output_0_split_0
I0322 11:00:59.183383  4785 net.cpp:380] pool3/3x3_s2 -> pool3/3x3_s2
I0322 11:00:59.183434  4785 net.cpp:122] Setting up pool3/3x3_s2
I0322 11:00:59.183444  4785 net.cpp:129] Top shape: 1 480 40 23 (441600)
I0322 11:00:59.183449  4785 net.cpp:137] Memory required for data: 187995392
I0322 11:00:59.183454  4785 layer_factory.hpp:77] Creating layer pool3/3x3_s2_pool3/3x3_s2_0_split
I0322 11:00:59.183461  4785 net.cpp:84] Creating Layer pool3/3x3_s2_pool3/3x3_s2_0_split
I0322 11:00:59.183466  4785 net.cpp:406] pool3/3x3_s2_pool3/3x3_s2_0_split <- pool3/3x3_s2
I0322 11:00:59.183476  4785 net.cpp:380] pool3/3x3_s2_pool3/3x3_s2_0_split -> pool3/3x3_s2_pool3/3x3_s2_0_split_0
I0322 11:00:59.183485  4785 net.cpp:380] pool3/3x3_s2_pool3/3x3_s2_0_split -> pool3/3x3_s2_pool3/3x3_s2_0_split_1
I0322 11:00:59.183493  4785 net.cpp:380] pool3/3x3_s2_pool3/3x3_s2_0_split -> pool3/3x3_s2_pool3/3x3_s2_0_split_2
I0322 11:00:59.183501  4785 net.cpp:380] pool3/3x3_s2_pool3/3x3_s2_0_split -> pool3/3x3_s2_pool3/3x3_s2_0_split_3
I0322 11:00:59.183579  4785 net.cpp:122] Setting up pool3/3x3_s2_pool3/3x3_s2_0_split
I0322 11:00:59.183590  4785 net.cpp:129] Top shape: 1 480 40 23 (441600)
I0322 11:00:59.183596  4785 net.cpp:129] Top shape: 1 480 40 23 (441600)
I0322 11:00:59.183601  4785 net.cpp:129] Top shape: 1 480 40 23 (441600)
I0322 11:00:59.183606  4785 net.cpp:129] Top shape: 1 480 40 23 (441600)
I0322 11:00:59.183610  4785 net.cpp:137] Memory required for data: 195060992
I0322 11:00:59.183615  4785 layer_factory.hpp:77] Creating layer inception_4a/1x1
I0322 11:00:59.183630  4785 net.cpp:84] Creating Layer inception_4a/1x1
I0322 11:00:59.183636  4785 net.cpp:406] inception_4a/1x1 <- pool3/3x3_s2_pool3/3x3_s2_0_split_0
I0322 11:00:59.183645  4785 net.cpp:380] inception_4a/1x1 -> inception_4a/1x1
I0322 11:00:59.189532  4785 net.cpp:122] Setting up inception_4a/1x1
I0322 11:00:59.189558  4785 net.cpp:129] Top shape: 1 192 40 23 (176640)
I0322 11:00:59.189564  4785 net.cpp:137] Memory required for data: 195767552
I0322 11:00:59.189574  4785 layer_factory.hpp:77] Creating layer inception_4a/relu_1x1
I0322 11:00:59.189584  4785 net.cpp:84] Creating Layer inception_4a/relu_1x1
I0322 11:00:59.189589  4785 net.cpp:406] inception_4a/relu_1x1 <- inception_4a/1x1
I0322 11:00:59.189597  4785 net.cpp:367] inception_4a/relu_1x1 -> inception_4a/1x1 (in-place)
I0322 11:00:59.190748  4785 net.cpp:122] Setting up inception_4a/relu_1x1
I0322 11:00:59.190773  4785 net.cpp:129] Top shape: 1 192 40 23 (176640)
I0322 11:00:59.190778  4785 net.cpp:137] Memory required for data: 196474112
I0322 11:00:59.190783  4785 layer_factory.hpp:77] Creating layer inception_4a/3x3_reduce
I0322 11:00:59.190798  4785 net.cpp:84] Creating Layer inception_4a/3x3_reduce
I0322 11:00:59.190805  4785 net.cpp:406] inception_4a/3x3_reduce <- pool3/3x3_s2_pool3/3x3_s2_0_split_1
I0322 11:00:59.190816  4785 net.cpp:380] inception_4a/3x3_reduce -> inception_4a/3x3_reduce
I0322 11:00:59.192338  4785 net.cpp:122] Setting up inception_4a/3x3_reduce
I0322 11:00:59.192359  4785 net.cpp:129] Top shape: 1 96 40 23 (88320)
I0322 11:00:59.192365  4785 net.cpp:137] Memory required for data: 196827392
I0322 11:00:59.192384  4785 layer_factory.hpp:77] Creating layer inception_4a/relu_3x3_reduce
I0322 11:00:59.192394  4785 net.cpp:84] Creating Layer inception_4a/relu_3x3_reduce
I0322 11:00:59.192399  4785 net.cpp:406] inception_4a/relu_3x3_reduce <- inception_4a/3x3_reduce
I0322 11:00:59.192409  4785 net.cpp:367] inception_4a/relu_3x3_reduce -> inception_4a/3x3_reduce (in-place)
I0322 11:00:59.193544  4785 net.cpp:122] Setting up inception_4a/relu_3x3_reduce
I0322 11:00:59.193567  4785 net.cpp:129] Top shape: 1 96 40 23 (88320)
I0322 11:00:59.193572  4785 net.cpp:137] Memory required for data: 197180672
I0322 11:00:59.193578  4785 layer_factory.hpp:77] Creating layer inception_4a/3x3
I0322 11:00:59.193593  4785 net.cpp:84] Creating Layer inception_4a/3x3
I0322 11:00:59.193600  4785 net.cpp:406] inception_4a/3x3 <- inception_4a/3x3_reduce
I0322 11:00:59.193611  4785 net.cpp:380] inception_4a/3x3 -> inception_4a/3x3
I0322 11:00:59.197835  4785 net.cpp:122] Setting up inception_4a/3x3
I0322 11:00:59.197860  4785 net.cpp:129] Top shape: 1 208 40 23 (191360)
I0322 11:00:59.197866  4785 net.cpp:137] Memory required for data: 197946112
I0322 11:00:59.197876  4785 layer_factory.hpp:77] Creating layer inception_4a/relu_3x3
I0322 11:00:59.197885  4785 net.cpp:84] Creating Layer inception_4a/relu_3x3
I0322 11:00:59.197891  4785 net.cpp:406] inception_4a/relu_3x3 <- inception_4a/3x3
I0322 11:00:59.197898  4785 net.cpp:367] inception_4a/relu_3x3 -> inception_4a/3x3 (in-place)
I0322 11:00:59.198163  4785 net.cpp:122] Setting up inception_4a/relu_3x3
I0322 11:00:59.198179  4785 net.cpp:129] Top shape: 1 208 40 23 (191360)
I0322 11:00:59.198184  4785 net.cpp:137] Memory required for data: 198711552
I0322 11:00:59.198189  4785 layer_factory.hpp:77] Creating layer inception_4a/5x5_reduce
I0322 11:00:59.198202  4785 net.cpp:84] Creating Layer inception_4a/5x5_reduce
I0322 11:00:59.198209  4785 net.cpp:406] inception_4a/5x5_reduce <- pool3/3x3_s2_pool3/3x3_s2_0_split_2
I0322 11:00:59.198217  4785 net.cpp:380] inception_4a/5x5_reduce -> inception_4a/5x5_reduce
I0322 11:00:59.200191  4785 net.cpp:122] Setting up inception_4a/5x5_reduce
I0322 11:00:59.200214  4785 net.cpp:129] Top shape: 1 16 40 23 (14720)
I0322 11:00:59.200220  4785 net.cpp:137] Memory required for data: 198770432
I0322 11:00:59.200229  4785 layer_factory.hpp:77] Creating layer inception_4a/relu_5x5_reduce
I0322 11:00:59.200238  4785 net.cpp:84] Creating Layer inception_4a/relu_5x5_reduce
I0322 11:00:59.200243  4785 net.cpp:406] inception_4a/relu_5x5_reduce <- inception_4a/5x5_reduce
I0322 11:00:59.200256  4785 net.cpp:367] inception_4a/relu_5x5_reduce -> inception_4a/5x5_reduce (in-place)
I0322 11:00:59.200517  4785 net.cpp:122] Setting up inception_4a/relu_5x5_reduce
I0322 11:00:59.200534  4785 net.cpp:129] Top shape: 1 16 40 23 (14720)
I0322 11:00:59.200539  4785 net.cpp:137] Memory required for data: 198829312
I0322 11:00:59.200544  4785 layer_factory.hpp:77] Creating layer inception_4a/5x5
I0322 11:00:59.200558  4785 net.cpp:84] Creating Layer inception_4a/5x5
I0322 11:00:59.200564  4785 net.cpp:406] inception_4a/5x5 <- inception_4a/5x5_reduce
I0322 11:00:59.200574  4785 net.cpp:380] inception_4a/5x5 -> inception_4a/5x5
I0322 11:00:59.202657  4785 net.cpp:122] Setting up inception_4a/5x5
I0322 11:00:59.202680  4785 net.cpp:129] Top shape: 1 48 40 23 (44160)
I0322 11:00:59.202685  4785 net.cpp:137] Memory required for data: 199005952
I0322 11:00:59.202695  4785 layer_factory.hpp:77] Creating layer inception_4a/relu_5x5
I0322 11:00:59.202706  4785 net.cpp:84] Creating Layer inception_4a/relu_5x5
I0322 11:00:59.202713  4785 net.cpp:406] inception_4a/relu_5x5 <- inception_4a/5x5
I0322 11:00:59.202719  4785 net.cpp:367] inception_4a/relu_5x5 -> inception_4a/5x5 (in-place)
I0322 11:00:59.202960  4785 net.cpp:122] Setting up inception_4a/relu_5x5
I0322 11:00:59.202975  4785 net.cpp:129] Top shape: 1 48 40 23 (44160)
I0322 11:00:59.202980  4785 net.cpp:137] Memory required for data: 199182592
I0322 11:00:59.202985  4785 layer_factory.hpp:77] Creating layer inception_4a/pool
I0322 11:00:59.202996  4785 net.cpp:84] Creating Layer inception_4a/pool
I0322 11:00:59.203002  4785 net.cpp:406] inception_4a/pool <- pool3/3x3_s2_pool3/3x3_s2_0_split_3
I0322 11:00:59.203009  4785 net.cpp:380] inception_4a/pool -> inception_4a/pool
I0322 11:00:59.203073  4785 net.cpp:122] Setting up inception_4a/pool
I0322 11:00:59.203084  4785 net.cpp:129] Top shape: 1 480 40 23 (441600)
I0322 11:00:59.203088  4785 net.cpp:137] Memory required for data: 200948992
I0322 11:00:59.203092  4785 layer_factory.hpp:77] Creating layer inception_4a/pool_proj
I0322 11:00:59.203105  4785 net.cpp:84] Creating Layer inception_4a/pool_proj
I0322 11:00:59.203111  4785 net.cpp:406] inception_4a/pool_proj <- inception_4a/pool
I0322 11:00:59.203120  4785 net.cpp:380] inception_4a/pool_proj -> inception_4a/pool_proj
I0322 11:00:59.205271  4785 net.cpp:122] Setting up inception_4a/pool_proj
I0322 11:00:59.205294  4785 net.cpp:129] Top shape: 1 64 40 23 (58880)
I0322 11:00:59.205299  4785 net.cpp:137] Memory required for data: 201184512
I0322 11:00:59.205308  4785 layer_factory.hpp:77] Creating layer inception_4a/relu_pool_proj
I0322 11:00:59.205319  4785 net.cpp:84] Creating Layer inception_4a/relu_pool_proj
I0322 11:00:59.205327  4785 net.cpp:406] inception_4a/relu_pool_proj <- inception_4a/pool_proj
I0322 11:00:59.205333  4785 net.cpp:367] inception_4a/relu_pool_proj -> inception_4a/pool_proj (in-place)
I0322 11:00:59.205582  4785 net.cpp:122] Setting up inception_4a/relu_pool_proj
I0322 11:00:59.205597  4785 net.cpp:129] Top shape: 1 64 40 23 (58880)
I0322 11:00:59.205605  4785 net.cpp:137] Memory required for data: 201420032
I0322 11:00:59.205610  4785 layer_factory.hpp:77] Creating layer inception_4a/output
I0322 11:00:59.205617  4785 net.cpp:84] Creating Layer inception_4a/output
I0322 11:00:59.205621  4785 net.cpp:406] inception_4a/output <- inception_4a/1x1
I0322 11:00:59.205628  4785 net.cpp:406] inception_4a/output <- inception_4a/3x3
I0322 11:00:59.205634  4785 net.cpp:406] inception_4a/output <- inception_4a/5x5
I0322 11:00:59.205638  4785 net.cpp:406] inception_4a/output <- inception_4a/pool_proj
I0322 11:00:59.205646  4785 net.cpp:380] inception_4a/output -> inception_4a/output
I0322 11:00:59.205688  4785 net.cpp:122] Setting up inception_4a/output
I0322 11:00:59.205700  4785 net.cpp:129] Top shape: 1 512 40 23 (471040)
I0322 11:00:59.205704  4785 net.cpp:137] Memory required for data: 203304192
I0322 11:00:59.205708  4785 layer_factory.hpp:77] Creating layer inception_4a/output_inception_4a/output_0_split
I0322 11:00:59.205716  4785 net.cpp:84] Creating Layer inception_4a/output_inception_4a/output_0_split
I0322 11:00:59.205720  4785 net.cpp:406] inception_4a/output_inception_4a/output_0_split <- inception_4a/output
I0322 11:00:59.205729  4785 net.cpp:380] inception_4a/output_inception_4a/output_0_split -> inception_4a/output_inception_4a/output_0_split_0
I0322 11:00:59.205737  4785 net.cpp:380] inception_4a/output_inception_4a/output_0_split -> inception_4a/output_inception_4a/output_0_split_1
I0322 11:00:59.205745  4785 net.cpp:380] inception_4a/output_inception_4a/output_0_split -> inception_4a/output_inception_4a/output_0_split_2
I0322 11:00:59.205752  4785 net.cpp:380] inception_4a/output_inception_4a/output_0_split -> inception_4a/output_inception_4a/output_0_split_3
I0322 11:00:59.205832  4785 net.cpp:122] Setting up inception_4a/output_inception_4a/output_0_split
I0322 11:00:59.205845  4785 net.cpp:129] Top shape: 1 512 40 23 (471040)
I0322 11:00:59.205852  4785 net.cpp:129] Top shape: 1 512 40 23 (471040)
I0322 11:00:59.205857  4785 net.cpp:129] Top shape: 1 512 40 23 (471040)
I0322 11:00:59.205860  4785 net.cpp:129] Top shape: 1 512 40 23 (471040)
I0322 11:00:59.205864  4785 net.cpp:137] Memory required for data: 210840832
I0322 11:00:59.205869  4785 layer_factory.hpp:77] Creating layer inception_4b/1x1
I0322 11:00:59.205883  4785 net.cpp:84] Creating Layer inception_4b/1x1
I0322 11:00:59.205888  4785 net.cpp:406] inception_4b/1x1 <- inception_4a/output_inception_4a/output_0_split_0
I0322 11:00:59.205895  4785 net.cpp:380] inception_4b/1x1 -> inception_4b/1x1
I0322 11:00:59.208436  4785 net.cpp:122] Setting up inception_4b/1x1
I0322 11:00:59.208459  4785 net.cpp:129] Top shape: 1 160 40 23 (147200)
I0322 11:00:59.208464  4785 net.cpp:137] Memory required for data: 211429632
I0322 11:00:59.208474  4785 layer_factory.hpp:77] Creating layer inception_4b/relu_1x1
I0322 11:00:59.208482  4785 net.cpp:84] Creating Layer inception_4b/relu_1x1
I0322 11:00:59.208488  4785 net.cpp:406] inception_4b/relu_1x1 <- inception_4b/1x1
I0322 11:00:59.208495  4785 net.cpp:367] inception_4b/relu_1x1 -> inception_4b/1x1 (in-place)
I0322 11:00:59.209563  4785 net.cpp:122] Setting up inception_4b/relu_1x1
I0322 11:00:59.209585  4785 net.cpp:129] Top shape: 1 160 40 23 (147200)
I0322 11:00:59.209590  4785 net.cpp:137] Memory required for data: 212018432
I0322 11:00:59.209595  4785 layer_factory.hpp:77] Creating layer inception_4b/3x3_reduce
I0322 11:00:59.209609  4785 net.cpp:84] Creating Layer inception_4b/3x3_reduce
I0322 11:00:59.209617  4785 net.cpp:406] inception_4b/3x3_reduce <- inception_4a/output_inception_4a/output_0_split_1
I0322 11:00:59.209627  4785 net.cpp:380] inception_4b/3x3_reduce -> inception_4b/3x3_reduce
I0322 11:00:59.211092  4785 net.cpp:122] Setting up inception_4b/3x3_reduce
I0322 11:00:59.211112  4785 net.cpp:129] Top shape: 1 112 40 23 (103040)
I0322 11:00:59.211117  4785 net.cpp:137] Memory required for data: 212430592
I0322 11:00:59.211124  4785 layer_factory.hpp:77] Creating layer inception_4b/relu_3x3_reduce
I0322 11:00:59.211133  4785 net.cpp:84] Creating Layer inception_4b/relu_3x3_reduce
I0322 11:00:59.211138  4785 net.cpp:406] inception_4b/relu_3x3_reduce <- inception_4b/3x3_reduce
I0322 11:00:59.211148  4785 net.cpp:367] inception_4b/relu_3x3_reduce -> inception_4b/3x3_reduce (in-place)
I0322 11:00:59.212182  4785 net.cpp:122] Setting up inception_4b/relu_3x3_reduce
I0322 11:00:59.212203  4785 net.cpp:129] Top shape: 1 112 40 23 (103040)
I0322 11:00:59.212208  4785 net.cpp:137] Memory required for data: 212842752
I0322 11:00:59.212213  4785 layer_factory.hpp:77] Creating layer inception_4b/3x3
I0322 11:00:59.212234  4785 net.cpp:84] Creating Layer inception_4b/3x3
I0322 11:00:59.212240  4785 net.cpp:406] inception_4b/3x3 <- inception_4b/3x3_reduce
I0322 11:00:59.212250  4785 net.cpp:380] inception_4b/3x3 -> inception_4b/3x3
I0322 11:00:59.217588  4785 net.cpp:122] Setting up inception_4b/3x3
I0322 11:00:59.217612  4785 net.cpp:129] Top shape: 1 224 40 23 (206080)
I0322 11:00:59.217617  4785 net.cpp:137] Memory required for data: 213667072
I0322 11:00:59.217628  4785 layer_factory.hpp:77] Creating layer inception_4b/relu_3x3
I0322 11:00:59.217638  4785 net.cpp:84] Creating Layer inception_4b/relu_3x3
I0322 11:00:59.217644  4785 net.cpp:406] inception_4b/relu_3x3 <- inception_4b/3x3
I0322 11:00:59.217651  4785 net.cpp:367] inception_4b/relu_3x3 -> inception_4b/3x3 (in-place)
I0322 11:00:59.217897  4785 net.cpp:122] Setting up inception_4b/relu_3x3
I0322 11:00:59.217913  4785 net.cpp:129] Top shape: 1 224 40 23 (206080)
I0322 11:00:59.217918  4785 net.cpp:137] Memory required for data: 214491392
I0322 11:00:59.217922  4785 layer_factory.hpp:77] Creating layer inception_4b/5x5_reduce
I0322 11:00:59.217937  4785 net.cpp:84] Creating Layer inception_4b/5x5_reduce
I0322 11:00:59.217943  4785 net.cpp:406] inception_4b/5x5_reduce <- inception_4a/output_inception_4a/output_0_split_2
I0322 11:00:59.217952  4785 net.cpp:380] inception_4b/5x5_reduce -> inception_4b/5x5_reduce
I0322 11:00:59.219923  4785 net.cpp:122] Setting up inception_4b/5x5_reduce
I0322 11:00:59.219944  4785 net.cpp:129] Top shape: 1 24 40 23 (22080)
I0322 11:00:59.219949  4785 net.cpp:137] Memory required for data: 214579712
I0322 11:00:59.219959  4785 layer_factory.hpp:77] Creating layer inception_4b/relu_5x5_reduce
I0322 11:00:59.219969  4785 net.cpp:84] Creating Layer inception_4b/relu_5x5_reduce
I0322 11:00:59.219974  4785 net.cpp:406] inception_4b/relu_5x5_reduce <- inception_4b/5x5_reduce
I0322 11:00:59.219982  4785 net.cpp:367] inception_4b/relu_5x5_reduce -> inception_4b/5x5_reduce (in-place)
I0322 11:00:59.220226  4785 net.cpp:122] Setting up inception_4b/relu_5x5_reduce
I0322 11:00:59.220243  4785 net.cpp:129] Top shape: 1 24 40 23 (22080)
I0322 11:00:59.220247  4785 net.cpp:137] Memory required for data: 214668032
I0322 11:00:59.220252  4785 layer_factory.hpp:77] Creating layer inception_4b/5x5
I0322 11:00:59.220265  4785 net.cpp:84] Creating Layer inception_4b/5x5
I0322 11:00:59.220271  4785 net.cpp:406] inception_4b/5x5 <- inception_4b/5x5_reduce
I0322 11:00:59.220280  4785 net.cpp:380] inception_4b/5x5 -> inception_4b/5x5
I0322 11:00:59.222384  4785 net.cpp:122] Setting up inception_4b/5x5
I0322 11:00:59.222406  4785 net.cpp:129] Top shape: 1 64 40 23 (58880)
I0322 11:00:59.222410  4785 net.cpp:137] Memory required for data: 214903552
I0322 11:00:59.222419  4785 layer_factory.hpp:77] Creating layer inception_4b/relu_5x5
I0322 11:00:59.222429  4785 net.cpp:84] Creating Layer inception_4b/relu_5x5
I0322 11:00:59.222436  4785 net.cpp:406] inception_4b/relu_5x5 <- inception_4b/5x5
I0322 11:00:59.222442  4785 net.cpp:367] inception_4b/relu_5x5 -> inception_4b/5x5 (in-place)
I0322 11:00:59.222668  4785 net.cpp:122] Setting up inception_4b/relu_5x5
I0322 11:00:59.222682  4785 net.cpp:129] Top shape: 1 64 40 23 (58880)
I0322 11:00:59.222688  4785 net.cpp:137] Memory required for data: 215139072
I0322 11:00:59.222693  4785 layer_factory.hpp:77] Creating layer inception_4b/pool
I0322 11:00:59.222702  4785 net.cpp:84] Creating Layer inception_4b/pool
I0322 11:00:59.222707  4785 net.cpp:406] inception_4b/pool <- inception_4a/output_inception_4a/output_0_split_3
I0322 11:00:59.222713  4785 net.cpp:380] inception_4b/pool -> inception_4b/pool
I0322 11:00:59.222774  4785 net.cpp:122] Setting up inception_4b/pool
I0322 11:00:59.222784  4785 net.cpp:129] Top shape: 1 512 40 23 (471040)
I0322 11:00:59.222786  4785 net.cpp:137] Memory required for data: 217023232
I0322 11:00:59.222790  4785 layer_factory.hpp:77] Creating layer inception_4b/pool_proj
I0322 11:00:59.222805  4785 net.cpp:84] Creating Layer inception_4b/pool_proj
I0322 11:00:59.222810  4785 net.cpp:406] inception_4b/pool_proj <- inception_4b/pool
I0322 11:00:59.222817  4785 net.cpp:380] inception_4b/pool_proj -> inception_4b/pool_proj
I0322 11:00:59.224817  4785 net.cpp:122] Setting up inception_4b/pool_proj
I0322 11:00:59.224838  4785 net.cpp:129] Top shape: 1 64 40 23 (58880)
I0322 11:00:59.224843  4785 net.cpp:137] Memory required for data: 217258752
I0322 11:00:59.224851  4785 layer_factory.hpp:77] Creating layer inception_4b/relu_pool_proj
I0322 11:00:59.224859  4785 net.cpp:84] Creating Layer inception_4b/relu_pool_proj
I0322 11:00:59.224865  4785 net.cpp:406] inception_4b/relu_pool_proj <- inception_4b/pool_proj
I0322 11:00:59.224874  4785 net.cpp:367] inception_4b/relu_pool_proj -> inception_4b/pool_proj (in-place)
I0322 11:00:59.225103  4785 net.cpp:122] Setting up inception_4b/relu_pool_proj
I0322 11:00:59.225118  4785 net.cpp:129] Top shape: 1 64 40 23 (58880)
I0322 11:00:59.225122  4785 net.cpp:137] Memory required for data: 217494272
I0322 11:00:59.225126  4785 layer_factory.hpp:77] Creating layer inception_4b/output
I0322 11:00:59.225136  4785 net.cpp:84] Creating Layer inception_4b/output
I0322 11:00:59.225141  4785 net.cpp:406] inception_4b/output <- inception_4b/1x1
I0322 11:00:59.225147  4785 net.cpp:406] inception_4b/output <- inception_4b/3x3
I0322 11:00:59.225152  4785 net.cpp:406] inception_4b/output <- inception_4b/5x5
I0322 11:00:59.225155  4785 net.cpp:406] inception_4b/output <- inception_4b/pool_proj
I0322 11:00:59.225162  4785 net.cpp:380] inception_4b/output -> inception_4b/output
I0322 11:00:59.225200  4785 net.cpp:122] Setting up inception_4b/output
I0322 11:00:59.225210  4785 net.cpp:129] Top shape: 1 512 40 23 (471040)
I0322 11:00:59.225214  4785 net.cpp:137] Memory required for data: 219378432
I0322 11:00:59.225217  4785 layer_factory.hpp:77] Creating layer inception_4b/output_inception_4b/output_0_split
I0322 11:00:59.225224  4785 net.cpp:84] Creating Layer inception_4b/output_inception_4b/output_0_split
I0322 11:00:59.225229  4785 net.cpp:406] inception_4b/output_inception_4b/output_0_split <- inception_4b/output
I0322 11:00:59.225237  4785 net.cpp:380] inception_4b/output_inception_4b/output_0_split -> inception_4b/output_inception_4b/output_0_split_0
I0322 11:00:59.225244  4785 net.cpp:380] inception_4b/output_inception_4b/output_0_split -> inception_4b/output_inception_4b/output_0_split_1
I0322 11:00:59.225251  4785 net.cpp:380] inception_4b/output_inception_4b/output_0_split -> inception_4b/output_inception_4b/output_0_split_2
I0322 11:00:59.225266  4785 net.cpp:380] inception_4b/output_inception_4b/output_0_split -> inception_4b/output_inception_4b/output_0_split_3
I0322 11:00:59.225342  4785 net.cpp:122] Setting up inception_4b/output_inception_4b/output_0_split
I0322 11:00:59.225353  4785 net.cpp:129] Top shape: 1 512 40 23 (471040)
I0322 11:00:59.225359  4785 net.cpp:129] Top shape: 1 512 40 23 (471040)
I0322 11:00:59.225365  4785 net.cpp:129] Top shape: 1 512 40 23 (471040)
I0322 11:00:59.225369  4785 net.cpp:129] Top shape: 1 512 40 23 (471040)
I0322 11:00:59.225373  4785 net.cpp:137] Memory required for data: 226915072
I0322 11:00:59.225376  4785 layer_factory.hpp:77] Creating layer inception_4c/1x1
I0322 11:00:59.225389  4785 net.cpp:84] Creating Layer inception_4c/1x1
I0322 11:00:59.225394  4785 net.cpp:406] inception_4c/1x1 <- inception_4b/output_inception_4b/output_0_split_0
I0322 11:00:59.225400  4785 net.cpp:380] inception_4c/1x1 -> inception_4c/1x1
I0322 11:00:59.227620  4785 net.cpp:122] Setting up inception_4c/1x1
I0322 11:00:59.227641  4785 net.cpp:129] Top shape: 1 128 40 23 (117760)
I0322 11:00:59.227646  4785 net.cpp:137] Memory required for data: 227386112
I0322 11:00:59.227654  4785 layer_factory.hpp:77] Creating layer inception_4c/relu_1x1
I0322 11:00:59.227665  4785 net.cpp:84] Creating Layer inception_4c/relu_1x1
I0322 11:00:59.227670  4785 net.cpp:406] inception_4c/relu_1x1 <- inception_4c/1x1
I0322 11:00:59.227677  4785 net.cpp:367] inception_4c/relu_1x1 -> inception_4c/1x1 (in-place)
I0322 11:00:59.228687  4785 net.cpp:122] Setting up inception_4c/relu_1x1
I0322 11:00:59.228706  4785 net.cpp:129] Top shape: 1 128 40 23 (117760)
I0322 11:00:59.228711  4785 net.cpp:137] Memory required for data: 227857152
I0322 11:00:59.228716  4785 layer_factory.hpp:77] Creating layer inception_4c/3x3_reduce
I0322 11:00:59.228731  4785 net.cpp:84] Creating Layer inception_4c/3x3_reduce
I0322 11:00:59.228737  4785 net.cpp:406] inception_4c/3x3_reduce <- inception_4b/output_inception_4b/output_0_split_1
I0322 11:00:59.228745  4785 net.cpp:380] inception_4c/3x3_reduce -> inception_4c/3x3_reduce
I0322 11:00:59.230242  4785 net.cpp:122] Setting up inception_4c/3x3_reduce
I0322 11:00:59.230259  4785 net.cpp:129] Top shape: 1 128 40 23 (117760)
I0322 11:00:59.230264  4785 net.cpp:137] Memory required for data: 228328192
I0322 11:00:59.230273  4785 layer_factory.hpp:77] Creating layer inception_4c/relu_3x3_reduce
I0322 11:00:59.230281  4785 net.cpp:84] Creating Layer inception_4c/relu_3x3_reduce
I0322 11:00:59.230286  4785 net.cpp:406] inception_4c/relu_3x3_reduce <- inception_4c/3x3_reduce
I0322 11:00:59.230293  4785 net.cpp:367] inception_4c/relu_3x3_reduce -> inception_4c/3x3_reduce (in-place)
I0322 11:00:59.231294  4785 net.cpp:122] Setting up inception_4c/relu_3x3_reduce
I0322 11:00:59.231313  4785 net.cpp:129] Top shape: 1 128 40 23 (117760)
I0322 11:00:59.231318  4785 net.cpp:137] Memory required for data: 228799232
I0322 11:00:59.231323  4785 layer_factory.hpp:77] Creating layer inception_4c/3x3
I0322 11:00:59.231338  4785 net.cpp:84] Creating Layer inception_4c/3x3
I0322 11:00:59.231345  4785 net.cpp:406] inception_4c/3x3 <- inception_4c/3x3_reduce
I0322 11:00:59.231353  4785 net.cpp:380] inception_4c/3x3 -> inception_4c/3x3
I0322 11:00:59.236503  4785 net.cpp:122] Setting up inception_4c/3x3
I0322 11:00:59.236526  4785 net.cpp:129] Top shape: 1 256 40 23 (235520)
I0322 11:00:59.236531  4785 net.cpp:137] Memory required for data: 229741312
I0322 11:00:59.236538  4785 layer_factory.hpp:77] Creating layer inception_4c/relu_3x3
I0322 11:00:59.236546  4785 net.cpp:84] Creating Layer inception_4c/relu_3x3
I0322 11:00:59.236552  4785 net.cpp:406] inception_4c/relu_3x3 <- inception_4c/3x3
I0322 11:00:59.236559  4785 net.cpp:367] inception_4c/relu_3x3 -> inception_4c/3x3 (in-place)
I0322 11:00:59.236788  4785 net.cpp:122] Setting up inception_4c/relu_3x3
I0322 11:00:59.236801  4785 net.cpp:129] Top shape: 1 256 40 23 (235520)
I0322 11:00:59.236805  4785 net.cpp:137] Memory required for data: 230683392
I0322 11:00:59.236809  4785 layer_factory.hpp:77] Creating layer inception_4c/5x5_reduce
I0322 11:00:59.236822  4785 net.cpp:84] Creating Layer inception_4c/5x5_reduce
I0322 11:00:59.236827  4785 net.cpp:406] inception_4c/5x5_reduce <- inception_4b/output_inception_4b/output_0_split_2
I0322 11:00:59.236835  4785 net.cpp:380] inception_4c/5x5_reduce -> inception_4c/5x5_reduce
I0322 11:00:59.238623  4785 net.cpp:122] Setting up inception_4c/5x5_reduce
I0322 11:00:59.238643  4785 net.cpp:129] Top shape: 1 24 40 23 (22080)
I0322 11:00:59.238647  4785 net.cpp:137] Memory required for data: 230771712
I0322 11:00:59.238656  4785 layer_factory.hpp:77] Creating layer inception_4c/relu_5x5_reduce
I0322 11:00:59.238665  4785 net.cpp:84] Creating Layer inception_4c/relu_5x5_reduce
I0322 11:00:59.238670  4785 net.cpp:406] inception_4c/relu_5x5_reduce <- inception_4c/5x5_reduce
I0322 11:00:59.238677  4785 net.cpp:367] inception_4c/relu_5x5_reduce -> inception_4c/5x5_reduce (in-place)
I0322 11:00:59.238901  4785 net.cpp:122] Setting up inception_4c/relu_5x5_reduce
I0322 11:00:59.238914  4785 net.cpp:129] Top shape: 1 24 40 23 (22080)
I0322 11:00:59.238919  4785 net.cpp:137] Memory required for data: 230860032
I0322 11:00:59.238922  4785 layer_factory.hpp:77] Creating layer inception_4c/5x5
I0322 11:00:59.238935  4785 net.cpp:84] Creating Layer inception_4c/5x5
I0322 11:00:59.238940  4785 net.cpp:406] inception_4c/5x5 <- inception_4c/5x5_reduce
I0322 11:00:59.238950  4785 net.cpp:380] inception_4c/5x5 -> inception_4c/5x5
I0322 11:00:59.241922  4785 net.cpp:122] Setting up inception_4c/5x5
I0322 11:00:59.241942  4785 net.cpp:129] Top shape: 1 64 40 23 (58880)
I0322 11:00:59.241947  4785 net.cpp:137] Memory required for data: 231095552
I0322 11:00:59.241955  4785 layer_factory.hpp:77] Creating layer inception_4c/relu_5x5
I0322 11:00:59.241966  4785 net.cpp:84] Creating Layer inception_4c/relu_5x5
I0322 11:00:59.241971  4785 net.cpp:406] inception_4c/relu_5x5 <- inception_4c/5x5
I0322 11:00:59.241977  4785 net.cpp:367] inception_4c/relu_5x5 -> inception_4c/5x5 (in-place)
I0322 11:00:59.242195  4785 net.cpp:122] Setting up inception_4c/relu_5x5
I0322 11:00:59.242209  4785 net.cpp:129] Top shape: 1 64 40 23 (58880)
I0322 11:00:59.242213  4785 net.cpp:137] Memory required for data: 231331072
I0322 11:00:59.242218  4785 layer_factory.hpp:77] Creating layer inception_4c/pool
I0322 11:00:59.242226  4785 net.cpp:84] Creating Layer inception_4c/pool
I0322 11:00:59.242231  4785 net.cpp:406] inception_4c/pool <- inception_4b/output_inception_4b/output_0_split_3
I0322 11:00:59.242239  4785 net.cpp:380] inception_4c/pool -> inception_4c/pool
I0322 11:00:59.242296  4785 net.cpp:122] Setting up inception_4c/pool
I0322 11:00:59.242306  4785 net.cpp:129] Top shape: 1 512 40 23 (471040)
I0322 11:00:59.242310  4785 net.cpp:137] Memory required for data: 233215232
I0322 11:00:59.242313  4785 layer_factory.hpp:77] Creating layer inception_4c/pool_proj
I0322 11:00:59.242326  4785 net.cpp:84] Creating Layer inception_4c/pool_proj
I0322 11:00:59.242331  4785 net.cpp:406] inception_4c/pool_proj <- inception_4c/pool
I0322 11:00:59.242339  4785 net.cpp:380] inception_4c/pool_proj -> inception_4c/pool_proj
I0322 11:00:59.244262  4785 net.cpp:122] Setting up inception_4c/pool_proj
I0322 11:00:59.244282  4785 net.cpp:129] Top shape: 1 64 40 23 (58880)
I0322 11:00:59.244287  4785 net.cpp:137] Memory required for data: 233450752
I0322 11:00:59.244319  4785 layer_factory.hpp:77] Creating layer inception_4c/relu_pool_proj
I0322 11:00:59.244331  4785 net.cpp:84] Creating Layer inception_4c/relu_pool_proj
I0322 11:00:59.244338  4785 net.cpp:406] inception_4c/relu_pool_proj <- inception_4c/pool_proj
I0322 11:00:59.244343  4785 net.cpp:367] inception_4c/relu_pool_proj -> inception_4c/pool_proj (in-place)
I0322 11:00:59.244583  4785 net.cpp:122] Setting up inception_4c/relu_pool_proj
I0322 11:00:59.244597  4785 net.cpp:129] Top shape: 1 64 40 23 (58880)
I0322 11:00:59.244601  4785 net.cpp:137] Memory required for data: 233686272
I0322 11:00:59.244606  4785 layer_factory.hpp:77] Creating layer inception_4c/output
I0322 11:00:59.244613  4785 net.cpp:84] Creating Layer inception_4c/output
I0322 11:00:59.244618  4785 net.cpp:406] inception_4c/output <- inception_4c/1x1
I0322 11:00:59.244623  4785 net.cpp:406] inception_4c/output <- inception_4c/3x3
I0322 11:00:59.244628  4785 net.cpp:406] inception_4c/output <- inception_4c/5x5
I0322 11:00:59.244632  4785 net.cpp:406] inception_4c/output <- inception_4c/pool_proj
I0322 11:00:59.244637  4785 net.cpp:380] inception_4c/output -> inception_4c/output
I0322 11:00:59.244674  4785 net.cpp:122] Setting up inception_4c/output
I0322 11:00:59.244688  4785 net.cpp:129] Top shape: 1 512 40 23 (471040)
I0322 11:00:59.244691  4785 net.cpp:137] Memory required for data: 235570432
I0322 11:00:59.244694  4785 layer_factory.hpp:77] Creating layer inception_4c/output_inception_4c/output_0_split
I0322 11:00:59.244702  4785 net.cpp:84] Creating Layer inception_4c/output_inception_4c/output_0_split
I0322 11:00:59.244707  4785 net.cpp:406] inception_4c/output_inception_4c/output_0_split <- inception_4c/output
I0322 11:00:59.244714  4785 net.cpp:380] inception_4c/output_inception_4c/output_0_split -> inception_4c/output_inception_4c/output_0_split_0
I0322 11:00:59.244721  4785 net.cpp:380] inception_4c/output_inception_4c/output_0_split -> inception_4c/output_inception_4c/output_0_split_1
I0322 11:00:59.244727  4785 net.cpp:380] inception_4c/output_inception_4c/output_0_split -> inception_4c/output_inception_4c/output_0_split_2
I0322 11:00:59.244734  4785 net.cpp:380] inception_4c/output_inception_4c/output_0_split -> inception_4c/output_inception_4c/output_0_split_3
I0322 11:00:59.244803  4785 net.cpp:122] Setting up inception_4c/output_inception_4c/output_0_split
I0322 11:00:59.244818  4785 net.cpp:129] Top shape: 1 512 40 23 (471040)
I0322 11:00:59.244823  4785 net.cpp:129] Top shape: 1 512 40 23 (471040)
I0322 11:00:59.244827  4785 net.cpp:129] Top shape: 1 512 40 23 (471040)
I0322 11:00:59.244832  4785 net.cpp:129] Top shape: 1 512 40 23 (471040)
I0322 11:00:59.244834  4785 net.cpp:137] Memory required for data: 243107072
I0322 11:00:59.244837  4785 layer_factory.hpp:77] Creating layer inception_4d/1x1
I0322 11:00:59.244849  4785 net.cpp:84] Creating Layer inception_4d/1x1
I0322 11:00:59.244853  4785 net.cpp:406] inception_4d/1x1 <- inception_4c/output_inception_4c/output_0_split_0
I0322 11:00:59.244861  4785 net.cpp:380] inception_4d/1x1 -> inception_4d/1x1
I0322 11:00:59.246872  4785 net.cpp:122] Setting up inception_4d/1x1
I0322 11:00:59.246894  4785 net.cpp:129] Top shape: 1 112 40 23 (103040)
I0322 11:00:59.246898  4785 net.cpp:137] Memory required for data: 243519232
I0322 11:00:59.246906  4785 layer_factory.hpp:77] Creating layer inception_4d/relu_1x1
I0322 11:00:59.246914  4785 net.cpp:84] Creating Layer inception_4d/relu_1x1
I0322 11:00:59.246919  4785 net.cpp:406] inception_4d/relu_1x1 <- inception_4d/1x1
I0322 11:00:59.246925  4785 net.cpp:367] inception_4d/relu_1x1 -> inception_4d/1x1 (in-place)
I0322 11:00:59.247861  4785 net.cpp:122] Setting up inception_4d/relu_1x1
I0322 11:00:59.247880  4785 net.cpp:129] Top shape: 1 112 40 23 (103040)
I0322 11:00:59.247884  4785 net.cpp:137] Memory required for data: 243931392
I0322 11:00:59.247889  4785 layer_factory.hpp:77] Creating layer inception_4d/3x3_reduce
I0322 11:00:59.247901  4785 net.cpp:84] Creating Layer inception_4d/3x3_reduce
I0322 11:00:59.247906  4785 net.cpp:406] inception_4d/3x3_reduce <- inception_4c/output_inception_4c/output_0_split_1
I0322 11:00:59.247915  4785 net.cpp:380] inception_4d/3x3_reduce -> inception_4d/3x3_reduce
I0322 11:00:59.249344  4785 net.cpp:122] Setting up inception_4d/3x3_reduce
I0322 11:00:59.249361  4785 net.cpp:129] Top shape: 1 144 40 23 (132480)
I0322 11:00:59.249366  4785 net.cpp:137] Memory required for data: 244461312
I0322 11:00:59.249373  4785 layer_factory.hpp:77] Creating layer inception_4d/relu_3x3_reduce
I0322 11:00:59.249380  4785 net.cpp:84] Creating Layer inception_4d/relu_3x3_reduce
I0322 11:00:59.249385  4785 net.cpp:406] inception_4d/relu_3x3_reduce <- inception_4d/3x3_reduce
I0322 11:00:59.249394  4785 net.cpp:367] inception_4d/relu_3x3_reduce -> inception_4d/3x3_reduce (in-place)
I0322 11:00:59.250336  4785 net.cpp:122] Setting up inception_4d/relu_3x3_reduce
I0322 11:00:59.250355  4785 net.cpp:129] Top shape: 1 144 40 23 (132480)
I0322 11:00:59.250360  4785 net.cpp:137] Memory required for data: 244991232
I0322 11:00:59.250365  4785 layer_factory.hpp:77] Creating layer inception_4d/3x3
I0322 11:00:59.250377  4785 net.cpp:84] Creating Layer inception_4d/3x3
I0322 11:00:59.250382  4785 net.cpp:406] inception_4d/3x3 <- inception_4d/3x3_reduce
I0322 11:00:59.250391  4785 net.cpp:380] inception_4d/3x3 -> inception_4d/3x3
I0322 11:00:59.256063  4785 net.cpp:122] Setting up inception_4d/3x3
I0322 11:00:59.256084  4785 net.cpp:129] Top shape: 1 288 40 23 (264960)
I0322 11:00:59.256089  4785 net.cpp:137] Memory required for data: 246051072
I0322 11:00:59.256098  4785 layer_factory.hpp:77] Creating layer inception_4d/relu_3x3
I0322 11:00:59.256105  4785 net.cpp:84] Creating Layer inception_4d/relu_3x3
I0322 11:00:59.256110  4785 net.cpp:406] inception_4d/relu_3x3 <- inception_4d/3x3
I0322 11:00:59.256115  4785 net.cpp:367] inception_4d/relu_3x3 -> inception_4d/3x3 (in-place)
I0322 11:00:59.256358  4785 net.cpp:122] Setting up inception_4d/relu_3x3
I0322 11:00:59.256373  4785 net.cpp:129] Top shape: 1 288 40 23 (264960)
I0322 11:00:59.256377  4785 net.cpp:137] Memory required for data: 247110912
I0322 11:00:59.256381  4785 layer_factory.hpp:77] Creating layer inception_4d/5x5_reduce
I0322 11:00:59.256394  4785 net.cpp:84] Creating Layer inception_4d/5x5_reduce
I0322 11:00:59.256399  4785 net.cpp:406] inception_4d/5x5_reduce <- inception_4c/output_inception_4c/output_0_split_2
I0322 11:00:59.256408  4785 net.cpp:380] inception_4d/5x5_reduce -> inception_4d/5x5_reduce
I0322 11:00:59.258159  4785 net.cpp:122] Setting up inception_4d/5x5_reduce
I0322 11:00:59.258178  4785 net.cpp:129] Top shape: 1 32 40 23 (29440)
I0322 11:00:59.258183  4785 net.cpp:137] Memory required for data: 247228672
I0322 11:00:59.258189  4785 layer_factory.hpp:77] Creating layer inception_4d/relu_5x5_reduce
I0322 11:00:59.258196  4785 net.cpp:84] Creating Layer inception_4d/relu_5x5_reduce
I0322 11:00:59.258201  4785 net.cpp:406] inception_4d/relu_5x5_reduce <- inception_4d/5x5_reduce
I0322 11:00:59.258210  4785 net.cpp:367] inception_4d/relu_5x5_reduce -> inception_4d/5x5_reduce (in-place)
I0322 11:00:59.258419  4785 net.cpp:122] Setting up inception_4d/relu_5x5_reduce
I0322 11:00:59.258431  4785 net.cpp:129] Top shape: 1 32 40 23 (29440)
I0322 11:00:59.258435  4785 net.cpp:137] Memory required for data: 247346432
I0322 11:00:59.258438  4785 layer_factory.hpp:77] Creating layer inception_4d/5x5
I0322 11:00:59.258450  4785 net.cpp:84] Creating Layer inception_4d/5x5
I0322 11:00:59.258456  4785 net.cpp:406] inception_4d/5x5 <- inception_4d/5x5_reduce
I0322 11:00:59.258463  4785 net.cpp:380] inception_4d/5x5 -> inception_4d/5x5
I0322 11:00:59.260407  4785 net.cpp:122] Setting up inception_4d/5x5
I0322 11:00:59.260427  4785 net.cpp:129] Top shape: 1 64 40 23 (58880)
I0322 11:00:59.260432  4785 net.cpp:137] Memory required for data: 247581952
I0322 11:00:59.260438  4785 layer_factory.hpp:77] Creating layer inception_4d/relu_5x5
I0322 11:00:59.260447  4785 net.cpp:84] Creating Layer inception_4d/relu_5x5
I0322 11:00:59.260452  4785 net.cpp:406] inception_4d/relu_5x5 <- inception_4d/5x5
I0322 11:00:59.260458  4785 net.cpp:367] inception_4d/relu_5x5 -> inception_4d/5x5 (in-place)
I0322 11:00:59.260663  4785 net.cpp:122] Setting up inception_4d/relu_5x5
I0322 11:00:59.260676  4785 net.cpp:129] Top shape: 1 64 40 23 (58880)
I0322 11:00:59.260679  4785 net.cpp:137] Memory required for data: 247817472
I0322 11:00:59.260684  4785 layer_factory.hpp:77] Creating layer inception_4d/pool
I0322 11:00:59.260691  4785 net.cpp:84] Creating Layer inception_4d/pool
I0322 11:00:59.260696  4785 net.cpp:406] inception_4d/pool <- inception_4c/output_inception_4c/output_0_split_3
I0322 11:00:59.260704  4785 net.cpp:380] inception_4d/pool -> inception_4d/pool
I0322 11:00:59.260756  4785 net.cpp:122] Setting up inception_4d/pool
I0322 11:00:59.260766  4785 net.cpp:129] Top shape: 1 512 40 23 (471040)
I0322 11:00:59.260768  4785 net.cpp:137] Memory required for data: 249701632
I0322 11:00:59.260772  4785 layer_factory.hpp:77] Creating layer inception_4d/pool_proj
I0322 11:00:59.260783  4785 net.cpp:84] Creating Layer inception_4d/pool_proj
I0322 11:00:59.260788  4785 net.cpp:406] inception_4d/pool_proj <- inception_4d/pool
I0322 11:00:59.260795  4785 net.cpp:380] inception_4d/pool_proj -> inception_4d/pool_proj
I0322 11:00:59.262591  4785 net.cpp:122] Setting up inception_4d/pool_proj
I0322 11:00:59.262609  4785 net.cpp:129] Top shape: 1 64 40 23 (58880)
I0322 11:00:59.262614  4785 net.cpp:137] Memory required for data: 249937152
I0322 11:00:59.262621  4785 layer_factory.hpp:77] Creating layer inception_4d/relu_pool_proj
I0322 11:00:59.262629  4785 net.cpp:84] Creating Layer inception_4d/relu_pool_proj
I0322 11:00:59.262635  4785 net.cpp:406] inception_4d/relu_pool_proj <- inception_4d/pool_proj
I0322 11:00:59.262641  4785 net.cpp:367] inception_4d/relu_pool_proj -> inception_4d/pool_proj (in-place)
I0322 11:00:59.262852  4785 net.cpp:122] Setting up inception_4d/relu_pool_proj
I0322 11:00:59.262866  4785 net.cpp:129] Top shape: 1 64 40 23 (58880)
I0322 11:00:59.262869  4785 net.cpp:137] Memory required for data: 250172672
I0322 11:00:59.262873  4785 layer_factory.hpp:77] Creating layer inception_4d/output
I0322 11:00:59.262879  4785 net.cpp:84] Creating Layer inception_4d/output
I0322 11:00:59.262884  4785 net.cpp:406] inception_4d/output <- inception_4d/1x1
I0322 11:00:59.262889  4785 net.cpp:406] inception_4d/output <- inception_4d/3x3
I0322 11:00:59.262893  4785 net.cpp:406] inception_4d/output <- inception_4d/5x5
I0322 11:00:59.262897  4785 net.cpp:406] inception_4d/output <- inception_4d/pool_proj
I0322 11:00:59.262902  4785 net.cpp:380] inception_4d/output -> inception_4d/output
I0322 11:00:59.262940  4785 net.cpp:122] Setting up inception_4d/output
I0322 11:00:59.262946  4785 net.cpp:129] Top shape: 1 528 40 23 (485760)
I0322 11:00:59.262950  4785 net.cpp:137] Memory required for data: 252115712
I0322 11:00:59.262953  4785 layer_factory.hpp:77] Creating layer inception_4d/output_inception_4d/output_0_split
I0322 11:00:59.262959  4785 net.cpp:84] Creating Layer inception_4d/output_inception_4d/output_0_split
I0322 11:00:59.262964  4785 net.cpp:406] inception_4d/output_inception_4d/output_0_split <- inception_4d/output
I0322 11:00:59.262970  4785 net.cpp:380] inception_4d/output_inception_4d/output_0_split -> inception_4d/output_inception_4d/output_0_split_0
I0322 11:00:59.262976  4785 net.cpp:380] inception_4d/output_inception_4d/output_0_split -> inception_4d/output_inception_4d/output_0_split_1
I0322 11:00:59.262982  4785 net.cpp:380] inception_4d/output_inception_4d/output_0_split -> inception_4d/output_inception_4d/output_0_split_2
I0322 11:00:59.262989  4785 net.cpp:380] inception_4d/output_inception_4d/output_0_split -> inception_4d/output_inception_4d/output_0_split_3
I0322 11:00:59.263059  4785 net.cpp:122] Setting up inception_4d/output_inception_4d/output_0_split
I0322 11:00:59.263067  4785 net.cpp:129] Top shape: 1 528 40 23 (485760)
I0322 11:00:59.263072  4785 net.cpp:129] Top shape: 1 528 40 23 (485760)
I0322 11:00:59.263075  4785 net.cpp:129] Top shape: 1 528 40 23 (485760)
I0322 11:00:59.263079  4785 net.cpp:129] Top shape: 1 528 40 23 (485760)
I0322 11:00:59.263110  4785 net.cpp:137] Memory required for data: 259887872
I0322 11:00:59.263114  4785 layer_factory.hpp:77] Creating layer inception_4e/1x1
I0322 11:00:59.263130  4785 net.cpp:84] Creating Layer inception_4e/1x1
I0322 11:00:59.263134  4785 net.cpp:406] inception_4e/1x1 <- inception_4d/output_inception_4d/output_0_split_0
I0322 11:00:59.263140  4785 net.cpp:380] inception_4e/1x1 -> inception_4e/1x1
I0322 11:00:59.265548  4785 net.cpp:122] Setting up inception_4e/1x1
I0322 11:00:59.265569  4785 net.cpp:129] Top shape: 1 256 40 23 (235520)
I0322 11:00:59.265573  4785 net.cpp:137] Memory required for data: 260829952
I0322 11:00:59.265581  4785 layer_factory.hpp:77] Creating layer inception_4e/relu_1x1
I0322 11:00:59.265588  4785 net.cpp:84] Creating Layer inception_4e/relu_1x1
I0322 11:00:59.265594  4785 net.cpp:406] inception_4e/relu_1x1 <- inception_4e/1x1
I0322 11:00:59.265599  4785 net.cpp:367] inception_4e/relu_1x1 -> inception_4e/1x1 (in-place)
I0322 11:00:59.266499  4785 net.cpp:122] Setting up inception_4e/relu_1x1
I0322 11:00:59.266516  4785 net.cpp:129] Top shape: 1 256 40 23 (235520)
I0322 11:00:59.266520  4785 net.cpp:137] Memory required for data: 261772032
I0322 11:00:59.266525  4785 layer_factory.hpp:77] Creating layer inception_4e/3x3_reduce
I0322 11:00:59.266536  4785 net.cpp:84] Creating Layer inception_4e/3x3_reduce
I0322 11:00:59.266541  4785 net.cpp:406] inception_4e/3x3_reduce <- inception_4d/output_inception_4d/output_0_split_1
I0322 11:00:59.266551  4785 net.cpp:380] inception_4e/3x3_reduce -> inception_4e/3x3_reduce
I0322 11:00:59.267992  4785 net.cpp:122] Setting up inception_4e/3x3_reduce
I0322 11:00:59.268007  4785 net.cpp:129] Top shape: 1 160 40 23 (147200)
I0322 11:00:59.268010  4785 net.cpp:137] Memory required for data: 262360832
I0322 11:00:59.268018  4785 layer_factory.hpp:77] Creating layer inception_4e/relu_3x3_reduce
I0322 11:00:59.268023  4785 net.cpp:84] Creating Layer inception_4e/relu_3x3_reduce
I0322 11:00:59.268028  4785 net.cpp:406] inception_4e/relu_3x3_reduce <- inception_4e/3x3_reduce
I0322 11:00:59.268033  4785 net.cpp:367] inception_4e/relu_3x3_reduce -> inception_4e/3x3_reduce (in-place)
I0322 11:00:59.268952  4785 net.cpp:122] Setting up inception_4e/relu_3x3_reduce
I0322 11:00:59.268970  4785 net.cpp:129] Top shape: 1 160 40 23 (147200)
I0322 11:00:59.268975  4785 net.cpp:137] Memory required for data: 262949632
I0322 11:00:59.268978  4785 layer_factory.hpp:77] Creating layer inception_4e/3x3
I0322 11:00:59.268990  4785 net.cpp:84] Creating Layer inception_4e/3x3
I0322 11:00:59.268996  4785 net.cpp:406] inception_4e/3x3 <- inception_4e/3x3_reduce
I0322 11:00:59.269003  4785 net.cpp:380] inception_4e/3x3 -> inception_4e/3x3
I0322 11:00:59.274755  4785 net.cpp:122] Setting up inception_4e/3x3
I0322 11:00:59.274775  4785 net.cpp:129] Top shape: 1 320 40 23 (294400)
I0322 11:00:59.274780  4785 net.cpp:137] Memory required for data: 264127232
I0322 11:00:59.274787  4785 layer_factory.hpp:77] Creating layer inception_4e/relu_3x3
I0322 11:00:59.274794  4785 net.cpp:84] Creating Layer inception_4e/relu_3x3
I0322 11:00:59.274798  4785 net.cpp:406] inception_4e/relu_3x3 <- inception_4e/3x3
I0322 11:00:59.274804  4785 net.cpp:367] inception_4e/relu_3x3 -> inception_4e/3x3 (in-place)
I0322 11:00:59.275020  4785 net.cpp:122] Setting up inception_4e/relu_3x3
I0322 11:00:59.275033  4785 net.cpp:129] Top shape: 1 320 40 23 (294400)
I0322 11:00:59.275038  4785 net.cpp:137] Memory required for data: 265304832
I0322 11:00:59.275040  4785 layer_factory.hpp:77] Creating layer inception_4e/5x5_reduce
I0322 11:00:59.275053  4785 net.cpp:84] Creating Layer inception_4e/5x5_reduce
I0322 11:00:59.275058  4785 net.cpp:406] inception_4e/5x5_reduce <- inception_4d/output_inception_4d/output_0_split_2
I0322 11:00:59.275065  4785 net.cpp:380] inception_4e/5x5_reduce -> inception_4e/5x5_reduce
I0322 11:00:59.276746  4785 net.cpp:122] Setting up inception_4e/5x5_reduce
I0322 11:00:59.276764  4785 net.cpp:129] Top shape: 1 32 40 23 (29440)
I0322 11:00:59.276768  4785 net.cpp:137] Memory required for data: 265422592
I0322 11:00:59.276775  4785 layer_factory.hpp:77] Creating layer inception_4e/relu_5x5_reduce
I0322 11:00:59.276782  4785 net.cpp:84] Creating Layer inception_4e/relu_5x5_reduce
I0322 11:00:59.276787  4785 net.cpp:406] inception_4e/relu_5x5_reduce <- inception_4e/5x5_reduce
I0322 11:00:59.276794  4785 net.cpp:367] inception_4e/relu_5x5_reduce -> inception_4e/5x5_reduce (in-place)
I0322 11:00:59.276996  4785 net.cpp:122] Setting up inception_4e/relu_5x5_reduce
I0322 11:00:59.277009  4785 net.cpp:129] Top shape: 1 32 40 23 (29440)
I0322 11:00:59.277012  4785 net.cpp:137] Memory required for data: 265540352
I0322 11:00:59.277016  4785 layer_factory.hpp:77] Creating layer inception_4e/5x5
I0322 11:00:59.277029  4785 net.cpp:84] Creating Layer inception_4e/5x5
I0322 11:00:59.277032  4785 net.cpp:406] inception_4e/5x5 <- inception_4e/5x5_reduce
I0322 11:00:59.277040  4785 net.cpp:380] inception_4e/5x5 -> inception_4e/5x5
I0322 11:00:59.280768  4785 net.cpp:122] Setting up inception_4e/5x5
I0322 11:00:59.280787  4785 net.cpp:129] Top shape: 1 128 40 23 (117760)
I0322 11:00:59.280791  4785 net.cpp:137] Memory required for data: 266011392
I0322 11:00:59.280798  4785 layer_factory.hpp:77] Creating layer inception_4e/relu_5x5
I0322 11:00:59.280807  4785 net.cpp:84] Creating Layer inception_4e/relu_5x5
I0322 11:00:59.280812  4785 net.cpp:406] inception_4e/relu_5x5 <- inception_4e/5x5
I0322 11:00:59.280817  4785 net.cpp:367] inception_4e/relu_5x5 -> inception_4e/5x5 (in-place)
I0322 11:00:59.281018  4785 net.cpp:122] Setting up inception_4e/relu_5x5
I0322 11:00:59.281030  4785 net.cpp:129] Top shape: 1 128 40 23 (117760)
I0322 11:00:59.281033  4785 net.cpp:137] Memory required for data: 266482432
I0322 11:00:59.281038  4785 layer_factory.hpp:77] Creating layer inception_4e/pool
I0322 11:00:59.281052  4785 net.cpp:84] Creating Layer inception_4e/pool
I0322 11:00:59.281057  4785 net.cpp:406] inception_4e/pool <- inception_4d/output_inception_4d/output_0_split_3
I0322 11:00:59.281064  4785 net.cpp:380] inception_4e/pool -> inception_4e/pool
I0322 11:00:59.281116  4785 net.cpp:122] Setting up inception_4e/pool
I0322 11:00:59.281123  4785 net.cpp:129] Top shape: 1 528 40 23 (485760)
I0322 11:00:59.281126  4785 net.cpp:137] Memory required for data: 268425472
I0322 11:00:59.281131  4785 layer_factory.hpp:77] Creating layer inception_4e/pool_proj
I0322 11:00:59.281141  4785 net.cpp:84] Creating Layer inception_4e/pool_proj
I0322 11:00:59.281144  4785 net.cpp:406] inception_4e/pool_proj <- inception_4e/pool
I0322 11:00:59.281152  4785 net.cpp:380] inception_4e/pool_proj -> inception_4e/pool_proj
I0322 11:00:59.283026  4785 net.cpp:122] Setting up inception_4e/pool_proj
I0322 11:00:59.283043  4785 net.cpp:129] Top shape: 1 128 40 23 (117760)
I0322 11:00:59.283047  4785 net.cpp:137] Memory required for data: 268896512
I0322 11:00:59.283054  4785 layer_factory.hpp:77] Creating layer inception_4e/relu_pool_proj
I0322 11:00:59.283062  4785 net.cpp:84] Creating Layer inception_4e/relu_pool_proj
I0322 11:00:59.283067  4785 net.cpp:406] inception_4e/relu_pool_proj <- inception_4e/pool_proj
I0322 11:00:59.283072  4785 net.cpp:367] inception_4e/relu_pool_proj -> inception_4e/pool_proj (in-place)
I0322 11:00:59.283269  4785 net.cpp:122] Setting up inception_4e/relu_pool_proj
I0322 11:00:59.283283  4785 net.cpp:129] Top shape: 1 128 40 23 (117760)
I0322 11:00:59.283288  4785 net.cpp:137] Memory required for data: 269367552
I0322 11:00:59.283291  4785 layer_factory.hpp:77] Creating layer inception_4e/output
I0322 11:00:59.283296  4785 net.cpp:84] Creating Layer inception_4e/output
I0322 11:00:59.283301  4785 net.cpp:406] inception_4e/output <- inception_4e/1x1
I0322 11:00:59.283305  4785 net.cpp:406] inception_4e/output <- inception_4e/3x3
I0322 11:00:59.283310  4785 net.cpp:406] inception_4e/output <- inception_4e/5x5
I0322 11:00:59.283313  4785 net.cpp:406] inception_4e/output <- inception_4e/pool_proj
I0322 11:00:59.283318  4785 net.cpp:380] inception_4e/output -> inception_4e/output
I0322 11:00:59.283354  4785 net.cpp:122] Setting up inception_4e/output
I0322 11:00:59.283360  4785 net.cpp:129] Top shape: 1 832 40 23 (765440)
I0322 11:00:59.283362  4785 net.cpp:137] Memory required for data: 272429312
I0322 11:00:59.283366  4785 layer_factory.hpp:77] Creating layer inception_4e/output_inception_4e/output_0_split
I0322 11:00:59.283371  4785 net.cpp:84] Creating Layer inception_4e/output_inception_4e/output_0_split
I0322 11:00:59.283375  4785 net.cpp:406] inception_4e/output_inception_4e/output_0_split <- inception_4e/output
I0322 11:00:59.283381  4785 net.cpp:380] inception_4e/output_inception_4e/output_0_split -> inception_4e/output_inception_4e/output_0_split_0
I0322 11:00:59.283387  4785 net.cpp:380] inception_4e/output_inception_4e/output_0_split -> inception_4e/output_inception_4e/output_0_split_1
I0322 11:00:59.283427  4785 net.cpp:122] Setting up inception_4e/output_inception_4e/output_0_split
I0322 11:00:59.283437  4785 net.cpp:129] Top shape: 1 832 40 23 (765440)
I0322 11:00:59.283440  4785 net.cpp:129] Top shape: 1 832 40 23 (765440)
I0322 11:00:59.283442  4785 net.cpp:137] Memory required for data: 278552832
I0322 11:00:59.283445  4785 layer_factory.hpp:77] Creating layer pool4/3x3_s2
I0322 11:00:59.283452  4785 net.cpp:84] Creating Layer pool4/3x3_s2
I0322 11:00:59.283455  4785 net.cpp:406] pool4/3x3_s2 <- inception_4e/output_inception_4e/output_0_split_0
I0322 11:00:59.283460  4785 net.cpp:380] pool4/3x3_s2 -> pool4/3x3_s2
I0322 11:00:59.283500  4785 net.cpp:122] Setting up pool4/3x3_s2
I0322 11:00:59.283506  4785 net.cpp:129] Top shape: 1 832 20 11 (183040)
I0322 11:00:59.283509  4785 net.cpp:137] Memory required for data: 279284992
I0322 11:00:59.283512  4785 layer_factory.hpp:77] Creating layer pool4/3x3_s2_pool4/3x3_s2_0_split
I0322 11:00:59.283517  4785 net.cpp:84] Creating Layer pool4/3x3_s2_pool4/3x3_s2_0_split
I0322 11:00:59.283520  4785 net.cpp:406] pool4/3x3_s2_pool4/3x3_s2_0_split <- pool4/3x3_s2
I0322 11:00:59.283527  4785 net.cpp:380] pool4/3x3_s2_pool4/3x3_s2_0_split -> pool4/3x3_s2_pool4/3x3_s2_0_split_0
I0322 11:00:59.283534  4785 net.cpp:380] pool4/3x3_s2_pool4/3x3_s2_0_split -> pool4/3x3_s2_pool4/3x3_s2_0_split_1
I0322 11:00:59.283538  4785 net.cpp:380] pool4/3x3_s2_pool4/3x3_s2_0_split -> pool4/3x3_s2_pool4/3x3_s2_0_split_2
I0322 11:00:59.283543  4785 net.cpp:380] pool4/3x3_s2_pool4/3x3_s2_0_split -> pool4/3x3_s2_pool4/3x3_s2_0_split_3
I0322 11:00:59.283604  4785 net.cpp:122] Setting up pool4/3x3_s2_pool4/3x3_s2_0_split
I0322 11:00:59.283610  4785 net.cpp:129] Top shape: 1 832 20 11 (183040)
I0322 11:00:59.283613  4785 net.cpp:129] Top shape: 1 832 20 11 (183040)
I0322 11:00:59.283617  4785 net.cpp:129] Top shape: 1 832 20 11 (183040)
I0322 11:00:59.283622  4785 net.cpp:129] Top shape: 1 832 20 11 (183040)
I0322 11:00:59.283624  4785 net.cpp:137] Memory required for data: 282213632
I0322 11:00:59.283627  4785 layer_factory.hpp:77] Creating layer inception_5a/1x1
I0322 11:00:59.283638  4785 net.cpp:84] Creating Layer inception_5a/1x1
I0322 11:00:59.283643  4785 net.cpp:406] inception_5a/1x1 <- pool4/3x3_s2_pool4/3x3_s2_0_split_0
I0322 11:00:59.283648  4785 net.cpp:380] inception_5a/1x1 -> inception_5a/1x1
I0322 11:00:59.286938  4785 net.cpp:122] Setting up inception_5a/1x1
I0322 11:00:59.286957  4785 net.cpp:129] Top shape: 1 256 20 11 (56320)
I0322 11:00:59.286960  4785 net.cpp:137] Memory required for data: 282438912
I0322 11:00:59.286967  4785 layer_factory.hpp:77] Creating layer inception_5a/relu_1x1
I0322 11:00:59.286974  4785 net.cpp:84] Creating Layer inception_5a/relu_1x1
I0322 11:00:59.286979  4785 net.cpp:406] inception_5a/relu_1x1 <- inception_5a/1x1
I0322 11:00:59.286984  4785 net.cpp:367] inception_5a/relu_1x1 -> inception_5a/1x1 (in-place)
I0322 11:00:59.287829  4785 net.cpp:122] Setting up inception_5a/relu_1x1
I0322 11:00:59.287847  4785 net.cpp:129] Top shape: 1 256 20 11 (56320)
I0322 11:00:59.287850  4785 net.cpp:137] Memory required for data: 282664192
I0322 11:00:59.287854  4785 layer_factory.hpp:77] Creating layer inception_5a/3x3_reduce
I0322 11:00:59.287865  4785 net.cpp:84] Creating Layer inception_5a/3x3_reduce
I0322 11:00:59.287870  4785 net.cpp:406] inception_5a/3x3_reduce <- pool4/3x3_s2_pool4/3x3_s2_0_split_1
I0322 11:00:59.287878  4785 net.cpp:380] inception_5a/3x3_reduce -> inception_5a/3x3_reduce
I0322 11:00:59.289487  4785 net.cpp:122] Setting up inception_5a/3x3_reduce
I0322 11:00:59.289502  4785 net.cpp:129] Top shape: 1 160 20 11 (35200)
I0322 11:00:59.289506  4785 net.cpp:137] Memory required for data: 282804992
I0322 11:00:59.289512  4785 layer_factory.hpp:77] Creating layer inception_5a/relu_3x3_reduce
I0322 11:00:59.289520  4785 net.cpp:84] Creating Layer inception_5a/relu_3x3_reduce
I0322 11:00:59.289523  4785 net.cpp:406] inception_5a/relu_3x3_reduce <- inception_5a/3x3_reduce
I0322 11:00:59.289531  4785 net.cpp:367] inception_5a/relu_3x3_reduce -> inception_5a/3x3_reduce (in-place)
I0322 11:00:59.290374  4785 net.cpp:122] Setting up inception_5a/relu_3x3_reduce
I0322 11:00:59.290390  4785 net.cpp:129] Top shape: 1 160 20 11 (35200)
I0322 11:00:59.290395  4785 net.cpp:137] Memory required for data: 282945792
I0322 11:00:59.290397  4785 layer_factory.hpp:77] Creating layer inception_5a/3x3
I0322 11:00:59.290410  4785 net.cpp:84] Creating Layer inception_5a/3x3
I0322 11:00:59.290415  4785 net.cpp:406] inception_5a/3x3 <- inception_5a/3x3_reduce
I0322 11:00:59.290422  4785 net.cpp:380] inception_5a/3x3 -> inception_5a/3x3
I0322 11:00:59.295882  4785 net.cpp:122] Setting up inception_5a/3x3
I0322 11:00:59.295900  4785 net.cpp:129] Top shape: 1 320 20 11 (70400)
I0322 11:00:59.295904  4785 net.cpp:137] Memory required for data: 283227392
I0322 11:00:59.295912  4785 layer_factory.hpp:77] Creating layer inception_5a/relu_3x3
I0322 11:00:59.295918  4785 net.cpp:84] Creating Layer inception_5a/relu_3x3
I0322 11:00:59.295923  4785 net.cpp:406] inception_5a/relu_3x3 <- inception_5a/3x3
I0322 11:00:59.295928  4785 net.cpp:367] inception_5a/relu_3x3 -> inception_5a/3x3 (in-place)
I0322 11:00:59.296130  4785 net.cpp:122] Setting up inception_5a/relu_3x3
I0322 11:00:59.296142  4785 net.cpp:129] Top shape: 1 320 20 11 (70400)
I0322 11:00:59.296145  4785 net.cpp:137] Memory required for data: 283508992
I0322 11:00:59.296149  4785 layer_factory.hpp:77] Creating layer inception_5a/5x5_reduce
I0322 11:00:59.296174  4785 net.cpp:84] Creating Layer inception_5a/5x5_reduce
I0322 11:00:59.296177  4785 net.cpp:406] inception_5a/5x5_reduce <- pool4/3x3_s2_pool4/3x3_s2_0_split_2
I0322 11:00:59.296185  4785 net.cpp:380] inception_5a/5x5_reduce -> inception_5a/5x5_reduce
I0322 11:00:59.297833  4785 net.cpp:122] Setting up inception_5a/5x5_reduce
I0322 11:00:59.297852  4785 net.cpp:129] Top shape: 1 32 20 11 (7040)
I0322 11:00:59.297857  4785 net.cpp:137] Memory required for data: 283537152
I0322 11:00:59.297863  4785 layer_factory.hpp:77] Creating layer inception_5a/relu_5x5_reduce
I0322 11:00:59.297870  4785 net.cpp:84] Creating Layer inception_5a/relu_5x5_reduce
I0322 11:00:59.297874  4785 net.cpp:406] inception_5a/relu_5x5_reduce <- inception_5a/5x5_reduce
I0322 11:00:59.297879  4785 net.cpp:367] inception_5a/relu_5x5_reduce -> inception_5a/5x5_reduce (in-place)
I0322 11:00:59.298063  4785 net.cpp:122] Setting up inception_5a/relu_5x5_reduce
I0322 11:00:59.298075  4785 net.cpp:129] Top shape: 1 32 20 11 (7040)
I0322 11:00:59.298079  4785 net.cpp:137] Memory required for data: 283565312
I0322 11:00:59.298084  4785 layer_factory.hpp:77] Creating layer inception_5a/5x5
I0322 11:00:59.298094  4785 net.cpp:84] Creating Layer inception_5a/5x5
I0322 11:00:59.298097  4785 net.cpp:406] inception_5a/5x5 <- inception_5a/5x5_reduce
I0322 11:00:59.298104  4785 net.cpp:380] inception_5a/5x5 -> inception_5a/5x5
I0322 11:00:59.300938  4785 net.cpp:122] Setting up inception_5a/5x5
I0322 11:00:59.300956  4785 net.cpp:129] Top shape: 1 128 20 11 (28160)
I0322 11:00:59.300961  4785 net.cpp:137] Memory required for data: 283677952
I0322 11:00:59.300967  4785 layer_factory.hpp:77] Creating layer inception_5a/relu_5x5
I0322 11:00:59.300976  4785 net.cpp:84] Creating Layer inception_5a/relu_5x5
I0322 11:00:59.300979  4785 net.cpp:406] inception_5a/relu_5x5 <- inception_5a/5x5
I0322 11:00:59.300986  4785 net.cpp:367] inception_5a/relu_5x5 -> inception_5a/5x5 (in-place)
I0322 11:00:59.301177  4785 net.cpp:122] Setting up inception_5a/relu_5x5
I0322 11:00:59.301189  4785 net.cpp:129] Top shape: 1 128 20 11 (28160)
I0322 11:00:59.301192  4785 net.cpp:137] Memory required for data: 283790592
I0322 11:00:59.301196  4785 layer_factory.hpp:77] Creating layer inception_5a/pool
I0322 11:00:59.301204  4785 net.cpp:84] Creating Layer inception_5a/pool
I0322 11:00:59.301208  4785 net.cpp:406] inception_5a/pool <- pool4/3x3_s2_pool4/3x3_s2_0_split_3
I0322 11:00:59.301213  4785 net.cpp:380] inception_5a/pool -> inception_5a/pool
I0322 11:00:59.301265  4785 net.cpp:122] Setting up inception_5a/pool
I0322 11:00:59.301273  4785 net.cpp:129] Top shape: 1 832 20 11 (183040)
I0322 11:00:59.301276  4785 net.cpp:137] Memory required for data: 284522752
I0322 11:00:59.301280  4785 layer_factory.hpp:77] Creating layer inception_5a/pool_proj
I0322 11:00:59.301290  4785 net.cpp:84] Creating Layer inception_5a/pool_proj
I0322 11:00:59.301293  4785 net.cpp:406] inception_5a/pool_proj <- inception_5a/pool
I0322 11:00:59.301298  4785 net.cpp:380] inception_5a/pool_proj -> inception_5a/pool_proj
I0322 11:00:59.303328  4785 net.cpp:122] Setting up inception_5a/pool_proj
I0322 11:00:59.303345  4785 net.cpp:129] Top shape: 1 128 20 11 (28160)
I0322 11:00:59.303349  4785 net.cpp:137] Memory required for data: 284635392
I0322 11:00:59.303355  4785 layer_factory.hpp:77] Creating layer inception_5a/relu_pool_proj
I0322 11:00:59.303361  4785 net.cpp:84] Creating Layer inception_5a/relu_pool_proj
I0322 11:00:59.303365  4785 net.cpp:406] inception_5a/relu_pool_proj <- inception_5a/pool_proj
I0322 11:00:59.303371  4785 net.cpp:367] inception_5a/relu_pool_proj -> inception_5a/pool_proj (in-place)
I0322 11:00:59.303558  4785 net.cpp:122] Setting up inception_5a/relu_pool_proj
I0322 11:00:59.303570  4785 net.cpp:129] Top shape: 1 128 20 11 (28160)
I0322 11:00:59.303572  4785 net.cpp:137] Memory required for data: 284748032
I0322 11:00:59.303576  4785 layer_factory.hpp:77] Creating layer inception_5a/output
I0322 11:00:59.303582  4785 net.cpp:84] Creating Layer inception_5a/output
I0322 11:00:59.303586  4785 net.cpp:406] inception_5a/output <- inception_5a/1x1
I0322 11:00:59.303591  4785 net.cpp:406] inception_5a/output <- inception_5a/3x3
I0322 11:00:59.303596  4785 net.cpp:406] inception_5a/output <- inception_5a/5x5
I0322 11:00:59.303598  4785 net.cpp:406] inception_5a/output <- inception_5a/pool_proj
I0322 11:00:59.303603  4785 net.cpp:380] inception_5a/output -> inception_5a/output
I0322 11:00:59.303643  4785 net.cpp:122] Setting up inception_5a/output
I0322 11:00:59.303649  4785 net.cpp:129] Top shape: 1 832 20 11 (183040)
I0322 11:00:59.303653  4785 net.cpp:137] Memory required for data: 285480192
I0322 11:00:59.303655  4785 layer_factory.hpp:77] Creating layer inception_5a/output_inception_5a/output_0_split
I0322 11:00:59.303663  4785 net.cpp:84] Creating Layer inception_5a/output_inception_5a/output_0_split
I0322 11:00:59.303665  4785 net.cpp:406] inception_5a/output_inception_5a/output_0_split <- inception_5a/output
I0322 11:00:59.303670  4785 net.cpp:380] inception_5a/output_inception_5a/output_0_split -> inception_5a/output_inception_5a/output_0_split_0
I0322 11:00:59.303676  4785 net.cpp:380] inception_5a/output_inception_5a/output_0_split -> inception_5a/output_inception_5a/output_0_split_1
I0322 11:00:59.303683  4785 net.cpp:380] inception_5a/output_inception_5a/output_0_split -> inception_5a/output_inception_5a/output_0_split_2
I0322 11:00:59.303688  4785 net.cpp:380] inception_5a/output_inception_5a/output_0_split -> inception_5a/output_inception_5a/output_0_split_3
I0322 11:00:59.303755  4785 net.cpp:122] Setting up inception_5a/output_inception_5a/output_0_split
I0322 11:00:59.303761  4785 net.cpp:129] Top shape: 1 832 20 11 (183040)
I0322 11:00:59.303766  4785 net.cpp:129] Top shape: 1 832 20 11 (183040)
I0322 11:00:59.303769  4785 net.cpp:129] Top shape: 1 832 20 11 (183040)
I0322 11:00:59.303772  4785 net.cpp:129] Top shape: 1 832 20 11 (183040)
I0322 11:00:59.303776  4785 net.cpp:137] Memory required for data: 288408832
I0322 11:00:59.303778  4785 layer_factory.hpp:77] Creating layer inception_5b/1x1
I0322 11:00:59.303787  4785 net.cpp:84] Creating Layer inception_5b/1x1
I0322 11:00:59.303791  4785 net.cpp:406] inception_5b/1x1 <- inception_5a/output_inception_5a/output_0_split_0
I0322 11:00:59.303799  4785 net.cpp:380] inception_5b/1x1 -> inception_5b/1x1
I0322 11:00:59.307690  4785 net.cpp:122] Setting up inception_5b/1x1
I0322 11:00:59.307708  4785 net.cpp:129] Top shape: 1 384 20 11 (84480)
I0322 11:00:59.307711  4785 net.cpp:137] Memory required for data: 288746752
I0322 11:00:59.307718  4785 layer_factory.hpp:77] Creating layer inception_5b/relu_1x1
I0322 11:00:59.307726  4785 net.cpp:84] Creating Layer inception_5b/relu_1x1
I0322 11:00:59.307730  4785 net.cpp:406] inception_5b/relu_1x1 <- inception_5b/1x1
I0322 11:00:59.307735  4785 net.cpp:367] inception_5b/relu_1x1 -> inception_5b/1x1 (in-place)
I0322 11:00:59.308534  4785 net.cpp:122] Setting up inception_5b/relu_1x1
I0322 11:00:59.308550  4785 net.cpp:129] Top shape: 1 384 20 11 (84480)
I0322 11:00:59.308554  4785 net.cpp:137] Memory required for data: 289084672
I0322 11:00:59.308557  4785 layer_factory.hpp:77] Creating layer inception_5b/3x3_reduce
I0322 11:00:59.308569  4785 net.cpp:84] Creating Layer inception_5b/3x3_reduce
I0322 11:00:59.308573  4785 net.cpp:406] inception_5b/3x3_reduce <- inception_5a/output_inception_5a/output_0_split_1
I0322 11:00:59.308580  4785 net.cpp:380] inception_5b/3x3_reduce -> inception_5b/3x3_reduce
I0322 11:00:59.310216  4785 net.cpp:122] Setting up inception_5b/3x3_reduce
I0322 11:00:59.310230  4785 net.cpp:129] Top shape: 1 192 20 11 (42240)
I0322 11:00:59.310233  4785 net.cpp:137] Memory required for data: 289253632
I0322 11:00:59.310240  4785 layer_factory.hpp:77] Creating layer inception_5b/relu_3x3_reduce
I0322 11:00:59.310245  4785 net.cpp:84] Creating Layer inception_5b/relu_3x3_reduce
I0322 11:00:59.310250  4785 net.cpp:406] inception_5b/relu_3x3_reduce <- inception_5b/3x3_reduce
I0322 11:00:59.310255  4785 net.cpp:367] inception_5b/relu_3x3_reduce -> inception_5b/3x3_reduce (in-place)
I0322 11:00:59.311051  4785 net.cpp:122] Setting up inception_5b/relu_3x3_reduce
I0322 11:00:59.311066  4785 net.cpp:129] Top shape: 1 192 20 11 (42240)
I0322 11:00:59.311070  4785 net.cpp:137] Memory required for data: 289422592
I0322 11:00:59.311074  4785 layer_factory.hpp:77] Creating layer inception_5b/3x3
I0322 11:00:59.311085  4785 net.cpp:84] Creating Layer inception_5b/3x3
I0322 11:00:59.311089  4785 net.cpp:406] inception_5b/3x3 <- inception_5b/3x3_reduce
I0322 11:00:59.311096  4785 net.cpp:380] inception_5b/3x3 -> inception_5b/3x3
I0322 11:00:59.317495  4785 net.cpp:122] Setting up inception_5b/3x3
I0322 11:00:59.317512  4785 net.cpp:129] Top shape: 1 384 20 11 (84480)
I0322 11:00:59.317515  4785 net.cpp:137] Memory required for data: 289760512
I0322 11:00:59.317524  4785 layer_factory.hpp:77] Creating layer inception_5b/relu_3x3
I0322 11:00:59.317530  4785 net.cpp:84] Creating Layer inception_5b/relu_3x3
I0322 11:00:59.317534  4785 net.cpp:406] inception_5b/relu_3x3 <- inception_5b/3x3
I0322 11:00:59.317538  4785 net.cpp:367] inception_5b/relu_3x3 -> inception_5b/3x3 (in-place)
I0322 11:00:59.317728  4785 net.cpp:122] Setting up inception_5b/relu_3x3
I0322 11:00:59.317739  4785 net.cpp:129] Top shape: 1 384 20 11 (84480)
I0322 11:00:59.317741  4785 net.cpp:137] Memory required for data: 290098432
I0322 11:00:59.317744  4785 layer_factory.hpp:77] Creating layer inception_5b/5x5_reduce
I0322 11:00:59.317754  4785 net.cpp:84] Creating Layer inception_5b/5x5_reduce
I0322 11:00:59.317759  4785 net.cpp:406] inception_5b/5x5_reduce <- inception_5a/output_inception_5a/output_0_split_2
I0322 11:00:59.317765  4785 net.cpp:380] inception_5b/5x5_reduce -> inception_5b/5x5_reduce
I0322 11:00:59.319404  4785 net.cpp:122] Setting up inception_5b/5x5_reduce
I0322 11:00:59.319420  4785 net.cpp:129] Top shape: 1 48 20 11 (10560)
I0322 11:00:59.319424  4785 net.cpp:137] Memory required for data: 290140672
I0322 11:00:59.319430  4785 layer_factory.hpp:77] Creating layer inception_5b/relu_5x5_reduce
I0322 11:00:59.319437  4785 net.cpp:84] Creating Layer inception_5b/relu_5x5_reduce
I0322 11:00:59.319442  4785 net.cpp:406] inception_5b/relu_5x5_reduce <- inception_5b/5x5_reduce
I0322 11:00:59.319445  4785 net.cpp:367] inception_5b/relu_5x5_reduce -> inception_5b/5x5_reduce (in-place)
I0322 11:00:59.319622  4785 net.cpp:122] Setting up inception_5b/relu_5x5_reduce
I0322 11:00:59.319634  4785 net.cpp:129] Top shape: 1 48 20 11 (10560)
I0322 11:00:59.319638  4785 net.cpp:137] Memory required for data: 290182912
I0322 11:00:59.319641  4785 layer_factory.hpp:77] Creating layer inception_5b/5x5
I0322 11:00:59.319651  4785 net.cpp:84] Creating Layer inception_5b/5x5
I0322 11:00:59.319655  4785 net.cpp:406] inception_5b/5x5 <- inception_5b/5x5_reduce
I0322 11:00:59.319661  4785 net.cpp:380] inception_5b/5x5 -> inception_5b/5x5
I0322 11:00:59.321833  4785 net.cpp:122] Setting up inception_5b/5x5
I0322 11:00:59.321849  4785 net.cpp:129] Top shape: 1 128 20 11 (28160)
I0322 11:00:59.321854  4785 net.cpp:137] Memory required for data: 290295552
I0322 11:00:59.321861  4785 layer_factory.hpp:77] Creating layer inception_5b/relu_5x5
I0322 11:00:59.321867  4785 net.cpp:84] Creating Layer inception_5b/relu_5x5
I0322 11:00:59.321871  4785 net.cpp:406] inception_5b/relu_5x5 <- inception_5b/5x5
I0322 11:00:59.321876  4785 net.cpp:367] inception_5b/relu_5x5 -> inception_5b/5x5 (in-place)
I0322 11:00:59.322057  4785 net.cpp:122] Setting up inception_5b/relu_5x5
I0322 11:00:59.322068  4785 net.cpp:129] Top shape: 1 128 20 11 (28160)
I0322 11:00:59.322072  4785 net.cpp:137] Memory required for data: 290408192
I0322 11:00:59.322075  4785 layer_factory.hpp:77] Creating layer inception_5b/pool
I0322 11:00:59.322080  4785 net.cpp:84] Creating Layer inception_5b/pool
I0322 11:00:59.322084  4785 net.cpp:406] inception_5b/pool <- inception_5a/output_inception_5a/output_0_split_3
I0322 11:00:59.322090  4785 net.cpp:380] inception_5b/pool -> inception_5b/pool
I0322 11:00:59.322139  4785 net.cpp:122] Setting up inception_5b/pool
I0322 11:00:59.322147  4785 net.cpp:129] Top shape: 1 832 20 11 (183040)
I0322 11:00:59.322149  4785 net.cpp:137] Memory required for data: 291140352
I0322 11:00:59.322152  4785 layer_factory.hpp:77] Creating layer inception_5b/pool_proj
I0322 11:00:59.322161  4785 net.cpp:84] Creating Layer inception_5b/pool_proj
I0322 11:00:59.322166  4785 net.cpp:406] inception_5b/pool_proj <- inception_5b/pool
I0322 11:00:59.322171  4785 net.cpp:380] inception_5b/pool_proj -> inception_5b/pool_proj
I0322 11:00:59.324092  4785 net.cpp:122] Setting up inception_5b/pool_proj
I0322 11:00:59.324108  4785 net.cpp:129] Top shape: 1 128 20 11 (28160)
I0322 11:00:59.324111  4785 net.cpp:137] Memory required for data: 291252992
I0322 11:00:59.324117  4785 layer_factory.hpp:77] Creating layer inception_5b/relu_pool_proj
I0322 11:00:59.324125  4785 net.cpp:84] Creating Layer inception_5b/relu_pool_proj
I0322 11:00:59.324128  4785 net.cpp:406] inception_5b/relu_pool_proj <- inception_5b/pool_proj
I0322 11:00:59.324134  4785 net.cpp:367] inception_5b/relu_pool_proj -> inception_5b/pool_proj (in-place)
I0322 11:00:59.324316  4785 net.cpp:122] Setting up inception_5b/relu_pool_proj
I0322 11:00:59.324328  4785 net.cpp:129] Top shape: 1 128 20 11 (28160)
I0322 11:00:59.324332  4785 net.cpp:137] Memory required for data: 291365632
I0322 11:00:59.324335  4785 layer_factory.hpp:77] Creating layer inception_5b/output
I0322 11:00:59.324342  4785 net.cpp:84] Creating Layer inception_5b/output
I0322 11:00:59.324344  4785 net.cpp:406] inception_5b/output <- inception_5b/1x1
I0322 11:00:59.324349  4785 net.cpp:406] inception_5b/output <- inception_5b/3x3
I0322 11:00:59.324352  4785 net.cpp:406] inception_5b/output <- inception_5b/5x5
I0322 11:00:59.324357  4785 net.cpp:406] inception_5b/output <- inception_5b/pool_proj
I0322 11:00:59.324362  4785 net.cpp:380] inception_5b/output -> inception_5b/output
I0322 11:00:59.324396  4785 net.cpp:122] Setting up inception_5b/output
I0322 11:00:59.324403  4785 net.cpp:129] Top shape: 1 1024 20 11 (225280)
I0322 11:00:59.324404  4785 net.cpp:137] Memory required for data: 292266752
I0322 11:00:59.324407  4785 layer_factory.hpp:77] Creating layer pool5/drop_7x7_s1
I0322 11:00:59.324414  4785 net.cpp:84] Creating Layer pool5/drop_7x7_s1
I0322 11:00:59.324416  4785 net.cpp:406] pool5/drop_7x7_s1 <- inception_5b/output
I0322 11:00:59.324421  4785 net.cpp:367] pool5/drop_7x7_s1 -> inception_5b/output (in-place)
I0322 11:00:59.324448  4785 net.cpp:122] Setting up pool5/drop_7x7_s1
I0322 11:00:59.324453  4785 net.cpp:129] Top shape: 1 1024 20 11 (225280)
I0322 11:00:59.324456  4785 net.cpp:137] Memory required for data: 293167872
I0322 11:00:59.324458  4785 layer_factory.hpp:77] Creating layer score2
I0322 11:00:59.324466  4785 net.cpp:84] Creating Layer score2
I0322 11:00:59.324470  4785 net.cpp:406] score2 <- inception_5b/output
I0322 11:00:59.324476  4785 net.cpp:380] score2 -> score2
I0322 11:00:59.325561  4785 net.cpp:122] Setting up score2
I0322 11:00:59.325575  4785 net.cpp:129] Top shape: 1 2 22 13 (572)
I0322 11:00:59.325578  4785 net.cpp:137] Memory required for data: 293170160
I0322 11:00:59.325584  4785 layer_factory.hpp:77] Creating layer upscore2
I0322 11:00:59.325592  4785 net.cpp:84] Creating Layer upscore2
I0322 11:00:59.325597  4785 net.cpp:406] upscore2 <- score2
I0322 11:00:59.325603  4785 net.cpp:380] upscore2 -> upscore2
I0322 11:00:59.325800  4785 net.cpp:122] Setting up upscore2
I0322 11:00:59.325809  4785 net.cpp:129] Top shape: 1 2 46 28 (2576)
I0322 11:00:59.325811  4785 net.cpp:137] Memory required for data: 293180464
I0322 11:00:59.325815  4785 layer_factory.hpp:77] Creating layer score-inception_4e/output
I0322 11:00:59.325822  4785 net.cpp:84] Creating Layer score-inception_4e/output
I0322 11:00:59.325826  4785 net.cpp:406] score-inception_4e/output <- inception_4e/output_inception_4e/output_0_split_1
I0322 11:00:59.325832  4785 net.cpp:380] score-inception_4e/output -> score-inception_4e/output
I0322 11:00:59.326138  4785 net.cpp:122] Setting up score-inception_4e/output
I0322 11:00:59.326148  4785 net.cpp:129] Top shape: 1 2 42 25 (2100)
I0322 11:00:59.326150  4785 net.cpp:137] Memory required for data: 293188864
I0322 11:00:59.326155  4785 layer_factory.hpp:77] Creating layer score-inception_4e/output_score-inception_4e/output_0_split
I0322 11:00:59.326160  4785 net.cpp:84] Creating Layer score-inception_4e/output_score-inception_4e/output_0_split
I0322 11:00:59.326164  4785 net.cpp:406] score-inception_4e/output_score-inception_4e/output_0_split <- score-inception_4e/output
I0322 11:00:59.326170  4785 net.cpp:380] score-inception_4e/output_score-inception_4e/output_0_split -> score-inception_4e/output_score-inception_4e/output_0_split_0
I0322 11:00:59.326189  4785 net.cpp:380] score-inception_4e/output_score-inception_4e/output_0_split -> score-inception_4e/output_score-inception_4e/output_0_split_1
I0322 11:00:59.326232  4785 net.cpp:122] Setting up score-inception_4e/output_score-inception_4e/output_0_split
I0322 11:00:59.326241  4785 net.cpp:129] Top shape: 1 2 42 25 (2100)
I0322 11:00:59.326243  4785 net.cpp:129] Top shape: 1 2 42 25 (2100)
I0322 11:00:59.326246  4785 net.cpp:137] Memory required for data: 293205664
I0322 11:00:59.326251  4785 layer_factory.hpp:77] Creating layer upscore2c
I0322 11:00:59.326257  4785 net.cpp:84] Creating Layer upscore2c
I0322 11:00:59.326261  4785 net.cpp:406] upscore2c <- upscore2
I0322 11:00:59.326266  4785 net.cpp:406] upscore2c <- score-inception_4e/output_score-inception_4e/output_0_split_0
I0322 11:00:59.326269  4785 net.cpp:380] upscore2c -> upscore2c
I0322 11:00:59.326303  4785 net.cpp:122] Setting up upscore2c
I0322 11:00:59.326308  4785 net.cpp:129] Top shape: 1 2 42 25 (2100)
I0322 11:00:59.326310  4785 net.cpp:137] Memory required for data: 293214064
I0322 11:00:59.326313  4785 layer_factory.hpp:77] Creating layer score-fused
I0322 11:00:59.326319  4785 net.cpp:84] Creating Layer score-fused
I0322 11:00:59.326323  4785 net.cpp:406] score-fused <- upscore2c
I0322 11:00:59.326326  4785 net.cpp:406] score-fused <- score-inception_4e/output_score-inception_4e/output_0_split_1
I0322 11:00:59.326331  4785 net.cpp:380] score-fused -> score-fused
I0322 11:00:59.326355  4785 net.cpp:122] Setting up score-fused
I0322 11:00:59.326361  4785 net.cpp:129] Top shape: 1 2 42 25 (2100)
I0322 11:00:59.326364  4785 net.cpp:137] Memory required for data: 293222464
I0322 11:00:59.326366  4785 layer_factory.hpp:77] Creating layer upsample-fused-16
I0322 11:00:59.326372  4785 net.cpp:84] Creating Layer upsample-fused-16
I0322 11:00:59.326375  4785 net.cpp:406] upsample-fused-16 <- score-fused
I0322 11:00:59.326380  4785 net.cpp:380] upsample-fused-16 -> score4
I0322 11:00:59.326566  4785 net.cpp:122] Setting up upsample-fused-16
I0322 11:00:59.326575  4785 net.cpp:129] Top shape: 1 2 86 52 (8944)
I0322 11:00:59.326577  4785 net.cpp:137] Memory required for data: 293258240
I0322 11:00:59.326582  4785 layer_factory.hpp:77] Creating layer score-inception_3b/output
I0322 11:00:59.326589  4785 net.cpp:84] Creating Layer score-inception_3b/output
I0322 11:00:59.326593  4785 net.cpp:406] score-inception_3b/output <- inception_3b/output_inception_3b/output_0_split_1
I0322 11:00:59.326599  4785 net.cpp:380] score-inception_3b/output -> score-inception_3b/output
I0322 11:00:59.326896  4785 net.cpp:122] Setting up score-inception_3b/output
I0322 11:00:59.326905  4785 net.cpp:129] Top shape: 1 2 83 49 (8134)
I0322 11:00:59.326908  4785 net.cpp:137] Memory required for data: 293290776
I0322 11:00:59.326913  4785 layer_factory.hpp:77] Creating layer score-inception_3b/output_score-inception_3b/output_0_split
I0322 11:00:59.326918  4785 net.cpp:84] Creating Layer score-inception_3b/output_score-inception_3b/output_0_split
I0322 11:00:59.326922  4785 net.cpp:406] score-inception_3b/output_score-inception_3b/output_0_split <- score-inception_3b/output
I0322 11:00:59.326927  4785 net.cpp:380] score-inception_3b/output_score-inception_3b/output_0_split -> score-inception_3b/output_score-inception_3b/output_0_split_0
I0322 11:00:59.326933  4785 net.cpp:380] score-inception_3b/output_score-inception_3b/output_0_split -> score-inception_3b/output_score-inception_3b/output_0_split_1
I0322 11:00:59.326973  4785 net.cpp:122] Setting up score-inception_3b/output_score-inception_3b/output_0_split
I0322 11:00:59.326980  4785 net.cpp:129] Top shape: 1 2 83 49 (8134)
I0322 11:00:59.326984  4785 net.cpp:129] Top shape: 1 2 83 49 (8134)
I0322 11:00:59.326987  4785 net.cpp:137] Memory required for data: 293355848
I0322 11:00:59.326989  4785 layer_factory.hpp:77] Creating layer score4c
I0322 11:00:59.326995  4785 net.cpp:84] Creating Layer score4c
I0322 11:00:59.326999  4785 net.cpp:406] score4c <- score4
I0322 11:00:59.327003  4785 net.cpp:406] score4c <- score-inception_3b/output_score-inception_3b/output_0_split_0
I0322 11:00:59.327008  4785 net.cpp:380] score4c -> score4c
I0322 11:00:59.327033  4785 net.cpp:122] Setting up score4c
I0322 11:00:59.327038  4785 net.cpp:129] Top shape: 1 2 83 49 (8134)
I0322 11:00:59.327040  4785 net.cpp:137] Memory required for data: 293388384
I0322 11:00:59.327044  4785 layer_factory.hpp:77] Creating layer fuse
I0322 11:00:59.327047  4785 net.cpp:84] Creating Layer fuse
I0322 11:00:59.327050  4785 net.cpp:406] fuse <- score4c
I0322 11:00:59.327054  4785 net.cpp:406] fuse <- score-inception_3b/output_score-inception_3b/output_0_split_1
I0322 11:00:59.327059  4785 net.cpp:380] fuse -> score-final
I0322 11:00:59.327081  4785 net.cpp:122] Setting up fuse
I0322 11:00:59.327086  4785 net.cpp:129] Top shape: 1 2 83 49 (8134)
I0322 11:00:59.327088  4785 net.cpp:137] Memory required for data: 293420920
I0322 11:00:59.327091  4785 layer_factory.hpp:77] Creating layer upsample
I0322 11:00:59.327097  4785 net.cpp:84] Creating Layer upsample
I0322 11:00:59.327100  4785 net.cpp:406] upsample <- score-final
I0322 11:00:59.327106  4785 net.cpp:380] upsample -> bigscore
I0322 11:00:59.327296  4785 net.cpp:122] Setting up upsample
I0322 11:00:59.327303  4785 net.cpp:129] Top shape: 1 2 672 400 (537600)
I0322 11:00:59.327306  4785 net.cpp:137] Memory required for data: 295571320
I0322 11:00:59.327311  4785 layer_factory.hpp:77] Creating layer score
I0322 11:00:59.327316  4785 net.cpp:84] Creating Layer score
I0322 11:00:59.327318  4785 net.cpp:406] score <- bigscore
I0322 11:00:59.327322  4785 net.cpp:406] score <- data_data_0_split_1
I0322 11:00:59.327327  4785 net.cpp:380] score -> score
I0322 11:00:59.327353  4785 net.cpp:122] Setting up score
I0322 11:00:59.327358  4785 net.cpp:129] Top shape: 1 2 640 368 (471040)
I0322 11:00:59.327360  4785 net.cpp:137] Memory required for data: 297455480
I0322 11:00:59.327363  4785 layer_factory.hpp:77] Creating layer loss
I0322 11:00:59.327368  4785 net.cpp:84] Creating Layer loss
I0322 11:00:59.327371  4785 net.cpp:406] loss <- score
I0322 11:00:59.327375  4785 net.cpp:406] loss <- sem
I0322 11:00:59.327379  4785 net.cpp:380] loss -> loss
I0322 11:00:59.327389  4785 layer_factory.hpp:77] Creating layer loss
…
W0322 11:00:59.497889  4785 _caffe.cpp:135] DEPRECATION WARNING - deprecated use of Python interface
W0322 11:00:59.497898  4785 _caffe.cpp:136] Use this instead (with the named "weights" parameter):
W0322 11:00:59.497900  4785 _caffe.cpp:138] Net('../../ilsvrc-nets/deploy.prototxt', 1, weights='../../ilsvrc-nets/bvlc_googlenet.caffemodel')
I0322 11:00:59.500805  4785 net.cpp:51] Initializing net from parameters: 
name: "GoogleNet"
state {
  phase: TEST
  level: 0
}
layer {
  name: "data"
  type: "Input"
  top: "data"
  input_param {
    shape {
      dim: 10
      dim: 3
      dim: 224
      dim: 224
    }
  }
}
layer {
  name: "conv1/7x7_s2"
  type: "Convolution"
  bottom: "data"
  top: "conv1/7x7_s2"
  param {
    lr_mult: 1
    decay_mult: 1
  }
  param {
    lr_mult: 2
    decay_mult: 0
  }
  convolution_param {
    num_output: 64
    pad: 3
    kernel_size: 7
    stride: 2
    weight_filler {
      type: "xavier"
      std: 0.1
    }
    bias_filler {
      type: "constant"
      value: 0.2
    }
  }
}
layer {
  name: "conv1/relu_7x7"
  type: "ReLU"
  bottom: "conv1/7x7_s2"
  top: "conv1/7x7_s2"
}
layer {
  name: "pool1/3x3_s2"
  type: "Pooling"
  bottom: "conv1/7x7_s2"
  top: "pool1/3x3_s2"
  pooling_param {
    pool: MAX
    kernel_size: 3
    stride: 2
  }
}
layer {
  name: "pool1/norm1"
  type: "LRN"
  bottom: "pool1/3x3_s2"
  top: "pool1/norm1"
  lrn_param {
    local_size: 5
    alpha: 0.0001
    beta: 0.75
  }
}
layer {
  name: "conv2/3x3_reduce"
  type: "Convolution"
  bottom: "pool1/norm1"
  top: "conv2/3x3_reduce"
  param {
    lr_mult: 1
    decay_mult: 1
  }
  param {
    lr_mult: 2
    decay_mult: 0
  }
  convolution_param {
    num_output: 64
    kernel_size: 1
    weight_filler {
      type: "xavier"
      std: 0.1
    }
    bias_filler {
      type: "constant"
      value: 0.2
    }
  }
}
layer {
  name: "conv2/relu_3x3_reduce"
  type: "ReLU"
  bottom: "conv2/3x3_reduce"
  top: "conv2/3x3_reduce"
}
layer {
  name: "conv2/3x3"
  type: "Convolution"
  bottom: "conv2/3x3_reduce"
  top: "conv2/3x3"
  param {
    lr_mult: 1
    decay_mult: 1
  }
  param {
    lr_mult: 2
    decay_mult: 0
  }
  convolution_param {
    num_output: 192
    pad: 1
    kernel_size: 3
    weight_filler {
      type: "xavier"
      std: 0.03
    }
    bias_filler {
      type: "constant"
      value: 0.2
    }
  }
}
layer {
  name: "conv2/relu_3x3"
  type: "ReLU"
  bottom: "conv2/3x3"
  top: "conv2/3x3"
}
layer {
  name: "conv2/norm2"
  type: "LRN"
  bottom: "conv2/3x3"
  top: "conv2/norm2"
  lrn_param {
    local_size: 5
    alpha: 0.0001
    beta: 0.75
  }
}
layer {
  name: "pool2/3x3_s2"
  type: "Pooling"
  bottom: "conv2/norm2"
  top: "pool2/3x3_s2"
  pooling_param {
    pool: MAX
    kernel_size: 3
    stride: 2
  }
}
layer {
  name: "inception_3a/1x1"
  type: "Convolution"
  bottom: "pool2/3x3_s2"
  top: "inception_3a/1x1"
  param {
    lr_mult: 1
    decay_mult: 1
  }
  param {
    lr_mult: 2
    decay_mult: 0
  }
  convolution_param {
    num_output: 64
    kernel_size: 1
    weight_filler {
      type: "xavier"
      std: 0.03
    }
    bias_filler {
      type: "constant"
      value: 0.2
    }
  }
}
layer {
  name: "inception_3a/relu_1x1"
  type: "ReLU"
  bottom: "inception_3a/1x1"
  top: "inception_3a/1x1"
}
layer {
  name: "inception_3a/3x3_reduce"
  type: "Convolution"
  bottom: "pool2/3x3_s2"
  top: "inception_3a/3x3_reduce"
  param {
    lr_mult: 1
    decay_mult: 1
  }
  param {
    lr_mult: 2
    decay_mult: 0
  }
  convolution_param {
    num_output: 96
    kernel_size: 1
    weight_filler {
      type: "xavier"
      std: 0.09
    }
    bias_filler {
      type: "constant"
      value: 0.2
    }
  }
}
layer {
  name: "inception_3a/relu_3x3_reduce"
  type: "ReLU"
  bottom: "inception_3a/3x3_reduce"
  top: "inception_3a/3x3_reduce"
}
layer {
  name: "inception_3a/3x3"
  type: "Convolution"
  bottom: "inception_3a/3x3_reduce"
  top: "inception_3a/3x3"
  param {
    lr_mult: 1
    decay_mult: 1
  }
  param {
    lr_mult: 2
    decay_mult: 0
  }
  convolution_param {
    num_output: 128
    pad: 1
    kernel_size: 3
    weight_filler {
      type: "xavier"
      std: 0.03
    }
    bias_filler {
      type: "constant"
      value: 0.2
    }
  }
}
layer {
  name: "inception_3a/relu_3x3"
  type: "ReLU"
  bottom: "inception_3a/3x3"
  top: "inception_3a/3x3"
}
layer {
  name: "inception_3a/5x5_reduce"
  type: "Convolution"
  bottom: "pool2/3x3_s2"
  top: "inception_3a/5x5_reduce"
  param {
    lr_mult: 1
    decay_mult: 1
  }
  param {
    lr_mult: 2
    decay_mult: 0
  }
  convolution_param {
    num_output: 16
    kernel_size: 1
    weight_filler {
      type: "xavier"
      std: 0.2
    }
    bias_filler {
      type: "constant"
      value: 0.2
    }
  }
}
layer {
  name: "inception_3a/relu_5x5_reduce"
  type: "ReLU"
  bottom: "inception_3a/5x5_reduce"
  top: "inception_3a/5x5_reduce"
}
layer {
  name: "inception_3a/5x5"
  type: "Convolution"
  bottom: "inception_3a/5x5_reduce"
  top: "inception_3a/5x5"
  param {
    lr_mult: 1
    decay_mult: 1
  }
  param {
    lr_mult: 2
    decay_mult: 0
  }
  convolution_param {
    num_output: 32
    pad: 2
    kernel_size: 5
    weight_filler {
      type: "xavier"
      std: 0.03
    }
    bias_filler {
      type: "constant"
      value: 0.2
    }
  }
}
layer {
  name: "inception_3a/relu_5x5"
  type: "ReLU"
  bottom: "inception_3a/5x5"
  top: "inception_3a/5x5"
}
layer {
  name: "inception_3a/pool"
  type: "Pooling"
  bottom: "pool2/3x3_s2"
  top: "inception_3a/pool"
  pooling_param {
    pool: MAX
    kernel_size: 3
    stride: 1
    pad: 1
  }
}
layer {
  name: "inception_3a/pool_proj"
  type: "Convolution"
  bottom: "inception_3a/pool"
  top: "inception_3a/pool_proj"
  param {
    lr_mult: 1
    decay_mult: 1
  }
  param {
    lr_mult: 2
    decay_mult: 0
  }
  convolution_param {
    num_output: 32
    kernel_size: 1
    weight_filler {
      type: "xavier"
      std: 0.1
    }
    bias_filler {
      type: "constant"
      value: 0.2
    }
  }
}
layer {
  name: "inception_3a/relu_pool_proj"
  type: "ReLU"
  bottom: "inception_3a/pool_proj"
  top: "inception_3a/pool_proj"
}
layer {
  name: "inception_3a/output"
  type: "Concat"
  bottom: "inception_3a/1x1"
  bottom: "inception_3a/3x3"
  bottom: "inception_3a/5x5"
  bottom: "inception_3a/pool_proj"
  top: "inception_3a/output"
}
layer {
  name: "inception_3b/1x1"
  type: "Convolution"
  bottom: "inception_3a/output"
  top: "inception_3b/1x1"
  param {
    lr_mult: 1
    decay_mult: 1
  }
  param {
    lr_mult: 2
    decay_mult: 0
  }
  convolution_param {
    num_output: 128
    kernel_size: 1
    weight_filler {
      type: "xavier"
      std: 0.03
    }
    bias_filler {
      type: "constant"
      value: 0.2
    }
  }
}
layer {
  name: "inception_3b/relu_1x1"
  type: "ReLU"
  bottom: "inception_3b/1x1"
  top: "inception_3b/1x1"
}
layer {
  name: "inception_3b/3x3_reduce"
  type: "Convolution"
  bottom: "inception_3a/output"
  top: "inception_3b/3x3_reduce"
  param {
    lr_mult: 1
    decay_mult: 1
  }
  param {
    lr_mult: 2
    decay_mult: 0
  }
  convolution_param {
    num_output: 128
    kernel_size: 1
    weight_filler {
      type: "xavier"
      std: 0.09
    }
    bias_filler {
      type: "constant"
      value: 0.2
    }
  }
}
layer {
  name: "inception_3b/relu_3x3_reduce"
  type: "ReLU"
  bottom: "inception_3b/3x3_reduce"
  top: "inception_3b/3x3_reduce"
}
layer {
  name: "inception_3b/3x3"
  type: "Convolution"
  bottom: "inception_3b/3x3_reduce"
  top: "inception_3b/3x3"
  param {
    lr_mult: 1
    decay_mult: 1
  }
  param {
    lr_mult: 2
    decay_mult: 0
  }
  convolution_param {
    num_output: 192
    pad: 1
    kernel_size: 3
    weight_filler {
      type: "xavier"
      std: 0.03
    }
    bias_filler {
      type: "constant"
      value: 0.2
    }
  }
}
layer {
  name: "inception_3b/relu_3x3"
  type: "ReLU"
  bottom: "inception_3b/3x3"
  top: "inception_3b/3x3"
}
layer {
  name: "inception_3b/5x5_reduce"
  type: "Convolution"
  bottom: "inception_3a/output"
  top: "inception_3b/5x5_reduce"
  param {
    lr_mult: 1
    decay_mult: 1
  }
  param {
    lr_mult: 2
    decay_mult: 0
  }
  convolution_param {
    num_output: 32
    kernel_size: 1
    weight_filler {
      type: "xavier"
      std: 0.2
    }
    bias_filler {
      type: "constant"
      value: 0.2
    }
  }
}
layer {
  name: "inception_3b/relu_5x5_reduce"
  type: "ReLU"
  bottom: "inception_3b/5x5_reduce"
  top: "inception_3b/5x5_reduce"
}
layer {
  name: "inception_3b/5x5"
  type: "Convolution"
  bottom: "inception_3b/5x5_reduce"
  top: "inception_3b/5x5"
  param {
    lr_mult: 1
    decay_mult: 1
  }
  param {
    lr_mult: 2
    decay_mult: 0
  }
  convolution_param {
    num_output: 96
    pad: 2
    kernel_size: 5
    weight_filler {
      type: "xavier"
      std: 0.03
    }
    bias_filler {
      type: "constant"
      value: 0.2
    }
  }
}
layer {
  name: "inception_3b/relu_5x5"
  type: "ReLU"
  bottom: "inception_3b/5x5"
  top: "inception_3b/5x5"
}
layer {
  name: "inception_3b/pool"
  type: "Pooling"
  bottom: "inception_3a/output"
  top: "inception_3b/pool"
  pooling_param {
    pool: MAX
    kernel_size: 3
    stride: 1
    pad: 1
  }
}
layer {
  name: "inception_3b/pool_proj"
  type: "Convolution"
  bottom: "inception_3b/pool"
  top: "inception_3b/pool_proj"
  param {
    lr_mult: 1
    decay_mult: 1
  }
  param {
    lr_mult: 2
    decay_mult: 0
  }
  convolution_param {
    num_output: 64
    kernel_size: 1
    weight_filler {
      type: "xavier"
      std: 0.1
    }
    bias_filler {
      type: "constant"
      value: 0.2
    }
  }
}
layer {
  name: "inception_3b/relu_pool_proj"
  type: "ReLU"
  bottom: "inception_3b/pool_proj"
  top: "inception_3b/pool_proj"
}
layer {
  name: "inception_3b/output"
  type: "Concat"
  bottom: "inception_3b/1x1"
  bottom: "inception_3b/3x3"
  bottom: "inception_3b/5x5"
  bottom: "inception_3b/pool_proj"
  top: "inception_3b/output"
}
layer {
  name: "pool3/3x3_s2"
  type: "Pooling"
  bottom: "inception_3b/output"
  top: "pool3/3x3_s2"
  pooling_param {
    pool: MAX
    kernel_size: 3
    stride: 2
  }
}
layer {
  name: "inception_4a/1x1"
  type: "Convolution"
  bottom: "pool3/3x3_s2"
  top: "inception_4a/1x1"
  param {
    lr_mult: 1
    decay_mult: 1
  }
  param {
    lr_mult: 2
    decay_mult: 0
  }
  convolution_param {
    num_output: 192
    kernel_size: 1
    weight_filler {
      type: "xavier"
      std: 0.03
    }
    bias_filler {
      type: "constant"
      value: 0.2
    }
  }
}
layer {
  name: "inception_4a/relu_1x1"
  type: "ReLU"
  bottom: "inception_4a/1x1"
  top: "inception_4a/1x1"
}
layer {
  name: "inception_4a/3x3_reduce"
  type: "Convolution"
  bottom: "pool3/3x3_s2"
  top: "inception_4a/3x3_reduce"
  param {
    lr_mult: 1
    decay_mult: 1
  }
  param {
    lr_mult: 2
    decay_mult: 0
  }
  convolution_param {
    num_output: 96
    kernel_size: 1
    weight_filler {
      type: "xavier"
      std: 0.09
    }
    bias_filler {
      type: "constant"
      value: 0.2
    }
  }
}
layer {
  name: "inception_4a/relu_3x3_reduce"
  type: "ReLU"
  bottom: "inception_4a/3x3_reduce"
  top: "inception_4a/3x3_reduce"
}
layer {
  name: "inception_4a/3x3"
  type: "Convolution"
  bottom: "inception_4a/3x3_reduce"
  top: "inception_4a/3x3"
  param {
    lr_mult: 1
    decay_mult: 1
  }
  param {
    lr_mult: 2
    decay_mult: 0
  }
  convolution_param {
    num_output: 208
    pad: 1
    kernel_size: 3
    weight_filler {
      type: "xavier"
      std: 0.03
    }
    bias_filler {
      type: "constant"
      value: 0.2
    }
  }
}
layer {
  name: "inception_4a/relu_3x3"
  type: "ReLU"
  bottom: "inception_4a/3x3"
  top: "inception_4a/3x3"
}
layer {
  name: "inception_4a/5x5_reduce"
  type: "Convolution"
  bottom: "pool3/3x3_s2"
  top: "inception_4a/5x5_reduce"
  param {
    lr_mult: 1
    decay_mult: 1
  }
  param {
    lr_mult: 2
    decay_mult: 0
  }
  convolution_param {
    num_output: 16
    kernel_size: 1
    weight_filler {
      type: "xavier"
      std: 0.2
    }
    bias_filler {
      type: "constant"
      value: 0.2
    }
  }
}
layer {
  name: "inception_4a/relu_5x5_reduce"
  type: "ReLU"
  bottom: "inception_4a/5x5_reduce"
  top: "inception_4a/5x5_reduce"
}
layer {
  name: "inception_4a/5x5"
  type: "Convolution"
  bottom: "inception_4a/5x5_reduce"
  top: "inception_4a/5x5"
  param {
    lr_mult: 1
    decay_mult: 1
  }
  param {
    lr_mult: 2
    decay_mult: 0
  }
  convolution_param {
    num_output: 48
    pad: 2
    kernel_size: 5
    weight_filler {
      type: "xavier"
      std: 0.03
    }
    bias_filler {
      type: "constant"
      value: 0.2
    }
  }
}
layer {
  name: "inception_4a/relu_5x5"
  type: "ReLU"
  bottom: "inception_4a/5x5"
  top: "inception_4a/5x5"
}
layer {
  name: "inception_4a/pool"
  type: "Pooling"
  bottom: "pool3/3x3_s2"
  top: "inception_4a/pool"
  pooling_param {
    pool: MAX
    kernel_size: 3
    stride: 1
    pad: 1
  }
}
layer {
  name: "inception_4a/pool_proj"
  type: "Convolution"
  bottom: "inception_4a/pool"
  top: "inception_4a/pool_proj"
  param {
    lr_mult: 1
    decay_mult: 1
  }
  param {
    lr_mult: 2
    decay_mult: 0
  }
  convolution_param {
    num_output: 64
    kernel_size: 1
    weight_filler {
      type: "xavier"
      std: 0.1
    }
    bias_filler {
      type: "constant"
      value: 0.2
    }
  }
}
layer {
  name: "inception_4a/relu_pool_proj"
  type: "ReLU"
  bottom: "inception_4a/pool_proj"
  top: "inception_4a/pool_proj"
}
layer {
  name: "inception_4a/output"
  type: "Concat"
  bottom: "inception_4a/1x1"
  bottom: "inception_4a/3x3"
  bottom: "inception_4a/5x5"
  bottom: "inception_4a/pool_proj"
  top: "inception_4a/output"
}
layer {
  name: "inception_4b/1x1"
  type: "Convolution"
  bottom: "inception_4a/output"
  top: "inception_4b/1x1"
  param {
    lr_mult: 1
    decay_mult: 1
  }
  param {
    lr_mult: 2
    decay_mult: 0
  }
  convolution_param {
    num_output: 160
    kernel_size: 1
    weight_filler {
      type: "xavier"
      std: 0.03
    }
    bias_filler {
      type: "constant"
      value: 0.2
    }
  }
}
layer {
  name: "inception_4b/relu_1x1"
  type: "ReLU"
  bottom: "inception_4b/1x1"
  top: "inception_4b/1x1"
}
layer {
  name: "inception_4b/3x3_reduce"
  type: "Convolution"
  bottom: "inception_4a/output"
  top: "inception_4b/3x3_reduce"
  param {
    lr_mult: 1
    decay_mult: 1
  }
  param {
    lr_mult: 2
    decay_mult: 0
  }
  convolution_param {
    num_output: 112
    kernel_size: 1
    weight_filler {
      type: "xavier"
      std: 0.09
    }
    bias_filler {
      type: "constant"
      value: 0.2
    }
  }
}
layer {
  name: "inception_4b/relu_3x3_reduce"
  type: "ReLU"
  bottom: "inception_4b/3x3_reduce"
  top: "inception_4b/3x3_reduce"
}
layer {
  name: "inception_4b/3x3"
  type: "Convolution"
  bottom: "inception_4b/3x3_reduce"
  top: "inception_4b/3x3"
  param {
    lr_mult: 1
    decay_mult: 1
  }
  param {
    lr_mult: 2
    decay_mult: 0
  }
  convolution_param {
    num_output: 224
    pad: 1
    kernel_size: 3
    weight_filler {
      type: "xavier"
      std: 0.03
    }
    bias_filler {
      type: "constant"
      value: 0.2
    }
  }
}
layer {
  name: "inception_4b/relu_3x3"
  type: "ReLU"
  bottom: "inception_4b/3x3"
  top: "inception_4b/3x3"
}
layer {
…
I0322 11:00:59.560529  4785 net.cpp:122] Setting up inception_4b/output_inception_4b/output_0_split
I0322 11:00:59.560536  4785 net.cpp:129] Top shape: 10 512 14 14 (1003520)
I0322 11:00:59.560539  4785 net.cpp:129] Top shape: 10 512 14 14 (1003520)
I0322 11:00:59.560542  4785 net.cpp:129] Top shape: 10 512 14 14 (1003520)
I0322 11:00:59.560545  4785 net.cpp:129] Top shape: 10 512 14 14 (1003520)
I0322 11:00:59.560547  4785 net.cpp:137] Memory required for data: 423861760
I0322 11:00:59.560549  4785 layer_factory.hpp:77] Creating layer inception_4c/1x1
I0322 11:00:59.560556  4785 net.cpp:84] Creating Layer inception_4c/1x1
I0322 11:00:59.560559  4785 net.cpp:406] inception_4c/1x1 <- inception_4b/output_inception_4b/output_0_split_0
I0322 11:00:59.560564  4785 net.cpp:380] inception_4c/1x1 -> inception_4c/1x1
I0322 11:00:59.562896  4785 net.cpp:122] Setting up inception_4c/1x1
I0322 11:00:59.562911  4785 net.cpp:129] Top shape: 10 128 14 14 (250880)
I0322 11:00:59.562913  4785 net.cpp:137] Memory required for data: 424865280
I0322 11:00:59.562918  4785 layer_factory.hpp:77] Creating layer inception_4c/relu_1x1
I0322 11:00:59.562923  4785 net.cpp:84] Creating Layer inception_4c/relu_1x1
I0322 11:00:59.562927  4785 net.cpp:406] inception_4c/relu_1x1 <- inception_4c/1x1
I0322 11:00:59.562932  4785 net.cpp:367] inception_4c/relu_1x1 -> inception_4c/1x1 (in-place)
I0322 11:00:59.563094  4785 net.cpp:122] Setting up inception_4c/relu_1x1
I0322 11:00:59.563103  4785 net.cpp:129] Top shape: 10 128 14 14 (250880)
I0322 11:00:59.563105  4785 net.cpp:137] Memory required for data: 425868800
I0322 11:00:59.563108  4785 layer_factory.hpp:77] Creating layer inception_4c/3x3_reduce
I0322 11:00:59.563117  4785 net.cpp:84] Creating Layer inception_4c/3x3_reduce
I0322 11:00:59.563120  4785 net.cpp:406] inception_4c/3x3_reduce <- inception_4b/output_inception_4b/output_0_split_1
I0322 11:00:59.563125  4785 net.cpp:380] inception_4c/3x3_reduce -> inception_4c/3x3_reduce
I0322 11:00:59.564779  4785 net.cpp:122] Setting up inception_4c/3x3_reduce
I0322 11:00:59.564792  4785 net.cpp:129] Top shape: 10 128 14 14 (250880)
I0322 11:00:59.564796  4785 net.cpp:137] Memory required for data: 426872320
I0322 11:00:59.564801  4785 layer_factory.hpp:77] Creating layer inception_4c/relu_3x3_reduce
I0322 11:00:59.564807  4785 net.cpp:84] Creating Layer inception_4c/relu_3x3_reduce
I0322 11:00:59.564811  4785 net.cpp:406] inception_4c/relu_3x3_reduce <- inception_4c/3x3_reduce
I0322 11:00:59.564816  4785 net.cpp:367] inception_4c/relu_3x3_reduce -> inception_4c/3x3_reduce (in-place)
I0322 11:00:59.564980  4785 net.cpp:122] Setting up inception_4c/relu_3x3_reduce
I0322 11:00:59.564990  4785 net.cpp:129] Top shape: 10 128 14 14 (250880)
I0322 11:00:59.564992  4785 net.cpp:137] Memory required for data: 427875840
I0322 11:00:59.564995  4785 layer_factory.hpp:77] Creating layer inception_4c/3x3
I0322 11:00:59.565002  4785 net.cpp:84] Creating Layer inception_4c/3x3
I0322 11:00:59.565006  4785 net.cpp:406] inception_4c/3x3 <- inception_4c/3x3_reduce
I0322 11:00:59.565011  4785 net.cpp:380] inception_4c/3x3 -> inception_4c/3x3
I0322 11:00:59.568100  4785 net.cpp:122] Setting up inception_4c/3x3
I0322 11:00:59.568112  4785 net.cpp:129] Top shape: 10 256 14 14 (501760)
I0322 11:00:59.568115  4785 net.cpp:137] Memory required for data: 429882880
I0322 11:00:59.568121  4785 layer_factory.hpp:77] Creating layer inception_4c/relu_3x3
I0322 11:00:59.568126  4785 net.cpp:84] Creating Layer inception_4c/relu_3x3
I0322 11:00:59.568130  4785 net.cpp:406] inception_4c/relu_3x3 <- inception_4c/3x3
I0322 11:00:59.568133  4785 net.cpp:367] inception_4c/relu_3x3 -> inception_4c/3x3 (in-place)
I0322 11:00:59.568318  4785 net.cpp:122] Setting up inception_4c/relu_3x3
I0322 11:00:59.568328  4785 net.cpp:129] Top shape: 10 256 14 14 (501760)
I0322 11:00:59.568331  4785 net.cpp:137] Memory required for data: 431889920
I0322 11:00:59.568334  4785 layer_factory.hpp:77] Creating layer inception_4c/5x5_reduce
I0322 11:00:59.568342  4785 net.cpp:84] Creating Layer inception_4c/5x5_reduce
I0322 11:00:59.568346  4785 net.cpp:406] inception_4c/5x5_reduce <- inception_4b/output_inception_4b/output_0_split_2
I0322 11:00:59.568351  4785 net.cpp:380] inception_4c/5x5_reduce -> inception_4c/5x5_reduce
I0322 11:00:59.569785  4785 net.cpp:122] Setting up inception_4c/5x5_reduce
I0322 11:00:59.569798  4785 net.cpp:129] Top shape: 10 24 14 14 (47040)
I0322 11:00:59.569802  4785 net.cpp:137] Memory required for data: 432078080
I0322 11:00:59.569808  4785 layer_factory.hpp:77] Creating layer inception_4c/relu_5x5_reduce
I0322 11:00:59.569813  4785 net.cpp:84] Creating Layer inception_4c/relu_5x5_reduce
I0322 11:00:59.569816  4785 net.cpp:406] inception_4c/relu_5x5_reduce <- inception_4c/5x5_reduce
I0322 11:00:59.569820  4785 net.cpp:367] inception_4c/relu_5x5_reduce -> inception_4c/5x5_reduce (in-place)
I0322 11:00:59.570538  4785 net.cpp:122] Setting up inception_4c/relu_5x5_reduce
I0322 11:00:59.570550  4785 net.cpp:129] Top shape: 10 24 14 14 (47040)
I0322 11:00:59.570554  4785 net.cpp:137] Memory required for data: 432266240
I0322 11:00:59.570556  4785 layer_factory.hpp:77] Creating layer inception_4c/5x5
I0322 11:00:59.570565  4785 net.cpp:84] Creating Layer inception_4c/5x5
I0322 11:00:59.570569  4785 net.cpp:406] inception_4c/5x5 <- inception_4c/5x5_reduce
I0322 11:00:59.570574  4785 net.cpp:380] inception_4c/5x5 -> inception_4c/5x5
I0322 11:00:59.572103  4785 net.cpp:122] Setting up inception_4c/5x5
I0322 11:00:59.572115  4785 net.cpp:129] Top shape: 10 64 14 14 (125440)
I0322 11:00:59.572118  4785 net.cpp:137] Memory required for data: 432768000
I0322 11:00:59.572124  4785 layer_factory.hpp:77] Creating layer inception_4c/relu_5x5
I0322 11:00:59.572129  4785 net.cpp:84] Creating Layer inception_4c/relu_5x5
I0322 11:00:59.572131  4785 net.cpp:406] inception_4c/relu_5x5 <- inception_4c/5x5
I0322 11:00:59.572136  4785 net.cpp:367] inception_4c/relu_5x5 -> inception_4c/5x5 (in-place)
I0322 11:00:59.572317  4785 net.cpp:122] Setting up inception_4c/relu_5x5
I0322 11:00:59.572327  4785 net.cpp:129] Top shape: 10 64 14 14 (125440)
I0322 11:00:59.572330  4785 net.cpp:137] Memory required for data: 433269760
I0322 11:00:59.572334  4785 layer_factory.hpp:77] Creating layer inception_4c/pool
I0322 11:00:59.572340  4785 net.cpp:84] Creating Layer inception_4c/pool
I0322 11:00:59.572342  4785 net.cpp:406] inception_4c/pool <- inception_4b/output_inception_4b/output_0_split_3
I0322 11:00:59.572346  4785 net.cpp:380] inception_4c/pool -> inception_4c/pool
I0322 11:00:59.572405  4785 net.cpp:122] Setting up inception_4c/pool
I0322 11:00:59.572412  4785 net.cpp:129] Top shape: 10 512 14 14 (1003520)
I0322 11:00:59.572414  4785 net.cpp:137] Memory required for data: 437283840
I0322 11:00:59.572417  4785 layer_factory.hpp:77] Creating layer inception_4c/pool_proj
I0322 11:00:59.572424  4785 net.cpp:84] Creating Layer inception_4c/pool_proj
I0322 11:00:59.572428  4785 net.cpp:406] inception_4c/pool_proj <- inception_4c/pool
I0322 11:00:59.572433  4785 net.cpp:380] inception_4c/pool_proj -> inception_4c/pool_proj
I0322 11:00:59.574487  4785 net.cpp:122] Setting up inception_4c/pool_proj
I0322 11:00:59.574501  4785 net.cpp:129] Top shape: 10 64 14 14 (125440)
I0322 11:00:59.574503  4785 net.cpp:137] Memory required for data: 437785600
I0322 11:00:59.574517  4785 layer_factory.hpp:77] Creating layer inception_4c/relu_pool_proj
I0322 11:00:59.574524  4785 net.cpp:84] Creating Layer inception_4c/relu_pool_proj
I0322 11:00:59.574527  4785 net.cpp:406] inception_4c/relu_pool_proj <- inception_4c/pool_proj
I0322 11:00:59.574532  4785 net.cpp:367] inception_4c/relu_pool_proj -> inception_4c/pool_proj (in-place)
I0322 11:00:59.574697  4785 net.cpp:122] Setting up inception_4c/relu_pool_proj
I0322 11:00:59.574707  4785 net.cpp:129] Top shape: 10 64 14 14 (125440)
I0322 11:00:59.574708  4785 net.cpp:137] Memory required for data: 438287360
I0322 11:00:59.574712  4785 layer_factory.hpp:77] Creating layer inception_4c/output
I0322 11:00:59.574717  4785 net.cpp:84] Creating Layer inception_4c/output
I0322 11:00:59.574719  4785 net.cpp:406] inception_4c/output <- inception_4c/1x1
I0322 11:00:59.574723  4785 net.cpp:406] inception_4c/output <- inception_4c/3x3
I0322 11:00:59.574726  4785 net.cpp:406] inception_4c/output <- inception_4c/5x5
I0322 11:00:59.574729  4785 net.cpp:406] inception_4c/output <- inception_4c/pool_proj
I0322 11:00:59.574733  4785 net.cpp:380] inception_4c/output -> inception_4c/output
I0322 11:00:59.574770  4785 net.cpp:122] Setting up inception_4c/output
I0322 11:00:59.574775  4785 net.cpp:129] Top shape: 10 512 14 14 (1003520)
I0322 11:00:59.574777  4785 net.cpp:137] Memory required for data: 442301440
I0322 11:00:59.574780  4785 layer_factory.hpp:77] Creating layer inception_4c/output_inception_4c/output_0_split
I0322 11:00:59.574785  4785 net.cpp:84] Creating Layer inception_4c/output_inception_4c/output_0_split
I0322 11:00:59.574787  4785 net.cpp:406] inception_4c/output_inception_4c/output_0_split <- inception_4c/output
I0322 11:00:59.574792  4785 net.cpp:380] inception_4c/output_inception_4c/output_0_split -> inception_4c/output_inception_4c/output_0_split_0
I0322 11:00:59.574797  4785 net.cpp:380] inception_4c/output_inception_4c/output_0_split -> inception_4c/output_inception_4c/output_0_split_1
I0322 11:00:59.574801  4785 net.cpp:380] inception_4c/output_inception_4c/output_0_split -> inception_4c/output_inception_4c/output_0_split_2
I0322 11:00:59.574805  4785 net.cpp:380] inception_4c/output_inception_4c/output_0_split -> inception_4c/output_inception_4c/output_0_split_3
I0322 11:00:59.574883  4785 net.cpp:122] Setting up inception_4c/output_inception_4c/output_0_split
I0322 11:00:59.574890  4785 net.cpp:129] Top shape: 10 512 14 14 (1003520)
I0322 11:00:59.574893  4785 net.cpp:129] Top shape: 10 512 14 14 (1003520)
I0322 11:00:59.574897  4785 net.cpp:129] Top shape: 10 512 14 14 (1003520)
I0322 11:00:59.574898  4785 net.cpp:129] Top shape: 10 512 14 14 (1003520)
I0322 11:00:59.574900  4785 net.cpp:137] Memory required for data: 458357760
I0322 11:00:59.574903  4785 layer_factory.hpp:77] Creating layer inception_4d/1x1
I0322 11:00:59.574913  4785 net.cpp:84] Creating Layer inception_4d/1x1
I0322 11:00:59.574916  4785 net.cpp:406] inception_4d/1x1 <- inception_4c/output_inception_4c/output_0_split_0
I0322 11:00:59.574921  4785 net.cpp:380] inception_4d/1x1 -> inception_4d/1x1
I0322 11:00:59.576565  4785 net.cpp:122] Setting up inception_4d/1x1
I0322 11:00:59.576578  4785 net.cpp:129] Top shape: 10 112 14 14 (219520)
I0322 11:00:59.576581  4785 net.cpp:137] Memory required for data: 459235840
I0322 11:00:59.576587  4785 layer_factory.hpp:77] Creating layer inception_4d/relu_1x1
I0322 11:00:59.576593  4785 net.cpp:84] Creating Layer inception_4d/relu_1x1
I0322 11:00:59.576597  4785 net.cpp:406] inception_4d/relu_1x1 <- inception_4d/1x1
I0322 11:00:59.576601  4785 net.cpp:367] inception_4d/relu_1x1 -> inception_4d/1x1 (in-place)
I0322 11:00:59.576766  4785 net.cpp:122] Setting up inception_4d/relu_1x1
I0322 11:00:59.576776  4785 net.cpp:129] Top shape: 10 112 14 14 (219520)
I0322 11:00:59.576777  4785 net.cpp:137] Memory required for data: 460113920
I0322 11:00:59.576781  4785 layer_factory.hpp:77] Creating layer inception_4d/3x3_reduce
I0322 11:00:59.576791  4785 net.cpp:84] Creating Layer inception_4d/3x3_reduce
I0322 11:00:59.576793  4785 net.cpp:406] inception_4d/3x3_reduce <- inception_4c/output_inception_4c/output_0_split_1
I0322 11:00:59.576797  4785 net.cpp:380] inception_4d/3x3_reduce -> inception_4d/3x3_reduce
I0322 11:00:59.578495  4785 net.cpp:122] Setting up inception_4d/3x3_reduce
I0322 11:00:59.578508  4785 net.cpp:129] Top shape: 10 144 14 14 (282240)
I0322 11:00:59.578511  4785 net.cpp:137] Memory required for data: 461242880
I0322 11:00:59.578516  4785 layer_factory.hpp:77] Creating layer inception_4d/relu_3x3_reduce
I0322 11:00:59.578522  4785 net.cpp:84] Creating Layer inception_4d/relu_3x3_reduce
I0322 11:00:59.578526  4785 net.cpp:406] inception_4d/relu_3x3_reduce <- inception_4d/3x3_reduce
I0322 11:00:59.578529  4785 net.cpp:367] inception_4d/relu_3x3_reduce -> inception_4d/3x3_reduce (in-place)
I0322 11:00:59.578696  4785 net.cpp:122] Setting up inception_4d/relu_3x3_reduce
I0322 11:00:59.578706  4785 net.cpp:129] Top shape: 10 144 14 14 (282240)
I0322 11:00:59.578707  4785 net.cpp:137] Memory required for data: 462371840
I0322 11:00:59.578711  4785 layer_factory.hpp:77] Creating layer inception_4d/3x3
I0322 11:00:59.578718  4785 net.cpp:84] Creating Layer inception_4d/3x3
I0322 11:00:59.578722  4785 net.cpp:406] inception_4d/3x3 <- inception_4d/3x3_reduce
I0322 11:00:59.578727  4785 net.cpp:380] inception_4d/3x3 -> inception_4d/3x3
I0322 11:00:59.582864  4785 net.cpp:122] Setting up inception_4d/3x3
I0322 11:00:59.582876  4785 net.cpp:129] Top shape: 10 288 14 14 (564480)
I0322 11:00:59.582880  4785 net.cpp:137] Memory required for data: 464629760
I0322 11:00:59.582885  4785 layer_factory.hpp:77] Creating layer inception_4d/relu_3x3
I0322 11:00:59.582890  4785 net.cpp:84] Creating Layer inception_4d/relu_3x3
I0322 11:00:59.582893  4785 net.cpp:406] inception_4d/relu_3x3 <- inception_4d/3x3
I0322 11:00:59.582897  4785 net.cpp:367] inception_4d/relu_3x3 -> inception_4d/3x3 (in-place)
I0322 11:00:59.583078  4785 net.cpp:122] Setting up inception_4d/relu_3x3
I0322 11:00:59.583088  4785 net.cpp:129] Top shape: 10 288 14 14 (564480)
I0322 11:00:59.583091  4785 net.cpp:137] Memory required for data: 466887680
I0322 11:00:59.583093  4785 layer_factory.hpp:77] Creating layer inception_4d/5x5_reduce
I0322 11:00:59.583101  4785 net.cpp:84] Creating Layer inception_4d/5x5_reduce
I0322 11:00:59.583106  4785 net.cpp:406] inception_4d/5x5_reduce <- inception_4c/output_inception_4c/output_0_split_2
I0322 11:00:59.583111  4785 net.cpp:380] inception_4d/5x5_reduce -> inception_4d/5x5_reduce
I0322 11:00:59.584578  4785 net.cpp:122] Setting up inception_4d/5x5_reduce
I0322 11:00:59.584591  4785 net.cpp:129] Top shape: 10 32 14 14 (62720)
I0322 11:00:59.584594  4785 net.cpp:137] Memory required for data: 467138560
I0322 11:00:59.584599  4785 layer_factory.hpp:77] Creating layer inception_4d/relu_5x5_reduce
I0322 11:00:59.584604  4785 net.cpp:84] Creating Layer inception_4d/relu_5x5_reduce
I0322 11:00:59.584607  4785 net.cpp:406] inception_4d/relu_5x5_reduce <- inception_4d/5x5_reduce
I0322 11:00:59.584612  4785 net.cpp:367] inception_4d/relu_5x5_reduce -> inception_4d/5x5_reduce (in-place)
I0322 11:00:59.585325  4785 net.cpp:122] Setting up inception_4d/relu_5x5_reduce
I0322 11:00:59.585336  4785 net.cpp:129] Top shape: 10 32 14 14 (62720)
I0322 11:00:59.585340  4785 net.cpp:137] Memory required for data: 467389440
I0322 11:00:59.585342  4785 layer_factory.hpp:77] Creating layer inception_4d/5x5
I0322 11:00:59.585351  4785 net.cpp:84] Creating Layer inception_4d/5x5
I0322 11:00:59.585355  4785 net.cpp:406] inception_4d/5x5 <- inception_4d/5x5_reduce
I0322 11:00:59.585361  4785 net.cpp:380] inception_4d/5x5 -> inception_4d/5x5
I0322 11:00:59.586958  4785 net.cpp:122] Setting up inception_4d/5x5
I0322 11:00:59.586971  4785 net.cpp:129] Top shape: 10 64 14 14 (125440)
I0322 11:00:59.586974  4785 net.cpp:137] Memory required for data: 467891200
I0322 11:00:59.586979  4785 layer_factory.hpp:77] Creating layer inception_4d/relu_5x5
I0322 11:00:59.586987  4785 net.cpp:84] Creating Layer inception_4d/relu_5x5
I0322 11:00:59.586989  4785 net.cpp:406] inception_4d/relu_5x5 <- inception_4d/5x5
I0322 11:00:59.586993  4785 net.cpp:367] inception_4d/relu_5x5 -> inception_4d/5x5 (in-place)
I0322 11:00:59.587165  4785 net.cpp:122] Setting up inception_4d/relu_5x5
I0322 11:00:59.587175  4785 net.cpp:129] Top shape: 10 64 14 14 (125440)
I0322 11:00:59.587178  4785 net.cpp:137] Memory required for data: 468392960
I0322 11:00:59.587180  4785 layer_factory.hpp:77] Creating layer inception_4d/pool
I0322 11:00:59.587191  4785 net.cpp:84] Creating Layer inception_4d/pool
I0322 11:00:59.587194  4785 net.cpp:406] inception_4d/pool <- inception_4c/output_inception_4c/output_0_split_3
I0322 11:00:59.587198  4785 net.cpp:380] inception_4d/pool -> inception_4d/pool
I0322 11:00:59.587258  4785 net.cpp:122] Setting up inception_4d/pool
I0322 11:00:59.587265  4785 net.cpp:129] Top shape: 10 512 14 14 (1003520)
I0322 11:00:59.587267  4785 net.cpp:137] Memory required for data: 472407040
I0322 11:00:59.587270  4785 layer_factory.hpp:77] Creating layer inception_4d/pool_proj
I0322 11:00:59.587277  4785 net.cpp:84] Creating Layer inception_4d/pool_proj
I0322 11:00:59.587280  4785 net.cpp:406] inception_4d/pool_proj <- inception_4d/pool
I0322 11:00:59.587285  4785 net.cpp:380] inception_4d/pool_proj -> inception_4d/pool_proj
I0322 11:00:59.588824  4785 net.cpp:122] Setting up inception_4d/pool_proj
I0322 11:00:59.588837  4785 net.cpp:129] Top shape: 10 64 14 14 (125440)
I0322 11:00:59.588840  4785 net.cpp:137] Memory required for data: 472908800
I0322 11:00:59.588845  4785 layer_factory.hpp:77] Creating layer inception_4d/relu_pool_proj
I0322 11:00:59.588850  4785 net.cpp:84] Creating Layer inception_4d/relu_pool_proj
I0322 11:00:59.588855  4785 net.cpp:406] inception_4d/relu_pool_proj <- inception_4d/pool_proj
I0322 11:00:59.588860  4785 net.cpp:367] inception_4d/relu_pool_proj -> inception_4d/pool_proj (in-place)
I0322 11:00:59.589026  4785 net.cpp:122] Setting up inception_4d/relu_pool_proj
I0322 11:00:59.589035  4785 net.cpp:129] Top shape: 10 64 14 14 (125440)
I0322 11:00:59.589038  4785 net.cpp:137] Memory required for data: 473410560
I0322 11:00:59.589041  4785 layer_factory.hpp:77] Creating layer inception_4d/output
I0322 11:00:59.589046  4785 net.cpp:84] Creating Layer inception_4d/output
I0322 11:00:59.589049  4785 net.cpp:406] inception_4d/output <- inception_4d/1x1
I0322 11:00:59.589053  4785 net.cpp:406] inception_4d/output <- inception_4d/3x3
I0322 11:00:59.589056  4785 net.cpp:406] inception_4d/output <- inception_4d/5x5
I0322 11:00:59.589059  4785 net.cpp:406] inception_4d/output <- inception_4d/pool_proj
I0322 11:00:59.589063  4785 net.cpp:380] inception_4d/output -> inception_4d/output
I0322 11:00:59.589100  4785 net.cpp:122] Setting up inception_4d/output
I0322 11:00:59.589107  4785 net.cpp:129] Top shape: 10 528 14 14 (1034880)
I0322 11:00:59.589108  4785 net.cpp:137] Memory required for data: 477550080
I0322 11:00:59.589110  4785 layer_factory.hpp:77] Creating layer inception_4d/output_inception_4d/output_0_split
I0322 11:00:59.589115  4785 net.cpp:84] Creating Layer inception_4d/output_inception_4d/output_0_split
I0322 11:00:59.589118  4785 net.cpp:406] inception_4d/output_inception_4d/output_0_split <- inception_4d/output
I0322 11:00:59.589123  4785 net.cpp:380] inception_4d/output_inception_4d/output_0_split -> inception_4d/output_inception_4d/output_0_split_0
I0322 11:00:59.589128  4785 net.cpp:380] inception_4d/output_inception_4d/output_0_split -> inception_4d/output_inception_4d/output_0_split_1
I0322 11:00:59.589131  4785 net.cpp:380] inception_4d/output_inception_4d/output_0_split -> inception_4d/output_inception_4d/output_0_split_2
I0322 11:00:59.589135  4785 net.cpp:380] inception_4d/output_inception_4d/output_0_split -> inception_4d/output_inception_4d/output_0_split_3
I0322 11:00:59.589215  4785 net.cpp:122] Setting up inception_4d/output_inception_4d/output_0_split
I0322 11:00:59.589222  4785 net.cpp:129] Top shape: 10 528 14 14 (1034880)
I0322 11:00:59.589226  4785 net.cpp:129] Top shape: 10 528 14 14 (1034880)
I0322 11:00:59.589228  4785 net.cpp:129] Top shape: 10 528 14 14 (1034880)
I0322 11:00:59.589231  4785 net.cpp:129] Top shape: 10 528 14 14 (1034880)
I0322 11:00:59.589232  4785 net.cpp:137] Memory required for data: 494108160
I0322 11:00:59.589236  4785 layer_factory.hpp:77] Creating layer inception_4e/1x1
I0322 11:00:59.589246  4785 net.cpp:84] Creating Layer inception_4e/1x1
I0322 11:00:59.589248  4785 net.cpp:406] inception_4e/1x1 <- inception_4d/output_inception_4d/output_0_split_0
I0322 11:00:59.589252  4785 net.cpp:380] inception_4e/1x1 -> inception_4e/1x1
I0322 11:00:59.591184  4785 net.cpp:122] Setting up inception_4e/1x1
I0322 11:00:59.591197  4785 net.cpp:129] Top shape: 10 256 14 14 (501760)
I0322 11:00:59.591200  4785 net.cpp:137] Memory required for data: 496115200
I0322 11:00:59.591205  4785 layer_factory.hpp:77] Creating layer inception_4e/relu_1x1
I0322 11:00:59.591212  4785 net.cpp:84] Creating Layer inception_4e/relu_1x1
I0322 11:00:59.591215  4785 net.cpp:406] inception_4e/relu_1x1 <- inception_4e/1x1
I0322 11:00:59.591219  4785 net.cpp:367] inception_4e/relu_1x1 -> inception_4e/1x1 (in-place)
I0322 11:00:59.591383  4785 net.cpp:122] Setting up inception_4e/relu_1x1
I0322 11:00:59.591392  4785 net.cpp:129] Top shape: 10 256 14 14 (501760)
I0322 11:00:59.591394  4785 net.cpp:137] Memory required for data: 498122240
I0322 11:00:59.591398  4785 layer_factory.hpp:77] Creating layer inception_4e/3x3_reduce
I0322 11:00:59.591408  4785 net.cpp:84] Creating Layer inception_4e/3x3_reduce
I0322 11:00:59.591410  4785 net.cpp:406] inception_4e/3x3_reduce <- inception_4d/output_inception_4d/output_0_split_1
I0322 11:00:59.591415  4785 net.cpp:380] inception_4e/3x3_reduce -> inception_4e/3x3_reduce
I0322 11:00:59.593188  4785 net.cpp:122] Setting up inception_4e/3x3_reduce
I0322 11:00:59.593201  4785 net.cpp:129] Top shape: 10 160 14 14 (313600)
I0322 11:00:59.593204  4785 net.cpp:137] Memory required for data: 499376640
I0322 11:00:59.593209  4785 layer_factory.hpp:77] Creating layer inception_4e/relu_3x3_reduce
I0322 11:00:59.593215  4785 net.cpp:84] Creating Layer inception_4e/relu_3x3_reduce
I0322 11:00:59.593219  4785 net.cpp:406] inception_4e/relu_3x3_reduce <- inception_4e/3x3_reduce
I0322 11:00:59.593222  4785 net.cpp:367] inception_4e/relu_3x3_reduce -> inception_4e/3x3_reduce (in-place)
I0322 11:00:59.593389  4785 net.cpp:122] Setting up inception_4e/relu_3x3_reduce
I0322 11:00:59.593399  4785 net.cpp:129] Top shape: 10 160 14 14 (313600)
I0322 11:00:59.593401  4785 net.cpp:137] Memory required for data: 500631040
I0322 11:00:59.593403  4785 layer_factory.hpp:77] Creating layer inception_4e/3x3
I0322 11:00:59.593412  4785 net.cpp:84] Creating Layer inception_4e/3x3
I0322 11:00:59.593415  4785 net.cpp:406] inception_4e/3x3 <- inception_4e/3x3_reduce
I0322 11:00:59.593420  4785 net.cpp:380] inception_4e/3x3 -> inception_4e/3x3
I0322 11:00:59.597926  4785 net.cpp:122] Setting up inception_4e/3x3
I0322 11:00:59.597940  4785 net.cpp:129] Top shape: 10 320 14 14 (627200)
I0322 11:00:59.597944  4785 net.cpp:137] Memory required for data: 503139840
I0322 11:00:59.597949  4785 layer_factory.hpp:77] Creating layer inception_4e/relu_3x3
I0322 11:00:59.597954  4785 net.cpp:84] Creating Layer inception_4e/relu_3x3
I0322 11:00:59.597957  4785 net.cpp:406] inception_4e/relu_3x3 <- inception_4e/3x3
I0322 11:00:59.597961  4785 net.cpp:367] inception_4e/relu_3x3 -> inception_4e/3x3 (in-place)
I0322 11:00:59.598142  4785 net.cpp:122] Setting up inception_4e/relu_3x3
I0322 11:00:59.598155  4785 net.cpp:129] Top shape: 10 320 14 14 (627200)
I0322 11:00:59.598157  4785 net.cpp:137] Memory required for data: 505648640
I0322 11:00:59.598160  4785 layer_factory.hpp:77] Creating layer inception_4e/5x5_reduce
I0322 11:00:59.598168  4785 net.cpp:84] Creating Layer inception_4e/5x5_reduce
I0322 11:00:59.598172  4785 net.cpp:406] inception_4e/5x5_reduce <- inception_4d/output_inception_4d/output_0_split_2
I0322 11:00:59.598176  4785 net.cpp:380] inception_4e/5x5_reduce -> inception_4e/5x5_reduce
I0322 11:00:59.599642  4785 net.cpp:122] Setting up inception_4e/5x5_reduce
I0322 11:00:59.599655  4785 net.cpp:129] Top shape: 10 32 14 14 (62720)
I0322 11:00:59.599658  4785 net.cpp:137] Memory required for data: 505899520
I0322 11:00:59.599663  4785 layer_factory.hpp:77] Creating layer inception_4e/relu_5x5_reduce
I0322 11:00:59.599668  4785 net.cpp:84] Creating Layer inception_4e/relu_5x5_reduce
I0322 11:00:59.599671  4785 net.cpp:406] inception_4e/relu_5x5_reduce <- inception_4e/5x5_reduce
I0322 11:00:59.599676  4785 net.cpp:367] inception_4e/relu_5x5_reduce -> inception_4e/5x5_reduce (in-place)
I0322 11:00:59.600402  4785 net.cpp:122] Setting up inception_4e/relu_5x5_reduce
I0322 11:00:59.600415  4785 net.cpp:129] Top shape: 10 32 14 14 (62720)
I0322 11:00:59.600417  4785 net.cpp:137] Memory required for data: 506150400
I0322 11:00:59.600420  4785 layer_factory.hpp:77] Creating layer inception_4e/5x5
I0322 11:00:59.600430  4785 net.cpp:84] Creating Layer inception_4e/5x5
I0322 11:00:59.600432  4785 net.cpp:406] inception_4e/5x5 <- inception_4e/5x5_reduce
I0322 11:00:59.600438  4785 net.cpp:380] inception_4e/5x5 -> inception_4e/5x5
I0322 11:00:59.602973  4785 net.cpp:122] Setting up inception_4e/5x5
I0322 11:00:59.602987  4785 net.cpp:129] Top shape: 10 128 14 14 (250880)
I0322 11:00:59.602989  4785 net.cpp:137] Memory required for data: 507153920
I0322 11:00:59.602994  4785 layer_factory.hpp:77] Creating layer inception_4e/relu_5x5
I0322 11:00:59.603000  4785 net.cpp:84] Creating Layer inception_4e/relu_5x5
I0322 11:00:59.603004  4785 net.cpp:406] inception_4e/relu_5x5 <- inception_4e/5x5
I0322 11:00:59.603008  4785 net.cpp:367] inception_4e/relu_5x5 -> inception_4e/5x5 (in-place)
I0322 11:00:59.603184  4785 net.cpp:122] Setting up inception_4e/relu_5x5
I0322 11:00:59.603193  4785 net.cpp:129] Top shape: 10 128 14 14 (250880)
I0322 11:00:59.603196  4785 net.cpp:137] Memory required for data: 508157440
I0322 11:00:59.603199  4785 layer_factory.hpp:77] Creating layer inception_4e/pool
I0322 11:00:59.603205  4785 net.cpp:84] Creating Layer inception_4e/pool
I0322 11:00:59.603209  4785 net.cpp:406] inception_4e/pool <- inception_4d/output_inception_4d/output_0_split_3
I0322 11:00:59.603214  4785 net.cpp:380] inception_4e/pool -> inception_4e/pool
I0322 11:00:59.603271  4785 net.cpp:122] Setting up inception_4e/pool
I0322 11:00:59.603278  4785 net.cpp:129] Top shape: 10 528 14 14 (1034880)
I0322 11:00:59.603281  4785 net.cpp:137] Memory required for data: 512296960
I0322 11:00:59.603283  4785 layer_factory.hpp:77] Creating layer inception_4e/pool_proj
I0322 11:00:59.603291  4785 net.cpp:84] Creating Layer inception_4e/pool_proj
I0322 11:00:59.603294  4785 net.cpp:406] inception_4e/pool_proj <- inception_4e/pool
I0322 11:00:59.603299  4785 net.cpp:380] inception_4e/pool_proj -> inception_4e/pool_proj
I0322 11:00:59.604984  4785 net.cpp:122] Setting up inception_4e/pool_proj
I0322 11:00:59.604997  4785 net.cpp:129] Top shape: 10 128 14 14 (250880)
I0322 11:00:59.605000  4785 net.cpp:137] Memory required for data: 513300480
I0322 11:00:59.605005  4785 layer_factory.hpp:77] Creating layer inception_4e/relu_pool_proj
I0322 11:00:59.605010  4785 net.cpp:84] Creating Layer inception_4e/relu_pool_proj
I0322 11:00:59.605013  4785 net.cpp:406] inception_4e/relu_pool_proj <- inception_4e/pool_proj
I0322 11:00:59.605018  4785 net.cpp:367] inception_4e/relu_pool_proj -> inception_4e/pool_proj (in-place)
I0322 11:00:59.605188  4785 net.cpp:122] Setting up inception_4e/relu_pool_proj
I0322 11:00:59.605197  4785 net.cpp:129] Top shape: 10 128 14 14 (250880)
I0322 11:00:59.605199  4785 net.cpp:137] Memory required for data: 514304000
I0322 11:00:59.605202  4785 layer_factory.hpp:77] Creating layer inception_4e/output
I0322 11:00:59.605206  4785 net.cpp:84] Creating Layer inception_4e/output
I0322 11:00:59.605209  4785 net.cpp:406] inception_4e/output <- inception_4e/1x1
I0322 11:00:59.605213  4785 net.cpp:406] inception_4e/output <- inception_4e/3x3
I0322 11:00:59.605217  4785 net.cpp:406] inception_4e/output <- inception_4e/5x5
I0322 11:00:59.605221  4785 net.cpp:406] inception_4e/output <- inception_4e/pool_proj
I0322 11:00:59.605223  4785 net.cpp:380] inception_4e/output -> inception_4e/output
I0322 11:00:59.605260  4785 net.cpp:122] Setting up inception_4e/output
I0322 11:00:59.605265  4785 net.cpp:129] Top shape: 10 832 14 14 (1630720)
I0322 11:00:59.605268  4785 net.cpp:137] Memory required for data: 520826880
I0322 11:00:59.605269  4785 layer_factory.hpp:77] Creating layer pool4/3x3_s2
I0322 11:00:59.605275  4785 net.cpp:84] Creating Layer pool4/3x3_s2
I0322 11:00:59.605278  4785 net.cpp:406] pool4/3x3_s2 <- inception_4e/output
I0322 11:00:59.605283  4785 net.cpp:380] pool4/3x3_s2 -> pool4/3x3_s2
I0322 11:00:59.605332  4785 net.cpp:122] Setting up pool4/3x3_s2
I0322 11:00:59.605340  4785 net.cpp:129] Top shape: 10 832 7 7 (407680)
I0322 11:00:59.605341  4785 net.cpp:137] Memory required for data: 522457600
I0322 11:00:59.605345  4785 layer_factory.hpp:77] Creating layer pool4/3x3_s2_pool4/3x3_s2_0_split
I0322 11:00:59.605350  4785 net.cpp:84] Creating Layer pool4/3x3_s2_pool4/3x3_s2_0_split
I0322 11:00:59.605352  4785 net.cpp:406] pool4/3x3_s2_pool4/3x3_s2_0_split <- pool4/3x3_s2
I0322 11:00:59.605356  4785 net.cpp:380] pool4/3x3_s2_pool4/3x3_s2_0_split -> pool4/3x3_s2_pool4/3x3_s2_0_split_0
I0322 11:00:59.605360  4785 net.cpp:380] pool4/3x3_s2_pool4/3x3_s2_0_split -> pool4/3x3_s2_pool4/3x3_s2_0_split_1
I0322 11:00:59.605365  4785 net.cpp:380] pool4/3x3_s2_pool4/3x3_s2_0_split -> pool4/3x3_s2_pool4/3x3_s2_0_split_2
I0322 11:00:59.605368  4785 net.cpp:380] pool4/3x3_s2_pool4/3x3_s2_0_split -> pool4/3x3_s2_pool4/3x3_s2_0_split_3
I0322 11:00:59.605443  4785 net.cpp:122] Setting up pool4/3x3_s2_pool4/3x3_s2_0_split
I0322 11:00:59.605450  4785 net.cpp:129] Top shape: 10 832 7 7 (407680)
I0322 11:00:59.605453  4785 net.cpp:129] Top shape: 10 832 7 7 (407680)
I0322 11:00:59.605456  4785 net.cpp:129] Top shape: 10 832 7 7 (407680)
I0322 11:00:59.605458  4785 net.cpp:129] Top shape: 10 832 7 7 (407680)
I0322 11:00:59.605461  4785 net.cpp:137] Memory required for data: 528980480
I0322 11:00:59.605463  4785 layer_factory.hpp:77] Creating layer inception_5a/1x1
I0322 11:00:59.605471  4785 net.cpp:84] Creating Layer inception_5a/1x1
I0322 11:00:59.605474  4785 net.cpp:406] inception_5a/1x1 <- pool4/3x3_s2_pool4/3x3_s2_0_split_0
I0322 11:00:59.605479  4785 net.cpp:380] inception_5a/1x1 -> inception_5a/1x1
I0322 11:00:59.607764  4785 net.cpp:122] Setting up inception_5a/1x1
I0322 11:00:59.607779  4785 net.cpp:129] Top shape: 10 256 7 7 (125440)
I0322 11:00:59.607780  4785 net.cpp:137] Memory required for data: 529482240
I0322 11:00:59.607786  4785 layer_factory.hpp:77] Creating layer inception_5a/relu_1x1
I0322 11:00:59.607791  4785 net.cpp:84] Creating Layer inception_5a/relu_1x1
I0322 11:00:59.607795  4785 net.cpp:406] inception_5a/relu_1x1 <- inception_5a/1x1
I0322 11:00:59.607800  4785 net.cpp:367] inception_5a/relu_1x1 -> inception_5a/1x1 (in-place)
I0322 11:00:59.607967  4785 net.cpp:122] Setting up inception_5a/relu_1x1
I0322 11:00:59.607976  4785 net.cpp:129] Top shape: 10 256 7 7 (125440)
I0322 11:00:59.607980  4785 net.cpp:137] Memory required for data: 529984000
I0322 11:00:59.607981  4785 layer_factory.hpp:77] Creating layer inception_5a/3x3_reduce
I0322 11:00:59.607990  4785 net.cpp:84] Creating Layer inception_5a/3x3_reduce
I0322 11:00:59.607993  4785 net.cpp:406] inception_5a/3x3_reduce <- pool4/3x3_s2_pool4/3x3_s2_0_split_1
I0322 11:00:59.608000  4785 net.cpp:380] inception_5a/3x3_reduce -> inception_5a/3x3_reduce
I0322 11:00:59.609983  4785 net.cpp:122] Setting up inception_5a/3x3_reduce
I0322 11:00:59.609997  4785 net.cpp:129] Top shape: 10 160 7 7 (78400)
I0322 11:00:59.609999  4785 net.cpp:137] Memory required for data: 530297600
I0322 11:00:59.610004  4785 layer_factory.hpp:77] Creating layer inception_5a/relu_3x3_reduce
I0322 11:00:59.610009  4785 net.cpp:84] Creating Layer inception_5a/relu_3x3_reduce
I0322 11:00:59.610013  4785 net.cpp:406] inception_5a/relu_3x3_reduce <- inception_5a/3x3_reduce
I0322 11:00:59.610018  4785 net.cpp:367] inception_5a/relu_3x3_reduce -> inception_5a/3x3_reduce (in-place)
I0322 11:00:59.610188  4785 net.cpp:122] Setting up inception_5a/relu_3x3_reduce
I0322 11:00:59.610196  4785 net.cpp:129] Top shape: 10 160 7 7 (78400)
I0322 11:00:59.610199  4785 net.cpp:137] Memory required for data: 530611200
I0322 11:00:59.610203  4785 layer_factory.hpp:77] Creating layer inception_5a/3x3
I0322 11:00:59.610210  4785 net.cpp:84] Creating Layer inception_5a/3x3
I0322 11:00:59.610213  4785 net.cpp:406] inception_5a/3x3 <- inception_5a/3x3_reduce
I0322 11:00:59.610219  4785 net.cpp:380] inception_5a/3x3 -> inception_5a/3x3
I0322 11:00:59.615298  4785 net.cpp:122] Setting up inception_5a/3x3
I0322 11:00:59.615311  4785 net.cpp:129] Top shape: 10 320 7 7 (156800)
I0322 11:00:59.615314  4785 net.cpp:137] Memory required for data: 531238400
I0322 11:00:59.615320  4785 layer_factory.hpp:77] Creating layer inception_5a/relu_3x3
I0322 11:00:59.615325  4785 net.cpp:84] Creating Layer inception_5a/relu_3x3
I0322 11:00:59.615329  4785 net.cpp:406] inception_5a/relu_3x3 <- inception_5a/3x3
I0322 11:00:59.615334  4785 net.cpp:367] inception_5a/relu_3x3 -> inception_5a/3x3 (in-place)
I0322 11:00:59.615520  4785 net.cpp:122] Setting up inception_5a/relu_3x3
I0322 11:00:59.615530  4785 net.cpp:129] Top shape: 10 320 7 7 (156800)
I0322 11:00:59.615531  4785 net.cpp:137] Memory required for data: 531865600
I0322 11:00:59.615535  4785 layer_factory.hpp:77] Creating layer inception_5a/5x5_reduce
I0322 11:00:59.615543  4785 net.cpp:84] Creating Layer inception_5a/5x5_reduce
I0322 11:00:59.615546  4785 net.cpp:406] inception_5a/5x5_reduce <- pool4/3x3_s2_pool4/3x3_s2_0_split_2
I0322 11:00:59.615552  4785 net.cpp:380] inception_5a/5x5_reduce -> inception_5a/5x5_reduce
I0322 11:00:59.617168  4785 net.cpp:122] Setting up inception_5a/5x5_reduce
I0322 11:00:59.617182  4785 net.cpp:129] Top shape: 10 32 7 7 (15680)
I0322 11:00:59.617184  4785 net.cpp:137] Memory required for data: 531928320
I0322 11:00:59.617189  4785 layer_factory.hpp:77] Creating layer inception_5a/relu_5x5_reduce
I0322 11:00:59.617195  4785 net.cpp:84] Creating Layer inception_5a/relu_5x5_reduce
I0322 11:00:59.617199  4785 net.cpp:406] inception_5a/relu_5x5_reduce <- inception_5a/5x5_reduce
I0322 11:00:59.617203  4785 net.cpp:367] inception_5a/relu_5x5_reduce -> inception_5a/5x5_reduce (in-place)
I0322 11:00:59.617924  4785 net.cpp:122] Setting up inception_5a/relu_5x5_reduce
I0322 11:00:59.617938  4785 net.cpp:129] Top shape: 10 32 7 7 (15680)
I0322 11:00:59.617941  4785 net.cpp:137] Memory required for data: 531991040
I0322 11:00:59.617944  4785 layer_factory.hpp:77] Creating layer inception_5a/5x5
I0322 11:00:59.617952  4785 net.cpp:84] Creating Layer inception_5a/5x5
I0322 11:00:59.617956  4785 net.cpp:406] inception_5a/5x5 <- inception_5a/5x5_reduce
I0322 11:00:59.617961  4785 net.cpp:380] inception_5a/5x5 -> inception_5a/5x5
I0322 11:00:59.620535  4785 net.cpp:122] Setting up inception_5a/5x5
I0322 11:00:59.620549  4785 net.cpp:129] Top shape: 10 128 7 7 (62720)
I0322 11:00:59.620553  4785 net.cpp:137] Memory required for data: 532241920
I0322 11:00:59.620558  4785 layer_factory.hpp:77] Creating layer inception_5a/relu_5x5
I0322 11:00:59.620575  4785 net.cpp:84] Creating Layer inception_5a/relu_5x5
I0322 11:00:59.620579  4785 net.cpp:406] inception_5a/relu_5x5 <- inception_5a/5x5
I0322 11:00:59.620584  4785 net.cpp:367] inception_5a/relu_5x5 -> inception_5a/5x5 (in-place)
I0322 11:00:59.620759  4785 net.cpp:122] Setting up inception_5a/relu_5x5
I0322 11:00:59.620767  4785 net.cpp:129] Top shape: 10 128 7 7 (62720)
I0322 11:00:59.620770  4785 net.cpp:137] Memory required for data: 532492800
I0322 11:00:59.620774  4785 layer_factory.hpp:77] Creating layer inception_5a/pool
I0322 11:00:59.620780  4785 net.cpp:84] Creating Layer inception_5a/pool
I0322 11:00:59.620784  4785 net.cpp:406] inception_5a/pool <- pool4/3x3_s2_pool4/3x3_s2_0_split_3
I0322 11:00:59.620787  4785 net.cpp:380] inception_5a/pool -> inception_5a/pool
I0322 11:00:59.620848  4785 net.cpp:122] Setting up inception_5a/pool
I0322 11:00:59.620856  4785 net.cpp:129] Top shape: 10 832 7 7 (407680)
I0322 11:00:59.620858  4785 net.cpp:137] Memory required for data: 534123520
I0322 11:00:59.620860  4785 layer_factory.hpp:77] Creating layer inception_5a/pool_proj
I0322 11:00:59.620868  4785 net.cpp:84] Creating Layer inception_5a/pool_proj
I0322 11:00:59.620872  4785 net.cpp:406] inception_5a/pool_proj <- inception_5a/pool
I0322 11:00:59.620877  4785 net.cpp:380] inception_5a/pool_proj -> inception_5a/pool_proj
I0322 11:00:59.622740  4785 net.cpp:122] Setting up inception_5a/pool_proj
I0322 11:00:59.622753  4785 net.cpp:129] Top shape: 10 128 7 7 (62720)
I0322 11:00:59.622756  4785 net.cpp:137] Memory required for data: 534374400
I0322 11:00:59.622761  4785 layer_factory.hpp:77] Creating layer inception_5a/relu_pool_proj
I0322 11:00:59.622766  4785 net.cpp:84] Creating Layer inception_5a/relu_pool_proj
I0322 11:00:59.622769  4785 net.cpp:406] inception_5a/relu_pool_proj <- inception_5a/pool_proj
I0322 11:00:59.622776  4785 net.cpp:367] inception_5a/relu_pool_proj -> inception_5a/pool_proj (in-place)
I0322 11:00:59.622946  4785 net.cpp:122] Setting up inception_5a/relu_pool_proj
I0322 11:00:59.622954  4785 net.cpp:129] Top shape: 10 128 7 7 (62720)
I0322 11:00:59.622957  4785 net.cpp:137] Memory required for data: 534625280
I0322 11:00:59.622961  4785 layer_factory.hpp:77] Creating layer inception_5a/output
I0322 11:00:59.622964  4785 net.cpp:84] Creating Layer inception_5a/output
I0322 11:00:59.622967  4785 net.cpp:406] inception_5a/output <- inception_5a/1x1
I0322 11:00:59.622970  4785 net.cpp:406] inception_5a/output <- inception_5a/3x3
I0322 11:00:59.622977  4785 net.cpp:406] inception_5a/output <- inception_5a/5x5
I0322 11:00:59.622979  4785 net.cpp:406] inception_5a/output <- inception_5a/pool_proj
I0322 11:00:59.622983  4785 net.cpp:380] inception_5a/output -> inception_5a/output
I0322 11:00:59.623020  4785 net.cpp:122] Setting up inception_5a/output
I0322 11:00:59.623025  4785 net.cpp:129] Top shape: 10 832 7 7 (407680)
I0322 11:00:59.623028  4785 net.cpp:137] Memory required for data: 536256000
I0322 11:00:59.623029  4785 layer_factory.hpp:77] Creating layer inception_5a/output_inception_5a/output_0_split
I0322 11:00:59.623035  4785 net.cpp:84] Creating Layer inception_5a/output_inception_5a/output_0_split
I0322 11:00:59.623037  4785 net.cpp:406] inception_5a/output_inception_5a/output_0_split <- inception_5a/output
I0322 11:00:59.623041  4785 net.cpp:380] inception_5a/output_inception_5a/output_0_split -> inception_5a/output_inception_5a/output_0_split_0
I0322 11:00:59.623046  4785 net.cpp:380] inception_5a/output_inception_5a/output_0_split -> inception_5a/output_inception_5a/output_0_split_1
I0322 11:00:59.623051  4785 net.cpp:380] inception_5a/output_inception_5a/output_0_split -> inception_5a/output_inception_5a/output_0_split_2
I0322 11:00:59.623055  4785 net.cpp:380] inception_5a/output_inception_5a/output_0_split -> inception_5a/output_inception_5a/output_0_split_3
I0322 11:00:59.623136  4785 net.cpp:122] Setting up inception_5a/output_inception_5a/output_0_split
I0322 11:00:59.623142  4785 net.cpp:129] Top shape: 10 832 7 7 (407680)
I0322 11:00:59.623144  4785 net.cpp:129] Top shape: 10 832 7 7 (407680)
I0322 11:00:59.623147  4785 net.cpp:129] Top shape: 10 832 7 7 (407680)
I0322 11:00:59.623150  4785 net.cpp:129] Top shape: 10 832 7 7 (407680)
I0322 11:00:59.623152  4785 net.cpp:137] Memory required for data: 542778880
I0322 11:00:59.623154  4785 layer_factory.hpp:77] Creating layer inception_5b/1x1
I0322 11:00:59.623163  4785 net.cpp:84] Creating Layer inception_5b/1x1
I0322 11:00:59.623167  4785 net.cpp:406] inception_5b/1x1 <- inception_5a/output_inception_5a/output_0_split_0
I0322 11:00:59.623172  4785 net.cpp:380] inception_5b/1x1 -> inception_5b/1x1
I0322 11:00:59.626636  4785 net.cpp:122] Setting up inception_5b/1x1
I0322 11:00:59.626652  4785 net.cpp:129] Top shape: 10 384 7 7 (188160)
I0322 11:00:59.626654  4785 net.cpp:137] Memory required for data: 543531520
I0322 11:00:59.626659  4785 layer_factory.hpp:77] Creating layer inception_5b/relu_1x1
I0322 11:00:59.626664  4785 net.cpp:84] Creating Layer inception_5b/relu_1x1
I0322 11:00:59.626667  4785 net.cpp:406] inception_5b/relu_1x1 <- inception_5b/1x1
I0322 11:00:59.626673  4785 net.cpp:367] inception_5b/relu_1x1 -> inception_5b/1x1 (in-place)
I0322 11:00:59.626845  4785 net.cpp:122] Setting up inception_5b/relu_1x1
I0322 11:00:59.626854  4785 net.cpp:129] Top shape: 10 384 7 7 (188160)
I0322 11:00:59.626857  4785 net.cpp:137] Memory required for data: 544284160
I0322 11:00:59.626860  4785 layer_factory.hpp:77] Creating layer inception_5b/3x3_reduce
I0322 11:00:59.626869  4785 net.cpp:84] Creating Layer inception_5b/3x3_reduce
I0322 11:00:59.626873  4785 net.cpp:406] inception_5b/3x3_reduce <- inception_5a/output_inception_5a/output_0_split_1
I0322 11:00:59.626878  4785 net.cpp:380] inception_5b/3x3_reduce -> inception_5b/3x3_reduce
I0322 11:00:59.628990  4785 net.cpp:122] Setting up inception_5b/3x3_reduce
I0322 11:00:59.629004  4785 net.cpp:129] Top shape: 10 192 7 7 (94080)
I0322 11:00:59.629006  4785 net.cpp:137] Memory required for data: 544660480
I0322 11:00:59.629011  4785 layer_factory.hpp:77] Creating layer inception_5b/relu_3x3_reduce
I0322 11:00:59.629016  4785 net.cpp:84] Creating Layer inception_5b/relu_3x3_reduce
I0322 11:00:59.629020  4785 net.cpp:406] inception_5b/relu_3x3_reduce <- inception_5b/3x3_reduce
I0322 11:00:59.629026  4785 net.cpp:367] inception_5b/relu_3x3_reduce -> inception_5b/3x3_reduce (in-place)
I0322 11:00:59.629199  4785 net.cpp:122] Setting up inception_5b/relu_3x3_reduce
I0322 11:00:59.629207  4785 net.cpp:129] Top shape: 10 192 7 7 (94080)
I0322 11:00:59.629210  4785 net.cpp:137] Memory required for data: 545036800
I0322 11:00:59.629212  4785 layer_factory.hpp:77] Creating layer inception_5b/3x3
I0322 11:00:59.629220  4785 net.cpp:84] Creating Layer inception_5b/3x3
I0322 11:00:59.629223  4785 net.cpp:406] inception_5b/3x3 <- inception_5b/3x3_reduce
I0322 11:00:59.629228  4785 net.cpp:380] inception_5b/3x3 -> inception_5b/3x3
I0322 11:00:59.634735  4785 net.cpp:122] Setting up inception_5b/3x3
I0322 11:00:59.634748  4785 net.cpp:129] Top shape: 10 384 7 7 (188160)
I0322 11:00:59.634752  4785 net.cpp:137] Memory required for data: 545789440
I0322 11:00:59.634760  4785 layer_factory.hpp:77] Creating layer inception_5b/relu_3x3
I0322 11:00:59.634765  4785 net.cpp:84] Creating Layer inception_5b/relu_3x3
I0322 11:00:59.634769  4785 net.cpp:406] inception_5b/relu_3x3 <- inception_5b/3x3
I0322 11:00:59.634773  4785 net.cpp:367] inception_5b/relu_3x3 -> inception_5b/3x3 (in-place)
I0322 11:00:59.634958  4785 net.cpp:122] Setting up inception_5b/relu_3x3
I0322 11:00:59.634969  4785 net.cpp:129] Top shape: 10 384 7 7 (188160)
I0322 11:00:59.634973  4785 net.cpp:137] Memory required for data: 546542080
I0322 11:00:59.634974  4785 layer_factory.hpp:77] Creating layer inception_5b/5x5_reduce
I0322 11:00:59.634984  4785 net.cpp:84] Creating Layer inception_5b/5x5_reduce
I0322 11:00:59.634986  4785 net.cpp:406] inception_5b/5x5_reduce <- inception_5a/output_inception_5a/output_0_split_2
I0322 11:00:59.634991  4785 net.cpp:380] inception_5b/5x5_reduce -> inception_5b/5x5_reduce
I0322 11:00:59.636634  4785 net.cpp:122] Setting up inception_5b/5x5_reduce
I0322 11:00:59.636648  4785 net.cpp:129] Top shape: 10 48 7 7 (23520)
I0322 11:00:59.636651  4785 net.cpp:137] Memory required for data: 546636160
I0322 11:00:59.636656  4785 layer_factory.hpp:77] Creating layer inception_5b/relu_5x5_reduce
I0322 11:00:59.636662  4785 net.cpp:84] Creating Layer inception_5b/relu_5x5_reduce
I0322 11:00:59.636665  4785 net.cpp:406] inception_5b/relu_5x5_reduce <- inception_5b/5x5_reduce
I0322 11:00:59.636669  4785 net.cpp:367] inception_5b/relu_5x5_reduce -> inception_5b/5x5_reduce (in-place)
I0322 11:00:59.637403  4785 net.cpp:122] Setting up inception_5b/relu_5x5_reduce
I0322 11:00:59.637415  4785 net.cpp:129] Top shape: 10 48 7 7 (23520)
I0322 11:00:59.637418  4785 net.cpp:137] Memory required for data: 546730240
I0322 11:00:59.637420  4785 layer_factory.hpp:77] Creating layer inception_5b/5x5
I0322 11:00:59.637430  4785 net.cpp:84] Creating Layer inception_5b/5x5
I0322 11:00:59.637434  4785 net.cpp:406] inception_5b/5x5 <- inception_5b/5x5_reduce
I0322 11:00:59.637439  4785 net.cpp:380] inception_5b/5x5 -> inception_5b/5x5
I0322 11:00:59.639523  4785 net.cpp:122] Setting up inception_5b/5x5
I0322 11:00:59.639535  4785 net.cpp:129] Top shape: 10 128 7 7 (62720)
I0322 11:00:59.639539  4785 net.cpp:137] Memory required for data: 546981120
I0322 11:00:59.639544  4785 layer_factory.hpp:77] Creating layer inception_5b/relu_5x5
I0322 11:00:59.639549  4785 net.cpp:84] Creating Layer inception_5b/relu_5x5
I0322 11:00:59.639551  4785 net.cpp:406] inception_5b/relu_5x5 <- inception_5b/5x5
I0322 11:00:59.639556  4785 net.cpp:367] inception_5b/relu_5x5 -> inception_5b/5x5 (in-place)
I0322 11:00:59.639729  4785 net.cpp:122] Setting up inception_5b/relu_5x5
I0322 11:00:59.639737  4785 net.cpp:129] Top shape: 10 128 7 7 (62720)
I0322 11:00:59.639740  4785 net.cpp:137] Memory required for data: 547232000
I0322 11:00:59.639742  4785 layer_factory.hpp:77] Creating layer inception_5b/pool
I0322 11:00:59.639747  4785 net.cpp:84] Creating Layer inception_5b/pool
I0322 11:00:59.639750  4785 net.cpp:406] inception_5b/pool <- inception_5a/output_inception_5a/output_0_split_3
I0322 11:00:59.639756  4785 net.cpp:380] inception_5b/pool -> inception_5b/pool
I0322 11:00:59.639816  4785 net.cpp:122] Setting up inception_5b/pool
I0322 11:00:59.639824  4785 net.cpp:129] Top shape: 10 832 7 7 (407680)
I0322 11:00:59.639827  4785 net.cpp:137] Memory required for data: 548862720
I0322 11:00:59.639829  4785 layer_factory.hpp:77] Creating layer inception_5b/pool_proj
I0322 11:00:59.639837  4785 net.cpp:84] Creating Layer inception_5b/pool_proj
I0322 11:00:59.639840  4785 net.cpp:406] inception_5b/pool_proj <- inception_5b/pool
I0322 11:00:59.639844  4785 net.cpp:380] inception_5b/pool_proj -> inception_5b/pool_proj
I0322 11:00:59.641727  4785 net.cpp:122] Setting up inception_5b/pool_proj
I0322 11:00:59.641741  4785 net.cpp:129] Top shape: 10 128 7 7 (62720)
I0322 11:00:59.641744  4785 net.cpp:137] Memory required for data: 549113600
I0322 11:00:59.641749  4785 layer_factory.hpp:77] Creating layer inception_5b/relu_pool_proj
I0322 11:00:59.641754  4785 net.cpp:84] Creating Layer inception_5b/relu_pool_proj
I0322 11:00:59.641758  4785 net.cpp:406] inception_5b/relu_pool_proj <- inception_5b/pool_proj
I0322 11:00:59.641762  4785 net.cpp:367] inception_5b/relu_pool_proj -> inception_5b/pool_proj (in-place)
I0322 11:00:59.641934  4785 net.cpp:122] Setting up inception_5b/relu_pool_proj
I0322 11:00:59.641943  4785 net.cpp:129] Top shape: 10 128 7 7 (62720)
I0322 11:00:59.641945  4785 net.cpp:137] Memory required for data: 549364480
I0322 11:00:59.641948  4785 layer_factory.hpp:77] Creating layer inception_5b/output
I0322 11:00:59.641952  4785 net.cpp:84] Creating Layer inception_5b/output
I0322 11:00:59.641955  4785 net.cpp:406] inception_5b/output <- inception_5b/1x1
I0322 11:00:59.641959  4785 net.cpp:406] inception_5b/output <- inception_5b/3x3
I0322 11:00:59.641963  4785 net.cpp:406] inception_5b/output <- inception_5b/5x5
I0322 11:00:59.641965  4785 net.cpp:406] inception_5b/output <- inception_5b/pool_proj
I0322 11:00:59.641968  4785 net.cpp:380] inception_5b/output -> inception_5b/output
I0322 11:00:59.642009  4785 net.cpp:122] Setting up inception_5b/output
I0322 11:00:59.642014  4785 net.cpp:129] Top shape: 10 1024 7 7 (501760)
I0322 11:00:59.642015  4785 net.cpp:137] Memory required for data: 551371520
I0322 11:00:59.642017  4785 layer_factory.hpp:77] Creating layer pool5/7x7_s1
I0322 11:00:59.642024  4785 net.cpp:84] Creating Layer pool5/7x7_s1
I0322 11:00:59.642026  4785 net.cpp:406] pool5/7x7_s1 <- inception_5b/output
I0322 11:00:59.642030  4785 net.cpp:380] pool5/7x7_s1 -> pool5/7x7_s1
I0322 11:00:59.642877  4785 net.cpp:122] Setting up pool5/7x7_s1
I0322 11:00:59.642889  4785 net.cpp:129] Top shape: 10 1024 1 1 (10240)
I0322 11:00:59.642891  4785 net.cpp:137] Memory required for data: 551412480
I0322 11:00:59.642894  4785 layer_factory.hpp:77] Creating layer pool5/drop_7x7_s1
I0322 11:00:59.642900  4785 net.cpp:84] Creating Layer pool5/drop_7x7_s1
I0322 11:00:59.642902  4785 net.cpp:406] pool5/drop_7x7_s1 <- pool5/7x7_s1
I0322 11:00:59.642906  4785 net.cpp:367] pool5/drop_7x7_s1 -> pool5/7x7_s1 (in-place)
I0322 11:00:59.642946  4785 net.cpp:122] Setting up pool5/drop_7x7_s1
I0322 11:00:59.642951  4785 net.cpp:129] Top shape: 10 1024 1 1 (10240)
I0322 11:00:59.642953  4785 net.cpp:137] Memory required for data: 551453440
I0322 11:00:59.642956  4785 layer_factory.hpp:77] Creating layer loss3/classifier
I0322 11:00:59.642966  4785 net.cpp:84] Creating Layer loss3/classifier
I0322 11:00:59.642967  4785 net.cpp:406] loss3/classifier <- pool5/7x7_s1
I0322 11:00:59.642972  4785 net.cpp:380] loss3/classifier -> loss3/classifier
I0322 11:00:59.648425  4785 net.cpp:122] Setting up loss3/classifier
I0322 11:00:59.648439  4785 net.cpp:129] Top shape: 10 1000 (10000)
I0322 11:00:59.648442  4785 net.cpp:137] Memory required for data: 551493440
I0322 11:00:59.648447  4785 layer_factory.hpp:77] Creating layer prob
I0322 11:00:59.648453  4785 net.cpp:84] Creating Layer prob
I0322 11:00:59.648457  4785 net.cpp:406] prob <- loss3/classifier
I0322 11:00:59.648460  4785 net.cpp:380] prob -> prob
I0322 11:00:59.649299  4785 net.cpp:122] Setting up prob
I0322 11:00:59.649312  4785 net.cpp:129] Top shape: 10 1000 (10000)
I0322 11:00:59.649315  4785 net.cpp:137] Memory required for data: 551533440
I0322 11:00:59.649318  4785 net.cpp:200] prob does not need backward computation.
I0322 11:00:59.649320  4785 net.cpp:200] loss3/classifier does not need backward computation.
I0322 11:00:59.649323  4785 net.cpp:200] pool5/drop_7x7_s1 does not need backward computation.
I0322 11:00:59.649325  4785 net.cpp:200] pool5/7x7_s1 does not need backward computation.
…
