…
snapshot_prefix: "./snapshot/douyu_2700_train"
test_initialization: false
average_loss: 20
iter_size: 10
I0322 10:03:57.193610  5655 solver.cpp:77] Creating training net from train_net file: trainval.prototxt
I0322 10:03:57.196244  5655 net.cpp:51] Initializing net from parameters: 
state {
  phase: TRAIN
}
layer {
  name: "data"
  type: "Python"
  top: "data"
  top: "sem"
  python_param {
    module: "data_layers"
    layer: "Douyu1000SegDataLayer"
    param_str: "{\'data_dir\': \'../../data/douyu_2700\', \'seed\': 1337, \'split\': \'trainval\'}"
  }
}
layer {
  name: "conv1/7x7_s2"
  type: "Convolution"
  bottom: "data"
  top: "conv1/7x7_s2"
  param {
    lr_mult: 1
    decay_mult: 1
  }
  param {
    lr_mult: 2
    decay_mult: 0
  }
  convolution_param {
    num_output: 64
    pad: 9
    kernel_size: 7
    stride: 2
    weight_filler {
      type: "xavier"
    }
    bias_filler {
      type: "constant"
      value: 0.2
    }
  }
}
layer {
  name: "conv1/relu_7x7"
  type: "ReLU"
  bottom: "conv1/7x7_s2"
  top: "conv1/7x7_s2"
}
layer {
  name: "pool1/3x3_s2"
  type: "Pooling"
  bottom: "conv1/7x7_s2"
  top: "pool1/3x3_s2"
  pooling_param {
    pool: MAX
    kernel_size: 3
    stride: 2
  }
}
layer {
  name: "pool1/norm1"
  type: "LRN"
  bottom: "pool1/3x3_s2"
  top: "pool1/norm1"
  lrn_param {
    local_size: 5
    alpha: 0.0001
    beta: 0.75
  }
}
layer {
  name: "conv2/3x3_reduce"
  type: "Convolution"
  bottom: "pool1/norm1"
  top: "conv2/3x3_reduce"
  param {
    lr_mult: 1
    decay_mult: 1
  }
  param {
    lr_mult: 2
    decay_mult: 0
  }
  convolution_param {
    num_output: 64
    kernel_size: 1
    weight_filler {
      type: "xavier"
    }
    bias_filler {
      type: "constant"
      value: 0.2
    }
  }
}
layer {
  name: "conv2/relu_3x3_reduce"
  type: "ReLU"
  bottom: "conv2/3x3_reduce"
  top: "conv2/3x3_reduce"
}
layer {
  name: "conv2/3x3"
  type: "Convolution"
  bottom: "conv2/3x3_reduce"
  top: "conv2/3x3"
  param {
    lr_mult: 1
    decay_mult: 1
  }
  param {
    lr_mult: 2
    decay_mult: 0
  }
  convolution_param {
    num_output: 192
    pad: 1
    kernel_size: 3
    weight_filler {
      type: "xavier"
    }
    bias_filler {
      type: "constant"
      value: 0.2
    }
  }
}
layer {
  name: "conv2/relu_3x3"
  type: "ReLU"
  bottom: "conv2/3x3"
  top: "conv2/3x3"
}
layer {
  name: "conv2/norm2"
  type: "LRN"
  bottom: "conv2/3x3"
  top: "conv2/norm2"
  lrn_param {
    local_size: 5
    alpha: 0.0001
    beta: 0.75
  }
}
layer {
  name: "pool2/3x3_s2"
  type: "Pooling"
  bottom: "conv2/norm2"
  top: "pool2/3x3_s2"
  pooling_param {
    pool: MAX
    kernel_size: 3
    stride: 2
  }
}
layer {
  name: "inception_3a/1x1"
  type: "Convolution"
  bottom: "pool2/3x3_s2"
  top: "inception_3a/1x1"
  param {
    lr_mult: 1
    decay_mult: 1
  }
  param {
    lr_mult: 2
    decay_mult: 0
  }
  convolution_param {
    num_output: 64
    kernel_size: 1
    weight_filler {
      type: "xavier"
    }
    bias_filler {
      type: "constant"
      value: 0.2
    }
  }
}
layer {
  name: "inception_3a/relu_1x1"
  type: "ReLU"
  bottom: "inception_3a/1x1"
  top: "inception_3a/1x1"
}
layer {
  name: "inception_3a/3x3_reduce"
  type: "Convolution"
  bottom: "pool2/3x3_s2"
  top: "inception_3a/3x3_reduce"
  param {
    lr_mult: 1
    decay_mult: 1
  }
  param {
    lr_mult: 2
    decay_mult: 0
  }
  convolution_param {
    num_output: 96
    kernel_size: 1
    weight_filler {
      type: "xavier"
    }
    bias_filler {
      type: "constant"
      value: 0.2
    }
  }
}
layer {
  name: "inception_3a/relu_3x3_reduce"
  type: "ReLU"
  bottom: "inception_3a/3x3_reduce"
  top: "inception_3a/3x3_reduce"
}
layer {
  name: "inception_3a/3x3"
  type: "Convolution"
  bottom: "inception_3a/3x3_reduce"
  top: "inception_3a/3x3"
  param {
    lr_mult: 1
    decay_mult: 1
  }
  param {
    lr_mult: 2
    decay_mult: 0
  }
  convolution_param {
    num_output: 128
    pad: 1
    kernel_size: 3
    weight_filler {
      type: "xavier"
    }
    bias_filler {
      type: "constant"
      value: 0.2
    }
  }
}
layer {
  name: "inception_3a/relu_3x3"
  type: "ReLU"
  bottom: "inception_3a/3x3"
  top: "inception_3a/3x3"
}
layer {
  name: "inception_3a/5x5_reduce"
  type: "Convolution"
  bottom: "pool2/3x3_s2"
  top: "inception_3a/5x5_reduce"
  param {
    lr_mult: 1
    decay_mult: 1
  }
  param {
    lr_mult: 2
    decay_mult: 0
  }
  convolution_param {
    num_output: 16
    kernel_size: 1
    weight_filler {
      type: "xavier"
    }
    bias_filler {
      type: "constant"
      value: 0.2
    }
  }
}
layer {
  name: "inception_3a/relu_5x5_reduce"
  type: "ReLU"
  bottom: "inception_3a/5x5_reduce"
  top: "inception_3a/5x5_reduce"
}
layer {
  name: "inception_3a/5x5"
  type: "Convolution"
  bottom: "inception_3a/5x5_reduce"
  top: "inception_3a/5x5"
  param {
    lr_mult: 1
    decay_mult: 1
  }
  param {
    lr_mult: 2
    decay_mult: 0
  }
  convolution_param {
    num_output: 32
    pad: 2
    kernel_size: 5
    weight_filler {
      type: "xavier"
    }
    bias_filler {
      type: "constant"
      value: 0.2
    }
  }
}
layer {
  name: "inception_3a/relu_5x5"
  type: "ReLU"
  bottom: "inception_3a/5x5"
  top: "inception_3a/5x5"
}
layer {
  name: "inception_3a/pool"
  type: "Pooling"
  bottom: "pool2/3x3_s2"
  top: "inception_3a/pool"
  pooling_param {
    pool: MAX
    kernel_size: 3
    stride: 1
    pad: 1
  }
}
layer {
  name: "inception_3a/pool_proj"
  type: "Convolution"
  bottom: "inception_3a/pool"
  top: "inception_3a/pool_proj"
  param {
    lr_mult: 1
    decay_mult: 1
  }
  param {
    lr_mult: 2
    decay_mult: 0
  }
  convolution_param {
    num_output: 32
    kernel_size: 1
    weight_filler {
      type: "xavier"
    }
    bias_filler {
      type: "constant"
      value: 0.2
    }
  }
}
layer {
  name: "inception_3a/relu_pool_proj"
  type: "ReLU"
  bottom: "inception_3a/pool_proj"
  top: "inception_3a/pool_proj"
}
layer {
  name: "inception_3a/output"
  type: "Concat"
  bottom: "inception_3a/1x1"
  bottom: "inception_3a/3x3"
  bottom: "inception_3a/5x5"
  bottom: "inception_3a/pool_proj"
  top: "inception_3a/output"
}
layer {
  name: "inception_3b/1x1"
  type: "Convolution"
  bottom: "inception_3a/output"
  top: "inception_3b/1x1"
  param {
    lr_mult: 1
    decay_mult: 1
  }
  param {
    lr_mult: 2
    decay_mult: 0
  }
  convolution_param {
    num_output: 128
    kernel_size: 1
    weight_filler {
      type: "xavier"
    }
    bias_filler {
      type: "constant"
      value: 0.2
    }
  }
}
layer {
  name: "inception_3b/relu_1x1"
  type: "ReLU"
  bottom: "inception_3b/1x1"
  top: "inception_3b/1x1"
}
layer {
  name: "inception_3b/3x3_reduce"
  type: "Convolution"
  bottom: "inception_3a/output"
  top: "inception_3b/3x3_reduce"
  param {
    lr_mult: 1
    decay_mult: 1
  }
  param {
    lr_mult: 2
    decay_mult: 0
  }
  convolution_param {
    num_output: 128
    kernel_size: 1
    weight_filler {
      type: "xavier"
    }
    bias_filler {
      type: "constant"
      value: 0.2
    }
  }
}
layer {
  name: "inception_3b/relu_3x3_reduce"
  type: "ReLU"
  bottom: "inception_3b/3x3_reduce"
  top: "inception_3b/3x3_reduce"
}
layer {
  name: "inception_3b/3x3"
  type: "Convolution"
  bottom: "inception_3b/3x3_reduce"
  top: "inception_3b/3x3"
  param {
    lr_mult: 1
    decay_mult: 1
  }
  param {
    lr_mult: 2
    decay_mult: 0
  }
  convolution_param {
    num_output: 192
    pad: 1
    kernel_size: 3
    weight_filler {
      type: "xavier"
    }
    bias_filler {
      type: "constant"
      value: 0.2
    }
  }
}
layer {
  name: "inception_3b/relu_3x3"
  type: "ReLU"
  bottom: "inception_3b/3x3"
  top: "inception_3b/3x3"
}
layer {
  name: "inception_3b/5x5_reduce"
  type: "Convolution"
  bottom: "inception_3a/output"
  top: "inception_3b/5x5_reduce"
  param {
    lr_mult: 1
    decay_mult: 1
  }
  param {
    lr_mult: 2
    decay_mult: 0
  }
  convolution_param {
    num_output: 32
    kernel_size: 1
    weight_filler {
      type: "xavier"
    }
    bias_filler {
      type: "constant"
      value: 0.2
    }
  }
}
layer {
  name: "inception_3b/relu_5x5_reduce"
  type: "ReLU"
  bottom: "inception_3b/5x5_reduce"
  top: "inception_3b/5x5_reduce"
}
layer {
  name: "inception_3b/5x5"
  type: "Convolution"
  bottom: "inception_3b/5x5_reduce"
  top: "inception_3b/5x5"
  param {
    lr_mult: 1
    decay_mult: 1
  }
  param {
    lr_mult: 2
    decay_mult: 0
  }
  convolution_param {
    num_output: 96
    pad: 2
    kernel_size: 5
    weight_filler {
      type: "xavier"
    }
    bias_filler {
      type: "constant"
      value: 0.2
    }
  }
}
layer {
  name: "inception_3b/relu_5x5"
  type: "ReLU"
  bottom: "inception_3b/5x5"
  top: "inception_3b/5x5"
}
layer {
  name: "inception_3b/pool"
  type: "Pooling"
  bottom: "inception_3a/output"
  top: "inception_3b/pool"
  pooling_param {
    pool: MAX
    kernel_size: 3
    stride: 1
    pad: 1
  }
}
layer {
  name: "inception_3b/pool_proj"
  type: "Convolution"
  bottom: "inception_3b/pool"
  top: "inception_3b/pool_proj"
  param {
    lr_mult: 1
    decay_mult: 1
  }
  param {
    lr_mult: 2
    decay_mult: 0
  }
  convolution_param {
    num_output: 64
    kernel_size: 1
    weight_filler {
      type: "xavier"
    }
    bias_filler {
      type: "constant"
      value: 0.2
    }
  }
}
layer {
  name: "inception_3b/relu_pool_proj"
  type: "ReLU"
  bottom: "inception_3b/pool_proj"
  top: "inception_3b/pool_proj"
}
layer {
  name: "inception_3b/output"
  type: "Concat"
  bottom: "inception_3b/1x1"
  bottom: "inception_3b/3x3"
  bottom: "inception_3b/5x5"
  bottom: "inception_3b/pool_proj"
  top: "inception_3b/output"
}
layer {
  name: "pool3/3x3_s2"
  type: "Pooling"
  bottom: "inception_3b/output"
  top: "pool3/3x3_s2"
  pooling_param {
    pool: MAX
    kernel_size: 3
    stride: 2
  }
}
layer {
  name: "inception_4a/1x1"
  type: "Convolution"
  bottom: "pool3/3x3_s2"
  top: "inception_4a/1x1"
  param {
    lr_mult: 1
    decay_mult: 1
  }
  param {
    lr_mult: 2
    decay_mult: 0
  }
  convolution_param {
    num_output: 192
    kernel_size: 1
    weight_filler {
      type: "xavier"
    }
    bias_filler {
      type: "constant"
      value: 0.2
    }
  }
}
layer {
  name: "inception_4a/relu_1x1"
  type: "ReLU"
  bottom: "inception_4a/1x1"
  top: "inception_4a/1x1"
}
layer {
  name: "inception_4a/3x3_reduce"
  type: "Convolution"
  bottom: "pool3/3x3_s2"
  top: "inception_4a/3x3_reduce"
  param {
    lr_mult: 1
    decay_mult: 1
  }
  param {
    lr_mult: 2
    decay_mult: 0
  }
  convolution_param {
    num_output: 96
    kernel_size: 1
    weight_filler {
      type: "xavier"
    }
    bias_filler {
      type: "constant"
      value: 0.2
    }
  }
}
layer {
  name: "inception_4a/relu_3x3_reduce"
  type: "ReLU"
  bottom: "inception_4a/3x3_reduce"
  top: "inception_4a/3x3_reduce"
}
layer {
  name: "inception_4a/3x3"
  type: "Convolution"
  bottom: "inception_4a/3x3_reduce"
  top: "inception_4a/3x3"
  param {
    lr_mult: 1
    decay_mult: 1
  }
  param {
    lr_mult: 2
    decay_mult: 0
  }
  convolution_param {
    num_output: 208
    pad: 1
    kernel_size: 3
    weight_filler {
      type: "xavier"
    }
    bias_filler {
      type: "constant"
      value: 0.2
    }
  }
}
layer {
  name: "inception_4a/relu_3x3"
  type: "ReLU"
  bottom: "inception_4a/3x3"
  top: "inception_4a/3x3"
}
layer {
  name: "inception_4a/5x5_reduce"
  type: "Convolution"
  bottom: "pool3/3x3_s2"
  top: "inception_4a/5x5_reduce"
  param {
    lr_mult: 1
    decay_mult: 1
  }
  param {
    lr_mult: 2
    decay_mult: 0
  }
  convolution_param {
    num_output: 16
    kernel_size: 1
    weight_filler {
      type: "xavier"
    }
    bias_filler {
      type: "constant"
      value: 0.2
    }
  }
}
layer {
  name: "inception_4a/relu_5x5_reduce"
  type: "ReLU"
  bottom: "inception_4a/5x5_reduce"
  top: "inception_4a/5x5_reduce"
}
layer {
  name: "inception_4a/5x5"
  type: "Convolution"
  bottom: "inception_4a/5x5_reduce"
  top: "inception_4a/5x5"
  param {
    lr_mult: 1
    decay_mult: 1
  }
  param {
    lr_mult: 2
    decay_mult: 0
  }
  convolution_param {
    num_output: 48
    pad: 2
    kernel_size: 5
    weight_filler {
      type: "xavier"
    }
    bias_filler {
      type: "constant"
      value: 0.2
    }
  }
}
layer {
  name: "inception_4a/relu_5x5"
  type: "ReLU"
  bottom: "inception_4a/5x5"
  top: "inception_4a/5x5"
}
layer {
  name: "inception_4a/pool"
  type: "Pooling"
  bottom: "pool3/3x3_s2"
  top: "inception_4a/pool"
  pooling_param {
    pool: MAX
    kernel_size: 3
    stride: 1
    pad: 1
  }
}
layer {
  name: "inception_4a/pool_proj"
  type: "Convolution"
  bottom: "inception_4a/pool"
  top: "inception_4a/pool_proj"
  param {
    lr_mult: 1
    decay_mult: 1
  }
  param {
    lr_mult: 2
    decay_mult: 0
  }
  convolution_param {
    num_output: 64
    kernel_size: 1
    weight_filler {
      type: "xavier"
    }
    bias_filler {
      type: "constant"
      value: 0.2
    }
  }
}
layer {
  name: "inception_4a/relu_pool_proj"
  type: "ReLU"
  bottom: "inception_4a/pool_proj"
  top: "inception_4a/pool_proj"
}
layer {
  name: "inception_4a/output"
  type: "Concat"
  bottom: "inception_4a/1x1"
  bottom: "inception_4a/3x3"
  bottom: "inception_4a/5x5"
  bottom: "inception_4a/pool_proj"
  top: "inception_4a/output"
}
layer {
  name: "inception_4b/1x1"
  type: "Convolution"
  bottom: "inception_4a/output"
  top: "inception_4b/1x1"
  param {
    lr_mult: 1
    decay_mult: 1
  }
  param {
    lr_mult: 2
    decay_mult: 0
  }
  convolution_param {
    num_output: 160
    kernel_size: 1
    weight_filler {
      type: "xavier"
    }
    bias_filler {
      type: "constant"
      value: 0.2
    }
  }
}
layer {
  name: "inception_4b/relu_1x1"
  type: "ReLU"
  bottom: "inception_4b/1x1"
  top: "inception_4b/1x1"
}
layer {
  name: "inception_4b/3x3_reduce"
  type: "Convolution"
  bottom: "inception_4a/output"
  top: "inception_4b/3x3_reduce"
  param {
    lr_mult: 1
    decay_mult: 1
  }
  param {
    lr_mult: 2
    decay_mult: 0
  }
  convolution_param {
    num_output: 112
    kernel_size: 1
    weight_filler {
      type: "xavier"
    }
    bias_filler {
      type: "constant"
      value: 0.2
    }
  }
}
layer {
  name: "inception_4b/relu_3x3_reduce"
  type: "ReLU"
  bottom: "inception_4b/3x3_reduce"
  top: "inception_4b/3x3_reduce"
}
layer {
  name: "inception_4b/3x3"
  type: "Convolution"
  bottom: "inception_4b/3x3_reduce"
  top: "inception_4b/3x3"
  param {
    lr_mult: 1
    decay_mult: 1
  }
  param {
    lr_mult: 2
    decay_mult: 0
  }
  convolution_param {
    num_output: 224
    pad: 1
    kernel_size: 3
    weight_filler {
      type: "xavier"
    }
    bias_filler {
      type: "constant"
      value: 0.2
    }
  }
}
layer {
  name: "inception_4b/relu_3x3"
  type: "ReLU"
  bottom: "inception_4b/3x3"
  top: "inception_4b/3x3"
}
layer {
  name: "inception_4b/5x5_reduce"
  type: "Convolution"
  bottom: "inception_4a/output"
  top: "inception_4b/5x5_reduce"
  param {
    lr_mult: 1
    decay_mult: 1
  }
  param {
    lr_mult: 2
    decay_mult: 0
  }
  convolution_param {
    num_output: 24
    kernel_size: 1
    weight_filler {
      type: "xavier"
    }
    bias_filler {
      type: "constant"
      value: 0.2
    }
  }
}
layer {
  name: "inception_4b/relu_5x5_reduce"
  type: "ReLU"
  bottom: "inception_4b/5x5_reduce"
  top: "inception_4b/5x5_reduce"
}
layer {
  name: "inception_4b/5x5"
  type: "Convolution"
  bottom: "inception_4b/5x5_reduce"
  top: "inception_4b/5x5"
  param {
    lr_mult: 1
    decay_mult: 1
  }
  param {
    lr_mult: 2
    decay_mult: 0
  }
  convolution_param {
    num_output: 64
    pad: 2
    kernel_size: 5
    weight_filler {
      type: "xavier"
    }
    bias_filler {
      type: "constant"
      value: 0.2
    }
  }
}
layer {
  name: "inception_4b/relu_5x5"
  type: "ReLU"
  bottom: "inception_4b/5x5"
  top: "inception_4b/5x5"
}
layer {
  name: "inception_4b/pool"
  type: "Pooling"
  bottom: "inception_4a/output"
  top: "inception_4b/pool"
  pooling_param {
    pool: MAX
    kernel_size: 3
    stride: 1
    pad: 1
  }
}
layer {
  name: "inception_4b/pool_proj"
  type: "Convolution"
  bottom: "inception_4b/pool"
  top: "inception_4b/pool_proj"
  param {
    lr_mult: 1
    decay_mult: 1
  }
  param {
    lr_mult: 2
    decay_mult: 0
  }
  convolution_param {
    num_output: 64
    kernel_size: 1
    weight_filler {
      type: "xavier"
    }
    bias_filler {
      type: "constant"
      value: 0.2
    }
  }
}
layer {
  name: "inception_4b/relu_pool_proj"
  type: "ReLU"
  bottom: "inception_4b/pool_proj"
  top: "inception_4b/pool_proj"
}
layer {
  name: "inception_4b/output"
  type: "Concat"
  bottom: "inception_4b/1x1"
  bottom: "inception_4b/3x3"
  bottom: "inception_4b/5x5"
  bottom: "inception_4b/pool_proj"
  top: "inception_4b/output"
}
layer {
  name: "inception_4c/1x1"
  type: "Convolution"
  bottom: "inception_4b/output"
  top: "inception_4c/1x1"
  param {
    lr_mult: 1
    decay_mult: 1
  }
  param {
    lr_mult: 2
    decay_mult: 0
  }
  convolution_param {
    num_output: 128
    kernel_size: 1
    weight_filler {
      type: "xavier"
    }
    bias_filler {
      type: "constant"
      value: 0.2
    }
  }
}
layer {
  name: "inception_4c/relu_1x1"
  type: "ReLU"
  bottom: "inception_4c/1x1"
  top: "inception_4c/1x1"
}
layer {
  name: "inception_4c/3x3_reduce"
  type: "Convolution"
  bottom: "inception_4b/output"
  top: "inception_4c/3x3_reduce"
  param {
    lr_mult: 1
    decay_mult: 1
  }
  param {
    lr_mult: 2
    decay_mult: 0
  }
  convolution_param {
    num_output: 128
    kernel_size: 1
    weight_filler {
      type: "xavier"
    }
    bias_filler {
      type: "constant"
      value: 0.2
    }
  }
}
layer {
  name: "inception_4c/relu_3x3_reduce"
  type: "ReLU"
  bottom: "inception_4c/3x3_reduce"
  top: "inception_4c/3x3_reduce"
}
layer {
  name: "inception_4c/3x3"
  type: "Convolution"
  bottom: "inception_4c/3x3_reduce"
  top: "inception_4c/3x3"
  param {
    lr_mult: 1
    decay_mult: 1
  }
  param {
    lr_mult: 2
    decay_mult: 0
  }
  convolution_param {
    num_output: 256
    pad: 1
    kernel_size: 3
    weight_filler {
      type: "xavier"
    }
    bias_filler {
      type: "constant"
      value: 0.2
    }
  }
}
layer {
  name: "inception_4c/relu_3x3"
  type: "ReLU"
  bottom: "inception_4c/3x3"
  top: "inception_4c/3x3"
}
layer {
  name: "inception_4c/5x5_reduce"
  type: "Convolution"
  bottom: "inception_4b/output"
  top: "inception_4c/5x5_reduce"
  param {
    lr_mult: 1
    decay_mult: 1
  }
  param {
    lr_mult: 2
    decay_mult: 0
  }
  convolution_param {
    num_output: 24
    kernel_size: 1
    weight_filler {
      type: "xavier"
    }
    bias_filler {
      type: "constant"
      value: 0.2
    }
  }
}
layer {
  name: "inception_4c/relu_5x5_reduce"
  type: "ReLU"
  bottom: "inception_4c/5x5_reduce"
  top: "inception_4c/5x5_reduce"
}
layer {
  name: "inception_4c/5x5"
  type: "Convolution"
  bottom: "inception_4c/5x5_reduce"
  top: "inception_4c/5x5"
  param {
    lr_mult: 1
    decay_mult: 1
  }
  param {
    lr_mult: 2
    decay_mult: 0
  }
  convolution_param {
    num_output: 64
    pad: 2
    kernel_size: 5
    weight_filler {
      type: "xavier"
    }
    bias_filler {
      type: "constant"
      value: 0.2
    }
  }
}
layer {
  name: "inception_4c/relu_5x5"
  type: "ReLU"
  bottom: "inception_4c/5x5"
  top: "inception_4c/5x5"
}
layer {
  name: "inception_4c/pool"
  type: "Pooling"
  bottom: "inception_4b/output"
  top: "inception_4c/pool"
  pooling_param {
    pool: MAX
    kernel_size: 3
    stride: 1
    pad: 1
  }
}
layer {
  name: "inception_4c/pool_proj"
  type: "Convolution"
  bottom: "inception_4c/pool"
  top: "inception_4c/pool_proj"
  param {
    lr_mult: 1
    decay_mult: 1
  }
  param {
    lr_mult: 2
    decay_mult: 0
  }
  convolution_param {
    num_output: 64
    kernel_size: 1
    weight_filler {
      type: "xavier"
    }
    bias_filler {
      type: "constant"
      value: 0.2
    }
  }
}
layer {
  name: "inception_4c/relu_pool_proj"
  type: "ReLU"
  bottom: "inception_4c/pool_proj"
  top: "inception_4c/pool_proj"
}
layer {
  name: "inception_4c/output"
  type: "Concat"
  bottom: "inception_4c/1x1"
  bottom: "inception_4c/3x3"
  bottom: "inception_4c/5x5"
  bottom: "inception_4c/pool_proj"
  top: "inception_4c/output"
}
layer {
  name: "inception_4d/1x1"
  type: "Convolution"
  bottom: "inception_4c/output"
  top: "inception_4d/1x1"
  param {
    lr_mult: 1
    decay_mult: 1
  }
  param {
    lr_mult: 2
    decay_mult: 0
  }
  convolution_param {
    num_output: 112
    kernel_size: 1
    weight_filler {
      type: "xavier"
    }
    bias_filler {
      type: "constant"
      value: 0.2
    }
  }
}
layer {
  name: "inception_4d/relu_1x1"
  type: "ReLU"
  bottom: "inception_4d/1x1"
  top: "inception_4d/1x1"
}
layer {
  name: "inception_4d/3x3_reduce"
  type: "Convolution"
  bottom: "inception_4c/output"
  top: "inception_4d/3x3_reduce"
  param {
    lr_mult: 1
    decay_mult: 1
  }
  param {
    lr_mult: 2
    decay_mult: 0
  }
  convolution_param {
    num_output: 144
    kernel_size: 1
    weight_filler {
      type: "xavier"
    }
    bias_filler {
      type: "constant"
      value: 0.2
    }
  }
}
layer {
  name: "inception_4d/relu_3x3_reduce"
  type: "ReLU"
  bottom: "inception_4d/3x3_reduce"
  top: "inception_4d/3x3_reduce"
}
layer {
  name: "inception_4d/3x3"
  type: "Convolution"
  bottom: "inception_4d/3x3_reduce"
  top: "inception_4d/3x3"
  param {
    lr_mult: 1
    decay_mult: 1
  }
  param {
    lr_mult: 2
    decay_mult: 0
  }
  convolution_param {
    num_output: 288
    pad: 1
    kernel_size: 3
    weight_filler {
      type: "xavier"
    }
    bias_filler {
      type: "constant"
      value: 0.2
    }
  }
}
layer {
  name: "inception_4d/relu_3x3"
  type: "ReLU"
  bottom: "inception_4d/3x3"
  top: "inception_4d/3x3"
}
layer {
  name: "inception_4d/5x5_reduce"
  type: "Convolution"
  bottom: "inception_4c/output"
  top: "inception_4d/5x5_reduce"
  param {
    lr_mult: 1
    decay_mult: 1
  }
  param {
    lr_mult: 2
    decay_mult: 0
  }
  convolution_param {
    num_output: 32
    kernel_size: 1
    weight_filler {
      type: "xavier"
    }
    bias_filler {
      type: "constant"
      value: 0.2
    }
  }
}
layer {
  name: "inception_4d/relu_5x5_reduce"
  type: "ReLU"
  bottom: "inception_4d/5x5_reduce"
  top: "inception_4d/5x5_reduce"
}
layer {
  name: "inception_4d/5x5"
  type: "Convolution"
  bottom: "inception_4d/5x5_reduce"
  top: "inception_4d/5x5"
  param {
    lr_mult: 1
    decay_mult: 1
  }
  param {
    lr_mult: 2
    decay_mult: 0
  }
  convolution_param {
    num_output: 64
    pad: 2
    kernel_size: 5
    weight_filler {
      type: "xavier"
    }
    bias_filler {
      type: "constant"
      value: 0.2
    }
  }
}
layer {
  name: "inception_4d/relu_5x5"
  type: "ReLU"
  bottom: "inception_4d/5x5"
  top: "inception_4d/5x5"
}
layer {
  name: "inception_4d/pool"
  type: "Pooling"
  bottom: "inception_4c/output"
  top: "inception_4d/pool"
  pooling_param {
    pool: MAX
    kernel_size: 3
    stride: 1
    pad: 1
  }
}
layer {
  name: "inception_4d/pool_proj"
  type: "Convolution"
  bottom: "inception_4d/pool"
  top: "inception_4d/pool_proj"
  param {
    lr_mult: 1
    decay_mult: 1
  }
  param {
    lr_mult: 2
    decay_mult: 0
  }
  convolution_param {
    num_output: 64
    kernel_size: 1
    weight_filler {
      type: "xavier"
    }
    bias_filler {
      type: "constant"
      value: 0.2
    }
  }
}
layer {
  name: "inception_4d/relu_pool_proj"
  type: "ReLU"
  bottom: "inception_4d/pool_proj"
  top: "inception_4d/pool_proj"
}
layer {
  name: "inception_4d/output"
  type: "Concat"
  bottom: "inception_4d/1x1"
  bottom: "inception_4d/3x3"
  bottom: "inception_4d/5x5"
  bottom: "inception_4d/pool_proj"
  top: "inception_4d/output"
}
layer {
  name: "inception_4e/1x1"
  type: "Convolution"
  bottom: "inception_4d/output"
  top: "inception_4e/1x1"
  param {
    lr_mult: 1
    decay_mult: 1
  }
  param {
    lr_mult: 2
    decay_mult: 0
  }
  convolution_param {
    num_output: 256
    kernel_size: 1
    weight_filler {
      type: "xavier"
    }
    bias_filler {
      type: "constant"
      value: 0.2
    }
  }
}
layer {
  name: "inception_4e/relu_1x1"
  type: "ReLU"
  bottom: "inception_4e/1x1"
  top: "inception_4e/1x1"
}
layer {
  name: "inception_4e/3x3_reduce"
  type: "Convolution"
  bottom: "inception_4d/output"
  top: "inception_4e/3x3_reduce"
  param {
    lr_mult: 1
    decay_mult: 1
  }
  param {
    lr_mult: 2
    decay_mult: 0
  }
  convolution_param {
    num_output: 160
    kernel_size: 1
    weight_filler {
      type: "xavier"
    }
    bias_filler {
      type: "constant"
      value: 0.2
    }
  }
}
layer {
  name: "inception_4e/relu_3x3_reduce"
  type: "ReLU"
  bottom: "inception_4e/3x3_reduce"
  top: "inception_4e/3x3_reduce"
}
layer {
  name: "inception_4e/3x3"
  type: "Convolution"
  bottom: "inception_4e/3x3_reduce"
  top: "inception_4e/3x3"
  param {
    lr_mult: 1
    decay_mult: 1
  }
  param {
    lr_mult: 2
    decay_mult: 0
  }
  convolution_param {
    num_output: 320
    pad: 1
    kernel_size: 3
    weight_filler {
      type: "xavier"
    }
    bias_filler {
      type: "constant"
      value: 0.2
    }
  }
}
layer {
  name: "inception_4e/relu_3x3"
  type: "ReLU"
  bottom: "inception_4e/3x3"
  top: "inception_4e/3x3"
}
layer {
  name: "inception_4e/5x5_reduce"
  type: "Convolution"
  bottom: "inception_4d/output"
  top: "inception_4e/5x5_reduce"
  param {
    lr_mult: 1
    decay_mult: 1
  }
  param {
    lr_mult: 2
    decay_mult: 0
  }
  convolution_param {
    num_output: 32
    kernel_size: 1
    weight_filler {
      type: "xavier"
    }
    bias_filler {
      type: "constant"
      value: 0.2
    }
  }
}
layer {
  name: "inception_4e/relu_5x5_reduce"
  type: "ReLU"
  bottom: "inception_4e/5x5_reduce"
  top: "inception_4e/5x5_reduce"
}
layer {
  name: "inception_4e/5x5"
  type: "Convolution"
  bottom: "inception_4e/5x5_reduce"
  top: "inception_4e/5x5"
  param {
    lr_mult: 1
    decay_mult: 1
  }
  param {
    lr_mult: 2
    decay_mult: 0
  }
  convolution_param {
    num_output: 128
    pad: 2
    kernel_size: 5
    weight_filler {
      type: "xavier"
    }
    bias_filler {
      type: "constant"
      value: 0.2
    }
  }
}
layer {
  name: "inception_4e/relu_5x5"
  type: "ReLU"
  bottom: "inception_4e/5x5"
  top: "inception_4e/5x5"
}
layer {
  name: "inception_4e/pool"
  type: "Pooling"
  bottom: "inception_4d/output"
  top: "inception_4e/pool"
  pooling_param {
    pool: MAX
    kernel_size: 3
    stride: 1
    pad: 1
  }
}
layer {
  name: "inception_4e/pool_proj"
  type: "Convolution"
  bottom: "inception_4e/pool"
  top: "inception_4e/pool_proj"
  param {
    lr_mult: 1
    decay_mult: 1
  }
  param {
    lr_mult: 2
    decay_mult: 0
  }
  convolution_param {
    num_output: 128
    kernel_size: 1
    weight_filler {
      type: "xavier"
    }
    bias_filler {
      type: "constant"
      value: 0.2
    }
  }
}
layer {
  name: "inception_4e/relu_pool_proj"
  type: "ReLU"
  bottom: "inception_4e/pool_proj"
  top: "inception_4e/pool_proj"
}
layer {
  name: "inception_4e/output"
  type: "Concat"
  bottom: "inception_4e/1x1"
  bottom: "inception_4e/3x3"
  bottom: "inception_4e/5x5"
  bottom: "inception_4e/pool_proj"
  top: "inception_4e/output"
}
layer {
  name: "pool4/3x3_s2"
  type: "Pooling"
  bottom: "inception_4e/output"
  top: "pool4/3x3_s2"
  pooling_param {
    pool: MAX
    kernel_size: 3
    stride: 2
  }
}
layer {
  name: "inception_5a/1x1"
  type: "Convolution"
  bottom: "pool4/3x3_s2"
  top: "inception_5a/1x1"
  param {
    lr_mult: 1
    decay_mult: 1
  }
  param {
    lr_mult: 2
    decay_mult: 0
  }
  convolution_param {
    num_output: 256
    kernel_size: 1
    weight_filler {
      type: "xavier"
    }
    bias_filler {
      type: "constant"
      value: 0.2
    }
  }
}
layer {
  name: "inception_5a/relu_1x1"
  type: "ReLU"
  bottom: "inception_5a/1x1"
  top: "inception_5a/1x1"
}
layer {
  name: "inception_5a/3x3_reduce"
  type: "Convolution"
  bottom: "pool4/3x3_s2"
  top: "inception_5a/3x3_reduce"
  param {
    lr_mult: 1
    decay_mult: 1
  }
  param {
    lr_mult: 2
    decay_mult: 0
  }
  convolution_param {
    num_output: 160
    kernel_size: 1
    weight_filler {
      type: "xavier"
    }
    bias_filler {
      type: "constant"
      value: 0.2
    }
  }
}
layer {
  name: "inception_5a/relu_3x3_reduce"
  type: "ReLU"
  bottom: "inception_5a/3x3_reduce"
  top: "inception_5a/3x3_reduce"
}
layer {
  name: "inception_5a/3x3"
  type: "Convolution"
  bottom: "inception_5a/3x3_reduce"
  top: "inception_5a/3x3"
  param {
    lr_mult: 1
    decay_mult: 1
  }
  param {
    lr_mult: 2
    decay_mult: 0
  }
  convolution_param {
    num_output: 320
    pad: 1
    kernel_size: 3
    weight_filler {
      type: "xavier"
    }
    bias_filler {
      type: "constant"
      value: 0.2
    }
  }
}
layer {
  name: "inception_5a/relu_3x3"
  type: "ReLU"
  bottom: "inception_5a/3x3"
  top: "inception_5a/3x3"
}
layer {
  name: "inception_5a/5x5_reduce"
  type: "Convolution"
  bottom: "pool4/3x3_s2"
  top: "inception_5a/5x5_reduce"
  param {
    lr_mult: 1
    decay_mult: 1
  }
  param {
    lr_mult: 2
    decay_mult: 0
  }
  convolution_param {
    num_output: 32
    kernel_size: 1
    weight_filler {
      type: "xavier"
    }
    bias_filler {
      type: "constant"
      value: 0.2
    }
  }
}
layer {
  name: "inception_5a/relu_5x5_reduce"
  type: "ReLU"
  bottom: "inception_5a/5x5_reduce"
  top: "inception_5a/5x5_reduce"
}
layer {
  name: "inception_5a/5x5"
  type: "Convolution"
  bottom: "inception_5a/5x5_reduce"
  top: "inception_5a/5x5"
  param {
    lr_mult: 1
    decay_mult: 1
  }
  param {
    lr_mult: 2
    decay_mult: 0
  }
  convolution_param {
    num_output: 128
    pad: 2
    kernel_size: 5
    weight_filler {
      type: "xavier"
    }
    bias_filler {
      type: "constant"
      value: 0.2
    }
  }
}
layer {
  name: "inception_5a/relu_5x5"
  type: "ReLU"
  bottom: "inception_5a/5x5"
  top: "inception_5a/5x5"
}
layer {
  name: "inception_5a/
I0322 10:03:57.196732  5655 layer_factory.hpp:77] Creating layer data
I0322 10:03:57.222375  5655 net.cpp:84] Creating Layer data
I0322 10:03:57.222399  5655 net.cpp:380] data -> data
I0322 10:03:57.222409  5655 net.cpp:380] data -> sem
I0322 10:03:57.898545  5655 net.cpp:122] Setting up data
I0322 10:03:57.898576  5655 net.cpp:129] Top shape: 1 3 640 368 (706560)
I0322 10:03:57.898579  5655 net.cpp:129] Top shape: 1 1 640 368 (235520)
I0322 10:03:57.898582  5655 net.cpp:137] Memory required for data: 3768320
I0322 10:03:57.898587  5655 layer_factory.hpp:77] Creating layer data_data_0_split
I0322 10:03:57.898600  5655 net.cpp:84] Creating Layer data_data_0_split
I0322 10:03:57.898603  5655 net.cpp:406] data_data_0_split <- data
I0322 10:03:57.898609  5655 net.cpp:380] data_data_0_split -> data_data_0_split_0
I0322 10:03:57.898617  5655 net.cpp:380] data_data_0_split -> data_data_0_split_1
I0322 10:03:57.898653  5655 net.cpp:122] Setting up data_data_0_split
I0322 10:03:57.898658  5655 net.cpp:129] Top shape: 1 3 640 368 (706560)
I0322 10:03:57.898660  5655 net.cpp:129] Top shape: 1 3 640 368 (706560)
I0322 10:03:57.898663  5655 net.cpp:137] Memory required for data: 9420800
I0322 10:03:57.898664  5655 layer_factory.hpp:77] Creating layer conv1/7x7_s2
I0322 10:03:57.898675  5655 net.cpp:84] Creating Layer conv1/7x7_s2
I0322 10:03:57.898677  5655 net.cpp:406] conv1/7x7_s2 <- data_data_0_split_0
I0322 10:03:57.898681  5655 net.cpp:380] conv1/7x7_s2 -> conv1/7x7_s2
I0322 10:03:58.074623  5655 net.cpp:122] Setting up conv1/7x7_s2
I0322 10:03:58.074651  5655 net.cpp:129] Top shape: 1 64 326 190 (3964160)
I0322 10:03:58.074656  5655 net.cpp:137] Memory required for data: 25277440
I0322 10:03:58.074666  5655 layer_factory.hpp:77] Creating layer conv1/relu_7x7
I0322 10:03:58.074676  5655 net.cpp:84] Creating Layer conv1/relu_7x7
I0322 10:03:58.074681  5655 net.cpp:406] conv1/relu_7x7 <- conv1/7x7_s2
I0322 10:03:58.074686  5655 net.cpp:367] conv1/relu_7x7 -> conv1/7x7_s2 (in-place)
I0322 10:03:58.075292  5655 net.cpp:122] Setting up conv1/relu_7x7
I0322 10:03:58.075304  5655 net.cpp:129] Top shape: 1 64 326 190 (3964160)
I0322 10:03:58.075306  5655 net.cpp:137] Memory required for data: 41134080
I0322 10:03:58.075309  5655 layer_factory.hpp:77] Creating layer pool1/3x3_s2
I0322 10:03:58.075316  5655 net.cpp:84] Creating Layer pool1/3x3_s2
I0322 10:03:58.075320  5655 net.cpp:406] pool1/3x3_s2 <- conv1/7x7_s2
I0322 10:03:58.075325  5655 net.cpp:380] pool1/3x3_s2 -> pool1/3x3_s2
I0322 10:03:58.075353  5655 net.cpp:122] Setting up pool1/3x3_s2
I0322 10:03:58.075357  5655 net.cpp:129] Top shape: 1 64 163 95 (991040)
I0322 10:03:58.075359  5655 net.cpp:137] Memory required for data: 45098240
I0322 10:03:58.075362  5655 layer_factory.hpp:77] Creating layer pool1/norm1
I0322 10:03:58.075368  5655 net.cpp:84] Creating Layer pool1/norm1
I0322 10:03:58.075371  5655 net.cpp:406] pool1/norm1 <- pool1/3x3_s2
I0322 10:03:58.075374  5655 net.cpp:380] pool1/norm1 -> pool1/norm1
I0322 10:03:58.075508  5655 net.cpp:122] Setting up pool1/norm1
I0322 10:03:58.075516  5655 net.cpp:129] Top shape: 1 64 163 95 (991040)
I0322 10:03:58.075518  5655 net.cpp:137] Memory required for data: 49062400
I0322 10:03:58.075521  5655 layer_factory.hpp:77] Creating layer conv2/3x3_reduce
I0322 10:03:58.075531  5655 net.cpp:84] Creating Layer conv2/3x3_reduce
I0322 10:03:58.075534  5655 net.cpp:406] conv2/3x3_reduce <- pool1/norm1
I0322 10:03:58.075538  5655 net.cpp:380] conv2/3x3_reduce -> conv2/3x3_reduce
I0322 10:03:58.077085  5655 net.cpp:122] Setting up conv2/3x3_reduce
I0322 10:03:58.077096  5655 net.cpp:129] Top shape: 1 64 163 95 (991040)
I0322 10:03:58.077100  5655 net.cpp:137] Memory required for data: 53026560
I0322 10:03:58.077105  5655 layer_factory.hpp:77] Creating layer conv2/relu_3x3_reduce
I0322 10:03:58.077111  5655 net.cpp:84] Creating Layer conv2/relu_3x3_reduce
I0322 10:03:58.077112  5655 net.cpp:406] conv2/relu_3x3_reduce <- conv2/3x3_reduce
I0322 10:03:58.077116  5655 net.cpp:367] conv2/relu_3x3_reduce -> conv2/3x3_reduce (in-place)
I0322 10:03:58.077241  5655 net.cpp:122] Setting up conv2/relu_3x3_reduce
I0322 10:03:58.077249  5655 net.cpp:129] Top shape: 1 64 163 95 (991040)
I0322 10:03:58.077251  5655 net.cpp:137] Memory required for data: 56990720
I0322 10:03:58.077255  5655 layer_factory.hpp:77] Creating layer conv2/3x3
I0322 10:03:58.077261  5655 net.cpp:84] Creating Layer conv2/3x3
I0322 10:03:58.077265  5655 net.cpp:406] conv2/3x3 <- conv2/3x3_reduce
I0322 10:03:58.077268  5655 net.cpp:380] conv2/3x3 -> conv2/3x3
I0322 10:03:58.079660  5655 net.cpp:122] Setting up conv2/3x3
I0322 10:03:58.079687  5655 net.cpp:129] Top shape: 1 192 163 95 (2973120)
I0322 10:03:58.079690  5655 net.cpp:137] Memory required for data: 68883200
I0322 10:03:58.079697  5655 layer_factory.hpp:77] Creating layer conv2/relu_3x3
I0322 10:03:58.079701  5655 net.cpp:84] Creating Layer conv2/relu_3x3
I0322 10:03:58.079704  5655 net.cpp:406] conv2/relu_3x3 <- conv2/3x3
I0322 10:03:58.079710  5655 net.cpp:367] conv2/relu_3x3 -> conv2/3x3 (in-place)
I0322 10:03:58.079840  5655 net.cpp:122] Setting up conv2/relu_3x3
I0322 10:03:58.079849  5655 net.cpp:129] Top shape: 1 192 163 95 (2973120)
I0322 10:03:58.079850  5655 net.cpp:137] Memory required for data: 80775680
I0322 10:03:58.079854  5655 layer_factory.hpp:77] Creating layer conv2/norm2
I0322 10:03:58.079859  5655 net.cpp:84] Creating Layer conv2/norm2
I0322 10:03:58.079861  5655 net.cpp:406] conv2/norm2 <- conv2/3x3
I0322 10:03:58.079865  5655 net.cpp:380] conv2/norm2 -> conv2/norm2
I0322 10:03:58.080004  5655 net.cpp:122] Setting up conv2/norm2
I0322 10:03:58.080013  5655 net.cpp:129] Top shape: 1 192 163 95 (2973120)
I0322 10:03:58.080014  5655 net.cpp:137] Memory required for data: 92668160
I0322 10:03:58.080018  5655 layer_factory.hpp:77] Creating layer pool2/3x3_s2
I0322 10:03:58.080021  5655 net.cpp:84] Creating Layer pool2/3x3_s2
I0322 10:03:58.080024  5655 net.cpp:406] pool2/3x3_s2 <- conv2/norm2
I0322 10:03:58.080027  5655 net.cpp:380] pool2/3x3_s2 -> pool2/3x3_s2
I0322 10:03:58.080052  5655 net.cpp:122] Setting up pool2/3x3_s2
I0322 10:03:58.080057  5655 net.cpp:129] Top shape: 1 192 81 47 (730944)
I0322 10:03:58.080060  5655 net.cpp:137] Memory required for data: 95591936
I0322 10:03:58.080061  5655 layer_factory.hpp:77] Creating layer pool2/3x3_s2_pool2/3x3_s2_0_split
I0322 10:03:58.080066  5655 net.cpp:84] Creating Layer pool2/3x3_s2_pool2/3x3_s2_0_split
I0322 10:03:58.080068  5655 net.cpp:406] pool2/3x3_s2_pool2/3x3_s2_0_split <- pool2/3x3_s2
I0322 10:03:58.080073  5655 net.cpp:380] pool2/3x3_s2_pool2/3x3_s2_0_split -> pool2/3x3_s2_pool2/3x3_s2_0_split_0
I0322 10:03:58.080077  5655 net.cpp:380] pool2/3x3_s2_pool2/3x3_s2_0_split -> pool2/3x3_s2_pool2/3x3_s2_0_split_1
I0322 10:03:58.080080  5655 net.cpp:380] pool2/3x3_s2_pool2/3x3_s2_0_split -> pool2/3x3_s2_pool2/3x3_s2_0_split_2
I0322 10:03:58.080085  5655 net.cpp:380] pool2/3x3_s2_pool2/3x3_s2_0_split -> pool2/3x3_s2_pool2/3x3_s2_0_split_3
I0322 10:03:58.080122  5655 net.cpp:122] Setting up pool2/3x3_s2_pool2/3x3_s2_0_split
I0322 10:03:58.080127  5655 net.cpp:129] Top shape: 1 192 81 47 (730944)
I0322 10:03:58.080128  5655 net.cpp:129] Top shape: 1 192 81 47 (730944)
I0322 10:03:58.080132  5655 net.cpp:129] Top shape: 1 192 81 47 (730944)
I0322 10:03:58.080134  5655 net.cpp:129] Top shape: 1 192 81 47 (730944)
I0322 10:03:58.080135  5655 net.cpp:137] Memory required for data: 107287040
I0322 10:03:58.080138  5655 layer_factory.hpp:77] Creating layer inception_3a/1x1
I0322 10:03:58.080147  5655 net.cpp:84] Creating Layer inception_3a/1x1
I0322 10:03:58.080148  5655 net.cpp:406] inception_3a/1x1 <- pool2/3x3_s2_pool2/3x3_s2_0_split_0
I0322 10:03:58.080152  5655 net.cpp:380] inception_3a/1x1 -> inception_3a/1x1
I0322 10:03:58.081679  5655 net.cpp:122] Setting up inception_3a/1x1
I0322 10:03:58.081691  5655 net.cpp:129] Top shape: 1 64 81 47 (243648)
I0322 10:03:58.081692  5655 net.cpp:137] Memory required for data: 108261632
I0322 10:03:58.081697  5655 layer_factory.hpp:77] Creating layer inception_3a/relu_1x1
I0322 10:03:58.081702  5655 net.cpp:84] Creating Layer inception_3a/relu_1x1
I0322 10:03:58.081706  5655 net.cpp:406] inception_3a/relu_1x1 <- inception_3a/1x1
I0322 10:03:58.081708  5655 net.cpp:367] inception_3a/relu_1x1 -> inception_3a/1x1 (in-place)
I0322 10:03:58.082298  5655 net.cpp:122] Setting up inception_3a/relu_1x1
I0322 10:03:58.082309  5655 net.cpp:129] Top shape: 1 64 81 47 (243648)
I0322 10:03:58.082327  5655 net.cpp:137] Memory required for data: 109236224
I0322 10:03:58.082329  5655 layer_factory.hpp:77] Creating layer inception_3a/3x3_reduce
I0322 10:03:58.082337  5655 net.cpp:84] Creating Layer inception_3a/3x3_reduce
I0322 10:03:58.082340  5655 net.cpp:406] inception_3a/3x3_reduce <- pool2/3x3_s2_pool2/3x3_s2_0_split_1
I0322 10:03:58.082345  5655 net.cpp:380] inception_3a/3x3_reduce -> inception_3a/3x3_reduce
I0322 10:03:58.083014  5655 net.cpp:122] Setting up inception_3a/3x3_reduce
I0322 10:03:58.083039  5655 net.cpp:129] Top shape: 1 96 81 47 (365472)
I0322 10:03:58.083041  5655 net.cpp:137] Memory required for data: 110698112
I0322 10:03:58.083047  5655 layer_factory.hpp:77] Creating layer inception_3a/relu_3x3_reduce
I0322 10:03:58.083055  5655 net.cpp:84] Creating Layer inception_3a/relu_3x3_reduce
I0322 10:03:58.083057  5655 net.cpp:406] inception_3a/relu_3x3_reduce <- inception_3a/3x3_reduce
I0322 10:03:58.083061  5655 net.cpp:367] inception_3a/relu_3x3_reduce -> inception_3a/3x3_reduce (in-place)
I0322 10:03:58.083659  5655 net.cpp:122] Setting up inception_3a/relu_3x3_reduce
I0322 10:03:58.083670  5655 net.cpp:129] Top shape: 1 96 81 47 (365472)
I0322 10:03:58.083673  5655 net.cpp:137] Memory required for data: 112160000
I0322 10:03:58.083675  5655 layer_factory.hpp:77] Creating layer inception_3a/3x3
I0322 10:03:58.083684  5655 net.cpp:84] Creating Layer inception_3a/3x3
I0322 10:03:58.083688  5655 net.cpp:406] inception_3a/3x3 <- inception_3a/3x3_reduce
I0322 10:03:58.083691  5655 net.cpp:380] inception_3a/3x3 -> inception_3a/3x3
I0322 10:03:58.085501  5655 net.cpp:122] Setting up inception_3a/3x3
I0322 10:03:58.085513  5655 net.cpp:129] Top shape: 1 128 81 47 (487296)
I0322 10:03:58.085531  5655 net.cpp:137] Memory required for data: 114109184
I0322 10:03:58.085537  5655 layer_factory.hpp:77] Creating layer inception_3a/relu_3x3
I0322 10:03:58.085542  5655 net.cpp:84] Creating Layer inception_3a/relu_3x3
I0322 10:03:58.085546  5655 net.cpp:406] inception_3a/relu_3x3 <- inception_3a/3x3
I0322 10:03:58.085549  5655 net.cpp:367] inception_3a/relu_3x3 -> inception_3a/3x3 (in-place)
I0322 10:03:58.085677  5655 net.cpp:122] Setting up inception_3a/relu_3x3
I0322 10:03:58.085686  5655 net.cpp:129] Top shape: 1 128 81 47 (487296)
I0322 10:03:58.085688  5655 net.cpp:137] Memory required for data: 116058368
I0322 10:03:58.085691  5655 layer_factory.hpp:77] Creating layer inception_3a/5x5_reduce
I0322 10:03:58.085698  5655 net.cpp:84] Creating Layer inception_3a/5x5_reduce
I0322 10:03:58.085702  5655 net.cpp:406] inception_3a/5x5_reduce <- pool2/3x3_s2_pool2/3x3_s2_0_split_2
I0322 10:03:58.085706  5655 net.cpp:380] inception_3a/5x5_reduce -> inception_3a/5x5_reduce
I0322 10:03:58.086733  5655 net.cpp:122] Setting up inception_3a/5x5_reduce
I0322 10:03:58.086745  5655 net.cpp:129] Top shape: 1 16 81 47 (60912)
I0322 10:03:58.086748  5655 net.cpp:137] Memory required for data: 116302016
I0322 10:03:58.086752  5655 layer_factory.hpp:77] Creating layer inception_3a/relu_5x5_reduce
I0322 10:03:58.086756  5655 net.cpp:84] Creating Layer inception_3a/relu_5x5_reduce
I0322 10:03:58.086760  5655 net.cpp:406] inception_3a/relu_5x5_reduce <- inception_3a/5x5_reduce
I0322 10:03:58.086763  5655 net.cpp:367] inception_3a/relu_5x5_reduce -> inception_3a/5x5_reduce (in-place)
I0322 10:03:58.086902  5655 net.cpp:122] Setting up inception_3a/relu_5x5_reduce
I0322 10:03:58.086910  5655 net.cpp:129] Top shape: 1 16 81 47 (60912)
I0322 10:03:58.086912  5655 net.cpp:137] Memory required for data: 116545664
I0322 10:03:58.086915  5655 layer_factory.hpp:77] Creating layer inception_3a/5x5
I0322 10:03:58.086922  5655 net.cpp:84] Creating Layer inception_3a/5x5
I0322 10:03:58.086925  5655 net.cpp:406] inception_3a/5x5 <- inception_3a/5x5_reduce
I0322 10:03:58.086930  5655 net.cpp:380] inception_3a/5x5 -> inception_3a/5x5
I0322 10:03:58.088013  5655 net.cpp:122] Setting up inception_3a/5x5
I0322 10:03:58.088024  5655 net.cpp:129] Top shape: 1 32 81 47 (121824)
I0322 10:03:58.088027  5655 net.cpp:137] Memory required for data: 117032960
I0322 10:03:58.088032  5655 layer_factory.hpp:77] Creating layer inception_3a/relu_5x5
I0322 10:03:58.088037  5655 net.cpp:84] Creating Layer inception_3a/relu_5x5
I0322 10:03:58.088039  5655 net.cpp:406] inception_3a/relu_5x5 <- inception_3a/5x5
I0322 10:03:58.088043  5655 net.cpp:367] inception_3a/relu_5x5 -> inception_3a/5x5 (in-place)
I0322 10:03:58.088181  5655 net.cpp:122] Setting up inception_3a/relu_5x5
I0322 10:03:58.088187  5655 net.cpp:129] Top shape: 1 32 81 47 (121824)
I0322 10:03:58.088189  5655 net.cpp:137] Memory required for data: 117520256
I0322 10:03:58.088192  5655 layer_factory.hpp:77] Creating layer inception_3a/pool
I0322 10:03:58.088196  5655 net.cpp:84] Creating Layer inception_3a/pool
I0322 10:03:58.088199  5655 net.cpp:406] inception_3a/pool <- pool2/3x3_s2_pool2/3x3_s2_0_split_3
I0322 10:03:58.088204  5655 net.cpp:380] inception_3a/pool -> inception_3a/pool
I0322 10:03:58.088234  5655 net.cpp:122] Setting up inception_3a/pool
I0322 10:03:58.088238  5655 net.cpp:129] Top shape: 1 192 81 47 (730944)
I0322 10:03:58.088240  5655 net.cpp:137] Memory required for data: 120444032
I0322 10:03:58.088243  5655 layer_factory.hpp:77] Creating layer inception_3a/pool_proj
I0322 10:03:58.088249  5655 net.cpp:84] Creating Layer inception_3a/pool_proj
I0322 10:03:58.088253  5655 net.cpp:406] inception_3a/pool_proj <- inception_3a/pool
I0322 10:03:58.088256  5655 net.cpp:380] inception_3a/pool_proj -> inception_3a/pool_proj
I0322 10:03:58.089284  5655 net.cpp:122] Setting up inception_3a/pool_proj
I0322 10:03:58.089295  5655 net.cpp:129] Top shape: 1 32 81 47 (121824)
I0322 10:03:58.089298  5655 net.cpp:137] Memory required for data: 120931328
I0322 10:03:58.089306  5655 layer_factory.hpp:77] Creating layer inception_3a/relu_pool_proj
I0322 10:03:58.089311  5655 net.cpp:84] Creating Layer inception_3a/relu_pool_proj
I0322 10:03:58.089335  5655 net.cpp:406] inception_3a/relu_pool_proj <- inception_3a/pool_proj
I0322 10:03:58.089341  5655 net.cpp:367] inception_3a/relu_pool_proj -> inception_3a/pool_proj (in-place)
I0322 10:03:58.089471  5655 net.cpp:122] Setting up inception_3a/relu_pool_proj
I0322 10:03:58.089479  5655 net.cpp:129] Top shape: 1 32 81 47 (121824)
I0322 10:03:58.089483  5655 net.cpp:137] Memory required for data: 121418624
I0322 10:03:58.089484  5655 layer_factory.hpp:77] Creating layer inception_3a/output
I0322 10:03:58.089490  5655 net.cpp:84] Creating Layer inception_3a/output
I0322 10:03:58.089493  5655 net.cpp:406] inception_3a/output <- inception_3a/1x1
I0322 10:03:58.089495  5655 net.cpp:406] inception_3a/output <- inception_3a/3x3
I0322 10:03:58.089499  5655 net.cpp:406] inception_3a/output <- inception_3a/5x5
I0322 10:03:58.089501  5655 net.cpp:406] inception_3a/output <- inception_3a/pool_proj
I0322 10:03:58.089505  5655 net.cpp:380] inception_3a/output -> inception_3a/output
I0322 10:03:58.089525  5655 net.cpp:122] Setting up inception_3a/output
I0322 10:03:58.089529  5655 net.cpp:129] Top shape: 1 256 81 47 (974592)
I0322 10:03:58.089531  5655 net.cpp:137] Memory required for data: 125316992
I0322 10:03:58.089534  5655 layer_factory.hpp:77] Creating layer inception_3a/output_inception_3a/output_0_split
I0322 10:03:58.089539  5655 net.cpp:84] Creating Layer inception_3a/output_inception_3a/output_0_split
I0322 10:03:58.089540  5655 net.cpp:406] inception_3a/output_inception_3a/output_0_split <- inception_3a/output
I0322 10:03:58.089545  5655 net.cpp:380] inception_3a/output_inception_3a/output_0_split -> inception_3a/output_inception_3a/output_0_split_0
I0322 10:03:58.089548  5655 net.cpp:380] inception_3a/output_inception_3a/output_0_split -> inception_3a/output_inception_3a/output_0_split_1
I0322 10:03:58.089552  5655 net.cpp:380] inception_3a/output_inception_3a/output_0_split -> inception_3a/output_inception_3a/output_0_split_2
I0322 10:03:58.089556  5655 net.cpp:380] inception_3a/output_inception_3a/output_0_split -> inception_3a/output_inception_3a/output_0_split_3
I0322 10:03:58.089594  5655 net.cpp:122] Setting up inception_3a/output_inception_3a/output_0_split
I0322 10:03:58.089598  5655 net.cpp:129] Top shape: 1 256 81 47 (974592)
I0322 10:03:58.089601  5655 net.cpp:129] Top shape: 1 256 81 47 (974592)
I0322 10:03:58.089604  5655 net.cpp:129] Top shape: 1 256 81 47 (974592)
I0322 10:03:58.089607  5655 net.cpp:129] Top shape: 1 256 81 47 (974592)
I0322 10:03:58.089608  5655 net.cpp:137] Memory required for data: 140910464
I0322 10:03:58.089610  5655 layer_factory.hpp:77] Creating layer inception_3b/1x1
I0322 10:03:58.089618  5655 net.cpp:84] Creating Layer inception_3b/1x1
I0322 10:03:58.089622  5655 net.cpp:406] inception_3b/1x1 <- inception_3a/output_inception_3a/output_0_split_0
I0322 10:03:58.089625  5655 net.cpp:380] inception_3b/1x1 -> inception_3b/1x1
I0322 10:03:58.090756  5655 net.cpp:122] Setting up inception_3b/1x1
I0322 10:03:58.090767  5655 net.cpp:129] Top shape: 1 128 81 47 (487296)
I0322 10:03:58.090770  5655 net.cpp:137] Memory required for data: 142859648
I0322 10:03:58.090775  5655 layer_factory.hpp:77] Creating layer inception_3b/relu_1x1
I0322 10:03:58.090780  5655 net.cpp:84] Creating Layer inception_3b/relu_1x1
I0322 10:03:58.090782  5655 net.cpp:406] inception_3b/relu_1x1 <- inception_3b/1x1
I0322 10:03:58.090785  5655 net.cpp:367] inception_3b/relu_1x1 -> inception_3b/1x1 (in-place)
I0322 10:03:58.091399  5655 net.cpp:122] Setting up inception_3b/relu_1x1
I0322 10:03:58.091409  5655 net.cpp:129] Top shape: 1 128 81 47 (487296)
I0322 10:03:58.091413  5655 net.cpp:137] Memory required for data: 144808832
I0322 10:03:58.091414  5655 layer_factory.hpp:77] Creating layer inception_3b/3x3_reduce
I0322 10:03:58.091423  5655 net.cpp:84] Creating Layer inception_3b/3x3_reduce
I0322 10:03:58.091426  5655 net.cpp:406] inception_3b/3x3_reduce <- inception_3a/output_inception_3a/output_0_split_1
I0322 10:03:58.091431  5655 net.cpp:380] inception_3b/3x3_reduce -> inception_3b/3x3_reduce
I0322 10:03:58.092111  5655 net.cpp:122] Setting up inception_3b/3x3_reduce
I0322 10:03:58.092119  5655 net.cpp:129] Top shape: 1 128 81 47 (487296)
I0322 10:03:58.092137  5655 net.cpp:137] Memory required for data: 146758016
I0322 10:03:58.092142  5655 layer_factory.hpp:77] Creating layer inception_3b/relu_3x3_reduce
I0322 10:03:58.092146  5655 net.cpp:84] Creating Layer inception_3b/relu_3x3_reduce
I0322 10:03:58.092149  5655 net.cpp:406] inception_3b/relu_3x3_reduce <- inception_3b/3x3_reduce
I0322 10:03:58.092154  5655 net.cpp:367] inception_3b/relu_3x3_reduce -> inception_3b/3x3_reduce (in-place)
I0322 10:03:58.092761  5655 net.cpp:122] Setting up inception_3b/relu_3x3_reduce
I0322 10:03:58.092782  5655 net.cpp:129] Top shape: 1 128 81 47 (487296)
I0322 10:03:58.092800  5655 net.cpp:137] Memory required for data: 148707200
I0322 10:03:58.092803  5655 layer_factory.hpp:77] Creating layer inception_3b/3x3
I0322 10:03:58.092813  5655 net.cpp:84] Creating Layer inception_3b/3x3
I0322 10:03:58.092815  5655 net.cpp:406] inception_3b/3x3 <- inception_3b/3x3_reduce
I0322 10:03:58.092821  5655 net.cpp:380] inception_3b/3x3 -> inception_3b/3x3
I0322 10:03:58.095094  5655 net.cpp:122] Setting up inception_3b/3x3
I0322 10:03:58.095105  5655 net.cpp:129] Top shape: 1 192 81 47 (730944)
I0322 10:03:58.095108  5655 net.cpp:137] Memory required for data: 151630976
I0322 10:03:58.095113  5655 layer_factory.hpp:77] Creating layer inception_3b/relu_3x3
I0322 10:03:58.095118  5655 net.cpp:84] Creating Layer inception_3b/relu_3x3
I0322 10:03:58.095121  5655 net.cpp:406] inception_3b/relu_3x3 <- inception_3b/3x3
I0322 10:03:58.095125  5655 net.cpp:367] inception_3b/relu_3x3 -> inception_3b/3x3 (in-place)
I0322 10:03:58.095269  5655 net.cpp:122] Setting up inception_3b/relu_3x3
I0322 10:03:58.095278  5655 net.cpp:129] Top shape: 1 192 81 47 (730944)
I0322 10:03:58.095280  5655 net.cpp:137] Memory required for data: 154554752
I0322 10:03:58.095283  5655 layer_factory.hpp:77] Creating layer inception_3b/5x5_reduce
I0322 10:03:58.095291  5655 net.cpp:84] Creating Layer inception_3b/5x5_reduce
I0322 10:03:58.095294  5655 net.cpp:406] inception_3b/5x5_reduce <- inception_3a/output_inception_3a/output_0_split_2
I0322 10:03:58.095299  5655 net.cpp:380] inception_3b/5x5_reduce -> inception_3b/5x5_reduce
I0322 10:03:58.096355  5655 net.cpp:122] Setting up inception_3b/5x5_reduce
I0322 10:03:58.096366  5655 net.cpp:129] Top shape: 1 32 81 47 (121824)
I0322 10:03:58.096369  5655 net.cpp:137] Memory required for data: 155042048
I0322 10:03:58.096374  5655 layer_factory.hpp:77] Creating layer inception_3b/relu_5x5_reduce
I0322 10:03:58.096379  5655 net.cpp:84] Creating Layer inception_3b/relu_5x5_reduce
I0322 10:03:58.096381  5655 net.cpp:406] inception_3b/relu_5x5_reduce <- inception_3b/5x5_reduce
I0322 10:03:58.096386  5655 net.cpp:367] inception_3b/relu_5x5_reduce -> inception_3b/5x5_reduce (in-place)
I0322 10:03:58.096521  5655 net.cpp:122] Setting up inception_3b/relu_5x5_reduce
I0322 10:03:58.096529  5655 net.cpp:129] Top shape: 1 32 81 47 (121824)
I0322 10:03:58.096531  5655 net.cpp:137] Memory required for data: 155529344
I0322 10:03:58.096534  5655 layer_factory.hpp:77] Creating layer inception_3b/5x5
I0322 10:03:58.096540  5655 net.cpp:84] Creating Layer inception_3b/5x5
I0322 10:03:58.096544  5655 net.cpp:406] inception_3b/5x5 <- inception_3b/5x5_reduce
I0322 10:03:58.096549  5655 net.cpp:380] inception_3b/5x5 -> inception_3b/5x5
I0322 10:03:58.097869  5655 net.cpp:122] Setting up inception_3b/5x5
I0322 10:03:58.097880  5655 net.cpp:129] Top shape: 1 96 81 47 (365472)
I0322 10:03:58.097898  5655 net.cpp:137] Memory required for data: 156991232
I0322 10:03:58.097903  5655 layer_factory.hpp:77] Creating layer inception_3b/relu_5x5
I0322 10:03:58.097908  5655 net.cpp:84] Creating Layer inception_3b/relu_5x5
I0322 10:03:58.097911  5655 net.cpp:406] inception_3b/relu_5x5 <- inception_3b/5x5
I0322 10:03:58.097915  5655 net.cpp:367] inception_3b/relu_5x5 -> inception_3b/5x5 (in-place)
I0322 10:03:58.098042  5655 net.cpp:122] Setting up inception_3b/relu_5x5
I0322 10:03:58.098050  5655 net.cpp:129] Top shape: 1 96 81 47 (365472)
I0322 10:03:58.098052  5655 net.cpp:137] Memory required for data: 158453120
I0322 10:03:58.098055  5655 layer_factory.hpp:77] Creating layer inception_3b/pool
I0322 10:03:58.098059  5655 net.cpp:84] Creating Layer inception_3b/pool
I0322 10:03:58.098062  5655 net.cpp:406] inception_3b/pool <- inception_3a/output_inception_3a/output_0_split_3
I0322 10:03:58.098067  5655 net.cpp:380] inception_3b/pool -> inception_3b/pool
I0322 10:03:58.098098  5655 net.cpp:122] Setting up inception_3b/pool
I0322 10:03:58.098103  5655 net.cpp:129] Top shape: 1 256 81 47 (974592)
I0322 10:03:58.098104  5655 net.cpp:137] Memory required for data: 162351488
I0322 10:03:58.098106  5655 layer_factory.hpp:77] Creating layer inception_3b/pool_proj
I0322 10:03:58.098114  5655 net.cpp:84] Creating Layer inception_3b/pool_proj
I0322 10:03:58.098117  5655 net.cpp:406] inception_3b/pool_proj <- inception_3b/pool
I0322 10:03:58.098121  5655 net.cpp:380] inception_3b/pool_proj -> inception_3b/pool_proj
I0322 10:03:58.099210  5655 net.cpp:122] Setting up inception_3b/pool_proj
I0322 10:03:58.099220  5655 net.cpp:129] Top shape: 1 64 81 47 (243648)
I0322 10:03:58.099223  5655 net.cpp:137] Memory required for data: 163326080
I0322 10:03:58.099228  5655 layer_factory.hpp:77] Creating layer inception_3b/relu_pool_proj
I0322 10:03:58.099233  5655 net.cpp:84] Creating Layer inception_3b/relu_pool_proj
I0322 10:03:58.099236  5655 net.cpp:406] inception_3b/relu_pool_proj <- inception_3b/pool_proj
I0322 10:03:58.099239  5655 net.cpp:367] inception_3b/relu_pool_proj -> inception_3b/pool_proj (in-place)
I0322 10:03:58.099377  5655 net.cpp:122] Setting up inception_3b/relu_pool_proj
I0322 10:03:58.099385  5655 net.cpp:129] Top shape: 1 64 81 47 (243648)
I0322 10:03:58.099387  5655 net.cpp:137] Memory required for data: 164300672
I0322 10:03:58.099390  5655 layer_factory.hpp:77] Creating layer inception_3b/output
I0322 10:03:58.099395  5655 net.cpp:84] Creating Layer inception_3b/output
I0322 10:03:58.099396  5655 net.cpp:406] inception_3b/output <- inception_3b/1x1
I0322 10:03:58.099400  5655 net.cpp:406] inception_3b/output <- inception_3b/3x3
I0322 10:03:58.099402  5655 net.cpp:406] inception_3b/output <- inception_3b/5x5
I0322 10:03:58.099406  5655 net.cpp:406] inception_3b/output <- inception_3b/pool_proj
I0322 10:03:58.099409  5655 net.cpp:380] inception_3b/output -> inception_3b/output
I0322 10:03:58.099428  5655 net.cpp:122] Setting up inception_3b/output
I0322 10:03:58.099432  5655 net.cpp:129] Top shape: 1 480 81 47 (1827360)
I0322 10:03:58.099434  5655 net.cpp:137] Memory required for data: 171610112
I0322 10:03:58.099437  5655 layer_factory.hpp:77] Creating layer inception_3b/output_inception_3b/output_0_split
I0322 10:03:58.099441  5655 net.cpp:84] Creating Layer inception_3b/output_inception_3b/output_0_split
I0322 10:03:58.099442  5655 net.cpp:406] inception_3b/output_inception_3b/output_0_split <- inception_3b/output
I0322 10:03:58.099448  5655 net.cpp:380] inception_3b/output_inception_3b/output_0_split -> inception_3b/output_inception_3b/output_0_split_0
I0322 10:03:58.099452  5655 net.cpp:380] inception_3b/output_inception_3b/output_0_split -> inception_3b/output_inception_3b/output_0_split_1
I0322 10:03:58.099476  5655 net.cpp:122] Setting up inception_3b/output_inception_3b/output_0_split
I0322 10:03:58.099479  5655 net.cpp:129] Top shape: 1 480 81 47 (1827360)
I0322 10:03:58.099483  5655 net.cpp:129] Top shape: 1 480 81 47 (1827360)
I0322 10:03:58.099484  5655 net.cpp:137] Memory required for data: 186228992
I0322 10:03:58.099486  5655 layer_factory.hpp:77] Creating layer pool3/3x3_s2
I0322 10:03:58.099491  5655 net.cpp:84] Creating Layer pool3/3x3_s2
I0322 10:03:58.099494  5655 net.cpp:406] pool3/3x3_s2 <- inception_3b/output_inception_3b/output_0_split_0
I0322 10:03:58.099498  5655 net.cpp:380] pool3/3x3_s2 -> pool3/3x3_s2
I0322 10:03:58.099521  5655 net.cpp:122] Setting up pool3/3x3_s2
I0322 10:03:58.099525  5655 net.cpp:129] Top shape: 1 480 40 23 (441600)
I0322 10:03:58.099527  5655 net.cpp:137] Memory required for data: 187995392
I0322 10:03:58.099529  5655 layer_factory.hpp:77] Creating layer pool3/3x3_s2_pool3/3x3_s2_0_split
I0322 10:03:58.099534  5655 net.cpp:84] Creating Layer pool3/3x3_s2_pool3/3x3_s2_0_split
I0322 10:03:58.099536  5655 net.cpp:406] pool3/3x3_s2_pool3/3x3_s2_0_split <- pool3/3x3_s2
I0322 10:03:58.099540  5655 net.cpp:380] pool3/3x3_s2_pool3/3x3_s2_0_split -> pool3/3x3_s2_pool3/3x3_s2_0_split_0
I0322 10:03:58.099545  5655 net.cpp:380] pool3/3x3_s2_pool3/3x3_s2_0_split -> pool3/3x3_s2_pool3/3x3_s2_0_split_1
I0322 10:03:58.099547  5655 net.cpp:380] pool3/3x3_s2_pool3/3x3_s2_0_split -> pool3/3x3_s2_pool3/3x3_s2_0_split_2
I0322 10:03:58.099551  5655 net.cpp:380] pool3/3x3_s2_pool3/3x3_s2_0_split -> pool3/3x3_s2_pool3/3x3_s2_0_split_3
I0322 10:03:58.099588  5655 net.cpp:122] Setting up pool3/3x3_s2_pool3/3x3_s2_0_split
I0322 10:03:58.099592  5655 net.cpp:129] Top shape: 1 480 40 23 (441600)
I0322 10:03:58.099596  5655 net.cpp:129] Top shape: 1 480 40 23 (441600)
I0322 10:03:58.099598  5655 net.cpp:129] Top shape: 1 480 40 23 (441600)
I0322 10:03:58.099601  5655 net.cpp:129] Top shape: 1 480 40 23 (441600)
I0322 10:03:58.099602  5655 net.cpp:137] Memory required for data: 195060992
I0322 10:03:58.099604  5655 layer_factory.hpp:77] Creating layer inception_4a/1x1
I0322 10:03:58.099612  5655 net.cpp:84] Creating Layer inception_4a/1x1
I0322 10:03:58.099614  5655 net.cpp:406] inception_4a/1x1 <- pool3/3x3_s2_pool3/3x3_s2_0_split_0
I0322 10:03:58.099618  5655 net.cpp:380] inception_4a/1x1 -> inception_4a/1x1
I0322 10:03:58.102540  5655 net.cpp:122] Setting up inception_4a/1x1
I0322 10:03:58.102552  5655 net.cpp:129] Top shape: 1 192 40 23 (176640)
I0322 10:03:58.102555  5655 net.cpp:137] Memory required for data: 195767552
I0322 10:03:58.102560  5655 layer_factory.hpp:77] Creating layer inception_4a/relu_1x1
I0322 10:03:58.102565  5655 net.cpp:84] Creating Layer inception_4a/relu_1x1
I0322 10:03:58.102567  5655 net.cpp:406] inception_4a/relu_1x1 <- inception_4a/1x1
I0322 10:03:58.102571  5655 net.cpp:367] inception_4a/relu_1x1 -> inception_4a/1x1 (in-place)
I0322 10:03:58.103173  5655 net.cpp:122] Setting up inception_4a/relu_1x1
I0322 10:03:58.103183  5655 net.cpp:129] Top shape: 1 192 40 23 (176640)
I0322 10:03:58.103186  5655 net.cpp:137] Memory required for data: 196474112
I0322 10:03:58.103188  5655 layer_factory.hpp:77] Creating layer inception_4a/3x3_reduce
I0322 10:03:58.103198  5655 net.cpp:84] Creating Layer inception_4a/3x3_reduce
I0322 10:03:58.103200  5655 net.cpp:406] inception_4a/3x3_reduce <- pool3/3x3_s2_pool3/3x3_s2_0_split_1
I0322 10:03:58.103205  5655 net.cpp:380] inception_4a/3x3_reduce -> inception_4a/3x3_reduce
I0322 10:03:58.103960  5655 net.cpp:122] Setting up inception_4a/3x3_reduce
I0322 10:03:58.103970  5655 net.cpp:129] Top shape: 1 96 40 23 (88320)
I0322 10:03:58.103987  5655 net.cpp:137] Memory required for data: 196827392
I0322 10:03:58.103994  5655 layer_factory.hpp:77] Creating layer inception_4a/relu_3x3_reduce
I0322 10:03:58.104014  5655 net.cpp:84] Creating Layer inception_4a/relu_3x3_reduce
I0322 10:03:58.104017  5655 net.cpp:406] inception_4a/relu_3x3_reduce <- inception_4a/3x3_reduce
I0322 10:03:58.104022  5655 net.cpp:367] inception_4a/relu_3x3_reduce -> inception_4a/3x3_reduce (in-place)
I0322 10:03:58.104658  5655 net.cpp:122] Setting up inception_4a/relu_3x3_reduce
I0322 10:03:58.104668  5655 net.cpp:129] Top shape: 1 96 40 23 (88320)
I0322 10:03:58.104686  5655 net.cpp:137] Memory required for data: 197180672
I0322 10:03:58.104688  5655 layer_factory.hpp:77] Creating layer inception_4a/3x3
I0322 10:03:58.104696  5655 net.cpp:84] Creating Layer inception_4a/3x3
I0322 10:03:58.104699  5655 net.cpp:406] inception_4a/3x3 <- inception_4a/3x3_reduce
I0322 10:03:58.104704  5655 net.cpp:380] inception_4a/3x3 -> inception_4a/3x3
I0322 10:03:58.106844  5655 net.cpp:122] Setting up inception_4a/3x3
I0322 10:03:58.106855  5655 net.cpp:129] Top shape: 1 208 40 23 (191360)
I0322 10:03:58.106858  5655 net.cpp:137] Memory required for data: 197946112
I0322 10:03:58.106863  5655 layer_factory.hpp:77] Creating layer inception_4a/relu_3x3
I0322 10:03:58.106868  5655 net.cpp:84] Creating Layer inception_4a/relu_3x3
I0322 10:03:58.106870  5655 net.cpp:406] inception_4a/relu_3x3 <- inception_4a/3x3
I0322 10:03:58.106875  5655 net.cpp:367] inception_4a/relu_3x3 -> inception_4a/3x3 (in-place)
I0322 10:03:58.107017  5655 net.cpp:122] Setting up inception_4a/relu_3x3
I0322 10:03:58.107024  5655 net.cpp:129] Top shape: 1 208 40 23 (191360)
I0322 10:03:58.107026  5655 net.cpp:137] Memory required for data: 198711552
I0322 10:03:58.107029  5655 layer_factory.hpp:77] Creating layer inception_4a/5x5_reduce
I0322 10:03:58.107038  5655 net.cpp:84] Creating Layer inception_4a/5x5_reduce
I0322 10:03:58.107040  5655 net.cpp:406] inception_4a/5x5_reduce <- pool3/3x3_s2_pool3/3x3_s2_0_split_2
I0322 10:03:58.107045  5655 net.cpp:380] inception_4a/5x5_reduce -> inception_4a/5x5_reduce
I0322 10:03:58.108083  5655 net.cpp:122] Setting up inception_4a/5x5_reduce
I0322 10:03:58.108093  5655 net.cpp:129] Top shape: 1 16 40 23 (14720)
I0322 10:03:58.108096  5655 net.cpp:137] Memory required for data: 198770432
I0322 10:03:58.108100  5655 layer_factory.hpp:77] Creating layer inception_4a/relu_5x5_reduce
I0322 10:03:58.108106  5655 net.cpp:84] Creating Layer inception_4a/relu_5x5_reduce
I0322 10:03:58.108109  5655 net.cpp:406] inception_4a/relu_5x5_reduce <- inception_4a/5x5_reduce
I0322 10:03:58.108113  5655 net.cpp:367] inception_4a/relu_5x5_reduce -> inception_4a/5x5_reduce (in-place)
I0322 10:03:58.108255  5655 net.cpp:122] Setting up inception_4a/relu_5x5_reduce
I0322 10:03:58.108263  5655 net.cpp:129] Top shape: 1 16 40 23 (14720)
I0322 10:03:58.108265  5655 net.cpp:137] Memory required for data: 198829312
I0322 10:03:58.108268  5655 layer_factory.hpp:77] Creating layer inception_4a/5x5
I0322 10:03:58.108275  5655 net.cpp:84] Creating Layer inception_4a/5x5
I0322 10:03:58.108278  5655 net.cpp:406] inception_4a/5x5 <- inception_4a/5x5_reduce
I0322 10:03:58.108283  5655 net.cpp:380] inception_4a/5x5 -> inception_4a/5x5
I0322 10:03:58.109403  5655 net.cpp:122] Setting up inception_4a/5x5
I0322 10:03:58.109414  5655 net.cpp:129] Top shape: 1 48 40 23 (44160)
I0322 10:03:58.109416  5655 net.cpp:137] Memory required for data: 199005952
I0322 10:03:58.109421  5655 layer_factory.hpp:77] Creating layer inception_4a/relu_5x5
I0322 10:03:58.109426  5655 net.cpp:84] Creating Layer inception_4a/relu_5x5
I0322 10:03:58.109429  5655 net.cpp:406] inception_4a/relu_5x5 <- inception_4a/5x5
I0322 10:03:58.109433  5655 net.cpp:367] inception_4a/relu_5x5 -> inception_4a/5x5 (in-place)
I0322 10:03:58.109560  5655 net.cpp:122] Setting up inception_4a/relu_5x5
I0322 10:03:58.109566  5655 net.cpp:129] Top shape: 1 48 40 23 (44160)
I0322 10:03:58.109568  5655 net.cpp:137] Memory required for data: 199182592
I0322 10:03:58.109571  5655 layer_factory.hpp:77] Creating layer inception_4a/pool
I0322 10:03:58.109575  5655 net.cpp:84] Creating Layer inception_4a/pool
I0322 10:03:58.109578  5655 net.cpp:406] inception_4a/pool <- pool3/3x3_s2_pool3/3x3_s2_0_split_3
I0322 10:03:58.109583  5655 net.cpp:380] inception_4a/pool -> inception_4a/pool
I0322 10:03:58.109613  5655 net.cpp:122] Setting up inception_4a/pool
I0322 10:03:58.109617  5655 net.cpp:129] Top shape: 1 480 40 23 (441600)
I0322 10:03:58.109619  5655 net.cpp:137] Memory required for data: 200948992
I0322 10:03:58.109622  5655 layer_factory.hpp:77] Creating layer inception_4a/pool_proj
I0322 10:03:58.109629  5655 net.cpp:84] Creating Layer inception_4a/pool_proj
I0322 10:03:58.109632  5655 net.cpp:406] inception_4a/pool_proj <- inception_4a/pool
I0322 10:03:58.109637  5655 net.cpp:380] inception_4a/pool_proj -> inception_4a/pool_proj
I0322 10:03:58.110783  5655 net.cpp:122] Setting up inception_4a/pool_proj
I0322 10:03:58.110795  5655 net.cpp:129] Top shape: 1 64 40 23 (58880)
I0322 10:03:58.110796  5655 net.cpp:137] Memory required for data: 201184512
I0322 10:03:58.110801  5655 layer_factory.hpp:77] Creating layer inception_4a/relu_pool_proj
I0322 10:03:58.110806  5655 net.cpp:84] Creating Layer inception_4a/relu_pool_proj
I0322 10:03:58.110810  5655 net.cpp:406] inception_4a/relu_pool_proj <- inception_4a/pool_proj
I0322 10:03:58.110812  5655 net.cpp:367] inception_4a/relu_pool_proj -> inception_4a/pool_proj (in-place)
I0322 10:03:58.110947  5655 net.cpp:122] Setting up inception_4a/relu_pool_proj
I0322 10:03:58.110954  5655 net.cpp:129] Top shape: 1 64 40 23 (58880)
I0322 10:03:58.110957  5655 net.cpp:137] Memory required for data: 201420032
I0322 10:03:58.110960  5655 layer_factory.hpp:77] Creating layer inception_4a/output
I0322 10:03:58.110963  5655 net.cpp:84] Creating Layer inception_4a/output
I0322 10:03:58.110966  5655 net.cpp:406] inception_4a/output <- inception_4a/1x1
I0322 10:03:58.110970  5655 net.cpp:406] inception_4a/output <- inception_4a/3x3
I0322 10:03:58.110973  5655 net.cpp:406] inception_4a/output <- inception_4a/5x5
I0322 10:03:58.110975  5655 net.cpp:406] inception_4a/output <- inception_4a/pool_proj
I0322 10:03:58.110980  5655 net.cpp:380] inception_4a/output -> inception_4a/output
I0322 10:03:58.110999  5655 net.cpp:122] Setting up inception_4a/output
I0322 10:03:58.111003  5655 net.cpp:129] Top shape: 1 512 40 23 (471040)
I0322 10:03:58.111006  5655 net.cpp:137] Memory required for data: 203304192
I0322 10:03:58.111007  5655 layer_factory.hpp:77] Creating layer inception_4a/output_inception_4a/output_0_split
I0322 10:03:58.111012  5655 net.cpp:84] Creating Layer inception_4a/output_inception_4a/output_0_split
I0322 10:03:58.111016  5655 net.cpp:406] inception_4a/output_inception_4a/output_0_split <- inception_4a/output
I0322 10:03:58.111018  5655 net.cpp:380] inception_4a/output_inception_4a/output_0_split -> inception_4a/output_inception_4a/output_0_split_0
I0322 10:03:58.111022  5655 net.cpp:380] inception_4a/output_inception_4a/output_0_split -> inception_4a/output_inception_4a/output_0_split_1
I0322 10:03:58.111027  5655 net.cpp:380] inception_4a/output_inception_4a/output_0_split -> inception_4a/output_inception_4a/output_0_split_2
I0322 10:03:58.111032  5655 net.cpp:380] inception_4a/output_inception_4a/output_0_split -> inception_4a/output_inception_4a/output_0_split_3
I0322 10:03:58.111073  5655 net.cpp:122] Setting up inception_4a/output_inception_4a/output_0_split
I0322 10:03:58.111076  5655 net.cpp:129] Top shape: 1 512 40 23 (471040)
I0322 10:03:58.111078  5655 net.cpp:129] Top shape: 1 512 40 23 (471040)
I0322 10:03:58.111081  5655 net.cpp:129] Top shape: 1 512 40 23 (471040)
I0322 10:03:58.111083  5655 net.cpp:129] Top shape: 1 512 40 23 (471040)
I0322 10:03:58.111085  5655 net.cpp:137] Memory required for data: 210840832
I0322 10:03:58.111088  5655 layer_factory.hpp:77] Creating layer inception_4b/1x1
I0322 10:03:58.111095  5655 net.cpp:84] Creating Layer inception_4b/1x1
I0322 10:03:58.111098  5655 net.cpp:406] inception_4b/1x1 <- inception_4a/output_inception_4a/output_0_split_0
I0322 10:03:58.111104  5655 net.cpp:380] inception_4b/1x1 -> inception_4b/1x1
I0322 10:03:58.112422  5655 net.cpp:122] Setting up inception_4b/1x1
I0322 10:03:58.112433  5655 net.cpp:129] Top shape: 1 160 40 23 (147200)
I0322 10:03:58.112437  5655 net.cpp:137] Memory required for data: 211429632
I0322 10:03:58.112440  5655 layer_factory.hpp:77] Creating layer inception_4b/relu_1x1
I0322 10:03:58.112447  5655 net.cpp:84] Creating Layer inception_4b/relu_1x1
I0322 10:03:58.112449  5655 net.cpp:406] inception_4b/relu_1x1 <- inception_4b/1x1
I0322 10:03:58.112452  5655 net.cpp:367] inception_4b/relu_1x1 -> inception_4b/1x1 (in-place)
I0322 10:03:58.113085  5655 net.cpp:122] Setting up inception_4b/relu_1x1
I0322 10:03:58.113095  5655 net.cpp:129] Top shape: 1 160 40 23 (147200)
I0322 10:03:58.113112  5655 net.cpp:137] Memory required for data: 212018432
I0322 10:03:58.113116  5655 layer_factory.hpp:77] Creating layer inception_4b/3x3_reduce
I0322 10:03:58.113123  5655 net.cpp:84] Creating Layer inception_4b/3x3_reduce
I0322 10:03:58.113126  5655 net.cpp:406] inception_4b/3x3_reduce <- inception_4a/output_inception_4a/output_0_split_1
I0322 10:03:58.113131  5655 net.cpp:380] inception_4b/3x3_reduce -> inception_4b/3x3_reduce
I0322 10:03:58.113940  5655 net.cpp:122] Setting up inception_4b/3x3_reduce
I0322 10:03:58.113950  5655 net.cpp:129] Top shape: 1 112 40 23 (103040)
I0322 10:03:58.113953  5655 net.cpp:137] Memory required for data: 212430592
I0322 10:03:58.113957  5655 layer_factory.hpp:77] Creating layer inception_4b/relu_3x3_reduce
I0322 10:03:58.113962  5655 net.cpp:84] Creating Layer inception_4b/relu_3x3_reduce
I0322 10:03:58.113965  5655 net.cpp:406] inception_4b/relu_3x3_reduce <- inception_4b/3x3_reduce
I0322 10:03:58.113968  5655 net.cpp:367] inception_4b/relu_3x3_reduce -> inception_4b/3x3_reduce (in-place)
I0322 10:03:58.114594  5655 net.cpp:122] Setting up inception_4b/relu_3x3_reduce
I0322 10:03:58.114604  5655 net.cpp:129] Top shape: 1 112 40 23 (103040)
I0322 10:03:58.114621  5655 net.cpp:137] Memory required for data: 212842752
I0322 10:03:58.114624  5655 layer_factory.hpp:77] Creating layer inception_4b/3x3
I0322 10:03:58.114636  5655 net.cpp:84] Creating Layer inception_4b/3x3
I0322 10:03:58.114639  5655 net.cpp:406] inception_4b/3x3 <- inception_4b/3x3_reduce
I0322 10:03:58.114645  5655 net.cpp:380] inception_4b/3x3 -> inception_4b/3x3
I0322 10:03:58.117476  5655 net.cpp:122] Setting up inception_4b/3x3
I0322 10:03:58.117487  5655 net.cpp:129] Top shape: 1 224 40 23 (206080)
I0322 10:03:58.117506  5655 net.cpp:137] Memory required for data: 213667072
I0322 10:03:58.117511  5655 layer_factory.hpp:77] Creating layer inception_4b/relu_3x3
I0322 10:03:58.117516  5655 net.cpp:84] Creating Layer inception_4b/relu_3x3
I0322 10:03:58.117519  5655 net.cpp:406] inception_4b/relu_3x3 <- inception_4b/3x3
I0322 10:03:58.117524  5655 net.cpp:367] inception_4b/relu_3x3 -> inception_4b/3x3 (in-place)
I0322 10:03:58.117660  5655 net.cpp:122] Setting up inception_4b/relu_3x3
I0322 10:03:58.117667  5655 net.cpp:129] Top shape: 1 224 40 23 (206080)
I0322 10:03:58.117669  5655 net.cpp:137] Memory required for data: 214491392
I0322 10:03:58.117671  5655 layer_factory.hpp:77] Creating layer inception_4b/5x5_reduce
I0322 10:03:58.117681  5655 net.cpp:84] Creating Layer inception_4b/5x5_reduce
I0322 10:03:58.117683  5655 net.cpp:406] inception_4b/5x5_reduce <- inception_4a/output_inception_4a/output_0_split_2
I0322 10:03:58.117688  5655 net.cpp:380] inception_4b/5x5_reduce -> inception_4b/5x5_reduce
I0322 10:03:58.118764  5655 net.cpp:122] Setting up inception_4b/5x5_reduce
I0322 10:03:58.118774  5655 net.cpp:129] Top shape: 1 24 40 23 (22080)
I0322 10:03:58.118777  5655 net.cpp:137] Memory required for data: 214579712
I0322 10:03:58.118782  5655 layer_factory.hpp:77] Creating layer inception_4b/relu_5x5_reduce
I0322 10:03:58.118787  5655 net.cpp:84] Creating Layer inception_4b/relu_5x5_reduce
I0322 10:03:58.118789  5655 net.cpp:406] inception_4b/relu_5x5_reduce <- inception_4b/5x5_reduce
I0322 10:03:58.118794  5655 net.cpp:367] inception_4b/relu_5x5_reduce -> inception_4b/5x5_reduce (in-place)
I0322 10:03:58.118937  5655 net.cpp:122] Setting up inception_4b/relu_5x5_reduce
I0322 10:03:58.118944  5655 net.cpp:129] Top shape: 1 24 40 23 (22080)
I0322 10:03:58.118947  5655 net.cpp:137] Memory required for data: 214668032
I0322 10:03:58.118949  5655 layer_factory.hpp:77] Creating layer inception_4b/5x5
I0322 10:03:58.118957  5655 net.cpp:84] Creating Layer inception_4b/5x5
I0322 10:03:58.118960  5655 net.cpp:406] inception_4b/5x5 <- inception_4b/5x5_reduce
I0322 10:03:58.118964  5655 net.cpp:380] inception_4b/5x5 -> inception_4b/5x5
I0322 10:03:58.120163  5655 net.cpp:122] Setting up inception_4b/5x5
I0322 10:03:58.120174  5655 net.cpp:129] Top shape: 1 64 40 23 (58880)
I0322 10:03:58.120177  5655 net.cpp:137] Memory required for data: 214903552
I0322 10:03:58.120182  5655 layer_factory.hpp:77] Creating layer inception_4b/relu_5x5
I0322 10:03:58.120187  5655 net.cpp:84] Creating Layer inception_4b/relu_5x5
I0322 10:03:58.120189  5655 net.cpp:406] inception_4b/relu_5x5 <- inception_4b/5x5
I0322 10:03:58.120193  5655 net.cpp:367] inception_4b/relu_5x5 -> inception_4b/5x5 (in-place)
I0322 10:03:58.120333  5655 net.cpp:122] Setting up inception_4b/relu_5x5
I0322 10:03:58.120342  5655 net.cpp:129] Top shape: 1 64 40 23 (58880)
I0322 10:03:58.120343  5655 net.cpp:137] Memory required for data: 215139072
I0322 10:03:58.120347  5655 layer_factory.hpp:77] Creating layer inception_4b/pool
I0322 10:03:58.120350  5655 net.cpp:84] Creating Layer inception_4b/pool
I0322 10:03:58.120353  5655 net.cpp:406] inception_4b/pool <- inception_4a/output_inception_4a/output_0_split_3
I0322 10:03:58.120358  5655 net.cpp:380] inception_4b/pool -> inception_4b/pool
I0322 10:03:58.120389  5655 net.cpp:122] Setting up inception_4b/pool
I0322 10:03:58.120394  5655 net.cpp:129] Top shape: 1 512 40 23 (471040)
I0322 10:03:58.120396  5655 net.cpp:137] Memory required for data: 217023232
I0322 10:03:58.120399  5655 layer_factory.hpp:77] Creating layer inception_4b/pool_proj
I0322 10:03:58.120405  5655 net.cpp:84] Creating Layer inception_4b/pool_proj
I0322 10:03:58.120407  5655 net.cpp:406] inception_4b/pool_proj <- inception_4b/pool
I0322 10:03:58.120412  5655 net.cpp:380] inception_4b/pool_proj -> inception_4b/pool_proj
I0322 10:03:58.121562  5655 net.cpp:122] Setting up inception_4b/pool_proj
I0322 10:03:58.121573  5655 net.cpp:129] Top shape: 1 64 40 23 (58880)
I0322 10:03:58.121590  5655 net.cpp:137] Memory required for data: 217258752
I0322 10:03:58.121595  5655 layer_factory.hpp:77] Creating layer inception_4b/relu_pool_proj
I0322 10:03:58.121600  5655 net.cpp:84] Creating Layer inception_4b/relu_pool_proj
I0322 10:03:58.121603  5655 net.cpp:406] inception_4b/relu_pool_proj <- inception_4b/pool_proj
I0322 10:03:58.121608  5655 net.cpp:367] inception_4b/relu_pool_proj -> inception_4b/pool_proj (in-place)
I0322 10:03:58.121739  5655 net.cpp:122] Setting up inception_4b/relu_pool_proj
I0322 10:03:58.121747  5655 net.cpp:129] Top shape: 1 64 40 23 (58880)
I0322 10:03:58.121750  5655 net.cpp:137] Memory required for data: 217494272
I0322 10:03:58.121752  5655 layer_factory.hpp:77] Creating layer inception_4b/output
I0322 10:03:58.121757  5655 net.cpp:84] Creating Layer inception_4b/output
I0322 10:03:58.121759  5655 net.cpp:406] inception_4b/output <- inception_4b/1x1
I0322 10:03:58.121762  5655 net.cpp:406] inception_4b/output <- inception_4b/3x3
I0322 10:03:58.121765  5655 net.cpp:406] inception_4b/output <- inception_4b/5x5
I0322 10:03:58.121768  5655 net.cpp:406] inception_4b/output <- inception_4b/pool_proj
I0322 10:03:58.121773  5655 net.cpp:380] inception_4b/output -> inception_4b/output
I0322 10:03:58.121793  5655 net.cpp:122] Setting up inception_4b/output
I0322 10:03:58.121798  5655 net.cpp:129] Top shape: 1 512 40 23 (471040)
I0322 10:03:58.121800  5655 net.cpp:137] Memory required for data: 219378432
I0322 10:03:58.121803  5655 layer_factory.hpp:77] Creating layer inception_4b/output_inception_4b/output_0_split
I0322 10:03:58.121807  5655 net.cpp:84] Creating Layer inception_4b/output_inception_4b/output_0_split
I0322 10:03:58.121809  5655 net.cpp:406] inception_4b/output_inception_4b/output_0_split <- inception_4b/output
I0322 10:03:58.121814  5655 net.cpp:380] inception_4b/output_inception_4b/output_0_split -> inception_4b/output_inception_4b/output_0_split_0
I0322 10:03:58.121817  5655 net.cpp:380] inception_4b/output_inception_4b/output_0_split -> inception_4b/output_inception_4b/output_0_split_1
I0322 10:03:58.121821  5655 net.cpp:380] inception_4b/output_inception_4b/output_0_split -> inception_4b/output_inception_4b/output_0_split_2
I0322 10:03:58.121830  5655 net.cpp:380] inception_4b/output_inception_4b/output_0_split -> inception_4b/output_inception_4b/output_0_split_3
I0322 10:03:58.121875  5655 net.cpp:122] Setting up inception_4b/output_inception_4b/output_0_split
I0322 10:03:58.121878  5655 net.cpp:129] Top shape: 1 512 40 23 (471040)
I0322 10:03:58.121881  5655 net.cpp:129] Top shape: 1 512 40 23 (471040)
I0322 10:03:58.121884  5655 net.cpp:129] Top shape: 1 512 40 23 (471040)
I0322 10:03:58.121887  5655 net.cpp:129] Top shape: 1 512 40 23 (471040)
I0322 10:03:58.121889  5655 net.cpp:137] Memory required for data: 226915072
I0322 10:03:58.121891  5655 layer_factory.hpp:77] Creating layer inception_4c/1x1
I0322 10:03:58.121898  5655 net.cpp:84] Creating Layer inception_4c/1x1
I0322 10:03:58.121901  5655 net.cpp:406] inception_4c/1x1 <- inception_4b/output_inception_4b/output_0_split_0
I0322 10:03:58.121906  5655 net.cpp:380] inception_4c/1x1 -> inception_4c/1x1
I0322 10:03:58.123189  5655 net.cpp:122] Setting up inception_4c/1x1
I0322 10:03:58.123199  5655 net.cpp:129] Top shape: 1 128 40 23 (117760)
I0322 10:03:58.123203  5655 net.cpp:137] Memory required for data: 227386112
I0322 10:03:58.123206  5655 layer_factory.hpp:77] Creating layer inception_4c/relu_1x1
I0322 10:03:58.123212  5655 net.cpp:84] Creating Layer inception_4c/relu_1x1
I0322 10:03:58.123215  5655 net.cpp:406] inception_4c/relu_1x1 <- inception_4c/1x1
I0322 10:03:58.123219  5655 net.cpp:367] inception_4c/relu_1x1 -> inception_4c/1x1 (in-place)
I0322 10:03:58.123857  5655 net.cpp:122] Setting up inception_4c/relu_1x1
I0322 10:03:58.123867  5655 net.cpp:129] Top shape: 1 128 40 23 (117760)
I0322 10:03:58.123884  5655 net.cpp:137] Memory required for data: 227857152
I0322 10:03:58.123888  5655 layer_factory.hpp:77] Creating layer inception_4c/3x3_reduce
I0322 10:03:58.123895  5655 net.cpp:84] Creating Layer inception_4c/3x3_reduce
I0322 10:03:58.123898  5655 net.cpp:406] inception_4c/3x3_reduce <- inception_4b/output_inception_4b/output_0_split_1
I0322 10:03:58.123904  5655 net.cpp:380] inception_4c/3x3_reduce -> inception_4c/3x3_reduce
I0322 10:03:58.124778  5655 net.cpp:122] Setting up inception_4c/3x3_reduce
I0322 10:03:58.124785  5655 net.cpp:129] Top shape: 1 128 40 23 (117760)
I0322 10:03:58.124788  5655 net.cpp:137] Memory required for data: 228328192
I0322 10:03:58.124792  5655 layer_factory.hpp:77] Creating layer inception_4c/relu_3x3_reduce
I0322 10:03:58.124796  5655 net.cpp:84] Creating Layer inception_4c/relu_3x3_reduce
I0322 10:03:58.124799  5655 net.cpp:406] inception_4c/relu_3x3_reduce <- inception_4c/3x3_reduce
I0322 10:03:58.124804  5655 net.cpp:367] inception_4c/relu_3x3_reduce -> inception_4c/3x3_reduce (in-place)
I0322 10:03:58.125440  5655 net.cpp:122] Setting up inception_4c/relu_3x3_reduce
I0322 10:03:58.125450  5655 net.cpp:129] Top shape: 1 128 40 23 (117760)
I0322 10:03:58.125453  5655 net.cpp:137] Memory required for data: 228799232
I0322 10:03:58.125455  5655 layer_factory.hpp:77] Creating layer inception_4c/3x3
I0322 10:03:58.125463  5655 net.cpp:84] Creating Layer inception_4c/3x3
I0322 10:03:58.125468  5655 net.cpp:406] inception_4c/3x3 <- inception_4c/3x3_reduce
I0322 10:03:58.125473  5655 net.cpp:380] inception_4c/3x3 -> inception_4c/3x3
I0322 10:03:58.128461  5655 net.cpp:122] Setting up inception_4c/3x3
I0322 10:03:58.128473  5655 net.cpp:129] Top shape: 1 256 40 23 (235520)
I0322 10:03:58.128475  5655 net.cpp:137] Memory required for data: 229741312
I0322 10:03:58.128480  5655 layer_factory.hpp:77] Creating layer inception_4c/relu_3x3
I0322 10:03:58.128485  5655 net.cpp:84] Creating Layer inception_4c/relu_3x3
I0322 10:03:58.128489  5655 net.cpp:406] inception_4c/relu_3x3 <- inception_4c/3x3
I0322 10:03:58.128492  5655 net.cpp:367] inception_4c/relu_3x3 -> inception_4c/3x3 (in-place)
I0322 10:03:58.128634  5655 net.cpp:122] Setting up inception_4c/relu_3x3
I0322 10:03:58.128643  5655 net.cpp:129] Top shape: 1 256 40 23 (235520)
I0322 10:03:58.128645  5655 net.cpp:137] Memory required for data: 230683392
I0322 10:03:58.128648  5655 layer_factory.hpp:77] Creating layer inception_4c/5x5_reduce
I0322 10:03:58.128655  5655 net.cpp:84] Creating Layer inception_4c/5x5_reduce
I0322 10:03:58.128659  5655 net.cpp:406] inception_4c/5x5_reduce <- inception_4b/output_inception_4b/output_0_split_2
I0322 10:03:58.128664  5655 net.cpp:380] inception_4c/5x5_reduce -> inception_4c/5x5_reduce
I0322 10:03:58.129778  5655 net.cpp:122] Setting up inception_4c/5x5_reduce
I0322 10:03:58.129789  5655 net.cpp:129] Top shape: 1 24 40 23 (22080)
I0322 10:03:58.129791  5655 net.cpp:137] Memory required for data: 230771712
I0322 10:03:58.129796  5655 layer_factory.hpp:77] Creating layer inception_4c/relu_5x5_reduce
I0322 10:03:58.129801  5655 net.cpp:84] Creating Layer inception_4c/relu_5x5_reduce
I0322 10:03:58.129804  5655 net.cpp:406] inception_4c/relu_5x5_reduce <- inception_4c/5x5_reduce
I0322 10:03:58.129809  5655 net.cpp:367] inception_4c/relu_5x5_reduce -> inception_4c/5x5_reduce (in-place)
I0322 10:03:58.129951  5655 net.cpp:122] Setting up inception_4c/relu_5x5_reduce
I0322 10:03:58.129958  5655 net.cpp:129] Top shape: 1 24 40 23 (22080)
I0322 10:03:58.129961  5655 net.cpp:137] Memory required for data: 230860032
I0322 10:03:58.129963  5655 layer_factory.hpp:77] Creating layer inception_4c/5x5
I0322 10:03:58.129972  5655 net.cpp:84] Creating Layer inception_4c/5x5
I0322 10:03:58.129976  5655 net.cpp:406] inception_4c/5x5 <- inception_4c/5x5_reduce
I0322 10:03:58.129981  5655 net.cpp:380] inception_4c/5x5 -> inception_4c/5x5
I0322 10:03:58.131717  5655 net.cpp:122] Setting up inception_4c/5x5
I0322 10:03:58.131728  5655 net.cpp:129] Top shape: 1 64 40 23 (58880)
I0322 10:03:58.131731  5655 net.cpp:137] Memory required for data: 231095552
I0322 10:03:58.131736  5655 layer_factory.hpp:77] Creating layer inception_4c/relu_5x5
I0322 10:03:58.131741  5655 net.cpp:84] Creating Layer inception_4c/relu_5x5
I0322 10:03:58.131743  5655 net.cpp:406] inception_4c/relu_5x5 <- inception_4c/5x5
I0322 10:03:58.131748  5655 net.cpp:367] inception_4c/relu_5x5 -> inception_4c/5x5 (in-place)
I0322 10:03:58.131893  5655 net.cpp:122] Setting up inception_4c/relu_5x5
I0322 10:03:58.131901  5655 net.cpp:129] Top shape: 1 64 40 23 (58880)
I0322 10:03:58.131903  5655 net.cpp:137] Memory required for data: 231331072
I0322 10:03:58.131906  5655 layer_factory.hpp:77] Creating layer inception_4c/pool
I0322 10:03:58.131911  5655 net.cpp:84] Creating Layer inception_4c/pool
I0322 10:03:58.131912  5655 net.cpp:406] inception_4c/pool <- inception_4b/output_inception_4b/output_0_split_3
I0322 10:03:58.131918  5655 net.cpp:380] inception_4c/pool -> inception_4c/pool
I0322 10:03:58.131952  5655 net.cpp:122] Setting up inception_4c/pool
I0322 10:03:58.131955  5655 net.cpp:129] Top shape: 1 512 40 23 (471040)
I0322 10:03:58.131958  5655 net.cpp:137] Memory required for data: 233215232
I0322 10:03:58.131960  5655 layer_factory.hpp:77] Creating layer inception_4c/pool_proj
I0322 10:03:58.131968  5655 net.cpp:84] Creating Layer inception_4c/pool_proj
I0322 10:03:58.131970  5655 net.cpp:406] inception_4c/pool_proj <- inception_4c/pool
I0322 10:03:58.131974  5655 net.cpp:380] inception_4c/pool_proj -> inception_4c/pool_proj
I0322 10:03:58.133141  5655 net.cpp:122] Setting up inception_4c/pool_proj
I0322 10:03:58.133152  5655 net.cpp:129] Top shape: 1 64 40 23 (58880)
I0322 10:03:58.133153  5655 net.cpp:137] Memory required for data: 233450752
I0322 10:03:58.133165  5655 layer_factory.hpp:77] Creating layer inception_4c/relu_pool_proj
I0322 10:03:58.133172  5655 net.cpp:84] Creating Layer inception_4c/relu_pool_proj
I0322 10:03:58.133174  5655 net.cpp:406] inception_4c/relu_pool_proj <- inception_4c/pool_proj
I0322 10:03:58.133178  5655 net.cpp:367] inception_4c/relu_pool_proj -> inception_4c/pool_proj (in-place)
I0322 10:03:58.133330  5655 net.cpp:122] Setting up inception_4c/relu_pool_proj
I0322 10:03:58.133338  5655 net.cpp:129] Top shape: 1 64 40 23 (58880)
I0322 10:03:58.133340  5655 net.cpp:137] Memory required for data: 233686272
I0322 10:03:58.133343  5655 layer_factory.hpp:77] Creating layer inception_4c/output
I0322 10:03:58.133348  5655 net.cpp:84] Creating Layer inception_4c/output
I0322 10:03:58.133352  5655 net.cpp:406] inception_4c/output <- inception_4c/1x1
I0322 10:03:58.133354  5655 net.cpp:406] inception_4c/output <- inception_4c/3x3
I0322 10:03:58.133358  5655 net.cpp:406] inception_4c/output <- inception_4c/5x5
I0322 10:03:58.133360  5655 net.cpp:406] inception_4c/output <- inception_4c/pool_proj
I0322 10:03:58.133363  5655 net.cpp:380] inception_4c/output -> inception_4c/output
I0322 10:03:58.133386  5655 net.cpp:122] Setting up inception_4c/output
I0322 10:03:58.133390  5655 net.cpp:129] Top shape: 1 512 40 23 (471040)
I0322 10:03:58.133393  5655 net.cpp:137] Memory required for data: 235570432
I0322 10:03:58.133394  5655 layer_factory.hpp:77] Creating layer inception_4c/output_inception_4c/output_0_split
I0322 10:03:58.133399  5655 net.cpp:84] Creating Layer inception_4c/output_inception_4c/output_0_split
I0322 10:03:58.133400  5655 net.cpp:406] inception_4c/output_inception_4c/output_0_split <- inception_4c/output
I0322 10:03:58.133405  5655 net.cpp:380] inception_4c/output_inception_4c/output_0_split -> inception_4c/output_inception_4c/output_0_split_0
I0322 10:03:58.133409  5655 net.cpp:380] inception_4c/output_inception_4c/output_0_split -> inception_4c/output_inception_4c/output_0_split_1
I0322 10:03:58.133414  5655 net.cpp:380] inception_4c/output_inception_4c/output_0_split -> inception_4c/output_inception_4c/output_0_split_2
I0322 10:03:58.133417  5655 net.cpp:380] inception_4c/output_inception_4c/output_0_split -> inception_4c/output_inception_4c/output_0_split_3
I0322 10:03:58.133463  5655 net.cpp:122] Setting up inception_4c/output_inception_4c/output_0_split
I0322 10:03:58.133467  5655 net.cpp:129] Top shape: 1 512 40 23 (471040)
I0322 10:03:58.133471  5655 net.cpp:129] Top shape: 1 512 40 23 (471040)
I0322 10:03:58.133472  5655 net.cpp:129] Top shape: 1 512 40 23 (471040)
I0322 10:03:58.133476  5655 net.cpp:129] Top shape: 1 512 40 23 (471040)
I0322 10:03:58.133477  5655 net.cpp:137] Memory required for data: 243107072
I0322 10:03:58.133479  5655 layer_factory.hpp:77] Creating layer inception_4d/1x1
I0322 10:03:58.133486  5655 net.cpp:84] Creating Layer inception_4d/1x1
I0322 10:03:58.133489  5655 net.cpp:406] inception_4d/1x1 <- inception_4c/output_inception_4c/output_0_split_0
I0322 10:03:58.133492  5655 net.cpp:380] inception_4d/1x1 -> inception_4d/1x1
I0322 10:03:58.134781  5655 net.cpp:122] Setting up inception_4d/1x1
I0322 10:03:58.134791  5655 net.cpp:129] Top shape: 1 112 40 23 (103040)
I0322 10:03:58.134794  5655 net.cpp:137] Memory required for data: 243519232
I0322 10:03:58.134799  5655 layer_factory.hpp:77] Creating layer inception_4d/relu_1x1
I0322 10:03:58.134804  5655 net.cpp:84] Creating Layer inception_4d/relu_1x1
I0322 10:03:58.134806  5655 net.cpp:406] inception_4d/relu_1x1 <- inception_4d/1x1
I0322 10:03:58.134811  5655 net.cpp:367] inception_4d/relu_1x1 -> inception_4d/1x1 (in-place)
I0322 10:03:58.135437  5655 net.cpp:122] Setting up inception_4d/relu_1x1
I0322 10:03:58.135448  5655 net.cpp:129] Top shape: 1 112 40 23 (103040)
I0322 10:03:58.135450  5655 net.cpp:137] Memory required for data: 243931392
I0322 10:03:58.135453  5655 layer_factory.hpp:77] Creating layer inception_4d/3x3_reduce
I0322 10:03:58.135462  5655 net.cpp:84] Creating Layer inception_4d/3x3_reduce
I0322 10:03:58.135465  5655 net.cpp:406] inception_4d/3x3_reduce <- inception_4c/output_inception_4c/output_0_split_1
I0322 10:03:58.135470  5655 net.cpp:380] inception_4d/3x3_reduce -> inception_4d/3x3_reduce
I0322 10:03:58.136379  5655 net.cpp:122] Setting up inception_4d/3x3_reduce
I0322 10:03:58.136389  5655 net.cpp:129] Top shape: 1 144 40 23 (132480)
I0322 10:03:58.136406  5655 net.cpp:137] Memory required for data: 244461312
I0322 10:03:58.136410  5655 layer_factory.hpp:77] Creating layer inception_4d/relu_3x3_reduce
I0322 10:03:58.136425  5655 net.cpp:84] Creating Layer inception_4d/relu_3x3_reduce
I0322 10:03:58.136430  5655 net.cpp:406] inception_4d/relu_3x3_reduce <- inception_4d/3x3_reduce
I0322 10:03:58.136432  5655 net.cpp:367] inception_4d/relu_3x3_reduce -> inception_4d/3x3_reduce (in-place)
I0322 10:03:58.137068  5655 net.cpp:122] Setting up inception_4d/relu_3x3_reduce
I0322 10:03:58.137079  5655 net.cpp:129] Top shape: 1 144 40 23 (132480)
I0322 10:03:58.137082  5655 net.cpp:137] Memory required for data: 244991232
I0322 10:03:58.137085  5655 layer_factory.hpp:77] Creating layer inception_4d/3x3
I0322 10:03:58.137094  5655 net.cpp:84] Creating Layer inception_4d/3x3
I0322 10:03:58.137096  5655 net.cpp:406] inception_4d/3x3 <- inception_4d/3x3_reduce
I0322 10:03:58.137101  5655 net.cpp:380] inception_4d/3x3 -> inception_4d/3x3
I0322 10:03:58.140523  5655 net.cpp:122] Setting up inception_4d/3x3
I0322 10:03:58.140535  5655 net.cpp:129] Top shape: 1 288 40 23 (264960)
I0322 10:03:58.140538  5655 net.cpp:137] Memory required for data: 246051072
I0322 10:03:58.140542  5655 layer_factory.hpp:77] Creating layer inception_4d/relu_3x3
I0322 10:03:58.140547  5655 net.cpp:84] Creating Layer inception_4d/relu_3x3
I0322 10:03:58.140552  5655 net.cpp:406] inception_4d/relu_3x3 <- inception_4d/3x3
I0322 10:03:58.140555  5655 net.cpp:367] inception_4d/relu_3x3 -> inception_4d/3x3 (in-place)
I0322 10:03:58.140702  5655 net.cpp:122] Setting up inception_4d/relu_3x3
I0322 10:03:58.140710  5655 net.cpp:129] Top shape: 1 288 40 23 (264960)
I0322 10:03:58.140712  5655 net.cpp:137] Memory required for data: 247110912
I0322 10:03:58.140715  5655 layer_factory.hpp:77] Creating layer inception_4d/5x5_reduce
I0322 10:03:58.140723  5655 net.cpp:84] Creating Layer inception_4d/5x5_reduce
I0322 10:03:58.140727  5655 net.cpp:406] inception_4d/5x5_reduce <- inception_4c/output_inception_4c/output_0_split_2
I0322 10:03:58.140732  5655 net.cpp:380] inception_4d/5x5_reduce -> inception_4d/5x5_reduce
I0322 10:03:58.141909  5655 net.cpp:122] Setting up inception_4d/5x5_reduce
I0322 10:03:58.141921  5655 net.cpp:129] Top shape: 1 32 40 23 (29440)
I0322 10:03:58.141923  5655 net.cpp:137] Memory required for data: 247228672
I0322 10:03:58.141928  5655 layer_factory.hpp:77] Creating layer inception_4d/relu_5x5_reduce
I0322 10:03:58.141932  5655 net.cpp:84] Creating Layer inception_4d/relu_5x5_reduce
I0322 10:03:58.141935  5655 net.cpp:406] inception_4d/relu_5x5_reduce <- inception_4d/5x5_reduce
I0322 10:03:58.141939  5655 net.cpp:367] inception_4d/relu_5x5_reduce -> inception_4d/5x5_reduce (in-place)
I0322 10:03:58.142088  5655 net.cpp:122] Setting up inception_4d/relu_5x5_reduce
I0322 10:03:58.142096  5655 net.cpp:129] Top shape: 1 32 40 23 (29440)
I0322 10:03:58.142098  5655 net.cpp:137] Memory required for data: 247346432
I0322 10:03:58.142102  5655 layer_factory.hpp:77] Creating layer inception_4d/5x5
I0322 10:03:58.142109  5655 net.cpp:84] Creating Layer inception_4d/5x5
I0322 10:03:58.142112  5655 net.cpp:406] inception_4d/5x5 <- inception_4d/5x5_reduce
I0322 10:03:58.142117  5655 net.cpp:380] inception_4d/5x5 -> inception_4d/5x5
I0322 10:03:58.143378  5655 net.cpp:122] Setting up inception_4d/5x5
I0322 10:03:58.143388  5655 net.cpp:129] Top shape: 1 64 40 23 (58880)
I0322 10:03:58.143390  5655 net.cpp:137] Memory required for data: 247581952
I0322 10:03:58.143395  5655 layer_factory.hpp:77] Creating layer inception_4d/relu_5x5
I0322 10:03:58.143399  5655 net.cpp:84] Creating Layer inception_4d/relu_5x5
I0322 10:03:58.143402  5655 net.cpp:406] inception_4d/relu_5x5 <- inception_4d/5x5
I0322 10:03:58.143407  5655 net.cpp:367] inception_4d/relu_5x5 -> inception_4d/5x5 (in-place)
I0322 10:03:58.143549  5655 net.cpp:122] Setting up inception_4d/relu_5x5
I0322 10:03:58.143558  5655 net.cpp:129] Top shape: 1 64 40 23 (58880)
I0322 10:03:58.143559  5655 net.cpp:137] Memory required for data: 247817472
I0322 10:03:58.143563  5655 layer_factory.hpp:77] Creating layer inception_4d/pool
I0322 10:03:58.143568  5655 net.cpp:84] Creating Layer inception_4d/pool
I0322 10:03:58.143570  5655 net.cpp:406] inception_4d/pool <- inception_4c/output_inception_4c/output_0_split_3
I0322 10:03:58.143574  5655 net.cpp:380] inception_4d/pool -> inception_4d/pool
I0322 10:03:58.143609  5655 net.cpp:122] Setting up inception_4d/pool
I0322 10:03:58.143612  5655 net.cpp:129] Top shape: 1 512 40 23 (471040)
I0322 10:03:58.143615  5655 net.cpp:137] Memory required for data: 249701632
I0322 10:03:58.143616  5655 layer_factory.hpp:77] Creating layer inception_4d/pool_proj
I0322 10:03:58.143623  5655 net.cpp:84] Creating Layer inception_4d/pool_proj
I0322 10:03:58.143626  5655 net.cpp:406] inception_4d/pool_proj <- inception_4d/pool
I0322 10:03:58.143630  5655 net.cpp:380] inception_4d/pool_proj -> inception_4d/pool_proj
I0322 10:03:58.144790  5655 net.cpp:122] Setting up inception_4d/pool_proj
I0322 10:03:58.144801  5655 net.cpp:129] Top shape: 1 64 40 23 (58880)
I0322 10:03:58.144804  5655 net.cpp:137] Memory required for data: 249937152
I0322 10:03:58.144809  5655 layer_factory.hpp:77] Creating layer inception_4d/relu_pool_proj
I0322 10:03:58.144814  5655 net.cpp:84] Creating Layer inception_4d/relu_pool_proj
I0322 10:03:58.144816  5655 net.cpp:406] inception_4d/relu_pool_proj <- inception_4d/pool_proj
I0322 10:03:58.144820  5655 net.cpp:367] inception_4d/relu_pool_proj -> inception_4d/pool_proj (in-place)
I0322 10:03:58.144968  5655 net.cpp:122] Setting up inception_4d/relu_pool_proj
I0322 10:03:58.144975  5655 net.cpp:129] Top shape: 1 64 40 23 (58880)
I0322 10:03:58.144979  5655 net.cpp:137] Memory required for data: 250172672
I0322 10:03:58.144980  5655 layer_factory.hpp:77] Creating layer inception_4d/output
I0322 10:03:58.144984  5655 net.cpp:84] Creating Layer inception_4d/output
I0322 10:03:58.144987  5655 net.cpp:406] inception_4d/output <- inception_4d/1x1
I0322 10:03:58.144990  5655 net.cpp:406] inception_4d/output <- inception_4d/3x3
I0322 10:03:58.144994  5655 net.cpp:406] inception_4d/output <- inception_4d/5x5
I0322 10:03:58.144996  5655 net.cpp:406] inception_4d/output <- inception_4d/pool_proj
I0322 10:03:58.145000  5655 net.cpp:380] inception_4d/output -> inception_4d/output
I0322 10:03:58.145022  5655 net.cpp:122] Setting up inception_4d/output
I0322 10:03:58.145026  5655 net.cpp:129] Top shape: 1 528 40 23 (485760)
I0322 10:03:58.145028  5655 net.cpp:137] Memory required for data: 252115712
I0322 10:03:58.145030  5655 layer_factory.hpp:77] Creating layer inception_4d/output_inception_4d/output_0_split
I0322 10:03:58.145035  5655 net.cpp:84] Creating Layer inception_4d/output_inception_4d/output_0_split
I0322 10:03:58.145038  5655 net.cpp:406] inception_4d/output_inception_4d/output_0_split <- inception_4d/output
I0322 10:03:58.145041  5655 net.cpp:380] inception_4d/output_inception_4d/output_0_split -> inception_4d/output_inception_4d/output_0_split_0
I0322 10:03:58.145046  5655 net.cpp:380] inception_4d/output_inception_4d/output_0_split -> inception_4d/output_inception_4d/output_0_split_1
I0322 10:03:58.145051  5655 net.cpp:380] inception_4d/output_inception_4d/output_0_split -> inception_4d/output_inception_4d/output_0_split_2
I0322 10:03:58.145054  5655 net.cpp:380] inception_4d/output_inception_4d/output_0_split -> inception_4d/output_inception_4d/output_0_split_3
I0322 10:03:58.145099  5655 net.cpp:122] Setting up inception_4d/output_inception_4d/output_0_split
I0322 10:03:58.145103  5655 net.cpp:129] Top shape: 1 528 40 23 (485760)
I0322 10:03:58.145107  5655 net.cpp:129] Top shape: 1 528 40 23 (485760)
I0322 10:03:58.145108  5655 net.cpp:129] Top shape: 1 528 40 23 (485760)
I0322 10:03:58.145112  5655 net.cpp:129] Top shape: 1 528 40 23 (485760)
I0322 10:03:58.145113  5655 net.cpp:137] Memory required for data: 259887872
I0322 10:03:58.145115  5655 layer_factory.hpp:77] Creating layer inception_4e/1x1
I0322 10:03:58.145123  5655 net.cpp:84] Creating Layer inception_4e/1x1
I0322 10:03:58.145124  5655 net.cpp:406] inception_4e/1x1 <- inception_4d/output_inception_4d/output_0_split_0
I0322 10:03:58.145130  5655 net.cpp:380] inception_4e/1x1 -> inception_4e/1x1
I0322 10:03:58.146687  5655 net.cpp:122] Setting up inception_4e/1x1
I0322 10:03:58.146698  5655 net.cpp:129] Top shape: 1 256 40 23 (235520)
I0322 10:03:58.146700  5655 net.cpp:137] Memory required for data: 260829952
I0322 10:03:58.146705  5655 layer_factory.hpp:77] Creating layer inception_4e/relu_1x1
I0322 10:03:58.146709  5655 net.cpp:84] Creating Layer inception_4e/relu_1x1
I0322 10:03:58.146713  5655 net.cpp:406] inception_4e/relu_1x1 <- inception_4e/1x1
I0322 10:03:58.146716  5655 net.cpp:367] inception_4e/relu_1x1 -> inception_4e/1x1 (in-place)
I0322 10:03:58.147363  5655 net.cpp:122] Setting up inception_4e/relu_1x1
I0322 10:03:58.147373  5655 net.cpp:129] Top shape: 1 256 40 23 (235520)
I0322 10:03:58.147392  5655 net.cpp:137] Memory required for data: 261772032
I0322 10:03:58.147394  5655 layer_factory.hpp:77] Creating layer inception_4e/3x3_reduce
I0322 10:03:58.147403  5655 net.cpp:84] Creating Layer inception_4e/3x3_reduce
I0322 10:03:58.147408  5655 net.cpp:406] inception_4e/3x3_reduce <- inception_4d/output_inception_4d/output_0_split_1
I0322 10:03:58.147413  5655 net.cpp:380] inception_4e/3x3_reduce -> inception_4e/3x3_reduce
I0322 10:03:58.148370  5655 net.cpp:122] Setting up inception_4e/3x3_reduce
I0322 10:03:58.148380  5655 net.cpp:129] Top shape: 1 160 40 23 (147200)
I0322 10:03:58.148381  5655 net.cpp:137] Memory required for data: 262360832
I0322 10:03:58.148386  5655 layer_factory.hpp:77] Creating layer inception_4e/relu_3x3_reduce
I0322 10:03:58.148391  5655 net.cpp:84] Creating Layer inception_4e/relu_3x3_reduce
I0322 10:03:58.148394  5655 net.cpp:406] inception_4e/relu_3x3_reduce <- inception_4e/3x3_reduce
I0322 10:03:58.148397  5655 net.cpp:367] inception_4e/relu_3x3_reduce -> inception_4e/3x3_reduce (in-place)
I0322 10:03:58.149041  5655 net.cpp:122] Setting up inception_4e/relu_3x3_reduce
I0322 10:03:58.149051  5655 net.cpp:129] Top shape: 1 160 40 23 (147200)
I0322 10:03:58.149070  5655 net.cpp:137] Memory required for data: 262949632
I0322 10:03:58.149071  5655 layer_factory.hpp:77] Creating layer inception_4e/3x3
I0322 10:03:58.149080  5655 net.cpp:84] Creating Layer inception_4e/3x3
I0322 10:03:58.149083  5655 net.cpp:406] inception_4e/3x3 <- inception_4e/3x3_reduce
I0322 10:03:58.149088  5655 net.cpp:380] inception_4e/3x3 -> inception_4e/3x3
I0322 10:03:58.152848  5655 net.cpp:122] Setting up inception_4e/3x3
I0322 10:03:58.152859  5655 net.cpp:129] Top shape: 1 320 40 23 (294400)
I0322 10:03:58.152861  5655 net.cpp:137] Memory required for data: 264127232
I0322 10:03:58.152866  5655 layer_factory.hpp:77] Creating layer inception_4e/relu_3x3
I0322 10:03:58.152873  5655 net.cpp:84] Creating Layer inception_4e/relu_3x3
I0322 10:03:58.152876  5655 net.cpp:406] inception_4e/relu_3x3 <- inception_4e/3x3
I0322 10:03:58.152880  5655 net.cpp:367] inception_4e/relu_3x3 -> inception_4e/3x3 (in-place)
I0322 10:03:58.153031  5655 net.cpp:122] Setting up inception_4e/relu_3x3
I0322 10:03:58.153039  5655 net.cpp:129] Top shape: 1 320 40 23 (294400)
I0322 10:03:58.153041  5655 net.cpp:137] Memory required for data: 265304832
I0322 10:03:58.153044  5655 layer_factory.hpp:77] Creating layer inception_4e/5x5_reduce
I0322 10:03:58.153051  5655 net.cpp:84] Creating Layer inception_4e/5x5_reduce
I0322 10:03:58.153054  5655 net.cpp:406] inception_4e/5x5_reduce <- inception_4d/output_inception_4d/output_0_split_2
I0322 10:03:58.153060  5655 net.cpp:380] inception_4e/5x5_reduce -> inception_4e/5x5_reduce
I0322 10:03:58.154191  5655 net.cpp:122] Setting up inception_4e/5x5_reduce
I0322 10:03:58.154201  5655 net.cpp:129] Top shape: 1 32 40 23 (29440)
I0322 10:03:58.154204  5655 net.cpp:137] Memory required for data: 265422592
I0322 10:03:58.154209  5655 layer_factory.hpp:77] Creating layer inception_4e/relu_5x5_reduce
I0322 10:03:58.154213  5655 net.cpp:84] Creating Layer inception_4e/relu_5x5_reduce
I0322 10:03:58.154217  5655 net.cpp:406] inception_4e/relu_5x5_reduce <- inception_4e/5x5_reduce
I0322 10:03:58.154220  5655 net.cpp:367] inception_4e/relu_5x5_reduce -> inception_4e/5x5_reduce (in-place)
I0322 10:03:58.154369  5655 net.cpp:122] Setting up inception_4e/relu_5x5_reduce
I0322 10:03:58.154377  5655 net.cpp:129] Top shape: 1 32 40 23 (29440)
I0322 10:03:58.154379  5655 net.cpp:137] Memory required for data: 265540352
I0322 10:03:58.154381  5655 layer_factory.hpp:77] Creating layer inception_4e/5x5
I0322 10:03:58.154389  5655 net.cpp:84] Creating Layer inception_4e/5x5
I0322 10:03:58.154392  5655 net.cpp:406] inception_4e/5x5 <- inception_4e/5x5_reduce
I0322 10:03:58.154397  5655 net.cpp:380] inception_4e/5x5 -> inception_4e/5x5
I0322 10:03:58.156819  5655 net.cpp:122] Setting up inception_4e/5x5
I0322 10:03:58.156831  5655 net.cpp:129] Top shape: 1 128 40 23 (117760)
I0322 10:03:58.156832  5655 net.cpp:137] Memory required for data: 266011392
I0322 10:03:58.156837  5655 layer_factory.hpp:77] Creating layer inception_4e/relu_5x5
I0322 10:03:58.156842  5655 net.cpp:84] Creating Layer inception_4e/relu_5x5
I0322 10:03:58.156846  5655 net.cpp:406] inception_4e/relu_5x5 <- inception_4e/5x5
I0322 10:03:58.156849  5655 net.cpp:367] inception_4e/relu_5x5 -> inception_4e/5x5 (in-place)
I0322 10:03:58.157002  5655 net.cpp:122] Setting up inception_4e/relu_5x5
I0322 10:03:58.157011  5655 net.cpp:129] Top shape: 1 128 40 23 (117760)
I0322 10:03:58.157012  5655 net.cpp:137] Memory required for data: 266482432
I0322 10:03:58.157016  5655 layer_factory.hpp:77] Creating layer inception_4e/pool
I0322 10:03:58.157021  5655 net.cpp:84] Creating Layer inception_4e/pool
I0322 10:03:58.157022  5655 net.cpp:406] inception_4e/pool <- inception_4d/output_inception_4d/output_0_split_3
I0322 10:03:58.157027  5655 net.cpp:380] inception_4e/pool -> inception_4e/pool
I0322 10:03:58.157063  5655 net.cpp:122] Setting up inception_4e/pool
I0322 10:03:58.157066  5655 net.cpp:129] Top shape: 1 528 40 23 (485760)
I0322 10:03:58.157069  5655 net.cpp:137] Memory required for data: 268425472
I0322 10:03:58.157071  5655 layer_factory.hpp:77] Creating layer inception_4e/pool_proj
I0322 10:03:58.157079  5655 net.cpp:84] Creating Layer inception_4e/pool_proj
I0322 10:03:58.157083  5655 net.cpp:406] inception_4e/pool_proj <- inception_4e/pool
I0322 10:03:58.157086  5655 net.cpp:380] inception_4e/pool_proj -> inception_4e/pool_proj
I0322 10:03:58.158396  5655 net.cpp:122] Setting up inception_4e/pool_proj
I0322 10:03:58.158407  5655 net.cpp:129] Top shape: 1 128 40 23 (117760)
I0322 10:03:58.158411  5655 net.cpp:137] Memory required for data: 268896512
I0322 10:03:58.158414  5655 layer_factory.hpp:77] Creating layer inception_4e/relu_pool_proj
I0322 10:03:58.158421  5655 net.cpp:84] Creating Layer inception_4e/relu_pool_proj
I0322 10:03:58.158423  5655 net.cpp:406] inception_4e/relu_pool_proj <- inception_4e/pool_proj
I0322 10:03:58.158427  5655 net.cpp:367] inception_4e/relu_pool_proj -> inception_4e/pool_proj (in-place)
I0322 10:03:58.158576  5655 net.cpp:122] Setting up inception_4e/relu_pool_proj
I0322 10:03:58.158582  5655 net.cpp:129] Top shape: 1 128 40 23 (117760)
I0322 10:03:58.158586  5655 net.cpp:137] Memory required for data: 269367552
I0322 10:03:58.158587  5655 layer_factory.hpp:77] Creating layer inception_4e/output
I0322 10:03:58.158592  5655 net.cpp:84] Creating Layer inception_4e/output
I0322 10:03:58.158594  5655 net.cpp:406] inception_4e/output <- inception_4e/1x1
I0322 10:03:58.158598  5655 net.cpp:406] inception_4e/output <- inception_4e/3x3
I0322 10:03:58.158601  5655 net.cpp:406] inception_4e/output <- inception_4e/5x5
I0322 10:03:58.158603  5655 net.cpp:406] inception_4e/output <- inception_4e/pool_proj
I0322 10:03:58.158608  5655 net.cpp:380] inception_4e/output -> inception_4e/output
I0322 10:03:58.158630  5655 net.cpp:122] Setting up inception_4e/output
I0322 10:03:58.158634  5655 net.cpp:129] Top shape: 1 832 40 23 (765440)
I0322 10:03:58.158637  5655 net.cpp:137] Memory required for data: 272429312
I0322 10:03:58.158638  5655 layer_factory.hpp:77] Creating layer inception_4e/output_inception_4e/output_0_split
I0322 10:03:58.158643  5655 net.cpp:84] Creating Layer inception_4e/output_inception_4e/output_0_split
I0322 10:03:58.158645  5655 net.cpp:406] inception_4e/output_inception_4e/output_0_split <- inception_4e/output
I0322 10:03:58.158649  5655 net.cpp:380] inception_4e/output_inception_4e/output_0_split -> inception_4e/output_inception_4e/output_0_split_0
I0322 10:03:58.158653  5655 net.cpp:380] inception_4e/output_inception_4e/output_0_split -> inception_4e/output_inception_4e/output_0_split_1
I0322 10:03:58.158681  5655 net.cpp:122] Setting up inception_4e/output_inception_4e/output_0_split
I0322 10:03:58.158685  5655 net.cpp:129] Top shape: 1 832 40 23 (765440)
I0322 10:03:58.158689  5655 net.cpp:129] Top shape: 1 832 40 23 (765440)
I0322 10:03:58.158690  5655 net.cpp:137] Memory required for data: 278552832
I0322 10:03:58.158692  5655 layer_factory.hpp:77] Creating layer pool4/3x3_s2
I0322 10:03:58.158696  5655 net.cpp:84] Creating Layer pool4/3x3_s2
I0322 10:03:58.158699  5655 net.cpp:406] pool4/3x3_s2 <- inception_4e/output_inception_4e/output_0_split_0
I0322 10:03:58.158704  5655 net.cpp:380] pool4/3x3_s2 -> pool4/3x3_s2
I0322 10:03:58.158730  5655 net.cpp:122] Setting up pool4/3x3_s2
I0322 10:03:58.158736  5655 net.cpp:129] Top shape: 1 832 20 11 (183040)
I0322 10:03:58.158738  5655 net.cpp:137] Memory required for data: 279284992
I0322 10:03:58.158740  5655 layer_factory.hpp:77] Creating layer pool4/3x3_s2_pool4/3x3_s2_0_split
I0322 10:03:58.158743  5655 net.cpp:84] Creating Layer pool4/3x3_s2_pool4/3x3_s2_0_split
I0322 10:03:58.158746  5655 net.cpp:406] pool4/3x3_s2_pool4/3x3_s2_0_split <- pool4/3x3_s2
I0322 10:03:58.158749  5655 net.cpp:380] pool4/3x3_s2_pool4/3x3_s2_0_split -> pool4/3x3_s2_pool4/3x3_s2_0_split_0
I0322 10:03:58.158753  5655 net.cpp:380] pool4/3x3_s2_pool4/3x3_s2_0_split -> pool4/3x3_s2_pool4/3x3_s2_0_split_1
I0322 10:03:58.158758  5655 net.cpp:380] pool4/3x3_s2_pool4/3x3_s2_0_split -> pool4/3x3_s2_pool4/3x3_s2_0_split_2
I0322 10:03:58.158762  5655 net.cpp:380] pool4/3x3_s2_pool4/3x3_s2_0_split -> pool4/3x3_s2_pool4/3x3_s2_0_split_3
I0322 10:03:58.158807  5655 net.cpp:122] Setting up pool4/3x3_s2_pool4/3x3_s2_0_split
I0322 10:03:58.158809  5655 net.cpp:129] Top shape: 1 832 20 11 (183040)
I0322 10:03:58.158812  5655 net.cpp:129] Top shape: 1 832 20 11 (183040)
I0322 10:03:58.158815  5655 net.cpp:129] Top shape: 1 832 20 11 (183040)
I0322 10:03:58.158818  5655 net.cpp:129] Top shape: 1 832 20 11 (183040)
I0322 10:03:58.158819  5655 net.cpp:137] Memory required for data: 282213632
I0322 10:03:58.158821  5655 layer_factory.hpp:77] Creating layer inception_5a/1x1
I0322 10:03:58.158828  5655 net.cpp:84] Creating Layer inception_5a/1x1
I0322 10:03:58.158831  5655 net.cpp:406] inception_5a/1x1 <- pool4/3x3_s2_pool4/3x3_s2_0_split_0
I0322 10:03:58.158835  5655 net.cpp:380] inception_5a/1x1 -> inception_5a/1x1
I0322 10:03:58.161121  5655 net.cpp:122] Setting up inception_5a/1x1
I0322 10:03:58.161133  5655 net.cpp:129] Top shape: 1 256 20 11 (56320)
I0322 10:03:58.161135  5655 net.cpp:137] Memory required for data: 282438912
I0322 10:03:58.161140  5655 layer_factory.hpp:77] Creating layer inception_5a/relu_1x1
I0322 10:03:58.161145  5655 net.cpp:84] Creating Layer inception_5a/relu_1x1
I0322 10:03:58.161149  5655 net.cpp:406] inception_5a/relu_1x1 <- inception_5a/1x1
I0322 10:03:58.161152  5655 net.cpp:367] inception_5a/relu_1x1 -> inception_5a/1x1 (in-place)
I0322 10:03:58.161803  5655 net.cpp:122] Setting up inception_5a/relu_1x1
I0322 10:03:58.161813  5655 net.cpp:129] Top shape: 1 256 20 11 (56320)
I0322 10:03:58.161831  5655 net.cpp:137] Memory required for data: 282664192
I0322 10:03:58.161834  5655 layer_factory.hpp:77] Creating layer inception_5a/3x3_reduce
I0322 10:03:58.161844  5655 net.cpp:84] Creating Layer inception_5a/3x3_reduce
I0322 10:03:58.161846  5655 net.cpp:406] inception_5a/3x3_reduce <- pool4/3x3_s2_pool4/3x3_s2_0_split_1
I0322 10:03:58.161851  5655 net.cpp:380] inception_5a/3x3_reduce -> inception_5a/3x3_reduce
I0322 10:03:58.162998  5655 net.cpp:122] Setting up inception_5a/3x3_reduce
I0322 10:03:58.163008  5655 net.cpp:129] Top shape: 1 160 20 11 (35200)
I0322 10:03:58.163012  5655 net.cpp:137] Memory required for data: 282804992
I0322 10:03:58.163015  5655 layer_factory.hpp:77] Creating layer inception_5a/relu_3x3_reduce
I0322 10:03:58.163019  5655 net.cpp:84] Creating Layer inception_5a/relu_3x3_reduce
I0322 10:03:58.163022  5655 net.cpp:406] inception_5a/relu_3x3_reduce <- inception_5a/3x3_reduce
I0322 10:03:58.163027  5655 net.cpp:367] inception_5a/relu_3x3_reduce -> inception_5a/3x3_reduce (in-place)
I0322 10:03:58.163640  5655 net.cpp:122] Setting up inception_5a/relu_3x3_reduce
I0322 10:03:58.163650  5655 net.cpp:129] Top shape: 1 160 20 11 (35200)
I0322 10:03:58.163653  5655 net.cpp:137] Memory required for data: 282945792
I0322 10:03:58.163655  5655 layer_factory.hpp:77] Creating layer inception_5a/3x3
I0322 10:03:58.163663  5655 net.cpp:84] Creating Layer inception_5a/3x3
I0322 10:03:58.163666  5655 net.cpp:406] inception_5a/3x3 <- inception_5a/3x3_reduce
I0322 10:03:58.163671  5655 net.cpp:380] inception_5a/3x3 -> inception_5a/3x3
I0322 10:03:58.167479  5655 net.cpp:122] Setting up inception_5a/3x3
I0322 10:03:58.167490  5655 net.cpp:129] Top shape: 1 320 20 11 (70400)
I0322 10:03:58.167493  5655 net.cpp:137] Memory required for data: 283227392
I0322 10:03:58.167498  5655 layer_factory.hpp:77] Creating layer inception_5a/relu_3x3
I0322 10:03:58.167503  5655 net.cpp:84] Creating Layer inception_5a/relu_3x3
I0322 10:03:58.167507  5655 net.cpp:406] inception_5a/relu_3x3 <- inception_5a/3x3
I0322 10:03:58.167511  5655 net.cpp:367] inception_5a/relu_3x3 -> inception_5a/3x3 (in-place)
I0322 10:03:58.167664  5655 net.cpp:122] Setting up inception_5a/relu_3x3
I0322 10:03:58.167671  5655 net.cpp:129] Top shape: 1 320 20 11 (70400)
I0322 10:03:58.167675  5655 net.cpp:137] Memory required for data: 283508992
I0322 10:03:58.167677  5655 layer_factory.hpp:77] Creating layer inception_5a/5x5_reduce
I0322 10:03:58.167695  5655 net.cpp:84] Creating Layer inception_5a/5x5_reduce
I0322 10:03:58.167698  5655 net.cpp:406] inception_5a/5x5_reduce <- pool4/3x3_s2_pool4/3x3_s2_0_split_2
I0322 10:03:58.167702  5655 net.cpp:380] inception_5a/5x5_reduce -> inception_5a/5x5_reduce
I0322 10:03:58.168887  5655 net.cpp:122] Setting up inception_5a/5x5_reduce
I0322 10:03:58.168900  5655 net.cpp:129] Top shape: 1 32 20 11 (7040)
I0322 10:03:58.168901  5655 net.cpp:137] Memory required for data: 283537152
I0322 10:03:58.168906  5655 layer_factory.hpp:77] Creating layer inception_5a/relu_5x5_reduce
I0322 10:03:58.168910  5655 net.cpp:84] Creating Layer inception_5a/relu_5x5_reduce
I0322 10:03:58.168913  5655 net.cpp:406] inception_5a/relu_5x5_reduce <- inception_5a/5x5_reduce
I0322 10:03:58.168918  5655 net.cpp:367] inception_5a/relu_5x5_reduce -> inception_5a/5x5_reduce (in-place)
I0322 10:03:58.169064  5655 net.cpp:122] Setting up inception_5a/relu_5x5_reduce
I0322 10:03:58.169071  5655 net.cpp:129] Top shape: 1 32 20 11 (7040)
I0322 10:03:58.169073  5655 net.cpp:137] Memory required for data: 283565312
I0322 10:03:58.169076  5655 layer_factory.hpp:77] Creating layer inception_5a/5x5
I0322 10:03:58.169083  5655 net.cpp:84] Creating Layer inception_5a/5x5
I0322 10:03:58.169086  5655 net.cpp:406] inception_5a/5x5 <- inception_5a/5x5_reduce
I0322 10:03:58.169091  5655 net.cpp:380] inception_5a/5x5 -> inception_5a/5x5
I0322 10:03:58.171088  5655 net.cpp:122] Setting up inception_5a/5x5
I0322 10:03:58.171099  5655 net.cpp:129] Top shape: 1 128 20 11 (28160)
I0322 10:03:58.171103  5655 net.cpp:137] Memory required for data: 283677952
I0322 10:03:58.171106  5655 layer_factory.hpp:77] Creating layer inception_5a/relu_5x5
I0322 10:03:58.171111  5655 net.cpp:84] Creating Layer inception_5a/relu_5x5
I0322 10:03:58.171114  5655 net.cpp:406] inception_5a/relu_5x5 <- inception_5a/5x5
I0322 10:03:58.171118  5655 net.cpp:367] inception_5a/relu_5x5 -> inception_5a/5x5 (in-place)
I0322 10:03:58.171272  5655 net.cpp:122] Setting up inception_5a/relu_5x5
I0322 10:03:58.171280  5655 net.cpp:129] Top shape: 1 128 20 11 (28160)
I0322 10:03:58.171283  5655 net.cpp:137] Memory required for data: 283790592
I0322 10:03:58.171285  5655 layer_factory.hpp:77] Creating layer inception_5a/pool
I0322 10:03:58.171290  5655 net.cpp:84] Creating Layer inception_5a/pool
I0322 10:03:58.171293  5655 net.cpp:406] inception_5a/pool <- pool4/3x3_s2_pool4/3x3_s2_0_split_3
I0322 10:03:58.171298  5655 net.cpp:380] inception_5a/pool -> inception_5a/pool
I0322 10:03:58.171334  5655 net.cpp:122] Setting up inception_5a/pool
I0322 10:03:58.171339  5655 net.cpp:129] Top shape: 1 832 20 11 (183040)
I0322 10:03:58.171340  5655 net.cpp:137] Memory required for data: 284522752
I0322 10:03:58.171344  5655 layer_factory.hpp:77] Creating layer inception_5a/pool_proj
I0322 10:03:58.171350  5655 net.cpp:84] Creating Layer inception_5a/pool_proj
I0322 10:03:58.171352  5655 net.cpp:406] inception_5a/pool_proj <- inception_5a/pool
I0322 10:03:58.171357  5655 net.cpp:380] inception_5a/pool_proj -> inception_5a/pool_proj
I0322 10:03:58.172824  5655 net.cpp:122] Setting up inception_5a/pool_proj
I0322 10:03:58.172835  5655 net.cpp:129] Top shape: 1 128 20 11 (28160)
I0322 10:03:58.172853  5655 net.cpp:137] Memory required for data: 284635392
I0322 10:03:58.172858  5655 layer_factory.hpp:77] Creating layer inception_5a/relu_pool_proj
I0322 10:03:58.172863  5655 net.cpp:84] Creating Layer inception_5a/relu_pool_proj
I0322 10:03:58.172868  5655 net.cpp:406] inception_5a/relu_pool_proj <- inception_5a/pool_proj
I0322 10:03:58.172871  5655 net.cpp:367] inception_5a/relu_pool_proj -> inception_5a/pool_proj (in-place)
I0322 10:03:58.173005  5655 net.cpp:122] Setting up inception_5a/relu_pool_proj
I0322 10:03:58.173013  5655 net.cpp:129] Top shape: 1 128 20 11 (28160)
I0322 10:03:58.173015  5655 net.cpp:137] Memory required for data: 284748032
I0322 10:03:58.173018  5655 layer_factory.hpp:77] Creating layer inception_5a/output
I0322 10:03:58.173023  5655 net.cpp:84] Creating Layer inception_5a/output
I0322 10:03:58.173025  5655 net.cpp:406] inception_5a/output <- inception_5a/1x1
I0322 10:03:58.173029  5655 net.cpp:406] inception_5a/output <- inception_5a/3x3
I0322 10:03:58.173032  5655 net.cpp:406] inception_5a/output <- inception_5a/5x5
I0322 10:03:58.173034  5655 net.cpp:406] inception_5a/output <- inception_5a/pool_proj
I0322 10:03:58.173038  5655 net.cpp:380] inception_5a/output -> inception_5a/output
I0322 10:03:58.173063  5655 net.cpp:122] Setting up inception_5a/output
I0322 10:03:58.173066  5655 net.cpp:129] Top shape: 1 832 20 11 (183040)
I0322 10:03:58.173069  5655 net.cpp:137] Memory required for data: 285480192
I0322 10:03:58.173070  5655 layer_factory.hpp:77] Creating layer inception_5a/output_inception_5a/output_0_split
I0322 10:03:58.173074  5655 net.cpp:84] Creating Layer inception_5a/output_inception_5a/output_0_split
I0322 10:03:58.173077  5655 net.cpp:406] inception_5a/output_inception_5a/output_0_split <- inception_5a/output
I0322 10:03:58.173081  5655 net.cpp:380] inception_5a/output_inception_5a/output_0_split -> inception_5a/output_inception_5a/output_0_split_0
I0322 10:03:58.173085  5655 net.cpp:380] inception_5a/output_inception_5a/output_0_split -> inception_5a/output_inception_5a/output_0_split_1
I0322 10:03:58.173090  5655 net.cpp:380] inception_5a/output_inception_5a/output_0_split -> inception_5a/output_inception_5a/output_0_split_2
I0322 10:03:58.173094  5655 net.cpp:380] inception_5a/output_inception_5a/output_0_split -> inception_5a/output_inception_5a/output_0_split_3
I0322 10:03:58.173141  5655 net.cpp:122] Setting up inception_5a/output_inception_5a/output_0_split
I0322 10:03:58.173144  5655 net.cpp:129] Top shape: 1 832 20 11 (183040)
I0322 10:03:58.173148  5655 net.cpp:129] Top shape: 1 832 20 11 (183040)
I0322 10:03:58.173151  5655 net.cpp:129] Top shape: 1 832 20 11 (183040)
I0322 10:03:58.173153  5655 net.cpp:129] Top shape: 1 832 20 11 (183040)
I0322 10:03:58.173156  5655 net.cpp:137] Memory required for data: 288408832
I0322 10:03:58.173157  5655 layer_factory.hpp:77] Creating layer inception_5b/1x1
I0322 10:03:58.173163  5655 net.cpp:84] Creating Layer inception_5b/1x1
I0322 10:03:58.173166  5655 net.cpp:406] inception_5b/1x1 <- inception_5a/output_inception_5a/output_0_split_0
I0322 10:03:58.173171  5655 net.cpp:380] inception_5b/1x1 -> inception_5b/1x1
I0322 10:03:58.175968  5655 net.cpp:122] Setting up inception_5b/1x1
I0322 10:03:58.175981  5655 net.cpp:129] Top shape: 1 384 20 11 (84480)
I0322 10:03:58.175982  5655 net.cpp:137] Memory required for data: 288746752
I0322 10:03:58.175987  5655 layer_factory.hpp:77] Creating layer inception_5b/relu_1x1
I0322 10:03:58.175992  5655 net.cpp:84] Creating Layer inception_5b/relu_1x1
I0322 10:03:58.175997  5655 net.cpp:406] inception_5b/relu_1x1 <- inception_5b/1x1
I0322 10:03:58.176000  5655 net.cpp:367] inception_5b/relu_1x1 -> inception_5b/1x1 (in-place)
I0322 10:03:58.176622  5655 net.cpp:122] Setting up inception_5b/relu_1x1
I0322 10:03:58.176633  5655 net.cpp:129] Top shape: 1 384 20 11 (84480)
I0322 10:03:58.176635  5655 net.cpp:137] Memory required for data: 289084672
I0322 10:03:58.176638  5655 layer_factory.hpp:77] Creating layer inception_5b/3x3_reduce
I0322 10:03:58.176645  5655 net.cpp:84] Creating Layer inception_5b/3x3_reduce
I0322 10:03:58.176650  5655 net.cpp:406] inception_5b/3x3_reduce <- inception_5a/output_inception_5a/output_0_split_1
I0322 10:03:58.176654  5655 net.cpp:380] inception_5b/3x3_reduce -> inception_5b/3x3_reduce
I0322 10:03:58.177925  5655 net.cpp:122] Setting up inception_5b/3x3_reduce
I0322 10:03:58.177934  5655 net.cpp:129] Top shape: 1 192 20 11 (42240)
I0322 10:03:58.177937  5655 net.cpp:137] Memory required for data: 289253632
I0322 10:03:58.177942  5655 layer_factory.hpp:77] Creating layer inception_5b/relu_3x3_reduce
I0322 10:03:58.177947  5655 net.cpp:84] Creating Layer inception_5b/relu_3x3_reduce
I0322 10:03:58.177949  5655 net.cpp:406] inception_5b/relu_3x3_reduce <- inception_5b/3x3_reduce
I0322 10:03:58.177953  5655 net.cpp:367] inception_5b/relu_3x3_reduce -> inception_5b/3x3_reduce (in-place)
I0322 10:03:58.178577  5655 net.cpp:122] Setting up inception_5b/relu_3x3_reduce
I0322 10:03:58.178587  5655 net.cpp:129] Top shape: 1 192 20 11 (42240)
I0322 10:03:58.178589  5655 net.cpp:137] Memory required for data: 289422592
I0322 10:03:58.178592  5655 layer_factory.hpp:77] Creating layer inception_5b/3x3
I0322 10:03:58.178601  5655 net.cpp:84] Creating Layer inception_5b/3x3
I0322 10:03:58.178604  5655 net.cpp:406] inception_5b/3x3 <- inception_5b/3x3_reduce
I0322 10:03:58.178608  5655 net.cpp:380] inception_5b/3x3 -> inception_5b/3x3
I0322 10:03:58.183239  5655 net.cpp:122] Setting up inception_5b/3x3
I0322 10:03:58.183250  5655 net.cpp:129] Top shape: 1 384 20 11 (84480)
I0322 10:03:58.183254  5655 net.cpp:137] Memory required for data: 289760512
I0322 10:03:58.183259  5655 layer_factory.hpp:77] Creating layer inception_5b/relu_3x3
I0322 10:03:58.183264  5655 net.cpp:84] Creating Layer inception_5b/relu_3x3
I0322 10:03:58.183266  5655 net.cpp:406] inception_5b/relu_3x3 <- inception_5b/3x3
I0322 10:03:58.183270  5655 net.cpp:367] inception_5b/relu_3x3 -> inception_5b/3x3 (in-place)
I0322 10:03:58.183421  5655 net.cpp:122] Setting up inception_5b/relu_3x3
I0322 10:03:58.183431  5655 net.cpp:129] Top shape: 1 384 20 11 (84480)
I0322 10:03:58.183434  5655 net.cpp:137] Memory required for data: 290098432
I0322 10:03:58.183436  5655 layer_factory.hpp:77] Creating layer inception_5b/5x5_reduce
I0322 10:03:58.183444  5655 net.cpp:84] Creating Layer inception_5b/5x5_reduce
I0322 10:03:58.183446  5655 net.cpp:406] inception_5b/5x5_reduce <- inception_5a/output_inception_5a/output_0_split_2
I0322 10:03:58.183451  5655 net.cpp:380] inception_5b/5x5_reduce -> inception_5b/5x5_reduce
I0322 10:03:58.184694  5655 net.cpp:122] Setting up inception_5b/5x5_reduce
I0322 10:03:58.184705  5655 net.cpp:129] Top shape: 1 48 20 11 (10560)
I0322 10:03:58.184707  5655 net.cpp:137] Memory required for data: 290140672
I0322 10:03:58.184712  5655 layer_factory.hpp:77] Creating layer inception_5b/relu_5x5_reduce
I0322 10:03:58.184716  5655 net.cpp:84] Creating Layer inception_5b/relu_5x5_reduce
I0322 10:03:58.184720  5655 net.cpp:406] inception_5b/relu_5x5_reduce <- inception_5b/5x5_reduce
I0322 10:03:58.184725  5655 net.cpp:367] inception_5b/relu_5x5_reduce -> inception_5b/5x5_reduce (in-place)
I0322 10:03:58.184876  5655 net.cpp:122] Setting up inception_5b/relu_5x5_reduce
I0322 10:03:58.184883  5655 net.cpp:129] Top shape: 1 48 20 11 (10560)
I0322 10:03:58.184886  5655 net.cpp:137] Memory required for data: 290182912
I0322 10:03:58.184888  5655 layer_factory.hpp:77] Creating layer inception_5b/5x5
I0322 10:03:58.184895  5655 net.cpp:84] Creating Layer inception_5b/5x5
I0322 10:03:58.184898  5655 net.cpp:406] inception_5b/5x5 <- inception_5b/5x5_reduce
I0322 10:03:58.184903  5655 net.cpp:380] inception_5b/5x5 -> inception_5b/5x5
I0322 10:03:58.186625  5655 net.cpp:122] Setting up inception_5b/5x5
I0322 10:03:58.186635  5655 net.cpp:129] Top shape: 1 128 20 11 (28160)
I0322 10:03:58.186638  5655 net.cpp:137] Memory required for data: 290295552
I0322 10:03:58.186642  5655 layer_factory.hpp:77] Creating layer inception_5b/relu_5x5
I0322 10:03:58.186647  5655 net.cpp:84] Creating Layer inception_5b/relu_5x5
I0322 10:03:58.186650  5655 net.cpp:406] inception_5b/relu_5x5 <- inception_5b/5x5
I0322 10:03:58.186655  5655 net.cpp:367] inception_5b/relu_5x5 -> inception_5b/5x5 (in-place)
I0322 10:03:58.186805  5655 net.cpp:122] Setting up inception_5b/relu_5x5
I0322 10:03:58.186812  5655 net.cpp:129] Top shape: 1 128 20 11 (28160)
I0322 10:03:58.186815  5655 net.cpp:137] Memory required for data: 290408192
I0322 10:03:58.186817  5655 layer_factory.hpp:77] Creating layer inception_5b/pool
I0322 10:03:58.186823  5655 net.cpp:84] Creating Layer inception_5b/pool
I0322 10:03:58.186826  5655 net.cpp:406] inception_5b/pool <- inception_5a/output_inception_5a/output_0_split_3
I0322 10:03:58.186830  5655 net.cpp:380] inception_5b/pool -> inception_5b/pool
I0322 10:03:58.186866  5655 net.cpp:122] Setting up inception_5b/pool
I0322 10:03:58.186870  5655 net.cpp:129] Top shape: 1 832 20 11 (183040)
I0322 10:03:58.186872  5655 net.cpp:137] Memory required for data: 291140352
I0322 10:03:58.186875  5655 layer_factory.hpp:77] Creating layer inception_5b/pool_proj
I0322 10:03:58.186882  5655 net.cpp:84] Creating Layer inception_5b/pool_proj
I0322 10:03:58.186884  5655 net.cpp:406] inception_5b/pool_proj <- inception_5b/pool
I0322 10:03:58.186890  5655 net.cpp:380] inception_5b/pool_proj -> inception_5b/pool_proj
I0322 10:03:58.188341  5655 net.cpp:122] Setting up inception_5b/pool_proj
I0322 10:03:58.188354  5655 net.cpp:129] Top shape: 1 128 20 11 (28160)
I0322 10:03:58.188356  5655 net.cpp:137] Memory required for data: 291252992
I0322 10:03:58.188360  5655 layer_factory.hpp:77] Creating layer inception_5b/relu_pool_proj
I0322 10:03:58.188365  5655 net.cpp:84] Creating Layer inception_5b/relu_pool_proj
I0322 10:03:58.188369  5655 net.cpp:406] inception_5b/relu_pool_proj <- inception_5b/pool_proj
I0322 10:03:58.188371  5655 net.cpp:367] inception_5b/relu_pool_proj -> inception_5b/pool_proj (in-place)
I0322 10:03:58.188520  5655 net.cpp:122] Setting up inception_5b/relu_pool_proj
I0322 10:03:58.188529  5655 net.cpp:129] Top shape: 1 128 20 11 (28160)
I0322 10:03:58.188530  5655 net.cpp:137] Memory required for data: 291365632
I0322 10:03:58.188534  5655 layer_factory.hpp:77] Creating layer inception_5b/output
I0322 10:03:58.188537  5655 net.cpp:84] Creating Layer inception_5b/output
I0322 10:03:58.188540  5655 net.cpp:406] inception_5b/output <- inception_5b/1x1
I0322 10:03:58.188544  5655 net.cpp:406] inception_5b/output <- inception_5b/3x3
I0322 10:03:58.188546  5655 net.cpp:406] inception_5b/output <- inception_5b/5x5
I0322 10:03:58.188549  5655 net.cpp:406] inception_5b/output <- inception_5b/pool_proj
I0322 10:03:58.188552  5655 net.cpp:380] inception_5b/output -> inception_5b/output
I0322 10:03:58.188576  5655 net.cpp:122] Setting up inception_5b/output
I0322 10:03:58.188581  5655 net.cpp:129] Top shape: 1 1024 20 11 (225280)
I0322 10:03:58.188583  5655 net.cpp:137] Memory required for data: 292266752
I0322 10:03:58.188585  5655 layer_factory.hpp:77] Creating layer pool5/drop_7x7_s1
I0322 10:03:58.188591  5655 net.cpp:84] Creating Layer pool5/drop_7x7_s1
I0322 10:03:58.188593  5655 net.cpp:406] pool5/drop_7x7_s1 <- inception_5b/output
I0322 10:03:58.188596  5655 net.cpp:367] pool5/drop_7x7_s1 -> inception_5b/output (in-place)
I0322 10:03:58.188614  5655 net.cpp:122] Setting up pool5/drop_7x7_s1
I0322 10:03:58.188618  5655 net.cpp:129] Top shape: 1 1024 20 11 (225280)
I0322 10:03:58.188621  5655 net.cpp:137] Memory required for data: 293167872
I0322 10:03:58.188622  5655 layer_factory.hpp:77] Creating layer score2
I0322 10:03:58.188629  5655 net.cpp:84] Creating Layer score2
I0322 10:03:58.188632  5655 net.cpp:406] score2 <- inception_5b/output
I0322 10:03:58.188635  5655 net.cpp:380] score2 -> score2
I0322 10:03:58.189460  5655 net.cpp:122] Setting up score2
I0322 10:03:58.189471  5655 net.cpp:129] Top shape: 1 2 22 13 (572)
I0322 10:03:58.189488  5655 net.cpp:137] Memory required for data: 293170160
I0322 10:03:58.189493  5655 layer_factory.hpp:77] Creating layer upscore2
I0322 10:03:58.189501  5655 net.cpp:84] Creating Layer upscore2
I0322 10:03:58.189503  5655 net.cpp:406] upscore2 <- score2
I0322 10:03:58.189507  5655 net.cpp:380] upscore2 -> upscore2
I0322 10:03:58.189661  5655 net.cpp:122] Setting up upscore2
I0322 10:03:58.189666  5655 net.cpp:129] Top shape: 1 2 46 28 (2576)
I0322 10:03:58.189669  5655 net.cpp:137] Memory required for data: 293180464
I0322 10:03:58.189672  5655 layer_factory.hpp:77] Creating layer score-inception_4e/output
I0322 10:03:58.189677  5655 net.cpp:84] Creating Layer score-inception_4e/output
I0322 10:03:58.189680  5655 net.cpp:406] score-inception_4e/output <- inception_4e/output_inception_4e/output_0_split_1
I0322 10:03:58.189685  5655 net.cpp:380] score-inception_4e/output -> score-inception_4e/output
I0322 10:03:58.189918  5655 net.cpp:122] Setting up score-inception_4e/output
I0322 10:03:58.189924  5655 net.cpp:129] Top shape: 1 2 42 25 (2100)
I0322 10:03:58.189926  5655 net.cpp:137] Memory required for data: 293188864
I0322 10:03:58.189930  5655 layer_factory.hpp:77] Creating layer score-inception_4e/output_score-inception_4e/output_0_split
I0322 10:03:58.189936  5655 net.cpp:84] Creating Layer score-inception_4e/output_score-inception_4e/output_0_split
I0322 10:03:58.189939  5655 net.cpp:406] score-inception_4e/output_score-inception_4e/output_0_split <- score-inception_4e/output
I0322 10:03:58.189942  5655 net.cpp:380] score-inception_4e/output_score-inception_4e/output_0_split -> score-inception_4e/output_score-inception_4e/output_0_split_0
I0322 10:03:58.189956  5655 net.cpp:380] score-inception_4e/output_score-inception_4e/output_0_split -> score-inception_4e/output_score-inception_4e/output_0_split_1
I0322 10:03:58.189987  5655 net.cpp:122] Setting up score-inception_4e/output_score-inception_4e/output_0_split
I0322 10:03:58.189996  5655 net.cpp:129] Top shape: 1 2 42 25 (2100)
I0322 10:03:58.189999  5655 net.cpp:129] Top shape: 1 2 42 25 (2100)
I0322 10:03:58.190002  5655 net.cpp:137] Memory required for data: 293205664
I0322 10:03:58.190004  5655 layer_factory.hpp:77] Creating layer upscore2c
I0322 10:03:58.190009  5655 net.cpp:84] Creating Layer upscore2c
I0322 10:03:58.190011  5655 net.cpp:406] upscore2c <- upscore2
I0322 10:03:58.190016  5655 net.cpp:406] upscore2c <- score-inception_4e/output_score-inception_4e/output_0_split_0
I0322 10:03:58.190018  5655 net.cpp:380] upscore2c -> upscore2c
I0322 10:03:58.190038  5655 net.cpp:122] Setting up upscore2c
I0322 10:03:58.190042  5655 net.cpp:129] Top shape: 1 2 42 25 (2100)
I0322 10:03:58.190043  5655 net.cpp:137] Memory required for data: 293214064
I0322 10:03:58.190047  5655 layer_factory.hpp:77] Creating layer score-fused
I0322 10:03:58.190052  5655 net.cpp:84] Creating Layer score-fused
I0322 10:03:58.190054  5655 net.cpp:406] score-fused <- upscore2c
I0322 10:03:58.190057  5655 net.cpp:406] score-fused <- score-inception_4e/output_score-inception_4e/output_0_split_1
I0322 10:03:58.190060  5655 net.cpp:380] score-fused -> score-fused
I0322 10:03:58.190078  5655 net.cpp:122] Setting up score-fused
I0322 10:03:58.190081  5655 net.cpp:129] Top shape: 1 2 42 25 (2100)
I0322 10:03:58.190084  5655 net.cpp:137] Memory required for data: 293222464
I0322 10:03:58.190086  5655 layer_factory.hpp:77] Creating layer upsample-fused-16
I0322 10:03:58.190090  5655 net.cpp:84] Creating Layer upsample-fused-16
I0322 10:03:58.190093  5655 net.cpp:406] upsample-fused-16 <- score-fused
I0322 10:03:58.190096  5655 net.cpp:380] upsample-fused-16 -> score4
I0322 10:03:58.190240  5655 net.cpp:122] Setting up upsample-fused-16
I0322 10:03:58.190246  5655 net.cpp:129] Top shape: 1 2 86 52 (8944)
I0322 10:03:58.190248  5655 net.cpp:137] Memory required for data: 293258240
I0322 10:03:58.190251  5655 layer_factory.hpp:77] Creating layer score-inception_3b/output
I0322 10:03:58.190258  5655 net.cpp:84] Creating Layer score-inception_3b/output
I0322 10:03:58.190260  5655 net.cpp:406] score-inception_3b/output <- inception_3b/output_inception_3b/output_0_split_1
I0322 10:03:58.190264  5655 net.cpp:380] score-inception_3b/output -> score-inception_3b/output
I0322 10:03:58.190493  5655 net.cpp:122] Setting up score-inception_3b/output
I0322 10:03:58.190500  5655 net.cpp:129] Top shape: 1 2 83 49 (8134)
I0322 10:03:58.190502  5655 net.cpp:137] Memory required for data: 293290776
I0322 10:03:58.190506  5655 layer_factory.hpp:77] Creating layer score-inception_3b/output_score-inception_3b/output_0_split
I0322 10:03:58.190510  5655 net.cpp:84] Creating Layer score-inception_3b/output_score-inception_3b/output_0_split
I0322 10:03:58.190513  5655 net.cpp:406] score-inception_3b/output_score-inception_3b/output_0_split <- score-inception_3b/output
I0322 10:03:58.190520  5655 net.cpp:380] score-inception_3b/output_score-inception_3b/output_0_split -> score-inception_3b/output_score-inception_3b/output_0_split_0
I0322 10:03:58.190523  5655 net.cpp:380] score-inception_3b/output_score-inception_3b/output_0_split -> score-inception_3b/output_score-inception_3b/output_0_split_1
I0322 10:03:58.190554  5655 net.cpp:122] Setting up score-inception_3b/output_score-inception_3b/output_0_split
I0322 10:03:58.190558  5655 net.cpp:129] Top shape: 1 2 83 49 (8134)
I0322 10:03:58.190562  5655 net.cpp:129] Top shape: 1 2 83 49 (8134)
I0322 10:03:58.190563  5655 net.cpp:137] Memory required for data: 293355848
I0322 10:03:58.190565  5655 layer_factory.hpp:77] Creating layer score4c
I0322 10:03:58.190570  5655 net.cpp:84] Creating Layer score4c
I0322 10:03:58.190572  5655 net.cpp:406] score4c <- score4
I0322 10:03:58.190575  5655 net.cpp:406] score4c <- score-inception_3b/output_score-inception_3b/output_0_split_0
I0322 10:03:58.190579  5655 net.cpp:380] score4c -> score4c
I0322 10:03:58.190596  5655 net.cpp:122] Setting up score4c
I0322 10:03:58.190600  5655 net.cpp:129] Top shape: 1 2 83 49 (8134)
I0322 10:03:58.190603  5655 net.cpp:137] Memory required for data: 293388384
I0322 10:03:58.190604  5655 layer_factory.hpp:77] Creating layer fuse
I0322 10:03:58.190609  5655 net.cpp:84] Creating Layer fuse
I0322 10:03:58.190613  5655 net.cpp:406] fuse <- score4c
I0322 10:03:58.190614  5655 net.cpp:406] fuse <- score-inception_3b/output_score-inception_3b/output_0_split_1
I0322 10:03:58.190618  5655 net.cpp:380] fuse -> score-final
I0322 10:03:58.190635  5655 net.cpp:122] Setting up fuse
I0322 10:03:58.190639  5655 net.cpp:129] Top shape: 1 2 83 49 (8134)
I0322 10:03:58.190640  5655 net.cpp:137] Memory required for data: 293420920
I0322 10:03:58.190642  5655 layer_factory.hpp:77] Creating layer upsample
I0322 10:03:58.190647  5655 net.cpp:84] Creating Layer upsample
I0322 10:03:58.190650  5655 net.cpp:406] upsample <- score-final
I0322 10:03:58.190654  5655 net.cpp:380] upsample -> bigscore
I0322 10:03:58.190799  5655 net.cpp:122] Setting up upsample
I0322 10:03:58.190804  5655 net.cpp:129] Top shape: 1 2 672 400 (537600)
I0322 10:03:58.190807  5655 net.cpp:137] Memory required for data: 295571320
I0322 10:03:58.190810  5655 layer_factory.hpp:77] Creating layer score
I0322 10:03:58.190814  5655 net.cpp:84] Creating Layer score
I0322 10:03:58.190816  5655 net.cpp:406] score <- bigscore
I0322 10:03:58.190819  5655 net.cpp:406] score <- data_data_0_split_1
I0322 10:03:58.190824  5655 net.cpp:380] score -> score
I0322 10:03:58.190841  5655 net.cpp:122] Setting up score
I0322 10:03:58.190845  5655 net.cpp:129] Top shape: 1 2 640 368 (471040)
I0322 10:03:58.190847  5655 net.cpp:137] Memory required for data: 297455480
I0322 10:03:58.190850  5655 layer_factory.hpp:77] Creating layer loss
I0322 10:03:58.190855  5655 net.cpp:84] Creating Layer loss
I0322 10:03:58.190857  5655 net.cpp:406] loss <- score
I0322 10:03:58.190860  5655 net.cpp:406] loss <- sem
I0322 10:03:58.190863  5655 net.cpp:380] loss -> loss
I0322 10:03:58.190876  5655 layer_factory.hpp:77] Creating layer loss
…
W0322 10:03:58.339896  5655 _caffe.cpp:135] DEPRECATION WARNING - deprecated use of Python interface
W0322 10:03:58.339903  5655 _caffe.cpp:136] Use this instead (with the named "weights" parameter):
W0322 10:03:58.339905  5655 _caffe.cpp:138] Net('../../ilsvrc-nets/deploy.prototxt', 1, weights='../../ilsvrc-nets/bvlc_googlenet.caffemodel')
I0322 10:03:58.342368  5655 net.cpp:51] Initializing net from parameters: 
name: "GoogleNet"
state {
  phase: TEST
  level: 0
}
layer {
  name: "data"
  type: "Input"
  top: "data"
  input_param {
    shape {
      dim: 10
      dim: 3
      dim: 224
      dim: 224
    }
  }
}
layer {
  name: "conv1/7x7_s2"
  type: "Convolution"
  bottom: "data"
  top: "conv1/7x7_s2"
  param {
    lr_mult: 1
    decay_mult: 1
  }
  param {
    lr_mult: 2
    decay_mult: 0
  }
  convolution_param {
    num_output: 64
    pad: 3
    kernel_size: 7
    stride: 2
    weight_filler {
      type: "xavier"
      std: 0.1
    }
    bias_filler {
      type: "constant"
      value: 0.2
    }
  }
}
layer {
  name: "conv1/relu_7x7"
  type: "ReLU"
  bottom: "conv1/7x7_s2"
  top: "conv1/7x7_s2"
}
layer {
  name: "pool1/3x3_s2"
  type: "Pooling"
  bottom: "conv1/7x7_s2"
  top: "pool1/3x3_s2"
  pooling_param {
    pool: MAX
    kernel_size: 3
    stride: 2
  }
}
layer {
  name: "pool1/norm1"
  type: "LRN"
  bottom: "pool1/3x3_s2"
  top: "pool1/norm1"
  lrn_param {
    local_size: 5
    alpha: 0.0001
    beta: 0.75
  }
}
layer {
  name: "conv2/3x3_reduce"
  type: "Convolution"
  bottom: "pool1/norm1"
  top: "conv2/3x3_reduce"
  param {
    lr_mult: 1
    decay_mult: 1
  }
  param {
    lr_mult: 2
    decay_mult: 0
  }
  convolution_param {
    num_output: 64
    kernel_size: 1
    weight_filler {
      type: "xavier"
      std: 0.1
    }
    bias_filler {
      type: "constant"
      value: 0.2
    }
  }
}
layer {
  name: "conv2/relu_3x3_reduce"
  type: "ReLU"
  bottom: "conv2/3x3_reduce"
  top: "conv2/3x3_reduce"
}
layer {
  name: "conv2/3x3"
  type: "Convolution"
  bottom: "conv2/3x3_reduce"
  top: "conv2/3x3"
  param {
    lr_mult: 1
    decay_mult: 1
  }
  param {
    lr_mult: 2
    decay_mult: 0
  }
  convolution_param {
    num_output: 192
    pad: 1
    kernel_size: 3
    weight_filler {
      type: "xavier"
      std: 0.03
    }
    bias_filler {
      type: "constant"
      value: 0.2
    }
  }
}
layer {
  name: "conv2/relu_3x3"
  type: "ReLU"
  bottom: "conv2/3x3"
  top: "conv2/3x3"
}
layer {
  name: "conv2/norm2"
  type: "LRN"
  bottom: "conv2/3x3"
  top: "conv2/norm2"
  lrn_param {
    local_size: 5
    alpha: 0.0001
    beta: 0.75
  }
}
layer {
  name: "pool2/3x3_s2"
  type: "Pooling"
  bottom: "conv2/norm2"
  top: "pool2/3x3_s2"
  pooling_param {
    pool: MAX
    kernel_size: 3
    stride: 2
  }
}
layer {
  name: "inception_3a/1x1"
  type: "Convolution"
  bottom: "pool2/3x3_s2"
  top: "inception_3a/1x1"
  param {
    lr_mult: 1
    decay_mult: 1
  }
  param {
    lr_mult: 2
    decay_mult: 0
  }
  convolution_param {
    num_output: 64
    kernel_size: 1
    weight_filler {
      type: "xavier"
      std: 0.03
    }
    bias_filler {
      type: "constant"
      value: 0.2
    }
  }
}
layer {
  name: "inception_3a/relu_1x1"
  type: "ReLU"
  bottom: "inception_3a/1x1"
  top: "inception_3a/1x1"
}
layer {
  name: "inception_3a/3x3_reduce"
  type: "Convolution"
  bottom: "pool2/3x3_s2"
  top: "inception_3a/3x3_reduce"
  param {
    lr_mult: 1
    decay_mult: 1
  }
  param {
    lr_mult: 2
    decay_mult: 0
  }
  convolution_param {
    num_output: 96
    kernel_size: 1
    weight_filler {
      type: "xavier"
      std: 0.09
    }
    bias_filler {
      type: "constant"
      value: 0.2
    }
  }
}
layer {
  name: "inception_3a/relu_3x3_reduce"
  type: "ReLU"
  bottom: "inception_3a/3x3_reduce"
  top: "inception_3a/3x3_reduce"
}
layer {
  name: "inception_3a/3x3"
  type: "Convolution"
  bottom: "inception_3a/3x3_reduce"
  top: "inception_3a/3x3"
  param {
    lr_mult: 1
    decay_mult: 1
  }
  param {
    lr_mult: 2
    decay_mult: 0
  }
  convolution_param {
    num_output: 128
    pad: 1
    kernel_size: 3
    weight_filler {
      type: "xavier"
      std: 0.03
    }
    bias_filler {
      type: "constant"
      value: 0.2
    }
  }
}
layer {
  name: "inception_3a/relu_3x3"
  type: "ReLU"
  bottom: "inception_3a/3x3"
  top: "inception_3a/3x3"
}
layer {
  name: "inception_3a/5x5_reduce"
  type: "Convolution"
  bottom: "pool2/3x3_s2"
  top: "inception_3a/5x5_reduce"
  param {
    lr_mult: 1
    decay_mult: 1
  }
  param {
    lr_mult: 2
    decay_mult: 0
  }
  convolution_param {
    num_output: 16
    kernel_size: 1
    weight_filler {
      type: "xavier"
      std: 0.2
    }
    bias_filler {
      type: "constant"
      value: 0.2
    }
  }
}
layer {
  name: "inception_3a/relu_5x5_reduce"
  type: "ReLU"
  bottom: "inception_3a/5x5_reduce"
  top: "inception_3a/5x5_reduce"
}
layer {
  name: "inception_3a/5x5"
  type: "Convolution"
  bottom: "inception_3a/5x5_reduce"
  top: "inception_3a/5x5"
  param {
    lr_mult: 1
    decay_mult: 1
  }
  param {
    lr_mult: 2
    decay_mult: 0
  }
  convolution_param {
    num_output: 32
    pad: 2
    kernel_size: 5
    weight_filler {
      type: "xavier"
      std: 0.03
    }
    bias_filler {
      type: "constant"
      value: 0.2
    }
  }
}
layer {
  name: "inception_3a/relu_5x5"
  type: "ReLU"
  bottom: "inception_3a/5x5"
  top: "inception_3a/5x5"
}
layer {
  name: "inception_3a/pool"
  type: "Pooling"
  bottom: "pool2/3x3_s2"
  top: "inception_3a/pool"
  pooling_param {
    pool: MAX
    kernel_size: 3
    stride: 1
    pad: 1
  }
}
layer {
  name: "inception_3a/pool_proj"
  type: "Convolution"
  bottom: "inception_3a/pool"
  top: "inception_3a/pool_proj"
  param {
    lr_mult: 1
    decay_mult: 1
  }
  param {
    lr_mult: 2
    decay_mult: 0
  }
  convolution_param {
    num_output: 32
    kernel_size: 1
    weight_filler {
      type: "xavier"
      std: 0.1
    }
    bias_filler {
      type: "constant"
      value: 0.2
    }
  }
}
layer {
  name: "inception_3a/relu_pool_proj"
  type: "ReLU"
  bottom: "inception_3a/pool_proj"
  top: "inception_3a/pool_proj"
}
layer {
  name: "inception_3a/output"
  type: "Concat"
  bottom: "inception_3a/1x1"
  bottom: "inception_3a/3x3"
  bottom: "inception_3a/5x5"
  bottom: "inception_3a/pool_proj"
  top: "inception_3a/output"
}
layer {
  name: "inception_3b/1x1"
  type: "Convolution"
  bottom: "inception_3a/output"
  top: "inception_3b/1x1"
  param {
    lr_mult: 1
    decay_mult: 1
  }
  param {
    lr_mult: 2
    decay_mult: 0
  }
  convolution_param {
    num_output: 128
    kernel_size: 1
    weight_filler {
      type: "xavier"
      std: 0.03
    }
    bias_filler {
      type: "constant"
      value: 0.2
    }
  }
}
layer {
  name: "inception_3b/relu_1x1"
  type: "ReLU"
  bottom: "inception_3b/1x1"
  top: "inception_3b/1x1"
}
layer {
  name: "inception_3b/3x3_reduce"
  type: "Convolution"
  bottom: "inception_3a/output"
  top: "inception_3b/3x3_reduce"
  param {
    lr_mult: 1
    decay_mult: 1
  }
  param {
    lr_mult: 2
    decay_mult: 0
  }
  convolution_param {
    num_output: 128
    kernel_size: 1
    weight_filler {
      type: "xavier"
      std: 0.09
    }
    bias_filler {
      type: "constant"
      value: 0.2
    }
  }
}
layer {
  name: "inception_3b/relu_3x3_reduce"
  type: "ReLU"
  bottom: "inception_3b/3x3_reduce"
  top: "inception_3b/3x3_reduce"
}
layer {
  name: "inception_3b/3x3"
  type: "Convolution"
  bottom: "inception_3b/3x3_reduce"
  top: "inception_3b/3x3"
  param {
    lr_mult: 1
    decay_mult: 1
  }
  param {
    lr_mult: 2
    decay_mult: 0
  }
  convolution_param {
    num_output: 192
    pad: 1
    kernel_size: 3
    weight_filler {
      type: "xavier"
      std: 0.03
    }
    bias_filler {
      type: "constant"
      value: 0.2
    }
  }
}
layer {
  name: "inception_3b/relu_3x3"
  type: "ReLU"
  bottom: "inception_3b/3x3"
  top: "inception_3b/3x3"
}
layer {
  name: "inception_3b/5x5_reduce"
  type: "Convolution"
  bottom: "inception_3a/output"
  top: "inception_3b/5x5_reduce"
  param {
    lr_mult: 1
    decay_mult: 1
  }
  param {
    lr_mult: 2
    decay_mult: 0
  }
  convolution_param {
    num_output: 32
    kernel_size: 1
    weight_filler {
      type: "xavier"
      std: 0.2
    }
    bias_filler {
      type: "constant"
      value: 0.2
    }
  }
}
layer {
  name: "inception_3b/relu_5x5_reduce"
  type: "ReLU"
  bottom: "inception_3b/5x5_reduce"
  top: "inception_3b/5x5_reduce"
}
layer {
  name: "inception_3b/5x5"
  type: "Convolution"
  bottom: "inception_3b/5x5_reduce"
  top: "inception_3b/5x5"
  param {
    lr_mult: 1
    decay_mult: 1
  }
  param {
    lr_mult: 2
    decay_mult: 0
  }
  convolution_param {
    num_output: 96
    pad: 2
    kernel_size: 5
    weight_filler {
      type: "xavier"
      std: 0.03
    }
    bias_filler {
      type: "constant"
      value: 0.2
    }
  }
}
layer {
  name: "inception_3b/relu_5x5"
  type: "ReLU"
  bottom: "inception_3b/5x5"
  top: "inception_3b/5x5"
}
layer {
  name: "inception_3b/pool"
  type: "Pooling"
  bottom: "inception_3a/output"
  top: "inception_3b/pool"
  pooling_param {
    pool: MAX
    kernel_size: 3
    stride: 1
    pad: 1
  }
}
layer {
  name: "inception_3b/pool_proj"
  type: "Convolution"
  bottom: "inception_3b/pool"
  top: "inception_3b/pool_proj"
  param {
    lr_mult: 1
    decay_mult: 1
  }
  param {
    lr_mult: 2
    decay_mult: 0
  }
  convolution_param {
    num_output: 64
    kernel_size: 1
    weight_filler {
      type: "xavier"
      std: 0.1
    }
    bias_filler {
      type: "constant"
      value: 0.2
    }
  }
}
layer {
  name: "inception_3b/relu_pool_proj"
  type: "ReLU"
  bottom: "inception_3b/pool_proj"
  top: "inception_3b/pool_proj"
}
layer {
  name: "inception_3b/output"
  type: "Concat"
  bottom: "inception_3b/1x1"
  bottom: "inception_3b/3x3"
  bottom: "inception_3b/5x5"
  bottom: "inception_3b/pool_proj"
  top: "inception_3b/output"
}
layer {
  name: "pool3/3x3_s2"
  type: "Pooling"
  bottom: "inception_3b/output"
  top: "pool3/3x3_s2"
  pooling_param {
    pool: MAX
    kernel_size: 3
    stride: 2
  }
}
layer {
  name: "inception_4a/1x1"
  type: "Convolution"
  bottom: "pool3/3x3_s2"
  top: "inception_4a/1x1"
  param {
    lr_mult: 1
    decay_mult: 1
  }
  param {
    lr_mult: 2
    decay_mult: 0
  }
  convolution_param {
    num_output: 192
    kernel_size: 1
    weight_filler {
      type: "xavier"
      std: 0.03
    }
    bias_filler {
      type: "constant"
      value: 0.2
    }
  }
}
layer {
  name: "inception_4a/relu_1x1"
  type: "ReLU"
  bottom: "inception_4a/1x1"
  top: "inception_4a/1x1"
}
layer {
  name: "inception_4a/3x3_reduce"
  type: "Convolution"
  bottom: "pool3/3x3_s2"
  top: "inception_4a/3x3_reduce"
  param {
    lr_mult: 1
    decay_mult: 1
  }
  param {
    lr_mult: 2
    decay_mult: 0
  }
  convolution_param {
    num_output: 96
    kernel_size: 1
    weight_filler {
      type: "xavier"
      std: 0.09
    }
    bias_filler {
      type: "constant"
      value: 0.2
    }
  }
}
layer {
  name: "inception_4a/relu_3x3_reduce"
  type: "ReLU"
  bottom: "inception_4a/3x3_reduce"
  top: "inception_4a/3x3_reduce"
}
layer {
  name: "inception_4a/3x3"
  type: "Convolution"
  bottom: "inception_4a/3x3_reduce"
  top: "inception_4a/3x3"
  param {
    lr_mult: 1
    decay_mult: 1
  }
  param {
    lr_mult: 2
    decay_mult: 0
  }
  convolution_param {
    num_output: 208
    pad: 1
    kernel_size: 3
    weight_filler {
      type: "xavier"
      std: 0.03
    }
    bias_filler {
      type: "constant"
      value: 0.2
    }
  }
}
layer {
  name: "inception_4a/relu_3x3"
  type: "ReLU"
  bottom: "inception_4a/3x3"
  top: "inception_4a/3x3"
}
layer {
  name: "inception_4a/5x5_reduce"
  type: "Convolution"
  bottom: "pool3/3x3_s2"
  top: "inception_4a/5x5_reduce"
  param {
    lr_mult: 1
    decay_mult: 1
  }
  param {
    lr_mult: 2
    decay_mult: 0
  }
  convolution_param {
    num_output: 16
    kernel_size: 1
    weight_filler {
      type: "xavier"
      std: 0.2
    }
    bias_filler {
      type: "constant"
      value: 0.2
    }
  }
}
layer {
  name: "inception_4a/relu_5x5_reduce"
  type: "ReLU"
  bottom: "inception_4a/5x5_reduce"
  top: "inception_4a/5x5_reduce"
}
layer {
  name: "inception_4a/5x5"
  type: "Convolution"
  bottom: "inception_4a/5x5_reduce"
  top: "inception_4a/5x5"
  param {
    lr_mult: 1
    decay_mult: 1
  }
  param {
    lr_mult: 2
    decay_mult: 0
  }
  convolution_param {
    num_output: 48
    pad: 2
    kernel_size: 5
    weight_filler {
      type: "xavier"
      std: 0.03
    }
    bias_filler {
      type: "constant"
      value: 0.2
    }
  }
}
layer {
  name: "inception_4a/relu_5x5"
  type: "ReLU"
  bottom: "inception_4a/5x5"
  top: "inception_4a/5x5"
}
layer {
  name: "inception_4a/pool"
  type: "Pooling"
  bottom: "pool3/3x3_s2"
  top: "inception_4a/pool"
  pooling_param {
    pool: MAX
    kernel_size: 3
    stride: 1
    pad: 1
  }
}
layer {
  name: "inception_4a/pool_proj"
  type: "Convolution"
  bottom: "inception_4a/pool"
  top: "inception_4a/pool_proj"
  param {
    lr_mult: 1
    decay_mult: 1
  }
  param {
    lr_mult: 2
    decay_mult: 0
  }
  convolution_param {
    num_output: 64
    kernel_size: 1
    weight_filler {
      type: "xavier"
      std: 0.1
    }
    bias_filler {
      type: "constant"
      value: 0.2
    }
  }
}
layer {
  name: "inception_4a/relu_pool_proj"
  type: "ReLU"
  bottom: "inception_4a/pool_proj"
  top: "inception_4a/pool_proj"
}
layer {
  name: "inception_4a/output"
  type: "Concat"
  bottom: "inception_4a/1x1"
  bottom: "inception_4a/3x3"
  bottom: "inception_4a/5x5"
  bottom: "inception_4a/pool_proj"
  top: "inception_4a/output"
}
layer {
  name: "inception_4b/1x1"
  type: "Convolution"
  bottom: "inception_4a/output"
  top: "inception_4b/1x1"
  param {
    lr_mult: 1
    decay_mult: 1
  }
  param {
    lr_mult: 2
    decay_mult: 0
  }
  convolution_param {
    num_output: 160
    kernel_size: 1
    weight_filler {
      type: "xavier"
      std: 0.03
    }
    bias_filler {
      type: "constant"
      value: 0.2
    }
  }
}
layer {
  name: "inception_4b/relu_1x1"
  type: "ReLU"
  bottom: "inception_4b/1x1"
  top: "inception_4b/1x1"
}
layer {
  name: "inception_4b/3x3_reduce"
  type: "Convolution"
  bottom: "inception_4a/output"
  top: "inception_4b/3x3_reduce"
  param {
    lr_mult: 1
    decay_mult: 1
  }
  param {
    lr_mult: 2
    decay_mult: 0
  }
  convolution_param {
    num_output: 112
    kernel_size: 1
    weight_filler {
      type: "xavier"
      std: 0.09
    }
    bias_filler {
      type: "constant"
      value: 0.2
    }
  }
}
layer {
  name: "inception_4b/relu_3x3_reduce"
  type: "ReLU"
  bottom: "inception_4b/3x3_reduce"
  top: "inception_4b/3x3_reduce"
}
layer {
  name: "inception_4b/3x3"
  type: "Convolution"
  bottom: "inception_4b/3x3_reduce"
  top: "inception_4b/3x3"
  param {
    lr_mult: 1
    decay_mult: 1
  }
  param {
    lr_mult: 2
    decay_mult: 0
  }
  convolution_param {
    num_output: 224
    pad: 1
    kernel_size: 3
    weight_filler {
      type: "xavier"
      std: 0.03
    }
    bias_filler {
      type: "constant"
      value: 0.2
    }
  }
}
layer {
  name: "inception_4b/relu_3x3"
  type: "ReLU"
  bottom: "inception_4b/3x3"
  top: "inception_4b/3x3"
}
layer {
…
I0322 10:03:58.397536  5655 net.cpp:122] Setting up inception_4b/output_inception_4b/output_0_split
I0322 10:03:58.397541  5655 net.cpp:129] Top shape: 10 512 14 14 (1003520)
I0322 10:03:58.397544  5655 net.cpp:129] Top shape: 10 512 14 14 (1003520)
I0322 10:03:58.397547  5655 net.cpp:129] Top shape: 10 512 14 14 (1003520)
I0322 10:03:58.397549  5655 net.cpp:129] Top shape: 10 512 14 14 (1003520)
I0322 10:03:58.397552  5655 net.cpp:137] Memory required for data: 423861760
I0322 10:03:58.397553  5655 layer_factory.hpp:77] Creating layer inception_4c/1x1
I0322 10:03:58.397562  5655 net.cpp:84] Creating Layer inception_4c/1x1
I0322 10:03:58.397564  5655 net.cpp:406] inception_4c/1x1 <- inception_4b/output_inception_4b/output_0_split_0
I0322 10:03:58.397568  5655 net.cpp:380] inception_4c/1x1 -> inception_4c/1x1
I0322 10:03:58.399757  5655 net.cpp:122] Setting up inception_4c/1x1
I0322 10:03:58.399770  5655 net.cpp:129] Top shape: 10 128 14 14 (250880)
I0322 10:03:58.399772  5655 net.cpp:137] Memory required for data: 424865280
I0322 10:03:58.399777  5655 layer_factory.hpp:77] Creating layer inception_4c/relu_1x1
I0322 10:03:58.399782  5655 net.cpp:84] Creating Layer inception_4c/relu_1x1
I0322 10:03:58.399785  5655 net.cpp:406] inception_4c/relu_1x1 <- inception_4c/1x1
I0322 10:03:58.399791  5655 net.cpp:367] inception_4c/relu_1x1 -> inception_4c/1x1 (in-place)
I0322 10:03:58.399945  5655 net.cpp:122] Setting up inception_4c/relu_1x1
I0322 10:03:58.399952  5655 net.cpp:129] Top shape: 10 128 14 14 (250880)
I0322 10:03:58.399955  5655 net.cpp:137] Memory required for data: 425868800
I0322 10:03:58.399957  5655 layer_factory.hpp:77] Creating layer inception_4c/3x3_reduce
I0322 10:03:58.399963  5655 net.cpp:84] Creating Layer inception_4c/3x3_reduce
I0322 10:03:58.399967  5655 net.cpp:406] inception_4c/3x3_reduce <- inception_4b/output_inception_4b/output_0_split_1
I0322 10:03:58.399973  5655 net.cpp:380] inception_4c/3x3_reduce -> inception_4c/3x3_reduce
I0322 10:03:58.401516  5655 net.cpp:122] Setting up inception_4c/3x3_reduce
I0322 10:03:58.401528  5655 net.cpp:129] Top shape: 10 128 14 14 (250880)
I0322 10:03:58.401531  5655 net.cpp:137] Memory required for data: 426872320
I0322 10:03:58.401536  5655 layer_factory.hpp:77] Creating layer inception_4c/relu_3x3_reduce
I0322 10:03:58.401541  5655 net.cpp:84] Creating Layer inception_4c/relu_3x3_reduce
I0322 10:03:58.401545  5655 net.cpp:406] inception_4c/relu_3x3_reduce <- inception_4c/3x3_reduce
I0322 10:03:58.401549  5655 net.cpp:367] inception_4c/relu_3x3_reduce -> inception_4c/3x3_reduce (in-place)
I0322 10:03:58.401702  5655 net.cpp:122] Setting up inception_4c/relu_3x3_reduce
I0322 10:03:58.401710  5655 net.cpp:129] Top shape: 10 128 14 14 (250880)
I0322 10:03:58.401712  5655 net.cpp:137] Memory required for data: 427875840
I0322 10:03:58.401715  5655 layer_factory.hpp:77] Creating layer inception_4c/3x3
I0322 10:03:58.401722  5655 net.cpp:84] Creating Layer inception_4c/3x3
I0322 10:03:58.401726  5655 net.cpp:406] inception_4c/3x3 <- inception_4c/3x3_reduce
I0322 10:03:58.401731  5655 net.cpp:380] inception_4c/3x3 -> inception_4c/3x3
I0322 10:03:58.404549  5655 net.cpp:122] Setting up inception_4c/3x3
I0322 10:03:58.404561  5655 net.cpp:129] Top shape: 10 256 14 14 (501760)
I0322 10:03:58.404563  5655 net.cpp:137] Memory required for data: 429882880
I0322 10:03:58.404568  5655 layer_factory.hpp:77] Creating layer inception_4c/relu_3x3
I0322 10:03:58.404574  5655 net.cpp:84] Creating Layer inception_4c/relu_3x3
I0322 10:03:58.404577  5655 net.cpp:406] inception_4c/relu_3x3 <- inception_4c/3x3
I0322 10:03:58.404580  5655 net.cpp:367] inception_4c/relu_3x3 -> inception_4c/3x3 (in-place)
I0322 10:03:58.404759  5655 net.cpp:122] Setting up inception_4c/relu_3x3
I0322 10:03:58.404768  5655 net.cpp:129] Top shape: 10 256 14 14 (501760)
I0322 10:03:58.404770  5655 net.cpp:137] Memory required for data: 431889920
I0322 10:03:58.404772  5655 layer_factory.hpp:77] Creating layer inception_4c/5x5_reduce
I0322 10:03:58.404780  5655 net.cpp:84] Creating Layer inception_4c/5x5_reduce
I0322 10:03:58.404783  5655 net.cpp:406] inception_4c/5x5_reduce <- inception_4b/output_inception_4b/output_0_split_2
I0322 10:03:58.404788  5655 net.cpp:380] inception_4c/5x5_reduce -> inception_4c/5x5_reduce
I0322 10:03:58.406101  5655 net.cpp:122] Setting up inception_4c/5x5_reduce
I0322 10:03:58.406113  5655 net.cpp:129] Top shape: 10 24 14 14 (47040)
I0322 10:03:58.406116  5655 net.cpp:137] Memory required for data: 432078080
I0322 10:03:58.406121  5655 layer_factory.hpp:77] Creating layer inception_4c/relu_5x5_reduce
I0322 10:03:58.406126  5655 net.cpp:84] Creating Layer inception_4c/relu_5x5_reduce
I0322 10:03:58.406128  5655 net.cpp:406] inception_4c/relu_5x5_reduce <- inception_4c/5x5_reduce
I0322 10:03:58.406132  5655 net.cpp:367] inception_4c/relu_5x5_reduce -> inception_4c/5x5_reduce (in-place)
I0322 10:03:58.406805  5655 net.cpp:122] Setting up inception_4c/relu_5x5_reduce
I0322 10:03:58.406816  5655 net.cpp:129] Top shape: 10 24 14 14 (47040)
I0322 10:03:58.406818  5655 net.cpp:137] Memory required for data: 432266240
I0322 10:03:58.406821  5655 layer_factory.hpp:77] Creating layer inception_4c/5x5
I0322 10:03:58.406828  5655 net.cpp:84] Creating Layer inception_4c/5x5
I0322 10:03:58.406831  5655 net.cpp:406] inception_4c/5x5 <- inception_4c/5x5_reduce
I0322 10:03:58.406836  5655 net.cpp:380] inception_4c/5x5 -> inception_4c/5x5
I0322 10:03:58.408241  5655 net.cpp:122] Setting up inception_4c/5x5
I0322 10:03:58.408252  5655 net.cpp:129] Top shape: 10 64 14 14 (125440)
I0322 10:03:58.408254  5655 net.cpp:137] Memory required for data: 432768000
I0322 10:03:58.408258  5655 layer_factory.hpp:77] Creating layer inception_4c/relu_5x5
I0322 10:03:58.408265  5655 net.cpp:84] Creating Layer inception_4c/relu_5x5
I0322 10:03:58.408268  5655 net.cpp:406] inception_4c/relu_5x5 <- inception_4c/5x5
I0322 10:03:58.408272  5655 net.cpp:367] inception_4c/relu_5x5 -> inception_4c/5x5 (in-place)
I0322 10:03:58.408443  5655 net.cpp:122] Setting up inception_4c/relu_5x5
I0322 10:03:58.408452  5655 net.cpp:129] Top shape: 10 64 14 14 (125440)
I0322 10:03:58.408454  5655 net.cpp:137] Memory required for data: 433269760
I0322 10:03:58.408457  5655 layer_factory.hpp:77] Creating layer inception_4c/pool
I0322 10:03:58.408462  5655 net.cpp:84] Creating Layer inception_4c/pool
I0322 10:03:58.408464  5655 net.cpp:406] inception_4c/pool <- inception_4b/output_inception_4b/output_0_split_3
I0322 10:03:58.408468  5655 net.cpp:380] inception_4c/pool -> inception_4c/pool
I0322 10:03:58.408519  5655 net.cpp:122] Setting up inception_4c/pool
I0322 10:03:58.408524  5655 net.cpp:129] Top shape: 10 512 14 14 (1003520)
I0322 10:03:58.408527  5655 net.cpp:137] Memory required for data: 437283840
I0322 10:03:58.408529  5655 layer_factory.hpp:77] Creating layer inception_4c/pool_proj
I0322 10:03:58.408536  5655 net.cpp:84] Creating Layer inception_4c/pool_proj
I0322 10:03:58.408540  5655 net.cpp:406] inception_4c/pool_proj <- inception_4c/pool
I0322 10:03:58.408543  5655 net.cpp:380] inception_4c/pool_proj -> inception_4c/pool_proj
I0322 10:03:58.410405  5655 net.cpp:122] Setting up inception_4c/pool_proj
I0322 10:03:58.410418  5655 net.cpp:129] Top shape: 10 64 14 14 (125440)
I0322 10:03:58.410419  5655 net.cpp:137] Memory required for data: 437785600
I0322 10:03:58.410432  5655 layer_factory.hpp:77] Creating layer inception_4c/relu_pool_proj
I0322 10:03:58.410437  5655 net.cpp:84] Creating Layer inception_4c/relu_pool_proj
I0322 10:03:58.410440  5655 net.cpp:406] inception_4c/relu_pool_proj <- inception_4c/pool_proj
I0322 10:03:58.410444  5655 net.cpp:367] inception_4c/relu_pool_proj -> inception_4c/pool_proj (in-place)
I0322 10:03:58.410611  5655 net.cpp:122] Setting up inception_4c/relu_pool_proj
I0322 10:03:58.410620  5655 net.cpp:129] Top shape: 10 64 14 14 (125440)
I0322 10:03:58.410622  5655 net.cpp:137] Memory required for data: 438287360
I0322 10:03:58.410625  5655 layer_factory.hpp:77] Creating layer inception_4c/output
I0322 10:03:58.410629  5655 net.cpp:84] Creating Layer inception_4c/output
I0322 10:03:58.410632  5655 net.cpp:406] inception_4c/output <- inception_4c/1x1
I0322 10:03:58.410635  5655 net.cpp:406] inception_4c/output <- inception_4c/3x3
I0322 10:03:58.410639  5655 net.cpp:406] inception_4c/output <- inception_4c/5x5
I0322 10:03:58.410641  5655 net.cpp:406] inception_4c/output <- inception_4c/pool_proj
I0322 10:03:58.410645  5655 net.cpp:380] inception_4c/output -> inception_4c/output
I0322 10:03:58.410677  5655 net.cpp:122] Setting up inception_4c/output
I0322 10:03:58.410681  5655 net.cpp:129] Top shape: 10 512 14 14 (1003520)
I0322 10:03:58.410683  5655 net.cpp:137] Memory required for data: 442301440
I0322 10:03:58.410686  5655 layer_factory.hpp:77] Creating layer inception_4c/output_inception_4c/output_0_split
I0322 10:03:58.410691  5655 net.cpp:84] Creating Layer inception_4c/output_inception_4c/output_0_split
I0322 10:03:58.410693  5655 net.cpp:406] inception_4c/output_inception_4c/output_0_split <- inception_4c/output
I0322 10:03:58.410696  5655 net.cpp:380] inception_4c/output_inception_4c/output_0_split -> inception_4c/output_inception_4c/output_0_split_0
I0322 10:03:58.410701  5655 net.cpp:380] inception_4c/output_inception_4c/output_0_split -> inception_4c/output_inception_4c/output_0_split_1
I0322 10:03:58.410706  5655 net.cpp:380] inception_4c/output_inception_4c/output_0_split -> inception_4c/output_inception_4c/output_0_split_2
I0322 10:03:58.410708  5655 net.cpp:380] inception_4c/output_inception_4c/output_0_split -> inception_4c/output_inception_4c/output_0_split_3
I0322 10:03:58.410778  5655 net.cpp:122] Setting up inception_4c/output_inception_4c/output_0_split
I0322 10:03:58.410784  5655 net.cpp:129] Top shape: 10 512 14 14 (1003520)
I0322 10:03:58.410787  5655 net.cpp:129] Top shape: 10 512 14 14 (1003520)
I0322 10:03:58.410789  5655 net.cpp:129] Top shape: 10 512 14 14 (1003520)
I0322 10:03:58.410792  5655 net.cpp:129] Top shape: 10 512 14 14 (1003520)
I0322 10:03:58.410794  5655 net.cpp:137] Memory required for data: 458357760
I0322 10:03:58.410796  5655 layer_factory.hpp:77] Creating layer inception_4d/1x1
I0322 10:03:58.410804  5655 net.cpp:84] Creating Layer inception_4d/1x1
I0322 10:03:58.410806  5655 net.cpp:406] inception_4d/1x1 <- inception_4c/output_inception_4c/output_0_split_0
I0322 10:03:58.410811  5655 net.cpp:380] inception_4d/1x1 -> inception_4d/1x1
I0322 10:03:58.412283  5655 net.cpp:122] Setting up inception_4d/1x1
I0322 10:03:58.412294  5655 net.cpp:129] Top shape: 10 112 14 14 (219520)
I0322 10:03:58.412297  5655 net.cpp:137] Memory required for data: 459235840
I0322 10:03:58.412302  5655 layer_factory.hpp:77] Creating layer inception_4d/relu_1x1
I0322 10:03:58.412305  5655 net.cpp:84] Creating Layer inception_4d/relu_1x1
I0322 10:03:58.412308  5655 net.cpp:406] inception_4d/relu_1x1 <- inception_4d/1x1
I0322 10:03:58.412313  5655 net.cpp:367] inception_4d/relu_1x1 -> inception_4d/1x1 (in-place)
I0322 10:03:58.412478  5655 net.cpp:122] Setting up inception_4d/relu_1x1
I0322 10:03:58.412487  5655 net.cpp:129] Top shape: 10 112 14 14 (219520)
I0322 10:03:58.412489  5655 net.cpp:137] Memory required for data: 460113920
I0322 10:03:58.412492  5655 layer_factory.hpp:77] Creating layer inception_4d/3x3_reduce
I0322 10:03:58.412499  5655 net.cpp:84] Creating Layer inception_4d/3x3_reduce
I0322 10:03:58.412503  5655 net.cpp:406] inception_4d/3x3_reduce <- inception_4c/output_inception_4c/output_0_split_1
I0322 10:03:58.412508  5655 net.cpp:380] inception_4d/3x3_reduce -> inception_4d/3x3_reduce
I0322 10:03:58.414062  5655 net.cpp:122] Setting up inception_4d/3x3_reduce
I0322 10:03:58.414072  5655 net.cpp:129] Top shape: 10 144 14 14 (282240)
I0322 10:03:58.414075  5655 net.cpp:137] Memory required for data: 461242880
I0322 10:03:58.414080  5655 layer_factory.hpp:77] Creating layer inception_4d/relu_3x3_reduce
I0322 10:03:58.414085  5655 net.cpp:84] Creating Layer inception_4d/relu_3x3_reduce
I0322 10:03:58.414088  5655 net.cpp:406] inception_4d/relu_3x3_reduce <- inception_4d/3x3_reduce
I0322 10:03:58.414093  5655 net.cpp:367] inception_4d/relu_3x3_reduce -> inception_4d/3x3_reduce (in-place)
I0322 10:03:58.414258  5655 net.cpp:122] Setting up inception_4d/relu_3x3_reduce
I0322 10:03:58.414266  5655 net.cpp:129] Top shape: 10 144 14 14 (282240)
I0322 10:03:58.414268  5655 net.cpp:137] Memory required for data: 462371840
I0322 10:03:58.414271  5655 layer_factory.hpp:77] Creating layer inception_4d/3x3
I0322 10:03:58.414279  5655 net.cpp:84] Creating Layer inception_4d/3x3
I0322 10:03:58.414283  5655 net.cpp:406] inception_4d/3x3 <- inception_4d/3x3_reduce
I0322 10:03:58.414286  5655 net.cpp:380] inception_4d/3x3 -> inception_4d/3x3
I0322 10:03:58.418071  5655 net.cpp:122] Setting up inception_4d/3x3
I0322 10:03:58.418082  5655 net.cpp:129] Top shape: 10 288 14 14 (564480)
I0322 10:03:58.418100  5655 net.cpp:137] Memory required for data: 464629760
I0322 10:03:58.418105  5655 layer_factory.hpp:77] Creating layer inception_4d/relu_3x3
I0322 10:03:58.418110  5655 net.cpp:84] Creating Layer inception_4d/relu_3x3
I0322 10:03:58.418114  5655 net.cpp:406] inception_4d/relu_3x3 <- inception_4d/3x3
I0322 10:03:58.418118  5655 net.cpp:367] inception_4d/relu_3x3 -> inception_4d/3x3 (in-place)
I0322 10:03:58.418285  5655 net.cpp:122] Setting up inception_4d/relu_3x3
I0322 10:03:58.418293  5655 net.cpp:129] Top shape: 10 288 14 14 (564480)
I0322 10:03:58.418295  5655 net.cpp:137] Memory required for data: 466887680
I0322 10:03:58.418298  5655 layer_factory.hpp:77] Creating layer inception_4d/5x5_reduce
I0322 10:03:58.418305  5655 net.cpp:84] Creating Layer inception_4d/5x5_reduce
I0322 10:03:58.418308  5655 net.cpp:406] inception_4d/5x5_reduce <- inception_4c/output_inception_4c/output_0_split_2
I0322 10:03:58.418314  5655 net.cpp:380] inception_4d/5x5_reduce -> inception_4d/5x5_reduce
I0322 10:03:58.419646  5655 net.cpp:122] Setting up inception_4d/5x5_reduce
I0322 10:03:58.419656  5655 net.cpp:129] Top shape: 10 32 14 14 (62720)
I0322 10:03:58.419674  5655 net.cpp:137] Memory required for data: 467138560
I0322 10:03:58.419679  5655 layer_factory.hpp:77] Creating layer inception_4d/relu_5x5_reduce
I0322 10:03:58.419685  5655 net.cpp:84] Creating Layer inception_4d/relu_5x5_reduce
I0322 10:03:58.419688  5655 net.cpp:406] inception_4d/relu_5x5_reduce <- inception_4d/5x5_reduce
I0322 10:03:58.419692  5655 net.cpp:367] inception_4d/relu_5x5_reduce -> inception_4d/5x5_reduce (in-place)
I0322 10:03:58.420356  5655 net.cpp:122] Setting up inception_4d/relu_5x5_reduce
I0322 10:03:58.420367  5655 net.cpp:129] Top shape: 10 32 14 14 (62720)
I0322 10:03:58.420385  5655 net.cpp:137] Memory required for data: 467389440
I0322 10:03:58.420387  5655 layer_factory.hpp:77] Creating layer inception_4d/5x5
I0322 10:03:58.420397  5655 net.cpp:84] Creating Layer inception_4d/5x5
I0322 10:03:58.420400  5655 net.cpp:406] inception_4d/5x5 <- inception_4d/5x5_reduce
I0322 10:03:58.420405  5655 net.cpp:380] inception_4d/5x5 -> inception_4d/5x5
I0322 10:03:58.421865  5655 net.cpp:122] Setting up inception_4d/5x5
I0322 10:03:58.421877  5655 net.cpp:129] Top shape: 10 64 14 14 (125440)
I0322 10:03:58.421880  5655 net.cpp:137] Memory required for data: 467891200
I0322 10:03:58.421885  5655 layer_factory.hpp:77] Creating layer inception_4d/relu_5x5
I0322 10:03:58.421890  5655 net.cpp:84] Creating Layer inception_4d/relu_5x5
I0322 10:03:58.421893  5655 net.cpp:406] inception_4d/relu_5x5 <- inception_4d/5x5
I0322 10:03:58.421896  5655 net.cpp:367] inception_4d/relu_5x5 -> inception_4d/5x5 (in-place)
I0322 10:03:58.422070  5655 net.cpp:122] Setting up inception_4d/relu_5x5
I0322 10:03:58.422077  5655 net.cpp:129] Top shape: 10 64 14 14 (125440)
I0322 10:03:58.422080  5655 net.cpp:137] Memory required for data: 468392960
I0322 10:03:58.422082  5655 layer_factory.hpp:77] Creating layer inception_4d/pool
I0322 10:03:58.422087  5655 net.cpp:84] Creating Layer inception_4d/pool
I0322 10:03:58.422091  5655 net.cpp:406] inception_4d/pool <- inception_4c/output_inception_4c/output_0_split_3
I0322 10:03:58.422096  5655 net.cpp:380] inception_4d/pool -> inception_4d/pool
I0322 10:03:58.422145  5655 net.cpp:122] Setting up inception_4d/pool
I0322 10:03:58.422153  5655 net.cpp:129] Top shape: 10 512 14 14 (1003520)
I0322 10:03:58.422155  5655 net.cpp:137] Memory required for data: 472407040
I0322 10:03:58.422158  5655 layer_factory.hpp:77] Creating layer inception_4d/pool_proj
I0322 10:03:58.422164  5655 net.cpp:84] Creating Layer inception_4d/pool_proj
I0322 10:03:58.422166  5655 net.cpp:406] inception_4d/pool_proj <- inception_4d/pool
I0322 10:03:58.422171  5655 net.cpp:380] inception_4d/pool_proj -> inception_4d/pool_proj
I0322 10:03:58.423554  5655 net.cpp:122] Setting up inception_4d/pool_proj
I0322 10:03:58.423566  5655 net.cpp:129] Top shape: 10 64 14 14 (125440)
I0322 10:03:58.423569  5655 net.cpp:137] Memory required for data: 472908800
I0322 10:03:58.423573  5655 layer_factory.hpp:77] Creating layer inception_4d/relu_pool_proj
I0322 10:03:58.423578  5655 net.cpp:84] Creating Layer inception_4d/relu_pool_proj
I0322 10:03:58.423581  5655 net.cpp:406] inception_4d/relu_pool_proj <- inception_4d/pool_proj
I0322 10:03:58.423584  5655 net.cpp:367] inception_4d/relu_pool_proj -> inception_4d/pool_proj (in-place)
I0322 10:03:58.423750  5655 net.cpp:122] Setting up inception_4d/relu_pool_proj
I0322 10:03:58.423759  5655 net.cpp:129] Top shape: 10 64 14 14 (125440)
I0322 10:03:58.423761  5655 net.cpp:137] Memory required for data: 473410560
I0322 10:03:58.423764  5655 layer_factory.hpp:77] Creating layer inception_4d/output
I0322 10:03:58.423768  5655 net.cpp:84] Creating Layer inception_4d/output
I0322 10:03:58.423771  5655 net.cpp:406] inception_4d/output <- inception_4d/1x1
I0322 10:03:58.423774  5655 net.cpp:406] inception_4d/output <- inception_4d/3x3
I0322 10:03:58.423777  5655 net.cpp:406] inception_4d/output <- inception_4d/5x5
I0322 10:03:58.423780  5655 net.cpp:406] inception_4d/output <- inception_4d/pool_proj
I0322 10:03:58.423784  5655 net.cpp:380] inception_4d/output -> inception_4d/output
I0322 10:03:58.423816  5655 net.cpp:122] Setting up inception_4d/output
I0322 10:03:58.423820  5655 net.cpp:129] Top shape: 10 528 14 14 (1034880)
I0322 10:03:58.423823  5655 net.cpp:137] Memory required for data: 477550080
I0322 10:03:58.423825  5655 layer_factory.hpp:77] Creating layer inception_4d/output_inception_4d/output_0_split
I0322 10:03:58.423830  5655 net.cpp:84] Creating Layer inception_4d/output_inception_4d/output_0_split
I0322 10:03:58.423832  5655 net.cpp:406] inception_4d/output_inception_4d/output_0_split <- inception_4d/output
I0322 10:03:58.423836  5655 net.cpp:380] inception_4d/output_inception_4d/output_0_split -> inception_4d/output_inception_4d/output_0_split_0
I0322 10:03:58.423840  5655 net.cpp:380] inception_4d/output_inception_4d/output_0_split -> inception_4d/output_inception_4d/output_0_split_1
I0322 10:03:58.423844  5655 net.cpp:380] inception_4d/output_inception_4d/output_0_split -> inception_4d/output_inception_4d/output_0_split_2
I0322 10:03:58.423848  5655 net.cpp:380] inception_4d/output_inception_4d/output_0_split -> inception_4d/output_inception_4d/output_0_split_3
I0322 10:03:58.423921  5655 net.cpp:122] Setting up inception_4d/output_inception_4d/output_0_split
I0322 10:03:58.423926  5655 net.cpp:129] Top shape: 10 528 14 14 (1034880)
I0322 10:03:58.423929  5655 net.cpp:129] Top shape: 10 528 14 14 (1034880)
I0322 10:03:58.423933  5655 net.cpp:129] Top shape: 10 528 14 14 (1034880)
I0322 10:03:58.423934  5655 net.cpp:129] Top shape: 10 528 14 14 (1034880)
I0322 10:03:58.423936  5655 net.cpp:137] Memory required for data: 494108160
I0322 10:03:58.423938  5655 layer_factory.hpp:77] Creating layer inception_4e/1x1
I0322 10:03:58.423946  5655 net.cpp:84] Creating Layer inception_4e/1x1
I0322 10:03:58.423949  5655 net.cpp:406] inception_4e/1x1 <- inception_4d/output_inception_4d/output_0_split_0
I0322 10:03:58.423954  5655 net.cpp:380] inception_4e/1x1 -> inception_4e/1x1
I0322 10:03:58.425729  5655 net.cpp:122] Setting up inception_4e/1x1
I0322 10:03:58.425740  5655 net.cpp:129] Top shape: 10 256 14 14 (501760)
I0322 10:03:58.425742  5655 net.cpp:137] Memory required for data: 496115200
I0322 10:03:58.425747  5655 layer_factory.hpp:77] Creating layer inception_4e/relu_1x1
I0322 10:03:58.425752  5655 net.cpp:84] Creating Layer inception_4e/relu_1x1
I0322 10:03:58.425755  5655 net.cpp:406] inception_4e/relu_1x1 <- inception_4e/1x1
I0322 10:03:58.425761  5655 net.cpp:367] inception_4e/relu_1x1 -> inception_4e/1x1 (in-place)
I0322 10:03:58.425927  5655 net.cpp:122] Setting up inception_4e/relu_1x1
I0322 10:03:58.425935  5655 net.cpp:129] Top shape: 10 256 14 14 (501760)
I0322 10:03:58.425938  5655 net.cpp:137] Memory required for data: 498122240
I0322 10:03:58.425940  5655 layer_factory.hpp:77] Creating layer inception_4e/3x3_reduce
I0322 10:03:58.425948  5655 net.cpp:84] Creating Layer inception_4e/3x3_reduce
I0322 10:03:58.425951  5655 net.cpp:406] inception_4e/3x3_reduce <- inception_4d/output_inception_4d/output_0_split_1
I0322 10:03:58.425957  5655 net.cpp:380] inception_4e/3x3_reduce -> inception_4e/3x3_reduce
I0322 10:03:58.427570  5655 net.cpp:122] Setting up inception_4e/3x3_reduce
I0322 10:03:58.427582  5655 net.cpp:129] Top shape: 10 160 14 14 (313600)
I0322 10:03:58.427583  5655 net.cpp:137] Memory required for data: 499376640
I0322 10:03:58.427588  5655 layer_factory.hpp:77] Creating layer inception_4e/relu_3x3_reduce
I0322 10:03:58.427594  5655 net.cpp:84] Creating Layer inception_4e/relu_3x3_reduce
I0322 10:03:58.427597  5655 net.cpp:406] inception_4e/relu_3x3_reduce <- inception_4e/3x3_reduce
I0322 10:03:58.427600  5655 net.cpp:367] inception_4e/relu_3x3_reduce -> inception_4e/3x3_reduce (in-place)
I0322 10:03:58.427769  5655 net.cpp:122] Setting up inception_4e/relu_3x3_reduce
I0322 10:03:58.427778  5655 net.cpp:129] Top shape: 10 160 14 14 (313600)
I0322 10:03:58.427779  5655 net.cpp:137] Memory required for data: 500631040
I0322 10:03:58.427783  5655 layer_factory.hpp:77] Creating layer inception_4e/3x3
I0322 10:03:58.427790  5655 net.cpp:84] Creating Layer inception_4e/3x3
I0322 10:03:58.427793  5655 net.cpp:406] inception_4e/3x3 <- inception_4e/3x3_reduce
I0322 10:03:58.427798  5655 net.cpp:380] inception_4e/3x3 -> inception_4e/3x3
I0322 10:03:58.431934  5655 net.cpp:122] Setting up inception_4e/3x3
I0322 10:03:58.431946  5655 net.cpp:129] Top shape: 10 320 14 14 (627200)
I0322 10:03:58.431949  5655 net.cpp:137] Memory required for data: 503139840
I0322 10:03:58.431955  5655 layer_factory.hpp:77] Creating layer inception_4e/relu_3x3
I0322 10:03:58.431959  5655 net.cpp:84] Creating Layer inception_4e/relu_3x3
I0322 10:03:58.431963  5655 net.cpp:406] inception_4e/relu_3x3 <- inception_4e/3x3
I0322 10:03:58.431967  5655 net.cpp:367] inception_4e/relu_3x3 -> inception_4e/3x3 (in-place)
I0322 10:03:58.432152  5655 net.cpp:122] Setting up inception_4e/relu_3x3
I0322 10:03:58.432159  5655 net.cpp:129] Top shape: 10 320 14 14 (627200)
I0322 10:03:58.432163  5655 net.cpp:137] Memory required for data: 505648640
I0322 10:03:58.432164  5655 layer_factory.hpp:77] Creating layer inception_4e/5x5_reduce
I0322 10:03:58.432171  5655 net.cpp:84] Creating Layer inception_4e/5x5_reduce
I0322 10:03:58.432175  5655 net.cpp:406] inception_4e/5x5_reduce <- inception_4d/output_inception_4d/output_0_split_2
I0322 10:03:58.432179  5655 net.cpp:380] inception_4e/5x5_reduce -> inception_4e/5x5_reduce
I0322 10:03:58.433528  5655 net.cpp:122] Setting up inception_4e/5x5_reduce
I0322 10:03:58.433539  5655 net.cpp:129] Top shape: 10 32 14 14 (62720)
I0322 10:03:58.433557  5655 net.cpp:137] Memory required for data: 505899520
I0322 10:03:58.433563  5655 layer_factory.hpp:77] Creating layer inception_4e/relu_5x5_reduce
I0322 10:03:58.433568  5655 net.cpp:84] Creating Layer inception_4e/relu_5x5_reduce
I0322 10:03:58.433573  5655 net.cpp:406] inception_4e/relu_5x5_reduce <- inception_4e/5x5_reduce
I0322 10:03:58.433576  5655 net.cpp:367] inception_4e/relu_5x5_reduce -> inception_4e/5x5_reduce (in-place)
I0322 10:03:58.434247  5655 net.cpp:122] Setting up inception_4e/relu_5x5_reduce
I0322 10:03:58.434257  5655 net.cpp:129] Top shape: 10 32 14 14 (62720)
I0322 10:03:58.434259  5655 net.cpp:137] Memory required for data: 506150400
I0322 10:03:58.434262  5655 layer_factory.hpp:77] Creating layer inception_4e/5x5
I0322 10:03:58.434270  5655 net.cpp:84] Creating Layer inception_4e/5x5
I0322 10:03:58.434273  5655 net.cpp:406] inception_4e/5x5 <- inception_4e/5x5_reduce
I0322 10:03:58.434278  5655 net.cpp:380] inception_4e/5x5 -> inception_4e/5x5
I0322 10:03:58.436583  5655 net.cpp:122] Setting up inception_4e/5x5
I0322 10:03:58.436595  5655 net.cpp:129] Top shape: 10 128 14 14 (250880)
I0322 10:03:58.436599  5655 net.cpp:137] Memory required for data: 507153920
I0322 10:03:58.436604  5655 layer_factory.hpp:77] Creating layer inception_4e/relu_5x5
I0322 10:03:58.436607  5655 net.cpp:84] Creating Layer inception_4e/relu_5x5
I0322 10:03:58.436610  5655 net.cpp:406] inception_4e/relu_5x5 <- inception_4e/5x5
I0322 10:03:58.436614  5655 net.cpp:367] inception_4e/relu_5x5 -> inception_4e/5x5 (in-place)
I0322 10:03:58.436791  5655 net.cpp:122] Setting up inception_4e/relu_5x5
I0322 10:03:58.436800  5655 net.cpp:129] Top shape: 10 128 14 14 (250880)
I0322 10:03:58.436801  5655 net.cpp:137] Memory required for data: 508157440
I0322 10:03:58.436803  5655 layer_factory.hpp:77] Creating layer inception_4e/pool
I0322 10:03:58.436808  5655 net.cpp:84] Creating Layer inception_4e/pool
I0322 10:03:58.436811  5655 net.cpp:406] inception_4e/pool <- inception_4d/output_inception_4d/output_0_split_3
I0322 10:03:58.436816  5655 net.cpp:380] inception_4e/pool -> inception_4e/pool
I0322 10:03:58.436868  5655 net.cpp:122] Setting up inception_4e/pool
I0322 10:03:58.436874  5655 net.cpp:129] Top shape: 10 528 14 14 (1034880)
I0322 10:03:58.436877  5655 net.cpp:137] Memory required for data: 512296960
I0322 10:03:58.436879  5655 layer_factory.hpp:77] Creating layer inception_4e/pool_proj
I0322 10:03:58.436887  5655 net.cpp:84] Creating Layer inception_4e/pool_proj
I0322 10:03:58.436890  5655 net.cpp:406] inception_4e/pool_proj <- inception_4e/pool
I0322 10:03:58.436894  5655 net.cpp:380] inception_4e/pool_proj -> inception_4e/pool_proj
I0322 10:03:58.438477  5655 net.cpp:122] Setting up inception_4e/pool_proj
I0322 10:03:58.438488  5655 net.cpp:129] Top shape: 10 128 14 14 (250880)
I0322 10:03:58.438490  5655 net.cpp:137] Memory required for data: 513300480
I0322 10:03:58.438495  5655 layer_factory.hpp:77] Creating layer inception_4e/relu_pool_proj
I0322 10:03:58.438500  5655 net.cpp:84] Creating Layer inception_4e/relu_pool_proj
I0322 10:03:58.438503  5655 net.cpp:406] inception_4e/relu_pool_proj <- inception_4e/pool_proj
I0322 10:03:58.438508  5655 net.cpp:367] inception_4e/relu_pool_proj -> inception_4e/pool_proj (in-place)
I0322 10:03:58.438679  5655 net.cpp:122] Setting up inception_4e/relu_pool_proj
I0322 10:03:58.438688  5655 net.cpp:129] Top shape: 10 128 14 14 (250880)
I0322 10:03:58.438689  5655 net.cpp:137] Memory required for data: 514304000
I0322 10:03:58.438693  5655 layer_factory.hpp:77] Creating layer inception_4e/output
I0322 10:03:58.438697  5655 net.cpp:84] Creating Layer inception_4e/output
I0322 10:03:58.438700  5655 net.cpp:406] inception_4e/output <- inception_4e/1x1
I0322 10:03:58.438704  5655 net.cpp:406] inception_4e/output <- inception_4e/3x3
I0322 10:03:58.438707  5655 net.cpp:406] inception_4e/output <- inception_4e/5x5
I0322 10:03:58.438709  5655 net.cpp:406] inception_4e/output <- inception_4e/pool_proj
I0322 10:03:58.438712  5655 net.cpp:380] inception_4e/output -> inception_4e/output
I0322 10:03:58.438746  5655 net.cpp:122] Setting up inception_4e/output
I0322 10:03:58.438751  5655 net.cpp:129] Top shape: 10 832 14 14 (1630720)
I0322 10:03:58.438753  5655 net.cpp:137] Memory required for data: 520826880
I0322 10:03:58.438755  5655 layer_factory.hpp:77] Creating layer pool4/3x3_s2
I0322 10:03:58.438760  5655 net.cpp:84] Creating Layer pool4/3x3_s2
I0322 10:03:58.438762  5655 net.cpp:406] pool4/3x3_s2 <- inception_4e/output
I0322 10:03:58.438766  5655 net.cpp:380] pool4/3x3_s2 -> pool4/3x3_s2
I0322 10:03:58.438812  5655 net.cpp:122] Setting up pool4/3x3_s2
I0322 10:03:58.438817  5655 net.cpp:129] Top shape: 10 832 7 7 (407680)
I0322 10:03:58.438819  5655 net.cpp:137] Memory required for data: 522457600
I0322 10:03:58.438822  5655 layer_factory.hpp:77] Creating layer pool4/3x3_s2_pool4/3x3_s2_0_split
I0322 10:03:58.438827  5655 net.cpp:84] Creating Layer pool4/3x3_s2_pool4/3x3_s2_0_split
I0322 10:03:58.438828  5655 net.cpp:406] pool4/3x3_s2_pool4/3x3_s2_0_split <- pool4/3x3_s2
I0322 10:03:58.438832  5655 net.cpp:380] pool4/3x3_s2_pool4/3x3_s2_0_split -> pool4/3x3_s2_pool4/3x3_s2_0_split_0
I0322 10:03:58.438837  5655 net.cpp:380] pool4/3x3_s2_pool4/3x3_s2_0_split -> pool4/3x3_s2_pool4/3x3_s2_0_split_1
I0322 10:03:58.438841  5655 net.cpp:380] pool4/3x3_s2_pool4/3x3_s2_0_split -> pool4/3x3_s2_pool4/3x3_s2_0_split_2
I0322 10:03:58.438844  5655 net.cpp:380] pool4/3x3_s2_pool4/3x3_s2_0_split -> pool4/3x3_s2_pool4/3x3_s2_0_split_3
I0322 10:03:58.438915  5655 net.cpp:122] Setting up pool4/3x3_s2_pool4/3x3_s2_0_split
I0322 10:03:58.438920  5655 net.cpp:129] Top shape: 10 832 7 7 (407680)
I0322 10:03:58.438922  5655 net.cpp:129] Top shape: 10 832 7 7 (407680)
I0322 10:03:58.438925  5655 net.cpp:129] Top shape: 10 832 7 7 (407680)
I0322 10:03:58.438927  5655 net.cpp:129] Top shape: 10 832 7 7 (407680)
I0322 10:03:58.438930  5655 net.cpp:137] Memory required for data: 528980480
I0322 10:03:58.438932  5655 layer_factory.hpp:77] Creating layer inception_5a/1x1
I0322 10:03:58.438940  5655 net.cpp:84] Creating Layer inception_5a/1x1
I0322 10:03:58.438942  5655 net.cpp:406] inception_5a/1x1 <- pool4/3x3_s2_pool4/3x3_s2_0_split_0
I0322 10:03:58.438946  5655 net.cpp:380] inception_5a/1x1 -> inception_5a/1x1
I0322 10:03:58.441038  5655 net.cpp:122] Setting up inception_5a/1x1
I0322 10:03:58.441049  5655 net.cpp:129] Top shape: 10 256 7 7 (125440)
I0322 10:03:58.441051  5655 net.cpp:137] Memory required for data: 529482240
I0322 10:03:58.441056  5655 layer_factory.hpp:77] Creating layer inception_5a/relu_1x1
I0322 10:03:58.441061  5655 net.cpp:84] Creating Layer inception_5a/relu_1x1
I0322 10:03:58.441064  5655 net.cpp:406] inception_5a/relu_1x1 <- inception_5a/1x1
I0322 10:03:58.441068  5655 net.cpp:367] inception_5a/relu_1x1 -> inception_5a/1x1 (in-place)
I0322 10:03:58.441238  5655 net.cpp:122] Setting up inception_5a/relu_1x1
I0322 10:03:58.441246  5655 net.cpp:129] Top shape: 10 256 7 7 (125440)
I0322 10:03:58.441249  5655 net.cpp:137] Memory required for data: 529984000
I0322 10:03:58.441251  5655 layer_factory.hpp:77] Creating layer inception_5a/3x3_reduce
I0322 10:03:58.441258  5655 net.cpp:84] Creating Layer inception_5a/3x3_reduce
I0322 10:03:58.441262  5655 net.cpp:406] inception_5a/3x3_reduce <- pool4/3x3_s2_pool4/3x3_s2_0_split_1
I0322 10:03:58.441267  5655 net.cpp:380] inception_5a/3x3_reduce -> inception_5a/3x3_reduce
I0322 10:03:58.443166  5655 net.cpp:122] Setting up inception_5a/3x3_reduce
I0322 10:03:58.443176  5655 net.cpp:129] Top shape: 10 160 7 7 (78400)
I0322 10:03:58.443179  5655 net.cpp:137] Memory required for data: 530297600
I0322 10:03:58.443184  5655 layer_factory.hpp:77] Creating layer inception_5a/relu_3x3_reduce
I0322 10:03:58.443191  5655 net.cpp:84] Creating Layer inception_5a/relu_3x3_reduce
I0322 10:03:58.443193  5655 net.cpp:406] inception_5a/relu_3x3_reduce <- inception_5a/3x3_reduce
I0322 10:03:58.443197  5655 net.cpp:367] inception_5a/relu_3x3_reduce -> inception_5a/3x3_reduce (in-place)
I0322 10:03:58.443353  5655 net.cpp:122] Setting up inception_5a/relu_3x3_reduce
I0322 10:03:58.443361  5655 net.cpp:129] Top shape: 10 160 7 7 (78400)
I0322 10:03:58.443364  5655 net.cpp:137] Memory required for data: 530611200
I0322 10:03:58.443367  5655 layer_factory.hpp:77] Creating layer inception_5a/3x3
I0322 10:03:58.443373  5655 net.cpp:84] Creating Layer inception_5a/3x3
I0322 10:03:58.443377  5655 net.cpp:406] inception_5a/3x3 <- inception_5a/3x3_reduce
I0322 10:03:58.443383  5655 net.cpp:380] inception_5a/3x3 -> inception_5a/3x3
I0322 10:03:58.448102  5655 net.cpp:122] Setting up inception_5a/3x3
I0322 10:03:58.448113  5655 net.cpp:129] Top shape: 10 320 7 7 (156800)
I0322 10:03:58.448117  5655 net.cpp:137] Memory required for data: 531238400
I0322 10:03:58.448122  5655 layer_factory.hpp:77] Creating layer inception_5a/relu_3x3
I0322 10:03:58.448127  5655 net.cpp:84] Creating Layer inception_5a/relu_3x3
I0322 10:03:58.448142  5655 net.cpp:406] inception_5a/relu_3x3 <- inception_5a/3x3
I0322 10:03:58.448144  5655 net.cpp:367] inception_5a/relu_3x3 -> inception_5a/3x3 (in-place)
I0322 10:03:58.448318  5655 net.cpp:122] Setting up inception_5a/relu_3x3
I0322 10:03:58.448325  5655 net.cpp:129] Top shape: 10 320 7 7 (156800)
I0322 10:03:58.448328  5655 net.cpp:137] Memory required for data: 531865600
I0322 10:03:58.448330  5655 layer_factory.hpp:77] Creating layer inception_5a/5x5_reduce
I0322 10:03:58.448338  5655 net.cpp:84] Creating Layer inception_5a/5x5_reduce
I0322 10:03:58.448343  5655 net.cpp:406] inception_5a/5x5_reduce <- pool4/3x3_s2_pool4/3x3_s2_0_split_2
I0322 10:03:58.448348  5655 net.cpp:380] inception_5a/5x5_reduce -> inception_5a/5x5_reduce
I0322 10:03:58.449753  5655 net.cpp:122] Setting up inception_5a/5x5_reduce
I0322 10:03:58.449764  5655 net.cpp:129] Top shape: 10 32 7 7 (15680)
I0322 10:03:58.449767  5655 net.cpp:137] Memory required for data: 531928320
I0322 10:03:58.449771  5655 layer_factory.hpp:77] Creating layer inception_5a/relu_5x5_reduce
I0322 10:03:58.449776  5655 net.cpp:84] Creating Layer inception_5a/relu_5x5_reduce
I0322 10:03:58.449779  5655 net.cpp:406] inception_5a/relu_5x5_reduce <- inception_5a/5x5_reduce
I0322 10:03:58.449782  5655 net.cpp:367] inception_5a/relu_5x5_reduce -> inception_5a/5x5_reduce (in-place)
I0322 10:03:58.450469  5655 net.cpp:122] Setting up inception_5a/relu_5x5_reduce
I0322 10:03:58.450480  5655 net.cpp:129] Top shape: 10 32 7 7 (15680)
I0322 10:03:58.450482  5655 net.cpp:137] Memory required for data: 531991040
I0322 10:03:58.450485  5655 layer_factory.hpp:77] Creating layer inception_5a/5x5
I0322 10:03:58.450494  5655 net.cpp:84] Creating Layer inception_5a/5x5
I0322 10:03:58.450496  5655 net.cpp:406] inception_5a/5x5 <- inception_5a/5x5_reduce
I0322 10:03:58.450500  5655 net.cpp:380] inception_5a/5x5 -> inception_5a/5x5
I0322 10:03:58.452816  5655 net.cpp:122] Setting up inception_5a/5x5
I0322 10:03:58.452827  5655 net.cpp:129] Top shape: 10 128 7 7 (62720)
I0322 10:03:58.452831  5655 net.cpp:137] Memory required for data: 532241920
I0322 10:03:58.452834  5655 layer_factory.hpp:77] Creating layer inception_5a/relu_5x5
I0322 10:03:58.452849  5655 net.cpp:84] Creating Layer inception_5a/relu_5x5
I0322 10:03:58.452852  5655 net.cpp:406] inception_5a/relu_5x5 <- inception_5a/5x5
I0322 10:03:58.452855  5655 net.cpp:367] inception_5a/relu_5x5 -> inception_5a/5x5 (in-place)
I0322 10:03:58.453027  5655 net.cpp:122] Setting up inception_5a/relu_5x5
I0322 10:03:58.453037  5655 net.cpp:129] Top shape: 10 128 7 7 (62720)
I0322 10:03:58.453039  5655 net.cpp:137] Memory required for data: 532492800
I0322 10:03:58.453042  5655 layer_factory.hpp:77] Creating layer inception_5a/pool
I0322 10:03:58.453047  5655 net.cpp:84] Creating Layer inception_5a/pool
I0322 10:03:58.453049  5655 net.cpp:406] inception_5a/pool <- pool4/3x3_s2_pool4/3x3_s2_0_split_3
I0322 10:03:58.453053  5655 net.cpp:380] inception_5a/pool -> inception_5a/pool
I0322 10:03:58.453114  5655 net.cpp:122] Setting up inception_5a/pool
I0322 10:03:58.453119  5655 net.cpp:129] Top shape: 10 832 7 7 (407680)
I0322 10:03:58.453121  5655 net.cpp:137] Memory required for data: 534123520
I0322 10:03:58.453124  5655 layer_factory.hpp:77] Creating layer inception_5a/pool_proj
I0322 10:03:58.453130  5655 net.cpp:84] Creating Layer inception_5a/pool_proj
I0322 10:03:58.453133  5655 net.cpp:406] inception_5a/pool_proj <- inception_5a/pool
I0322 10:03:58.453138  5655 net.cpp:380] inception_5a/pool_proj -> inception_5a/pool_proj
I0322 10:03:58.454851  5655 net.cpp:122] Setting up inception_5a/pool_proj
I0322 10:03:58.454864  5655 net.cpp:129] Top shape: 10 128 7 7 (62720)
I0322 10:03:58.454865  5655 net.cpp:137] Memory required for data: 534374400
I0322 10:03:58.454870  5655 layer_factory.hpp:77] Creating layer inception_5a/relu_pool_proj
I0322 10:03:58.454874  5655 net.cpp:84] Creating Layer inception_5a/relu_pool_proj
I0322 10:03:58.454879  5655 net.cpp:406] inception_5a/relu_pool_proj <- inception_5a/pool_proj
I0322 10:03:58.454882  5655 net.cpp:367] inception_5a/relu_pool_proj -> inception_5a/pool_proj (in-place)
I0322 10:03:58.455050  5655 net.cpp:122] Setting up inception_5a/relu_pool_proj
I0322 10:03:58.455057  5655 net.cpp:129] Top shape: 10 128 7 7 (62720)
I0322 10:03:58.455060  5655 net.cpp:137] Memory required for data: 534625280
I0322 10:03:58.455062  5655 layer_factory.hpp:77] Creating layer inception_5a/output
I0322 10:03:58.455068  5655 net.cpp:84] Creating Layer inception_5a/output
I0322 10:03:58.455071  5655 net.cpp:406] inception_5a/output <- inception_5a/1x1
I0322 10:03:58.455075  5655 net.cpp:406] inception_5a/output <- inception_5a/3x3
I0322 10:03:58.455077  5655 net.cpp:406] inception_5a/output <- inception_5a/5x5
I0322 10:03:58.455080  5655 net.cpp:406] inception_5a/output <- inception_5a/pool_proj
I0322 10:03:58.455085  5655 net.cpp:380] inception_5a/output -> inception_5a/output
I0322 10:03:58.455117  5655 net.cpp:122] Setting up inception_5a/output
I0322 10:03:58.455121  5655 net.cpp:129] Top shape: 10 832 7 7 (407680)
I0322 10:03:58.455123  5655 net.cpp:137] Memory required for data: 536256000
I0322 10:03:58.455127  5655 layer_factory.hpp:77] Creating layer inception_5a/output_inception_5a/output_0_split
I0322 10:03:58.455130  5655 net.cpp:84] Creating Layer inception_5a/output_inception_5a/output_0_split
I0322 10:03:58.455132  5655 net.cpp:406] inception_5a/output_inception_5a/output_0_split <- inception_5a/output
I0322 10:03:58.455137  5655 net.cpp:380] inception_5a/output_inception_5a/output_0_split -> inception_5a/output_inception_5a/output_0_split_0
I0322 10:03:58.455142  5655 net.cpp:380] inception_5a/output_inception_5a/output_0_split -> inception_5a/output_inception_5a/output_0_split_1
I0322 10:03:58.455145  5655 net.cpp:380] inception_5a/output_inception_5a/output_0_split -> inception_5a/output_inception_5a/output_0_split_2
I0322 10:03:58.455149  5655 net.cpp:380] inception_5a/output_inception_5a/output_0_split -> inception_5a/output_inception_5a/output_0_split_3
I0322 10:03:58.455225  5655 net.cpp:122] Setting up inception_5a/output_inception_5a/output_0_split
I0322 10:03:58.455231  5655 net.cpp:129] Top shape: 10 832 7 7 (407680)
I0322 10:03:58.455235  5655 net.cpp:129] Top shape: 10 832 7 7 (407680)
I0322 10:03:58.455236  5655 net.cpp:129] Top shape: 10 832 7 7 (407680)
I0322 10:03:58.455240  5655 net.cpp:129] Top shape: 10 832 7 7 (407680)
I0322 10:03:58.455241  5655 net.cpp:137] Memory required for data: 542778880
I0322 10:03:58.455243  5655 layer_factory.hpp:77] Creating layer inception_5b/1x1
I0322 10:03:58.455251  5655 net.cpp:84] Creating Layer inception_5b/1x1
I0322 10:03:58.455255  5655 net.cpp:406] inception_5b/1x1 <- inception_5a/output_inception_5a/output_0_split_0
I0322 10:03:58.455258  5655 net.cpp:380] inception_5b/1x1 -> inception_5b/1x1
I0322 10:03:58.458401  5655 net.cpp:122] Setting up inception_5b/1x1
I0322 10:03:58.458413  5655 net.cpp:129] Top shape: 10 384 7 7 (188160)
I0322 10:03:58.458415  5655 net.cpp:137] Memory required for data: 543531520
I0322 10:03:58.458420  5655 layer_factory.hpp:77] Creating layer inception_5b/relu_1x1
I0322 10:03:58.458425  5655 net.cpp:84] Creating Layer inception_5b/relu_1x1
I0322 10:03:58.458427  5655 net.cpp:406] inception_5b/relu_1x1 <- inception_5b/1x1
I0322 10:03:58.458432  5655 net.cpp:367] inception_5b/relu_1x1 -> inception_5b/1x1 (in-place)
I0322 10:03:58.458598  5655 net.cpp:122] Setting up inception_5b/relu_1x1
I0322 10:03:58.458606  5655 net.cpp:129] Top shape: 10 384 7 7 (188160)
I0322 10:03:58.458609  5655 net.cpp:137] Memory required for data: 544284160
I0322 10:03:58.458611  5655 layer_factory.hpp:77] Creating layer inception_5b/3x3_reduce
I0322 10:03:58.458619  5655 net.cpp:84] Creating Layer inception_5b/3x3_reduce
I0322 10:03:58.458622  5655 net.cpp:406] inception_5b/3x3_reduce <- inception_5a/output_inception_5a/output_0_split_1
I0322 10:03:58.458627  5655 net.cpp:380] inception_5b/3x3_reduce -> inception_5b/3x3_reduce
I0322 10:03:58.460544  5655 net.cpp:122] Setting up inception_5b/3x3_reduce
I0322 10:03:58.460556  5655 net.cpp:129] Top shape: 10 192 7 7 (94080)
I0322 10:03:58.460558  5655 net.cpp:137] Memory required for data: 544660480
I0322 10:03:58.460563  5655 layer_factory.hpp:77] Creating layer inception_5b/relu_3x3_reduce
I0322 10:03:58.460568  5655 net.cpp:84] Creating Layer inception_5b/relu_3x3_reduce
I0322 10:03:58.460572  5655 net.cpp:406] inception_5b/relu_3x3_reduce <- inception_5b/3x3_reduce
I0322 10:03:58.460575  5655 net.cpp:367] inception_5b/relu_3x3_reduce -> inception_5b/3x3_reduce (in-place)
I0322 10:03:58.460748  5655 net.cpp:122] Setting up inception_5b/relu_3x3_reduce
I0322 10:03:58.460757  5655 net.cpp:129] Top shape: 10 192 7 7 (94080)
I0322 10:03:58.460759  5655 net.cpp:137] Memory required for data: 545036800
I0322 10:03:58.460762  5655 layer_factory.hpp:77] Creating layer inception_5b/3x3
I0322 10:03:58.460770  5655 net.cpp:84] Creating Layer inception_5b/3x3
I0322 10:03:58.460773  5655 net.cpp:406] inception_5b/3x3 <- inception_5b/3x3_reduce
I0322 10:03:58.460777  5655 net.cpp:380] inception_5b/3x3 -> inception_5b/3x3
I0322 10:03:58.465823  5655 net.cpp:122] Setting up inception_5b/3x3
I0322 10:03:58.465836  5655 net.cpp:129] Top shape: 10 384 7 7 (188160)
I0322 10:03:58.465853  5655 net.cpp:137] Memory required for data: 545789440
I0322 10:03:58.465859  5655 layer_factory.hpp:77] Creating layer inception_5b/relu_3x3
I0322 10:03:58.465864  5655 net.cpp:84] Creating Layer inception_5b/relu_3x3
I0322 10:03:58.465868  5655 net.cpp:406] inception_5b/relu_3x3 <- inception_5b/3x3
I0322 10:03:58.465873  5655 net.cpp:367] inception_5b/relu_3x3 -> inception_5b/3x3 (in-place)
I0322 10:03:58.466073  5655 net.cpp:122] Setting up inception_5b/relu_3x3
I0322 10:03:58.466080  5655 net.cpp:129] Top shape: 10 384 7 7 (188160)
I0322 10:03:58.466084  5655 net.cpp:137] Memory required for data: 546542080
I0322 10:03:58.466085  5655 layer_factory.hpp:77] Creating layer inception_5b/5x5_reduce
I0322 10:03:58.466094  5655 net.cpp:84] Creating Layer inception_5b/5x5_reduce
I0322 10:03:58.466096  5655 net.cpp:406] inception_5b/5x5_reduce <- inception_5a/output_inception_5a/output_0_split_2
I0322 10:03:58.466100  5655 net.cpp:380] inception_5b/5x5_reduce -> inception_5b/5x5_reduce
I0322 10:03:58.467571  5655 net.cpp:122] Setting up inception_5b/5x5_reduce
I0322 10:03:58.467582  5655 net.cpp:129] Top shape: 10 48 7 7 (23520)
I0322 10:03:58.467586  5655 net.cpp:137] Memory required for data: 546636160
I0322 10:03:58.467589  5655 layer_factory.hpp:77] Creating layer inception_5b/relu_5x5_reduce
I0322 10:03:58.467594  5655 net.cpp:84] Creating Layer inception_5b/relu_5x5_reduce
I0322 10:03:58.467597  5655 net.cpp:406] inception_5b/relu_5x5_reduce <- inception_5b/5x5_reduce
I0322 10:03:58.467602  5655 net.cpp:367] inception_5b/relu_5x5_reduce -> inception_5b/5x5_reduce (in-place)
I0322 10:03:58.468296  5655 net.cpp:122] Setting up inception_5b/relu_5x5_reduce
I0322 10:03:58.468307  5655 net.cpp:129] Top shape: 10 48 7 7 (23520)
I0322 10:03:58.468309  5655 net.cpp:137] Memory required for data: 546730240
I0322 10:03:58.468312  5655 layer_factory.hpp:77] Creating layer inception_5b/5x5
I0322 10:03:58.468319  5655 net.cpp:84] Creating Layer inception_5b/5x5
I0322 10:03:58.468322  5655 net.cpp:406] inception_5b/5x5 <- inception_5b/5x5_reduce
I0322 10:03:58.468327  5655 net.cpp:380] inception_5b/5x5 -> inception_5b/5x5
I0322 10:03:58.470240  5655 net.cpp:122] Setting up inception_5b/5x5
I0322 10:03:58.470252  5655 net.cpp:129] Top shape: 10 128 7 7 (62720)
I0322 10:03:58.470254  5655 net.cpp:137] Memory required for data: 546981120
I0322 10:03:58.470259  5655 layer_factory.hpp:77] Creating layer inception_5b/relu_5x5
I0322 10:03:58.470264  5655 net.cpp:84] Creating Layer inception_5b/relu_5x5
I0322 10:03:58.470266  5655 net.cpp:406] inception_5b/relu_5x5 <- inception_5b/5x5
I0322 10:03:58.470271  5655 net.cpp:367] inception_5b/relu_5x5 -> inception_5b/5x5 (in-place)
I0322 10:03:58.470444  5655 net.cpp:122] Setting up inception_5b/relu_5x5
I0322 10:03:58.470453  5655 net.cpp:129] Top shape: 10 128 7 7 (62720)
I0322 10:03:58.470454  5655 net.cpp:137] Memory required for data: 547232000
I0322 10:03:58.470458  5655 layer_factory.hpp:77] Creating layer inception_5b/pool
I0322 10:03:58.470463  5655 net.cpp:84] Creating Layer inception_5b/pool
I0322 10:03:58.470465  5655 net.cpp:406] inception_5b/pool <- inception_5a/output_inception_5a/output_0_split_3
I0322 10:03:58.470470  5655 net.cpp:380] inception_5b/pool -> inception_5b/pool
I0322 10:03:58.470525  5655 net.cpp:122] Setting up inception_5b/pool
I0322 10:03:58.470531  5655 net.cpp:129] Top shape: 10 832 7 7 (407680)
I0322 10:03:58.470533  5655 net.cpp:137] Memory required for data: 548862720
I0322 10:03:58.470535  5655 layer_factory.hpp:77] Creating layer inception_5b/pool_proj
I0322 10:03:58.470542  5655 net.cpp:84] Creating Layer inception_5b/pool_proj
I0322 10:03:58.470546  5655 net.cpp:406] inception_5b/pool_proj <- inception_5b/pool
I0322 10:03:58.470549  5655 net.cpp:380] inception_5b/pool_proj -> inception_5b/pool_proj
I0322 10:03:58.472255  5655 net.cpp:122] Setting up inception_5b/pool_proj
I0322 10:03:58.472266  5655 net.cpp:129] Top shape: 10 128 7 7 (62720)
I0322 10:03:58.472268  5655 net.cpp:137] Memory required for data: 549113600
I0322 10:03:58.472273  5655 layer_factory.hpp:77] Creating layer inception_5b/relu_pool_proj
I0322 10:03:58.472277  5655 net.cpp:84] Creating Layer inception_5b/relu_pool_proj
I0322 10:03:58.472280  5655 net.cpp:406] inception_5b/relu_pool_proj <- inception_5b/pool_proj
I0322 10:03:58.472285  5655 net.cpp:367] inception_5b/relu_pool_proj -> inception_5b/pool_proj (in-place)
I0322 10:03:58.472461  5655 net.cpp:122] Setting up inception_5b/relu_pool_proj
I0322 10:03:58.472470  5655 net.cpp:129] Top shape: 10 128 7 7 (62720)
I0322 10:03:58.472471  5655 net.cpp:137] Memory required for data: 549364480
I0322 10:03:58.472473  5655 layer_factory.hpp:77] Creating layer inception_5b/output
I0322 10:03:58.472477  5655 net.cpp:84] Creating Layer inception_5b/output
I0322 10:03:58.472481  5655 net.cpp:406] inception_5b/output <- inception_5b/1x1
I0322 10:03:58.472483  5655 net.cpp:406] inception_5b/output <- inception_5b/3x3
I0322 10:03:58.472486  5655 net.cpp:406] inception_5b/output <- inception_5b/5x5
I0322 10:03:58.472489  5655 net.cpp:406] inception_5b/output <- inception_5b/pool_proj
I0322 10:03:58.472493  5655 net.cpp:380] inception_5b/output -> inception_5b/output
I0322 10:03:58.472527  5655 net.cpp:122] Setting up inception_5b/output
I0322 10:03:58.472530  5655 net.cpp:129] Top shape: 10 1024 7 7 (501760)
I0322 10:03:58.472532  5655 net.cpp:137] Memory required for data: 551371520
I0322 10:03:58.472535  5655 layer_factory.hpp:77] Creating layer pool5/7x7_s1
I0322 10:03:58.472540  5655 net.cpp:84] Creating Layer pool5/7x7_s1
I0322 10:03:58.472543  5655 net.cpp:406] pool5/7x7_s1 <- inception_5b/output
I0322 10:03:58.472546  5655 net.cpp:380] pool5/7x7_s1 -> pool5/7x7_s1
I0322 10:03:58.472726  5655 net.cpp:122] Setting up pool5/7x7_s1
I0322 10:03:58.472733  5655 net.cpp:129] Top shape: 10 1024 1 1 (10240)
I0322 10:03:58.472736  5655 net.cpp:137] Memory required for data: 551412480
I0322 10:03:58.472738  5655 layer_factory.hpp:77] Creating layer pool5/drop_7x7_s1
I0322 10:03:58.472743  5655 net.cpp:84] Creating Layer pool5/drop_7x7_s1
I0322 10:03:58.472745  5655 net.cpp:406] pool5/drop_7x7_s1 <- pool5/7x7_s1
I0322 10:03:58.472749  5655 net.cpp:367] pool5/drop_7x7_s1 -> pool5/7x7_s1 (in-place)
I0322 10:03:58.472779  5655 net.cpp:122] Setting up pool5/drop_7x7_s1
I0322 10:03:58.472784  5655 net.cpp:129] Top shape: 10 1024 1 1 (10240)
I0322 10:03:58.472786  5655 net.cpp:137] Memory required for data: 551453440
I0322 10:03:58.472789  5655 layer_factory.hpp:77] Creating layer loss3/classifier
I0322 10:03:58.472798  5655 net.cpp:84] Creating Layer loss3/classifier
I0322 10:03:58.472801  5655 net.cpp:406] loss3/classifier <- pool5/7x7_s1
I0322 10:03:58.472805  5655 net.cpp:380] loss3/classifier -> loss3/classifier
I0322 10:03:58.477838  5655 net.cpp:122] Setting up loss3/classifier
I0322 10:03:58.477849  5655 net.cpp:129] Top shape: 10 1000 (10000)
I0322 10:03:58.477851  5655 net.cpp:137] Memory required for data: 551493440
I0322 10:03:58.477856  5655 layer_factory.hpp:77] Creating layer prob
I0322 10:03:58.477861  5655 net.cpp:84] Creating Layer prob
I0322 10:03:58.477864  5655 net.cpp:406] prob <- loss3/classifier
I0322 10:03:58.477869  5655 net.cpp:380] prob -> prob
I0322 10:03:58.478657  5655 net.cpp:122] Setting up prob
I0322 10:03:58.478668  5655 net.cpp:129] Top shape: 10 1000 (10000)
I0322 10:03:58.478672  5655 net.cpp:137] Memory required for data: 551533440
I0322 10:03:58.478674  5655 net.cpp:200] prob does not need backward computation.
I0322 10:03:58.478677  5655 net.cpp:200] loss3/classifier does not need backward computation.
I0322 10:03:58.478678  5655 net.cpp:200] pool5/drop_7x7_s1 does not need backward computation.
I0322 10:03:58.478680  5655 net.cpp:200] pool5/7x7_s1 does not need backward computation.
…
