…
snapshot_prefix: "./snapshot/douyu_1000_train"
test_initialization: false
average_loss: 20
iter_size: 10
I0321 21:29:18.943073 13282 solver.cpp:77] Creating training net from train_net file: trainval.prototxt
I0321 21:29:18.955193 13282 net.cpp:51] Initializing net from parameters: 
state {
  phase: TRAIN
}
layer {
  name: "data"
  type: "Python"
  top: "data"
  top: "sem"
  python_param {
    module: "douyu1000_layers"
    layer: "Douyu1000SegDataLayer"
    param_str: "{\'douyu_1000_dir\': \'../../data/douyu_1000\', \'seed\': 1337, \'split\': \'train\'}"
  }
}
layer {
  name: "conv1/7x7_s2"
  type: "Convolution"
  bottom: "data"
  top: "conv1/7x7_s2"
  param {
    lr_mult: 1
    decay_mult: 1
  }
  param {
    lr_mult: 2
    decay_mult: 0
  }
  convolution_param {
    num_output: 64
    pad: 9
    kernel_size: 7
    stride: 2
    weight_filler {
      type: "xavier"
    }
    bias_filler {
      type: "constant"
      value: 0.2
    }
  }
}
layer {
  name: "bn_conv1/7x7_s2"
  type: "BatchNorm"
  bottom: "conv1/7x7_s2"
  top: "conv1/7x7_s2"
  batch_norm_param {
    use_global_stats: false
  }
}
layer {
  name: "scale_conv1/7x7_s2"
  type: "Scale"
  bottom: "conv1/7x7_s2"
  top: "conv1/7x7_s2"
  scale_param {
    bias_term: true
  }
}
layer {
  name: "conv1/relu_7x7"
  type: "ReLU"
  bottom: "conv1/7x7_s2"
  top: "conv1/7x7_s2"
}
layer {
  name: "pool1/3x3_s2"
  type: "Pooling"
  bottom: "conv1/7x7_s2"
  top: "pool1/3x3_s2"
  pooling_param {
    pool: MAX
    kernel_size: 3
    stride: 2
  }
}
layer {
  name: "pool1/norm1"
  type: "LRN"
  bottom: "pool1/3x3_s2"
  top: "pool1/norm1"
  lrn_param {
    local_size: 5
    alpha: 0.0001
    beta: 0.75
  }
}
layer {
  name: "conv2/3x3_reduce"
  type: "Convolution"
  bottom: "pool1/norm1"
  top: "conv2/3x3_reduce"
  param {
    lr_mult: 1
    decay_mult: 1
  }
  param {
    lr_mult: 2
    decay_mult: 0
  }
  convolution_param {
    num_output: 64
    kernel_size: 1
    weight_filler {
      type: "xavier"
    }
    bias_filler {
      type: "constant"
      value: 0.2
    }
  }
}
layer {
  name: "bn_conv2/3x3_reduce"
  type: "BatchNorm"
  bottom: "conv2/3x3_reduce"
  top: "conv2/3x3_reduce"
  batch_norm_param {
    use_global_stats: false
  }
}
layer {
  name: "scale_conv2/3x3_reduce"
  type: "Scale"
  bottom: "conv2/3x3_reduce"
  top: "conv2/3x3_reduce"
  scale_param {
    bias_term: true
  }
}
layer {
  name: "conv2/relu_3x3_reduce"
  type: "ReLU"
  bottom: "conv2/3x3_reduce"
  top: "conv2/3x3_reduce"
}
layer {
  name: "conv2/3x3"
  type: "Convolution"
  bottom: "conv2/3x3_reduce"
  top: "conv2/3x3"
  param {
    lr_mult: 1
    decay_mult: 1
  }
  param {
    lr_mult: 2
    decay_mult: 0
  }
  convolution_param {
    num_output: 192
    pad: 1
    kernel_size: 3
    weight_filler {
      type: "xavier"
    }
    bias_filler {
      type: "constant"
      value: 0.2
    }
  }
}
layer {
  name: "bn_conv2/3x3"
  type: "BatchNorm"
  bottom: "conv2/3x3"
  top: "conv2/3x3"
  batch_norm_param {
    use_global_stats: false
  }
}
layer {
  name: "scale_conv2/3x3"
  type: "Scale"
  bottom: "conv2/3x3"
  top: "conv2/3x3"
  scale_param {
    bias_term: true
  }
}
layer {
  name: "conv2/relu_3x3"
  type: "ReLU"
  bottom: "conv2/3x3"
  top: "conv2/3x3"
}
layer {
  name: "conv2/norm2"
  type: "LRN"
  bottom: "conv2/3x3"
  top: "conv2/norm2"
  lrn_param {
    local_size: 5
    alpha: 0.0001
    beta: 0.75
  }
}
layer {
  name: "pool2/3x3_s2"
  type: "Pooling"
  bottom: "conv2/norm2"
  top: "pool2/3x3_s2"
  pooling_param {
    pool: MAX
    kernel_size: 3
    stride: 2
  }
}
layer {
  name: "inception_3a/1x1"
  type: "Convolution"
  bottom: "pool2/3x3_s2"
  top: "inception_3a/1x1"
  param {
    lr_mult: 1
    decay_mult: 1
  }
  param {
    lr_mult: 2
    decay_mult: 0
  }
  convolution_param {
    num_output: 64
    kernel_size: 1
    weight_filler {
      type: "xavier"
    }
    bias_filler {
      type: "constant"
      value: 0.2
    }
  }
}
layer {
  name: "bn_inception_3a/1x1"
  type: "BatchNorm"
  bottom: "inception_3a/1x1"
  top: "inception_3a/1x1"
  batch_norm_param {
    use_global_stats: false
  }
}
layer {
  name: "scale_inception_3a/1x1"
  type: "Scale"
  bottom: "inception_3a/1x1"
  top: "inception_3a/1x1"
  scale_param {
    bias_term: true
  }
}
layer {
  name: "inception_3a/relu_1x1"
  type: "ReLU"
  bottom: "inception_3a/1x1"
  top: "inception_3a/1x1"
}
layer {
  name: "inception_3a/3x3_reduce"
  type: "Convolution"
  bottom: "pool2/3x3_s2"
  top: "inception_3a/3x3_reduce"
  param {
    lr_mult: 1
    decay_mult: 1
  }
  param {
    lr_mult: 2
    decay_mult: 0
  }
  convolution_param {
    num_output: 96
    kernel_size: 1
    weight_filler {
      type: "xavier"
    }
    bias_filler {
      type: "constant"
      value: 0.2
    }
  }
}
layer {
  name: "bn_inception_3a/3x3_reduce"
  type: "BatchNorm"
  bottom: "inception_3a/3x3_reduce"
  top: "inception_3a/3x3_reduce"
  batch_norm_param {
    use_global_stats: false
  }
}
layer {
  name: "scale_inception_3a/3x3_reduce"
  type: "Scale"
  bottom: "inception_3a/3x3_reduce"
  top: "inception_3a/3x3_reduce"
  scale_param {
    bias_term: true
  }
}
layer {
  name: "inception_3a/relu_3x3_reduce"
  type: "ReLU"
  bottom: "inception_3a/3x3_reduce"
  top: "inception_3a/3x3_reduce"
}
layer {
  name: "inception_3a/3x3"
  type: "Convolution"
  bottom: "inception_3a/3x3_reduce"
  top: "inception_3a/3x3"
  param {
    lr_mult: 1
    decay_mult: 1
  }
  param {
    lr_mult: 2
    decay_mult: 0
  }
  convolution_param {
    num_output: 128
    pad: 1
    kernel_size: 3
    weight_filler {
      type: "xavier"
    }
    bias_filler {
      type: "constant"
      value: 0.2
    }
  }
}
layer {
  name: "bn_inception_3a/3x3"
  type: "BatchNorm"
  bottom: "inception_3a/3x3"
  top: "inception_3a/3x3"
  batch_norm_param {
    use_global_stats: false
  }
}
layer {
  name: "scale_inception_3a/3x3"
  type: "Scale"
  bottom: "inception_3a/3x3"
  top: "inception_3a/3x3"
  scale_param {
    bias_term: true
  }
}
layer {
  name: "inception_3a/relu_3x3"
  type: "ReLU"
  bottom: "inception_3a/3x3"
  top: "inception_3a/3x3"
}
layer {
  name: "inception_3a/5x5_reduce"
  type: "Convolution"
  bottom: "pool2/3x3_s2"
  top: "inception_3a/5x5_reduce"
  param {
    lr_mult: 1
    decay_mult: 1
  }
  param {
    lr_mult: 2
    decay_mult: 0
  }
  convolution_param {
    num_output: 16
    kernel_size: 1
    weight_filler {
      type: "xavier"
    }
    bias_filler {
      type: "constant"
      value: 0.2
    }
  }
}
layer {
  name: "bn_inception_3a/5x5_reduce"
  type: "BatchNorm"
  bottom: "inception_3a/5x5_reduce"
  top: "inception_3a/5x5_reduce"
  batch_norm_param {
    use_global_stats: false
  }
}
layer {
  name: "scale_inception_3a/5x5_reduce"
  type: "Scale"
  bottom: "inception_3a/5x5_reduce"
  top: "inception_3a/5x5_reduce"
  scale_param {
    bias_term: true
  }
}
layer {
  name: "inception_3a/relu_5x5_reduce"
  type: "ReLU"
  bottom: "inception_3a/5x5_reduce"
  top: "inception_3a/5x5_reduce"
}
layer {
  name: "inception_3a/5x5"
  type: "Convolution"
  bottom: "inception_3a/5x5_reduce"
  top: "inception_3a/5x5"
  param {
    lr_mult: 1
    decay_mult: 1
  }
  param {
    lr_mult: 2
    decay_mult: 0
  }
  convolution_param {
    num_output: 32
    pad: 2
    kernel_size: 5
    weight_filler {
      type: "xavier"
    }
    bias_filler {
      type: "constant"
      value: 0.2
    }
  }
}
layer {
  name: "bn_inception_3a/5x5"
  type: "BatchNorm"
  bottom: "inception_3a/5x5"
  top: "inception_3a/5x5"
  batch_norm_param {
    use_global_stats: false
  }
}
layer {
  name: "scale_inception_3a/5x5"
  type: "Scale"
  bottom: "inception_3a/5x5"
  top: "inception_3a/5x5"
  scale_param {
    bias_term: true
  }
}
layer {
  name: "inception_3a/relu_5x5"
  type: "ReLU"
  bottom: "inception_3a/5x5"
  top: "inception_3a/5x5"
}
layer {
  name: "inception_3a/pool"
  type: "Pooling"
  bottom: "pool2/3x3_s2"
  top: "inception_3a/pool"
  pooling_param {
    pool: MAX
    kernel_size: 3
    stride: 1
    pad: 1
  }
}
layer {
  name: "inception_3a/pool_proj"
  type: "Convolution"
  bottom: "inception_3a/pool"
  top: "inception_3a/pool_proj"
  param {
    lr_mult: 1
    decay_mult: 1
  }
  param {
    lr_mult: 2
    decay_mult: 0
  }
  convolution_param {
    num_output: 32
    kernel_size: 1
    weight_filler {
      type: "xavier"
    }
    bias_filler {
      type: "constant"
      value: 0.2
    }
  }
}
layer {
  name: "bn_inception_3a/pool_proj"
  type: "BatchNorm"
  bottom: "inception_3a/pool_proj"
  top: "inception_3a/pool_proj"
  batch_norm_param {
    use_global_stats: false
  }
}
layer {
  name: "scale_inception_3a/pool_proj"
  type: "Scale"
  bottom: "inception_3a/pool_proj"
  top: "inception_3a/pool_proj"
  scale_param {
    bias_term: true
  }
}
layer {
  name: "inception_3a/relu_pool_proj"
  type: "ReLU"
  bottom: "inception_3a/pool_proj"
  top: "inception_3a/pool_proj"
}
layer {
  name: "inception_3a/output"
  type: "Concat"
  bottom: "inception_3a/1x1"
  bottom: "inception_3a/3x3"
  bottom: "inception_3a/5x5"
  bottom: "inception_3a/pool_proj"
  top: "inception_3a/output"
}
layer {
  name: "inception_3b/1x1"
  type: "Convolution"
  bottom: "inception_3a/output"
  top: "inception_3b/1x1"
  param {
    lr_mult: 1
    decay_mult: 1
  }
  param {
    lr_mult: 2
    decay_mult: 0
  }
  convolution_param {
    num_output: 128
    kernel_size: 1
    weight_filler {
      type: "xavier"
    }
    bias_filler {
      type: "constant"
      value: 0.2
    }
  }
}
layer {
  name: "bn_inception_3b/1x1"
  type: "BatchNorm"
  bottom: "inception_3b/1x1"
  top: "inception_3b/1x1"
  batch_norm_param {
    use_global_stats: false
  }
}
layer {
  name: "scale_inception_3b/1x1"
  type: "Scale"
  bottom: "inception_3b/1x1"
  top: "inception_3b/1x1"
  scale_param {
    bias_term: true
  }
}
layer {
  name: "inception_3b/relu_1x1"
  type: "ReLU"
  bottom: "inception_3b/1x1"
  top: "inception_3b/1x1"
}
layer {
  name: "inception_3b/3x3_reduce"
  type: "Convolution"
  bottom: "inception_3a/output"
  top: "inception_3b/3x3_reduce"
  param {
    lr_mult: 1
    decay_mult: 1
  }
  param {
    lr_mult: 2
    decay_mult: 0
  }
  convolution_param {
    num_output: 128
    kernel_size: 1
    weight_filler {
      type: "xavier"
    }
    bias_filler {
      type: "constant"
      value: 0.2
    }
  }
}
layer {
  name: "bn_inception_3b/3x3_reduce"
  type: "BatchNorm"
  bottom: "inception_3b/3x3_reduce"
  top: "inception_3b/3x3_reduce"
  batch_norm_param {
    use_global_stats: false
  }
}
layer {
  name: "scale_inception_3b/3x3_reduce"
  type: "Scale"
  bottom: "inception_3b/3x3_reduce"
  top: "inception_3b/3x3_reduce"
  scale_param {
    bias_term: true
  }
}
layer {
  name: "inception_3b/relu_3x3_reduce"
  type: "ReLU"
  bottom: "inception_3b/3x3_reduce"
  top: "inception_3b/3x3_reduce"
}
layer {
  name: "inception_3b/3x3"
  type: "Convolution"
  bottom: "inception_3b/3x3_reduce"
  top: "inception_3b/3x3"
  param {
    lr_mult: 1
    decay_mult: 1
  }
  param {
    lr_mult: 2
    decay_mult: 0
  }
  convolution_param {
    num_output: 192
    pad: 1
    kernel_size: 3
    weight_filler {
      type: "xavier"
    }
    bias_filler {
      type: "constant"
      value: 0.2
    }
  }
}
layer {
  name: "bn_inception_3b/3x3"
  type: "BatchNorm"
  bottom: "inception_3b/3x3"
  top: "inception_3b/3x3"
  batch_norm_param {
    use_global_stats: false
  }
}
layer {
  name: "scale_inception_3b/3x3"
  type: "Scale"
  bottom: "inception_3b/3x3"
  top: "inception_3b/3x3"
  scale_param {
    bias_term: true
  }
}
layer {
  name: "inception_3b/relu_3x3"
  type: "ReLU"
  bottom: "inception_3b/3x3"
  top: "inception_3b/3x3"
}
layer {
  name: "inception_3b/5x5_reduce"
  type: "Convolution"
  bottom: "inception_3a/output"
  top: "inception_3b/5x5_reduce"
  param {
    lr_mult: 1
    decay_mult: 1
  }
  param {
    lr_mult: 2
    decay_mult: 0
  }
  convolution_param {
    num_output: 32
    kernel_size: 1
    weight_filler {
      type: "xavier"
    }
    bias_filler {
      type: "constant"
      value: 0.2
    }
  }
}
layer {
  name: "bn_inception_3b/5x5_reduce"
  type: "BatchNorm"
  bottom: "inception_3b/5x5_reduce"
  top: "inception_3b/5x5_reduce"
  batch_norm_param {
    use_global_stats: false
  }
}
layer {
  name: "scale_inception_3b/5x5_reduce"
  type: "Scale"
  bottom: "inception_3b/5x5_reduce"
  top: "inception_3b/5x5_reduce"
  scale_param {
    bias_term: true
  }
}
layer {
  name: "inception_3b/relu_5x5_reduce"
  type: "ReLU"
  bottom: "inception_3b/5x5_reduce"
  top: "inception_3b/5x5_reduce"
}
layer {
  name: "inception_3b/5x5"
  type: "Convolution"
  bottom: "inception_3b/5x5_reduce"
  top: "inception_3b/5x5"
  param {
    lr_mult: 1
    decay_mult: 1
  }
  param {
    lr_mult: 2
    decay_mult: 0
  }
  convolution_param {
    num_output: 96
    pad: 2
    kernel_size: 5
    weight_filler {
      type: "xavier"
    }
    bias_filler {
      type: "constant"
      value: 0.2
    }
  }
}
layer {
  name: "bn_inception_3b/5x5"
  type: "BatchNorm"
  bottom: "inception_3b/5x5"
  top: "inception_3b/5x5"
  batch_norm_param {
    use_global_stats: false
  }
}
layer {
  name: "scale_inception_3b/5x5"
  type: "Scale"
  bottom: "inception_3b/5x5"
  top: "inception_3b/5x5"
  scale_param {
    bias_term: true
  }
}
layer {
  name: "inception_3b/relu_5x5"
  type: "ReLU"
  bottom: "inception_3b/5x5"
  top: "inception_3b/5x5"
}
layer {
  name: "inception_3b/pool"
  type: "Pooling"
  bottom: "inception_3a/output"
  top: "inception_3b/pool"
  pooling_param {
    pool: MAX
    kernel_size: 3
    stride: 1
    pad: 1
  }
}
layer {
  name: "inception_3b/pool_proj"
  type: "Convolution"
  bottom: "inception_3b/pool"
  top: "inception_3b/pool_proj"
  param {
    lr_mult: 1
    decay_mult: 1
  }
  param {
    lr_mult: 2
    decay_mult: 0
  }
  convolution_param {
    num_output: 64
    kernel_size: 1
    weight_filler {
      type: "xavier"
    }
    bias_filler {
      type: "constant"
      value: 0.2
    }
  }
}
layer {
  name: "bn_inception_3b/pool_proj"
  type: "BatchNorm"
  bottom: "inception_3b/pool_proj"
  top: "inception_3b/pool_proj"
  batch_norm_param {
    use_global_stats: false
  }
}
layer {
  name: "scale_inception_3b/pool_proj"
  type: "Scale"
  bottom: "inception_3b/pool_proj"
  top: "inception_3b/pool_proj"
  scale_param {
    bias_term: true
  }
}
layer {
  name: "inception_3b/relu_pool_proj"
  type: "ReLU"
  bottom: "inception_3b/pool_proj"
  top: "inception_3b/pool_proj"
}
layer {
  name: "inception_3b/output"
  type: "Concat"
  bottom: "inception_3b/1x1"
  bottom: "inception_3b/3x3"
  bottom: "inception_3b/5x5"
  bottom: "inception_3b/pool_proj"
  top: "inception_3b/output"
}
layer {
  name: "pool3/3x3_s2"
  type: "Pooling"
  bottom: "inception_3b/output"
  top: "pool3/3x3_s2"
  pooling_param {
    pool: MAX
    kernel_size: 3
    stride: 2
  }
}
layer {
  name: "inception_4a/1x1"
  type: "Convolution"
  bottom: "pool3/3x3_s2"
  top: "inception_4a/1x1"
  param {
    lr_mult: 1
    decay_mult: 1
  }
  param {
    lr_mult: 2
    decay_mult: 0
  }
  convolution_param {
    num_output: 192
    kernel_size: 1
    weight_filler {
      type: "xavier"
    }
    bias_filler {
      type: "constant"
      value: 0.2
    }
  }
}
layer {
  name: "bn_inception_4a/1x1"
  type: "BatchNorm"
  bottom: "inception_4a/1x1"
  top: "inception_4a/1x1"
  batch_norm_param {
    use_global_stats: false
  }
}
layer {
  name: "scale_inception_4a/1x1"
  type: "Scale"
  bottom: "inception_4a/1x1"
  top: "inception_4a/1x1"
  scale_param {
    bias_term: true
  }
}
layer {
  name: "inception_4a/relu_1x1"
  type: "ReLU"
  bottom: "inception_4a/1x1"
  top: "inception_4a/1x1"
}
layer {
  name: "inception_4a/3x3_reduce"
  type: "Convolution"
  bottom: "pool3/3x3_s2"
  top: "inception_4a/3x3_reduce"
  param {
    lr_mult: 1
    decay_mult: 1
  }
  param {
    lr_mult: 2
    decay_mult: 0
  }
  convolution_param {
    num_output: 96
    kernel_size: 1
    weight_filler {
      type: "xavier"
    }
    bias_filler {
      type: "constant"
      value: 0.2
    }
  }
}
layer {
  name: "bn_inception_4a/3x3_reduce"
  type: "BatchNorm"
  bottom: "inception_4a/3x3_reduce"
  top: "inception_4a/3x3_reduce"
  batch_norm_param {
    use_global_stats: false
  }
}
layer {
  name: "scale_inception_4a/3x3_reduce"
  type: "Scale"
  bottom: "inception_4a/3x3_reduce"
  top: "inception_4a/3x3_reduce"
  scale_param {
    bias_term: true
  }
}
layer {
  name: "inception_4a/relu_3x3_reduce"
  type: "ReLU"
  bottom: "inception_4a/3x3_reduce"
  top: "inception_4a/3x3_reduce"
}
layer {
  name: "inception_4a/3x3"
  type: "Convolution"
  bottom: "inception_4a/3x3_reduce"
  top: "inception_4a/3x3"
  param {
    lr_mult: 1
    decay_mult: 1
  }
  param {
    lr_mult: 2
    decay_mult: 0
  }
  convolution_param {
    num_output: 208
    pad: 1
    kernel_size: 3
    weight_filler {
      type: "xavier"
    }
    bias_filler {
      type: "constant"
      value: 0.2
    }
  }
}
layer {
  name: "bn_inception_4a/3x3"
  type: "BatchNorm"
  bottom: "inception_4a/3x3"
  top: "inception_4a/3x3"
  batch_norm_param {
    use_global_stats: false
  }
}
layer {
  name: "scale_inception_4a/3x3"
  type: "Scale"
  bottom: "inception_4a/3x3"
  top: "inception_4a/3x3"
  scale_param {
    bias_term: true
  }
}
layer {
  name: "inception_4a/relu_3x3"
  type: "ReLU"
  bottom: "inception_4a/3x3"
  top: "inception_4a/3x3"
}
layer {
  name: "inception_4a/5x5_reduce"
  type: "Convolution"
  bottom: "pool3/3x3_s2"
  top: "inception_4a/5x5_reduce"
  param {
    lr_mult: 1
    decay_mult: 1
  }
  param {
    lr_mult: 2
    decay_mult: 0
  }
  convolution_param {
    num_output: 16
    kernel_size: 1
    weight_filler {
      type: "xavier"
    }
    bias_filler {
      type: "constant"
      value: 0.2
    }
  }
}
layer {
  name: "bn_inception_4a/5x5_reduce"
  type: "BatchNorm"
  bottom: "inception_4a/5x5_reduce"
  top: "inception_4a/5x5_reduce"
  batch_norm_param {
    use_global_stats: false
  }
}
layer {
  name: "scale_inception_4a/5x5_reduce"
  type: "Scale"
  bottom: "inception_4a/5x5_reduce"
  top: "inception_4a/5x5_reduce"
  scale_param {
    bias_term: true
  }
}
layer {
  name: "inception_4a/relu_5x5_reduce"
  type: "ReLU"
  bottom: "inception_4a/5x5_reduce"
  top: "inception_4a/5x5_reduce"
}
layer {
  name: "inception_4a/5x5"
  type: "Convolution"
  bottom: "inception_4a/5x5_reduce"
  top: "inception_4a/5x5"
  param {
    lr_mult: 1
    decay_mult: 1
  }
  param {
    lr_mult: 2
    decay_mult: 0
  }
  convolution_param {
    num_output: 48
    pad: 2
    kernel_size: 5
    weight_filler {
      type: "xavier"
    }
    bias_filler {
      type: "constant"
      value: 0.2
    }
  }
}
layer {
  name: "bn_inception_4a/5x5"
  type: "BatchNorm"
  bottom: "inception_4a/5x5"
  top: "inception_4a/5x5"
  batch_norm_param {
    use_global_stats: false
  }
}
layer {
  name: "scale_inception_4a/5x5"
  type: "Scale"
  bottom: "inception_4a/5x5"
  top: "inception_4a/5x5"
  scale_param {
    bias_term: true
  }
}
layer {
  name: "inception_4a/relu_5x5"
  type: "ReLU"
  bottom: "inception_4a/5x5"
  top: "inception_4a/5x5"
}
layer {
  name: "inception_4a/pool"
  type: "Pooling"
  bottom: "pool3/3x3_s2"
  top: "inception_4a/pool"
  pooling_param {
    pool: MAX
    kernel_size: 3
    stride: 1
    pad: 1
  }
}
layer {
  name: "inception_4a/pool_proj"
  type: "Convolution"
  bottom: "inception_4a/pool"
  top: "inception_4a/pool_proj"
  param {
    lr_mult: 1
    decay_mult: 1
  }
  param {
    lr_mult: 2
    decay_mult: 0
  }
  convolution_param {
    num_output: 64
    kernel_size: 1
    weight_filler {
      type: "xavier"
    }
    bias_filler {
      type: "constant"
      value: 0.2
    }
  }
}
layer {
  name: "bn_inception_4a/pool_proj"
  type: "BatchNorm"
  bottom: "inception_4a/pool_proj"
  top: "inception_4a/pool_proj"
  batch_norm_param {
    use_global_stats: false
  }
}
layer {
  name: "scale_inception_4a/pool_proj"
  type: "Scale"
  bottom: "inception_4a/pool_proj"
  top: "inception_4a/pool_proj"
  scale_param {
    bias_term: true
  }
}
layer {
  name: "inception_4a/relu_pool_proj"
  type: "ReLU"
  bottom: "inception_4a/pool_proj"
  top: "inception_4a/pool_proj"
}
layer {
  name: "inception_4a/output"
  type: "Concat"
  bottom: "inception_4a/1x1"
  bottom: "inception_4a/3x3"
  bottom: "inception_4a/5x5"
  bottom: "inception_4a/pool_proj"
  top: "inception_4a/output"
}
layer {
  name: "inception_4b/1x1"
  type: "Convolution"
  bottom: "inception_4a/output"
  top: "inception_4b/1x1"
  param {
    lr_mult: 1
    decay_mult: 1
  }
  param {
    lr_mult: 2
    decay_mult: 0
  }
  convolution_param {
    num_output: 160
    kernel_size: 1
    weight_filler {
      type: "xavier"
    }
    bias_filler {
      type: "constant"
      value: 0.2
    }
  }
}
layer {
  name: "bn_inception_4b/1x1"
  type: "BatchNorm"
  bottom: "inception_4b/1x1"
  top: "inception_4b/1x1"
  batch_norm_param {
    use_global_stats: false
  }
}
layer {
  name: "scale_inception_4b/1x1"
  type: "Scale"
  bottom: "inception_4b/1x1"
  top: "inception_4b/1x1"
  scale_param {
    bias_term: true
  }
}
layer {
  name: "inception_4b/relu_1x1"
  type: "ReLU"
  bottom: "inception_4b/1x1"
  top: "inception_4b/1x1"
}
layer {
  name: "inception_4b/3x3_reduce"
  type: "Convolution"
  bottom: "inception_4a/output"
  top: "inception_4b/3x3_reduce"
  param {
    lr_mult: 1
    decay_mult: 1
  }
  param {
    lr_mult: 2
    decay_mult: 0
  }
  convolution_param {
    num_output: 112
    kernel_size: 1
    weight_filler {
      type: "xavier"
    }
    bias_filler {
      type: "constant"
      value: 0.2
    }
  }
}
layer {
  name: "bn_inception_4b/3x3_reduce"
  type: "BatchNorm"
  bottom: "inception_4b/3x3_reduce"
  top: "inception_4b/3x3_reduce"
  batch_norm_param {
    use_global_stats: false
  }
}
layer {
  name: "scale_inception_4b/3x3_reduce"
  type: "Scale"
  bottom: "inception_4b/3x3_reduce"
  top: "inception_4b/3x3_reduce"
  scale_param {
    bias_term: true
  }
}
layer {
  name: "inception_4b/relu_3x3_reduce"
  type: "ReLU"
  bottom: "inception_4b/3x3_reduce"
  top: "inception_4b/3x3_reduce"
}
layer {
  name: "inception_4b/3x3"
  type: "Convolution"
  bottom: "inception_4b/3x3_reduce"
  top: "inception_4b/3x3"
  param {
    lr_mult: 1
    decay_mult: 1
  }
  param {
    lr_mult: 2
    decay_mult: 0
  }
  convolution_param {
    num_output: 224
    pad: 1
    kernel_size: 3
    weight_filler {
      type: "xavier"
    }
    bias_filler {
      type: "constant"
      value: 0.2
    }
  }
}
layer {
  name: "bn_inception_4b/3x3"
  type: "BatchNorm"
  bottom: "inception_4b/3x3"
  top: "inception_4b/3x3"
  batch_norm_param {
    use_global_stats: false
  }
}
layer {
  name: "scale_inception_4b/3x3"
  type: "Scale"
  bottom: "inception_4b/3x3"
  top: "inception_4b/3x3"
  scale_param {
    bias_term: true
  }
}
layer {
  name: "inception_4b/relu_3x3"
  type: "ReLU"
  bottom: "inception_4b/3x3"
  top: "inception_4b/3x3"
}
layer {
  name: "inception_4b/5x5_reduce"
  type: "Convolution"
  bottom: "inception_4a/output"
  top: "inception_4b/5x5_reduce"
  param {
    lr_mult: 1
    decay_mult: 1
  }
  param {
    lr_mult: 2
    decay_mult: 0
  }
  convolution_param {
    num_output: 24
    kernel_size: 1
    weight_filler {
      type: "xavier"
    }
    bias_filler {
      type: "constant"
      value: 0.2
    }
  }
}
layer {
  name: "bn_inception_4b/5x5_reduce"
  type: "BatchNorm"
  bottom: "inception_4b/5x5_reduce"
  top: "inception_4b/5x5_reduce"
  batch_norm_param {
    use_global_stats: false
  }
}
layer {
  name: "scale_inception_4b/5x5_reduce"
  type: "Scale"
  bottom: "inception_4b/5x5_reduce"
  top: "inception_4b/5x5_reduce"
  scale_param {
    bias_term: true
  }
}
layer {
  name: "inception_4b/relu_5x5_reduce"
  type: "ReLU"
  bottom: "inception_4b/5x5_reduce"
  top: "inception_4b/5x5_reduce"
}
layer {
  name: "inception_4b/5x5"
  type: "Convolution"
  bottom: "inception_4b/5x5_reduce"
  top: "inception_4b/5x5"
  param {
    lr_mult: 1
    decay_mult: 1
  }
  param {
    lr_mult: 2
    decay_mult: 0
  }
  convolution_param {
    num_output: 64
    pad: 2
    kernel_size: 5
    weight_filler {
      type: "xavier"
    }
    bias_filler {
      type: "constant"
      value: 0.2
    }
  }
}
layer {
  name: "bn_inception_4b/5x5"
  type: "BatchNorm"
  bottom: "inception_4b/5x5"
  top: "inception_4b/5x5"
  batch_norm_param {
    use_global_stats: false
  }
}
layer {
  name: "scale_inception_4b/5x5"
  type: "Scale"
  bottom: "inception_4b/5x5"
  top: "inception_4b/5x5"
  scale_param {
    bias_term: true
  }
}
layer {
  name: "inception_4b/relu_5x5"
  type: "ReLU"
  bottom: "inception_4b/5x5"
  top: "inception_4b/5x5"
}
layer {
  name: "inception_4b/pool"
  type: "Pooling"
  bottom: "inception_4a/output"
  top: "inception_4b/pool"
  pooling_param {
    pool: MAX
    kernel_size: 3
    stride: 1
    pad: 1
  }
}
layer {
  name: "inception_4b/pool_proj"
  type: "Convolution"
  bottom: "inception_4b/pool"
  top: "inception_4b/pool_proj"
  param {
    lr_mult: 1
    decay_mult: 1
  }
  param {
    lr_mult: 2
    decay_mult: 0
  }
  convolution_param {
    num_output: 64
    kernel_size: 1
    weight_filler {
      type: "xavier"
    }
    bias_filler {
      type: "constant"
      value: 0.2
    }
  }
}
layer {
  name: "bn_inception_4b/pool_proj"
  type: "BatchNorm"
  bottom: "inception_4b/pool_proj"
  top: "inception_4b/pool_proj"
  batch_norm_param {
    use_global_stats: false
  }
}
layer {
  name: "scale_inception_4b/pool_proj"
  type: "Scale"
  bottom: "inception_4b/pool_proj"
  top: "inception_4b/pool_proj"
  scale_param {
    bias_term: true
  }
}
layer {
  name: "inception_4b/relu_pool_proj"
  type: "ReLU"
  bottom: "inception_4b/pool_proj"
  top: "inception_4b/pool_proj"
}
layer {
  name: "inception_4b/output"
  type: "Concat"
  bottom: "inception_4b/1x1"
  bottom: "inception_4b/3x3"
  bottom: "inception_4b/5x5"
  bottom: "inception_4b/pool_proj"
  top: "inception_4b/output"
}
layer {
  name: "inception_4c/1x1"
  type: "Convolution"
  bottom: "inception_4b/output"
  top: "inception_4c/1x1"
  param {
    lr_mult: 1
    decay_mult: 1
  }
  param {
    lr_mult: 2
    decay_mult: 0
  }
  convolution_param {
    num_output: 128
    kernel_size: 1
    weight_filler {
      type: "xavier"
    }
    bias_filler {
      type: "constant"
      value: 0.2
    }
  }
}
layer {
  name: "bn_inception_4c/1x1"
  type: "BatchNorm"
  bottom: "inception_4c/1x1"
  top: "inception_4c/1x1"
  batch_norm_param {
    use_global_stats: false
  }
}
layer {
  name: "scale_inception_4c/1x1"
  type: "Scale"
  bottom: "inception_4c/1x1"
  top: "inception_4c/1x1"
  scale_param {
    bias_term: true
  }
}
layer {
  name: "inception_4c/relu_1x1"
  type: "ReLU"
  bottom: "inception_4c/1x1"
  top: "inception_4c/1x1"
}
layer {
  name: "inception_4c/3x3_reduce"
  type: "Convolution"
  bottom: "inception_4b/output"
  top: "inception_4c/3x3_reduce"
  param {
    lr_mult: 1
    decay_mult: 1
  }
  param {
    lr_mult: 2
    decay_mult: 0
  }
  convolution_param {
    num_output: 128
    kernel_size: 1
    weight_filler {
      type: "xavier"
    }
    bias_filler {
      type: "constant"
      value: 0.2
    }
  }
}
layer {
  name: "bn_inception_4c/3x3_reduce"
  type: "BatchNorm"
  bottom: "inception_4c/3x3_reduce"
  top: "inception_4c/3x3_reduce"
  batch_norm_param {
    use_global_stats: false
  }
}
layer {
  name: "scale_inception_4c/3x3_reduce"
  type: "Scale"
  bottom: "inception_4c/3x3_reduce"
  top: "inception_4c/3x3_reduce"
  scale_param {
    bias_term: true
  }
}
layer {
  name: "inception_4c/relu_3x3_reduce"
  type: "ReLU"
  bottom: "inception_4c/3x3_reduce"
  top: "inception_4c/3x3_reduce"
}
layer {
  name: "inception_4c/3x3"
  type: "Convolution"
  bottom: "inception_4c/3x3_reduce"
  top: "inception_4c/3x3"
  param {
    lr_mult: 1
    decay_mult: 1
  }
  param {
    lr_mult: 2
    decay_mult: 0
  }
  convolution_param {
    num_output: 256
    pad: 1
    kernel_size: 3
    weight_filler {
      type: "xavier"
    }
    bias_filler {
      type: "constant"
      value: 0.2
    }
  }
}
layer {
  name: "bn_inception_4c/3x3"
  type: "BatchNorm"
  bottom: "inception_4c/3x3"
  top: "inception_4c/3x3"
  batch_norm_param {
    use_global_stats: false
  }
}
layer {
  name: "scale_inception_4c/3x3"
  type: "Scale"
  bottom: "inception_4c/3x3"
  top: "inception_4c/3x3"
  scale_param {
    bias_term: true
  }
}
layer {
  name: "inception_4c/relu_3x3"
  type: "ReLU"
  bottom: "inception_4c/3x3"
  top: "inception_4c/3x3"
}
layer {
  name: "inception_4c/5x5_reduce"
  type: "Convolution"
  bottom: "inception_4b/output"
  top: "inception_4c/5x5_reduce"
  param {
    lr_mult: 1
    decay_mult: 1
  }
  param {
    lr_mult: 2
    decay_mult: 0
  }
  convolution_param {
    num_output: 24
    kernel_size: 1
    weight_filler {
      type: "xavier"
    }
    bias_filler {
      type: "constant"
      value: 0.2
    }
  }
}
layer {
  name: "bn_inception_4c/5x5_reduce"
  type: "BatchNorm"
  bottom: "inception_4c/5x5_reduce"
  top: "inception_4c/5x5_reduce"
  batch_norm_param {
    use_global_stats: false
  }
}
layer {
  name: "scale_inception_4c/5x5_reduce"
  type: "Scale"
  bottom: "inception_4c/5x5_reduce"
  top: "inception_4c/5x5_reduce"
  scale_param {
    bias_term: true
  }
}
layer {
  name: "inception_4c/relu_5x5_reduce"
  type: "ReLU"
  bottom: "inception_4c/5x5_reduce"
  top: "inception_4c/5x5_reduce"
}
layer {
  name: "inception_4c/5x5"
  type: "Convolution"
  bottom: "inception_4c/5x5_reduce"
  top: "inception_4c/5x5"
  param {
    lr_mult: 1
    decay_mult: 1
  }
  param {
    lr_mult: 2
    decay_mult: 0
  }
  convolution_param {
    num_output: 64
    pad: 2
    kernel_size: 5
    weight_filler {
      type: "xavier"
    }
    bias_filler {
      type: "constant"
      value: 0.2
    }
  }
}
layer {
  name: "bn_inception_4c/5x5"
  type: "BatchNorm"
  bottom: "inception_4c/5x5"
  top: "inception_4c/5x5"
  batch_norm_param {
    use_global_stats: false
  }
}
layer {
  name: "scale_inception_4c/5x5"
  type: "Scale"
  bottom: "inception_4c/5x5"
  top: "inception_4c/5x5"
  scale_param {
    bias_term: true
  }
}
layer {
  name: "inception_4c/relu_5x5"
  type: "ReLU"
I0321 21:29:18.957684 13282 layer_factory.hpp:77] Creating layer data
I0321 21:29:18.982587 13282 net.cpp:84] Creating Layer data
I0321 21:29:18.982631 13282 net.cpp:380] data -> data
I0321 21:29:18.982666 13282 net.cpp:380] data -> sem
I0321 21:29:19.017670 13282 net.cpp:122] Setting up data
I0321 21:29:19.017720 13282 net.cpp:129] Top shape: 1 3 640 368 (706560)
I0321 21:29:19.017732 13282 net.cpp:129] Top shape: 1 1 640 368 (235520)
I0321 21:29:19.017740 13282 net.cpp:137] Memory required for data: 3768320
I0321 21:29:19.017752 13282 layer_factory.hpp:77] Creating layer data_data_0_split
I0321 21:29:19.017779 13282 net.cpp:84] Creating Layer data_data_0_split
I0321 21:29:19.017789 13282 net.cpp:406] data_data_0_split <- data
I0321 21:29:19.017804 13282 net.cpp:380] data_data_0_split -> data_data_0_split_0
I0321 21:29:19.017827 13282 net.cpp:380] data_data_0_split -> data_data_0_split_1
I0321 21:29:19.017884 13282 net.cpp:122] Setting up data_data_0_split
I0321 21:29:19.017901 13282 net.cpp:129] Top shape: 1 3 640 368 (706560)
I0321 21:29:19.017910 13282 net.cpp:129] Top shape: 1 3 640 368 (706560)
I0321 21:29:19.017917 13282 net.cpp:137] Memory required for data: 9420800
I0321 21:29:19.017925 13282 layer_factory.hpp:77] Creating layer conv1/7x7_s2
I0321 21:29:19.017949 13282 net.cpp:84] Creating Layer conv1/7x7_s2
I0321 21:29:19.017957 13282 net.cpp:406] conv1/7x7_s2 <- data_data_0_split_0
I0321 21:29:19.017971 13282 net.cpp:380] conv1/7x7_s2 -> conv1/7x7_s2
I0321 21:29:19.293102 13282 net.cpp:122] Setting up conv1/7x7_s2
I0321 21:29:19.293166 13282 net.cpp:129] Top shape: 1 64 326 190 (3964160)
I0321 21:29:19.293176 13282 net.cpp:137] Memory required for data: 25277440
I0321 21:29:19.293210 13282 layer_factory.hpp:77] Creating layer bn_conv1/7x7_s2
I0321 21:29:19.293246 13282 net.cpp:84] Creating Layer bn_conv1/7x7_s2
I0321 21:29:19.293258 13282 net.cpp:406] bn_conv1/7x7_s2 <- conv1/7x7_s2
I0321 21:29:19.293279 13282 net.cpp:367] bn_conv1/7x7_s2 -> conv1/7x7_s2 (in-place)
I0321 21:29:19.293654 13282 net.cpp:122] Setting up bn_conv1/7x7_s2
I0321 21:29:19.293678 13282 net.cpp:129] Top shape: 1 64 326 190 (3964160)
I0321 21:29:19.293685 13282 net.cpp:137] Memory required for data: 41134080
I0321 21:29:19.293707 13282 layer_factory.hpp:77] Creating layer scale_conv1/7x7_s2
I0321 21:29:19.293735 13282 net.cpp:84] Creating Layer scale_conv1/7x7_s2
I0321 21:29:19.293745 13282 net.cpp:406] scale_conv1/7x7_s2 <- conv1/7x7_s2
I0321 21:29:19.293756 13282 net.cpp:367] scale_conv1/7x7_s2 -> conv1/7x7_s2 (in-place)
I0321 21:29:19.293858 13282 layer_factory.hpp:77] Creating layer scale_conv1/7x7_s2
I0321 21:29:19.294194 13282 net.cpp:122] Setting up scale_conv1/7x7_s2
I0321 21:29:19.294217 13282 net.cpp:129] Top shape: 1 64 326 190 (3964160)
I0321 21:29:19.294224 13282 net.cpp:137] Memory required for data: 56990720
I0321 21:29:19.294239 13282 layer_factory.hpp:77] Creating layer conv1/relu_7x7
I0321 21:29:19.294255 13282 net.cpp:84] Creating Layer conv1/relu_7x7
I0321 21:29:19.294262 13282 net.cpp:406] conv1/relu_7x7 <- conv1/7x7_s2
I0321 21:29:19.294273 13282 net.cpp:367] conv1/relu_7x7 -> conv1/7x7_s2 (in-place)
I0321 21:29:19.294565 13282 net.cpp:122] Setting up conv1/relu_7x7
I0321 21:29:19.294587 13282 net.cpp:129] Top shape: 1 64 326 190 (3964160)
I0321 21:29:19.294595 13282 net.cpp:137] Memory required for data: 72847360
I0321 21:29:19.294603 13282 layer_factory.hpp:77] Creating layer pool1/3x3_s2
I0321 21:29:19.294620 13282 net.cpp:84] Creating Layer pool1/3x3_s2
I0321 21:29:19.294627 13282 net.cpp:406] pool1/3x3_s2 <- conv1/7x7_s2
I0321 21:29:19.294641 13282 net.cpp:380] pool1/3x3_s2 -> pool1/3x3_s2
I0321 21:29:19.294723 13282 net.cpp:122] Setting up pool1/3x3_s2
I0321 21:29:19.294740 13282 net.cpp:129] Top shape: 1 64 163 95 (991040)
I0321 21:29:19.294747 13282 net.cpp:137] Memory required for data: 76811520
I0321 21:29:19.294754 13282 layer_factory.hpp:77] Creating layer pool1/norm1
I0321 21:29:19.294785 13282 net.cpp:84] Creating Layer pool1/norm1
I0321 21:29:19.294793 13282 net.cpp:406] pool1/norm1 <- pool1/3x3_s2
I0321 21:29:19.294805 13282 net.cpp:380] pool1/norm1 -> pool1/norm1
I0321 21:29:19.295326 13282 net.cpp:122] Setting up pool1/norm1
I0321 21:29:19.295351 13282 net.cpp:129] Top shape: 1 64 163 95 (991040)
I0321 21:29:19.295359 13282 net.cpp:137] Memory required for data: 80775680
I0321 21:29:19.295368 13282 layer_factory.hpp:77] Creating layer conv2/3x3_reduce
I0321 21:29:19.295395 13282 net.cpp:84] Creating Layer conv2/3x3_reduce
I0321 21:29:19.295404 13282 net.cpp:406] conv2/3x3_reduce <- pool1/norm1
I0321 21:29:19.295418 13282 net.cpp:380] conv2/3x3_reduce -> conv2/3x3_reduce
I0321 21:29:19.297935 13282 net.cpp:122] Setting up conv2/3x3_reduce
I0321 21:29:19.297963 13282 net.cpp:129] Top shape: 1 64 163 95 (991040)
I0321 21:29:19.297972 13282 net.cpp:137] Memory required for data: 84739840
I0321 21:29:19.297991 13282 layer_factory.hpp:77] Creating layer bn_conv2/3x3_reduce
I0321 21:29:19.298005 13282 net.cpp:84] Creating Layer bn_conv2/3x3_reduce
I0321 21:29:19.298014 13282 net.cpp:406] bn_conv2/3x3_reduce <- conv2/3x3_reduce
I0321 21:29:19.298027 13282 net.cpp:367] bn_conv2/3x3_reduce -> conv2/3x3_reduce (in-place)
I0321 21:29:19.298348 13282 net.cpp:122] Setting up bn_conv2/3x3_reduce
I0321 21:29:19.298370 13282 net.cpp:129] Top shape: 1 64 163 95 (991040)
I0321 21:29:19.298377 13282 net.cpp:137] Memory required for data: 88704000
I0321 21:29:19.298393 13282 layer_factory.hpp:77] Creating layer scale_conv2/3x3_reduce
I0321 21:29:19.298408 13282 net.cpp:84] Creating Layer scale_conv2/3x3_reduce
I0321 21:29:19.298415 13282 net.cpp:406] scale_conv2/3x3_reduce <- conv2/3x3_reduce
I0321 21:29:19.298427 13282 net.cpp:367] scale_conv2/3x3_reduce -> conv2/3x3_reduce (in-place)
I0321 21:29:19.298506 13282 layer_factory.hpp:77] Creating layer scale_conv2/3x3_reduce
I0321 21:29:19.298744 13282 net.cpp:122] Setting up scale_conv2/3x3_reduce
I0321 21:29:19.298765 13282 net.cpp:129] Top shape: 1 64 163 95 (991040)
I0321 21:29:19.298774 13282 net.cpp:137] Memory required for data: 92668160
I0321 21:29:19.298787 13282 layer_factory.hpp:77] Creating layer conv2/relu_3x3_reduce
I0321 21:29:19.298799 13282 net.cpp:84] Creating Layer conv2/relu_3x3_reduce
I0321 21:29:19.298809 13282 net.cpp:406] conv2/relu_3x3_reduce <- conv2/3x3_reduce
I0321 21:29:19.298820 13282 net.cpp:367] conv2/relu_3x3_reduce -> conv2/3x3_reduce (in-place)
I0321 21:29:19.299077 13282 net.cpp:122] Setting up conv2/relu_3x3_reduce
I0321 21:29:19.299099 13282 net.cpp:129] Top shape: 1 64 163 95 (991040)
I0321 21:29:19.299108 13282 net.cpp:137] Memory required for data: 96632320
I0321 21:29:19.299115 13282 layer_factory.hpp:77] Creating layer conv2/3x3
I0321 21:29:19.299134 13282 net.cpp:84] Creating Layer conv2/3x3
I0321 21:29:19.299142 13282 net.cpp:406] conv2/3x3 <- conv2/3x3_reduce
I0321 21:29:19.299155 13282 net.cpp:380] conv2/3x3 -> conv2/3x3
I0321 21:29:19.302986 13282 net.cpp:122] Setting up conv2/3x3
I0321 21:29:19.303015 13282 net.cpp:129] Top shape: 1 192 163 95 (2973120)
I0321 21:29:19.303025 13282 net.cpp:137] Memory required for data: 108524800
I0321 21:29:19.303038 13282 layer_factory.hpp:77] Creating layer bn_conv2/3x3
I0321 21:29:19.303058 13282 net.cpp:84] Creating Layer bn_conv2/3x3
I0321 21:29:19.303067 13282 net.cpp:406] bn_conv2/3x3 <- conv2/3x3
I0321 21:29:19.303082 13282 net.cpp:367] bn_conv2/3x3 -> conv2/3x3 (in-place)
I0321 21:29:19.303403 13282 net.cpp:122] Setting up bn_conv2/3x3
I0321 21:29:19.303426 13282 net.cpp:129] Top shape: 1 192 163 95 (2973120)
I0321 21:29:19.303433 13282 net.cpp:137] Memory required for data: 120417280
I0321 21:29:19.303453 13282 layer_factory.hpp:77] Creating layer scale_conv2/3x3
I0321 21:29:19.303468 13282 net.cpp:84] Creating Layer scale_conv2/3x3
I0321 21:29:19.303477 13282 net.cpp:406] scale_conv2/3x3 <- conv2/3x3
I0321 21:29:19.303488 13282 net.cpp:367] scale_conv2/3x3 -> conv2/3x3 (in-place)
I0321 21:29:19.303567 13282 layer_factory.hpp:77] Creating layer scale_conv2/3x3
I0321 21:29:19.303812 13282 net.cpp:122] Setting up scale_conv2/3x3
I0321 21:29:19.303833 13282 net.cpp:129] Top shape: 1 192 163 95 (2973120)
I0321 21:29:19.303840 13282 net.cpp:137] Memory required for data: 132309760
I0321 21:29:19.303853 13282 layer_factory.hpp:77] Creating layer conv2/relu_3x3
I0321 21:29:19.303864 13282 net.cpp:84] Creating Layer conv2/relu_3x3
I0321 21:29:19.303871 13282 net.cpp:406] conv2/relu_3x3 <- conv2/3x3
I0321 21:29:19.303881 13282 net.cpp:367] conv2/relu_3x3 -> conv2/3x3 (in-place)
I0321 21:29:19.304141 13282 net.cpp:122] Setting up conv2/relu_3x3
I0321 21:29:19.304162 13282 net.cpp:129] Top shape: 1 192 163 95 (2973120)
I0321 21:29:19.304169 13282 net.cpp:137] Memory required for data: 144202240
I0321 21:29:19.304177 13282 layer_factory.hpp:77] Creating layer conv2/norm2
I0321 21:29:19.304195 13282 net.cpp:84] Creating Layer conv2/norm2
I0321 21:29:19.304203 13282 net.cpp:406] conv2/norm2 <- conv2/3x3
I0321 21:29:19.304215 13282 net.cpp:380] conv2/norm2 -> conv2/norm2
I0321 21:29:19.304711 13282 net.cpp:122] Setting up conv2/norm2
I0321 21:29:19.304740 13282 net.cpp:129] Top shape: 1 192 163 95 (2973120)
I0321 21:29:19.304749 13282 net.cpp:137] Memory required for data: 156094720
I0321 21:29:19.304756 13282 layer_factory.hpp:77] Creating layer pool2/3x3_s2
I0321 21:29:19.304769 13282 net.cpp:84] Creating Layer pool2/3x3_s2
I0321 21:29:19.304777 13282 net.cpp:406] pool2/3x3_s2 <- conv2/norm2
I0321 21:29:19.304788 13282 net.cpp:380] pool2/3x3_s2 -> pool2/3x3_s2
I0321 21:29:19.304857 13282 net.cpp:122] Setting up pool2/3x3_s2
I0321 21:29:19.304891 13282 net.cpp:129] Top shape: 1 192 81 47 (730944)
I0321 21:29:19.304898 13282 net.cpp:137] Memory required for data: 159018496
I0321 21:29:19.304906 13282 layer_factory.hpp:77] Creating layer pool2/3x3_s2_pool2/3x3_s2_0_split
I0321 21:29:19.304919 13282 net.cpp:84] Creating Layer pool2/3x3_s2_pool2/3x3_s2_0_split
I0321 21:29:19.304926 13282 net.cpp:406] pool2/3x3_s2_pool2/3x3_s2_0_split <- pool2/3x3_s2
I0321 21:29:19.304940 13282 net.cpp:380] pool2/3x3_s2_pool2/3x3_s2_0_split -> pool2/3x3_s2_pool2/3x3_s2_0_split_0
I0321 21:29:19.304955 13282 net.cpp:380] pool2/3x3_s2_pool2/3x3_s2_0_split -> pool2/3x3_s2_pool2/3x3_s2_0_split_1
I0321 21:29:19.304966 13282 net.cpp:380] pool2/3x3_s2_pool2/3x3_s2_0_split -> pool2/3x3_s2_pool2/3x3_s2_0_split_2
I0321 21:29:19.304978 13282 net.cpp:380] pool2/3x3_s2_pool2/3x3_s2_0_split -> pool2/3x3_s2_pool2/3x3_s2_0_split_3
I0321 21:29:19.305074 13282 net.cpp:122] Setting up pool2/3x3_s2_pool2/3x3_s2_0_split
I0321 21:29:19.305090 13282 net.cpp:129] Top shape: 1 192 81 47 (730944)
I0321 21:29:19.305099 13282 net.cpp:129] Top shape: 1 192 81 47 (730944)
I0321 21:29:19.305109 13282 net.cpp:129] Top shape: 1 192 81 47 (730944)
I0321 21:29:19.305116 13282 net.cpp:129] Top shape: 1 192 81 47 (730944)
I0321 21:29:19.305124 13282 net.cpp:137] Memory required for data: 170713600
I0321 21:29:19.305130 13282 layer_factory.hpp:77] Creating layer inception_3a/1x1
I0321 21:29:19.305150 13282 net.cpp:84] Creating Layer inception_3a/1x1
I0321 21:29:19.305158 13282 net.cpp:406] inception_3a/1x1 <- pool2/3x3_s2_pool2/3x3_s2_0_split_0
I0321 21:29:19.305171 13282 net.cpp:380] inception_3a/1x1 -> inception_3a/1x1
I0321 21:29:19.307025 13282 net.cpp:122] Setting up inception_3a/1x1
I0321 21:29:19.307052 13282 net.cpp:129] Top shape: 1 64 81 47 (243648)
I0321 21:29:19.307060 13282 net.cpp:137] Memory required for data: 171688192
I0321 21:29:19.307075 13282 layer_factory.hpp:77] Creating layer bn_inception_3a/1x1
I0321 21:29:19.307090 13282 net.cpp:84] Creating Layer bn_inception_3a/1x1
I0321 21:29:19.307099 13282 net.cpp:406] bn_inception_3a/1x1 <- inception_3a/1x1
I0321 21:29:19.307111 13282 net.cpp:367] bn_inception_3a/1x1 -> inception_3a/1x1 (in-place)
I0321 21:29:19.307425 13282 net.cpp:122] Setting up bn_inception_3a/1x1
I0321 21:29:19.307443 13282 net.cpp:129] Top shape: 1 64 81 47 (243648)
I0321 21:29:19.307451 13282 net.cpp:137] Memory required for data: 172662784
I0321 21:29:19.307466 13282 layer_factory.hpp:77] Creating layer scale_inception_3a/1x1
I0321 21:29:19.307482 13282 net.cpp:84] Creating Layer scale_inception_3a/1x1
I0321 21:29:19.307489 13282 net.cpp:406] scale_inception_3a/1x1 <- inception_3a/1x1
I0321 21:29:19.307500 13282 net.cpp:367] scale_inception_3a/1x1 -> inception_3a/1x1 (in-place)
I0321 21:29:19.307574 13282 layer_factory.hpp:77] Creating layer scale_inception_3a/1x1
I0321 21:29:19.307770 13282 net.cpp:122] Setting up scale_inception_3a/1x1
I0321 21:29:19.307788 13282 net.cpp:129] Top shape: 1 64 81 47 (243648)
I0321 21:29:19.307796 13282 net.cpp:137] Memory required for data: 173637376
I0321 21:29:19.307808 13282 layer_factory.hpp:77] Creating layer inception_3a/relu_1x1
I0321 21:29:19.307822 13282 net.cpp:84] Creating Layer inception_3a/relu_1x1
I0321 21:29:19.307832 13282 net.cpp:406] inception_3a/relu_1x1 <- inception_3a/1x1
I0321 21:29:19.307842 13282 net.cpp:367] inception_3a/relu_1x1 -> inception_3a/1x1 (in-place)
I0321 21:29:19.308117 13282 net.cpp:122] Setting up inception_3a/relu_1x1
I0321 21:29:19.308137 13282 net.cpp:129] Top shape: 1 64 81 47 (243648)
I0321 21:29:19.308145 13282 net.cpp:137] Memory required for data: 174611968
I0321 21:29:19.308152 13282 layer_factory.hpp:77] Creating layer inception_3a/3x3_reduce
I0321 21:29:19.308173 13282 net.cpp:84] Creating Layer inception_3a/3x3_reduce
I0321 21:29:19.308183 13282 net.cpp:406] inception_3a/3x3_reduce <- pool2/3x3_s2_pool2/3x3_s2_0_split_1
I0321 21:29:19.308198 13282 net.cpp:380] inception_3a/3x3_reduce -> inception_3a/3x3_reduce
I0321 21:29:19.310789 13282 net.cpp:122] Setting up inception_3a/3x3_reduce
I0321 21:29:19.310823 13282 net.cpp:129] Top shape: 1 96 81 47 (365472)
I0321 21:29:19.310832 13282 net.cpp:137] Memory required for data: 176073856
I0321 21:29:19.310848 13282 layer_factory.hpp:77] Creating layer bn_inception_3a/3x3_reduce
I0321 21:29:19.310863 13282 net.cpp:84] Creating Layer bn_inception_3a/3x3_reduce
I0321 21:29:19.310873 13282 net.cpp:406] bn_inception_3a/3x3_reduce <- inception_3a/3x3_reduce
I0321 21:29:19.310889 13282 net.cpp:367] bn_inception_3a/3x3_reduce -> inception_3a/3x3_reduce (in-place)
I0321 21:29:19.311205 13282 net.cpp:122] Setting up bn_inception_3a/3x3_reduce
I0321 21:29:19.311224 13282 net.cpp:129] Top shape: 1 96 81 47 (365472)
I0321 21:29:19.311233 13282 net.cpp:137] Memory required for data: 177535744
I0321 21:29:19.311257 13282 layer_factory.hpp:77] Creating layer scale_inception_3a/3x3_reduce
I0321 21:29:19.311272 13282 net.cpp:84] Creating Layer scale_inception_3a/3x3_reduce
I0321 21:29:19.311280 13282 net.cpp:406] scale_inception_3a/3x3_reduce <- inception_3a/3x3_reduce
I0321 21:29:19.311290 13282 net.cpp:367] scale_inception_3a/3x3_reduce -> inception_3a/3x3_reduce (in-place)
I0321 21:29:19.311369 13282 layer_factory.hpp:77] Creating layer scale_inception_3a/3x3_reduce
I0321 21:29:19.311568 13282 net.cpp:122] Setting up scale_inception_3a/3x3_reduce
I0321 21:29:19.311586 13282 net.cpp:129] Top shape: 1 96 81 47 (365472)
I0321 21:29:19.311594 13282 net.cpp:137] Memory required for data: 178997632
I0321 21:29:19.311607 13282 layer_factory.hpp:77] Creating layer inception_3a/relu_3x3_reduce
I0321 21:29:19.311625 13282 net.cpp:84] Creating Layer inception_3a/relu_3x3_reduce
I0321 21:29:19.311635 13282 net.cpp:406] inception_3a/relu_3x3_reduce <- inception_3a/3x3_reduce
I0321 21:29:19.311646 13282 net.cpp:367] inception_3a/relu_3x3_reduce -> inception_3a/3x3_reduce (in-place)
I0321 21:29:19.312106 13282 net.cpp:122] Setting up inception_3a/relu_3x3_reduce
I0321 21:29:19.312129 13282 net.cpp:129] Top shape: 1 96 81 47 (365472)
I0321 21:29:19.312137 13282 net.cpp:137] Memory required for data: 180459520
I0321 21:29:19.312145 13282 layer_factory.hpp:77] Creating layer inception_3a/3x3
I0321 21:29:19.312170 13282 net.cpp:84] Creating Layer inception_3a/3x3
I0321 21:29:19.312180 13282 net.cpp:406] inception_3a/3x3 <- inception_3a/3x3_reduce
I0321 21:29:19.312196 13282 net.cpp:380] inception_3a/3x3 -> inception_3a/3x3
I0321 21:29:19.315006 13282 net.cpp:122] Setting up inception_3a/3x3
I0321 21:29:19.315033 13282 net.cpp:129] Top shape: 1 128 81 47 (487296)
I0321 21:29:19.315042 13282 net.cpp:137] Memory required for data: 182408704
I0321 21:29:19.315055 13282 layer_factory.hpp:77] Creating layer bn_inception_3a/3x3
I0321 21:29:19.315071 13282 net.cpp:84] Creating Layer bn_inception_3a/3x3
I0321 21:29:19.315079 13282 net.cpp:406] bn_inception_3a/3x3 <- inception_3a/3x3
I0321 21:29:19.315091 13282 net.cpp:367] bn_inception_3a/3x3 -> inception_3a/3x3 (in-place)
I0321 21:29:19.315382 13282 net.cpp:122] Setting up bn_inception_3a/3x3
I0321 21:29:19.315400 13282 net.cpp:129] Top shape: 1 128 81 47 (487296)
I0321 21:29:19.315407 13282 net.cpp:137] Memory required for data: 184357888
I0321 21:29:19.315421 13282 layer_factory.hpp:77] Creating layer scale_inception_3a/3x3
I0321 21:29:19.315435 13282 net.cpp:84] Creating Layer scale_inception_3a/3x3
I0321 21:29:19.315443 13282 net.cpp:406] scale_inception_3a/3x3 <- inception_3a/3x3
I0321 21:29:19.315454 13282 net.cpp:367] scale_inception_3a/3x3 -> inception_3a/3x3 (in-place)
I0321 21:29:19.315522 13282 layer_factory.hpp:77] Creating layer scale_inception_3a/3x3
I0321 21:29:19.315706 13282 net.cpp:122] Setting up scale_inception_3a/3x3
I0321 21:29:19.315724 13282 net.cpp:129] Top shape: 1 128 81 47 (487296)
I0321 21:29:19.315732 13282 net.cpp:137] Memory required for data: 186307072
I0321 21:29:19.315744 13282 layer_factory.hpp:77] Creating layer inception_3a/relu_3x3
I0321 21:29:19.315758 13282 net.cpp:84] Creating Layer inception_3a/relu_3x3
I0321 21:29:19.315767 13282 net.cpp:406] inception_3a/relu_3x3 <- inception_3a/3x3
I0321 21:29:19.315776 13282 net.cpp:367] inception_3a/relu_3x3 -> inception_3a/3x3 (in-place)
I0321 21:29:19.316226 13282 net.cpp:122] Setting up inception_3a/relu_3x3
I0321 21:29:19.316251 13282 net.cpp:129] Top shape: 1 128 81 47 (487296)
I0321 21:29:19.316257 13282 net.cpp:137] Memory required for data: 188256256
I0321 21:29:19.316265 13282 layer_factory.hpp:77] Creating layer inception_3a/5x5_reduce
I0321 21:29:19.316288 13282 net.cpp:84] Creating Layer inception_3a/5x5_reduce
I0321 21:29:19.316300 13282 net.cpp:406] inception_3a/5x5_reduce <- pool2/3x3_s2_pool2/3x3_s2_0_split_2
I0321 21:29:19.316313 13282 net.cpp:380] inception_3a/5x5_reduce -> inception_3a/5x5_reduce
I0321 21:29:19.317952 13282 net.cpp:122] Setting up inception_3a/5x5_reduce
I0321 21:29:19.317978 13282 net.cpp:129] Top shape: 1 16 81 47 (60912)
I0321 21:29:19.317986 13282 net.cpp:137] Memory required for data: 188499904
I0321 21:29:19.318001 13282 layer_factory.hpp:77] Creating layer bn_inception_3a/5x5_reduce
I0321 21:29:19.318022 13282 net.cpp:84] Creating Layer bn_inception_3a/5x5_reduce
I0321 21:29:19.318032 13282 net.cpp:406] bn_inception_3a/5x5_reduce <- inception_3a/5x5_reduce
I0321 21:29:19.318047 13282 net.cpp:367] bn_inception_3a/5x5_reduce -> inception_3a/5x5_reduce (in-place)
I0321 21:29:19.318357 13282 net.cpp:122] Setting up bn_inception_3a/5x5_reduce
I0321 21:29:19.318377 13282 net.cpp:129] Top shape: 1 16 81 47 (60912)
I0321 21:29:19.318384 13282 net.cpp:137] Memory required for data: 188743552
I0321 21:29:19.318398 13282 layer_factory.hpp:77] Creating layer scale_inception_3a/5x5_reduce
I0321 21:29:19.318411 13282 net.cpp:84] Creating Layer scale_inception_3a/5x5_reduce
I0321 21:29:19.318419 13282 net.cpp:406] scale_inception_3a/5x5_reduce <- inception_3a/5x5_reduce
I0321 21:29:19.318434 13282 net.cpp:367] scale_inception_3a/5x5_reduce -> inception_3a/5x5_reduce (in-place)
I0321 21:29:19.318500 13282 layer_factory.hpp:77] Creating layer scale_inception_3a/5x5_reduce
I0321 21:29:19.318698 13282 net.cpp:122] Setting up scale_inception_3a/5x5_reduce
I0321 21:29:19.318717 13282 net.cpp:129] Top shape: 1 16 81 47 (60912)
I0321 21:29:19.318724 13282 net.cpp:137] Memory required for data: 188987200
I0321 21:29:19.318737 13282 layer_factory.hpp:77] Creating layer inception_3a/relu_5x5_reduce
I0321 21:29:19.318748 13282 net.cpp:84] Creating Layer inception_3a/relu_5x5_reduce
I0321 21:29:19.318756 13282 net.cpp:406] inception_3a/relu_5x5_reduce <- inception_3a/5x5_reduce
I0321 21:29:19.318769 13282 net.cpp:367] inception_3a/relu_5x5_reduce -> inception_3a/5x5_reduce (in-place)
I0321 21:29:19.319031 13282 net.cpp:122] Setting up inception_3a/relu_5x5_reduce
I0321 21:29:19.319052 13282 net.cpp:129] Top shape: 1 16 81 47 (60912)
I0321 21:29:19.319062 13282 net.cpp:137] Memory required for data: 189230848
I0321 21:29:19.319070 13282 layer_factory.hpp:77] Creating layer inception_3a/5x5
I0321 21:29:19.319087 13282 net.cpp:84] Creating Layer inception_3a/5x5
I0321 21:29:19.319095 13282 net.cpp:406] inception_3a/5x5 <- inception_3a/5x5_reduce
I0321 21:29:19.319113 13282 net.cpp:380] inception_3a/5x5 -> inception_3a/5x5
I0321 21:29:19.321027 13282 net.cpp:122] Setting up inception_3a/5x5
I0321 21:29:19.321054 13282 net.cpp:129] Top shape: 1 32 81 47 (121824)
I0321 21:29:19.321063 13282 net.cpp:137] Memory required for data: 189718144
I0321 21:29:19.321075 13282 layer_factory.hpp:77] Creating layer bn_inception_3a/5x5
I0321 21:29:19.321091 13282 net.cpp:84] Creating Layer bn_inception_3a/5x5
I0321 21:29:19.321100 13282 net.cpp:406] bn_inception_3a/5x5 <- inception_3a/5x5
I0321 21:29:19.321112 13282 net.cpp:367] bn_inception_3a/5x5 -> inception_3a/5x5 (in-place)
I0321 21:29:19.321413 13282 net.cpp:122] Setting up bn_inception_3a/5x5
I0321 21:29:19.321431 13282 net.cpp:129] Top shape: 1 32 81 47 (121824)
I0321 21:29:19.321439 13282 net.cpp:137] Memory required for data: 190205440
I0321 21:29:19.321455 13282 layer_factory.hpp:77] Creating layer scale_inception_3a/5x5
I0321 21:29:19.321467 13282 net.cpp:84] Creating Layer scale_inception_3a/5x5
I0321 21:29:19.321475 13282 net.cpp:406] scale_inception_3a/5x5 <- inception_3a/5x5
I0321 21:29:19.321486 13282 net.cpp:367] scale_inception_3a/5x5 -> inception_3a/5x5 (in-place)
I0321 21:29:19.321560 13282 layer_factory.hpp:77] Creating layer scale_inception_3a/5x5
I0321 21:29:19.321765 13282 net.cpp:122] Setting up scale_inception_3a/5x5
I0321 21:29:19.321784 13282 net.cpp:129] Top shape: 1 32 81 47 (121824)
I0321 21:29:19.321791 13282 net.cpp:137] Memory required for data: 190692736
I0321 21:29:19.321805 13282 layer_factory.hpp:77] Creating layer inception_3a/relu_5x5
I0321 21:29:19.321820 13282 net.cpp:84] Creating Layer inception_3a/relu_5x5
I0321 21:29:19.321828 13282 net.cpp:406] inception_3a/relu_5x5 <- inception_3a/5x5
I0321 21:29:19.321840 13282 net.cpp:367] inception_3a/relu_5x5 -> inception_3a/5x5 (in-place)
I0321 21:29:19.322296 13282 net.cpp:122] Setting up inception_3a/relu_5x5
I0321 21:29:19.322322 13282 net.cpp:129] Top shape: 1 32 81 47 (121824)
I0321 21:29:19.322330 13282 net.cpp:137] Memory required for data: 191180032
I0321 21:29:19.322338 13282 layer_factory.hpp:77] Creating layer inception_3a/pool
I0321 21:29:19.322353 13282 net.cpp:84] Creating Layer inception_3a/pool
I0321 21:29:19.322362 13282 net.cpp:406] inception_3a/pool <- pool2/3x3_s2_pool2/3x3_s2_0_split_3
I0321 21:29:19.322374 13282 net.cpp:380] inception_3a/pool -> inception_3a/pool
I0321 21:29:19.322451 13282 net.cpp:122] Setting up inception_3a/pool
I0321 21:29:19.322468 13282 net.cpp:129] Top shape: 1 192 81 47 (730944)
I0321 21:29:19.322476 13282 net.cpp:137] Memory required for data: 194103808
I0321 21:29:19.322484 13282 layer_factory.hpp:77] Creating layer inception_3a/pool_proj
I0321 21:29:19.322504 13282 net.cpp:84] Creating Layer inception_3a/pool_proj
I0321 21:29:19.322512 13282 net.cpp:406] inception_3a/pool_proj <- inception_3a/pool
I0321 21:29:19.322527 13282 net.cpp:380] inception_3a/pool_proj -> inception_3a/pool_proj
I0321 21:29:19.323966 13282 net.cpp:122] Setting up inception_3a/pool_proj
I0321 21:29:19.323992 13282 net.cpp:129] Top shape: 1 32 81 47 (121824)
I0321 21:29:19.324000 13282 net.cpp:137] Memory required for data: 194591104
I0321 21:29:19.324014 13282 layer_factory.hpp:77] Creating layer bn_inception_3a/pool_proj
I0321 21:29:19.324026 13282 net.cpp:84] Creating Layer bn_inception_3a/pool_proj
I0321 21:29:19.324035 13282 net.cpp:406] bn_inception_3a/pool_proj <- inception_3a/pool_proj
I0321 21:29:19.324050 13282 net.cpp:367] bn_inception_3a/pool_proj -> inception_3a/pool_proj (in-place)
I0321 21:29:19.324360 13282 net.cpp:122] Setting up bn_inception_3a/pool_proj
I0321 21:29:19.324379 13282 net.cpp:129] Top shape: 1 32 81 47 (121824)
I0321 21:29:19.324388 13282 net.cpp:137] Memory required for data: 195078400
I0321 21:29:19.324401 13282 layer_factory.hpp:77] Creating layer scale_inception_3a/pool_proj
I0321 21:29:19.324416 13282 net.cpp:84] Creating Layer scale_inception_3a/pool_proj
I0321 21:29:19.324425 13282 net.cpp:406] scale_inception_3a/pool_proj <- inception_3a/pool_proj
I0321 21:29:19.324440 13282 net.cpp:367] scale_inception_3a/pool_proj -> inception_3a/pool_proj (in-place)
I0321 21:29:19.324507 13282 layer_factory.hpp:77] Creating layer scale_inception_3a/pool_proj
I0321 21:29:19.324714 13282 net.cpp:122] Setting up scale_inception_3a/pool_proj
I0321 21:29:19.324733 13282 net.cpp:129] Top shape: 1 32 81 47 (121824)
I0321 21:29:19.324740 13282 net.cpp:137] Memory required for data: 195565696
I0321 21:29:19.324753 13282 layer_factory.hpp:77] Creating layer inception_3a/relu_pool_proj
I0321 21:29:19.324764 13282 net.cpp:84] Creating Layer inception_3a/relu_pool_proj
I0321 21:29:19.324772 13282 net.cpp:406] inception_3a/relu_pool_proj <- inception_3a/pool_proj
I0321 21:29:19.324785 13282 net.cpp:367] inception_3a/relu_pool_proj -> inception_3a/pool_proj (in-place)
I0321 21:29:19.325274 13282 net.cpp:122] Setting up inception_3a/relu_pool_proj
I0321 21:29:19.325299 13282 net.cpp:129] Top shape: 1 32 81 47 (121824)
I0321 21:29:19.325306 13282 net.cpp:137] Memory required for data: 196052992
I0321 21:29:19.325314 13282 layer_factory.hpp:77] Creating layer inception_3a/output
I0321 21:29:19.325341 13282 net.cpp:84] Creating Layer inception_3a/output
I0321 21:29:19.325354 13282 net.cpp:406] inception_3a/output <- inception_3a/1x1
I0321 21:29:19.325366 13282 net.cpp:406] inception_3a/output <- inception_3a/3x3
I0321 21:29:19.325376 13282 net.cpp:406] inception_3a/output <- inception_3a/5x5
I0321 21:29:19.325384 13282 net.cpp:406] inception_3a/output <- inception_3a/pool_proj
I0321 21:29:19.325394 13282 net.cpp:380] inception_3a/output -> inception_3a/output
I0321 21:29:19.325449 13282 net.cpp:122] Setting up inception_3a/output
I0321 21:29:19.325466 13282 net.cpp:129] Top shape: 1 256 81 47 (974592)
I0321 21:29:19.325474 13282 net.cpp:137] Memory required for data: 199951360
I0321 21:29:19.325480 13282 layer_factory.hpp:77] Creating layer inception_3a/output_inception_3a/output_0_split
I0321 21:29:19.325492 13282 net.cpp:84] Creating Layer inception_3a/output_inception_3a/output_0_split
I0321 21:29:19.325500 13282 net.cpp:406] inception_3a/output_inception_3a/output_0_split <- inception_3a/output
I0321 21:29:19.325513 13282 net.cpp:380] inception_3a/output_inception_3a/output_0_split -> inception_3a/output_inception_3a/output_0_split_0
I0321 21:29:19.325527 13282 net.cpp:380] inception_3a/output_inception_3a/output_0_split -> inception_3a/output_inception_3a/output_0_split_1
I0321 21:29:19.325541 13282 net.cpp:380] inception_3a/output_inception_3a/output_0_split -> inception_3a/output_inception_3a/output_0_split_2
I0321 21:29:19.325551 13282 net.cpp:380] inception_3a/output_inception_3a/output_0_split -> inception_3a/output_inception_3a/output_0_split_3
I0321 21:29:19.325652 13282 net.cpp:122] Setting up inception_3a/output_inception_3a/output_0_split
I0321 21:29:19.325669 13282 net.cpp:129] Top shape: 1 256 81 47 (974592)
I0321 21:29:19.325677 13282 net.cpp:129] Top shape: 1 256 81 47 (974592)
I0321 21:29:19.325686 13282 net.cpp:129] Top shape: 1 256 81 47 (974592)
I0321 21:29:19.325695 13282 net.cpp:129] Top shape: 1 256 81 47 (974592)
I0321 21:29:19.325700 13282 net.cpp:137] Memory required for data: 215544832
I0321 21:29:19.325707 13282 layer_factory.hpp:77] Creating layer inception_3b/1x1
I0321 21:29:19.325732 13282 net.cpp:84] Creating Layer inception_3b/1x1
I0321 21:29:19.325743 13282 net.cpp:406] inception_3b/1x1 <- inception_3a/output_inception_3a/output_0_split_0
I0321 21:29:19.325757 13282 net.cpp:380] inception_3b/1x1 -> inception_3b/1x1
I0321 21:29:19.327728 13282 net.cpp:122] Setting up inception_3b/1x1
I0321 21:29:19.327756 13282 net.cpp:129] Top shape: 1 128 81 47 (487296)
I0321 21:29:19.327764 13282 net.cpp:137] Memory required for data: 217494016
I0321 21:29:19.327798 13282 layer_factory.hpp:77] Creating layer bn_inception_3b/1x1
I0321 21:29:19.327817 13282 net.cpp:84] Creating Layer bn_inception_3b/1x1
I0321 21:29:19.327826 13282 net.cpp:406] bn_inception_3b/1x1 <- inception_3b/1x1
I0321 21:29:19.327838 13282 net.cpp:367] bn_inception_3b/1x1 -> inception_3b/1x1 (in-place)
I0321 21:29:19.328137 13282 net.cpp:122] Setting up bn_inception_3b/1x1
I0321 21:29:19.328156 13282 net.cpp:129] Top shape: 1 128 81 47 (487296)
I0321 21:29:19.328163 13282 net.cpp:137] Memory required for data: 219443200
I0321 21:29:19.328179 13282 layer_factory.hpp:77] Creating layer scale_inception_3b/1x1
I0321 21:29:19.328196 13282 net.cpp:84] Creating Layer scale_inception_3b/1x1
I0321 21:29:19.328208 13282 net.cpp:406] scale_inception_3b/1x1 <- inception_3b/1x1
I0321 21:29:19.328220 13282 net.cpp:367] scale_inception_3b/1x1 -> inception_3b/1x1 (in-place)
I0321 21:29:19.328291 13282 layer_factory.hpp:77] Creating layer scale_inception_3b/1x1
I0321 21:29:19.328485 13282 net.cpp:122] Setting up scale_inception_3b/1x1
I0321 21:29:19.328505 13282 net.cpp:129] Top shape: 1 128 81 47 (487296)
I0321 21:29:19.328511 13282 net.cpp:137] Memory required for data: 221392384
I0321 21:29:19.328524 13282 layer_factory.hpp:77] Creating layer inception_3b/relu_1x1
I0321 21:29:19.328536 13282 net.cpp:84] Creating Layer inception_3b/relu_1x1
I0321 21:29:19.328543 13282 net.cpp:406] inception_3b/relu_1x1 <- inception_3b/1x1
I0321 21:29:19.328559 13282 net.cpp:367] inception_3b/relu_1x1 -> inception_3b/1x1 (in-place)
I0321 21:29:19.328821 13282 net.cpp:122] Setting up inception_3b/relu_1x1
I0321 21:29:19.328841 13282 net.cpp:129] Top shape: 1 128 81 47 (487296)
I0321 21:29:19.328850 13282 net.cpp:137] Memory required for data: 223341568
I0321 21:29:19.328857 13282 layer_factory.hpp:77] Creating layer inception_3b/3x3_reduce
I0321 21:29:19.328896 13282 net.cpp:84] Creating Layer inception_3b/3x3_reduce
I0321 21:29:19.328908 13282 net.cpp:406] inception_3b/3x3_reduce <- inception_3a/output_inception_3a/output_0_split_1
I0321 21:29:19.328922 13282 net.cpp:380] inception_3b/3x3_reduce -> inception_3b/3x3_reduce
I0321 21:29:19.330906 13282 net.cpp:122] Setting up inception_3b/3x3_reduce
I0321 21:29:19.330934 13282 net.cpp:129] Top shape: 1 128 81 47 (487296)
I0321 21:29:19.330941 13282 net.cpp:137] Memory required for data: 225290752
I0321 21:29:19.330955 13282 layer_factory.hpp:77] Creating layer bn_inception_3b/3x3_reduce
I0321 21:29:19.330971 13282 net.cpp:84] Creating Layer bn_inception_3b/3x3_reduce
I0321 21:29:19.330981 13282 net.cpp:406] bn_inception_3b/3x3_reduce <- inception_3b/3x3_reduce
I0321 21:29:19.330993 13282 net.cpp:367] bn_inception_3b/3x3_reduce -> inception_3b/3x3_reduce (in-place)
I0321 21:29:19.331296 13282 net.cpp:122] Setting up bn_inception_3b/3x3_reduce
I0321 21:29:19.331315 13282 net.cpp:129] Top shape: 1 128 81 47 (487296)
I0321 21:29:19.331322 13282 net.cpp:137] Memory required for data: 227239936
I0321 21:29:19.331336 13282 layer_factory.hpp:77] Creating layer scale_inception_3b/3x3_reduce
I0321 21:29:19.331349 13282 net.cpp:84] Creating Layer scale_inception_3b/3x3_reduce
I0321 21:29:19.331357 13282 net.cpp:406] scale_inception_3b/3x3_reduce <- inception_3b/3x3_reduce
I0321 21:29:19.331372 13282 net.cpp:367] scale_inception_3b/3x3_reduce -> inception_3b/3x3_reduce (in-place)
I0321 21:29:19.331439 13282 layer_factory.hpp:77] Creating layer scale_inception_3b/3x3_reduce
I0321 21:29:19.331629 13282 net.cpp:122] Setting up scale_inception_3b/3x3_reduce
I0321 21:29:19.331651 13282 net.cpp:129] Top shape: 1 128 81 47 (487296)
I0321 21:29:19.331658 13282 net.cpp:137] Memory required for data: 229189120
I0321 21:29:19.331671 13282 layer_factory.hpp:77] Creating layer inception_3b/relu_3x3_reduce
I0321 21:29:19.331683 13282 net.cpp:84] Creating Layer inception_3b/relu_3x3_reduce
I0321 21:29:19.331691 13282 net.cpp:406] inception_3b/relu_3x3_reduce <- inception_3b/3x3_reduce
I0321 21:29:19.331701 13282 net.cpp:367] inception_3b/relu_3x3_reduce -> inception_3b/3x3_reduce (in-place)
I0321 21:29:19.332161 13282 net.cpp:122] Setting up inception_3b/relu_3x3_reduce
I0321 21:29:19.332183 13282 net.cpp:129] Top shape: 1 128 81 47 (487296)
I0321 21:29:19.332191 13282 net.cpp:137] Memory required for data: 231138304
I0321 21:29:19.332200 13282 layer_factory.hpp:77] Creating layer inception_3b/3x3
I0321 21:29:19.332218 13282 net.cpp:84] Creating Layer inception_3b/3x3
I0321 21:29:19.332228 13282 net.cpp:406] inception_3b/3x3 <- inception_3b/3x3_reduce
I0321 21:29:19.332242 13282 net.cpp:380] inception_3b/3x3 -> inception_3b/3x3
I0321 21:29:19.337287 13282 net.cpp:122] Setting up inception_3b/3x3
I0321 21:29:19.337319 13282 net.cpp:129] Top shape: 1 192 81 47 (730944)
I0321 21:29:19.337328 13282 net.cpp:137] Memory required for data: 234062080
I0321 21:29:19.337343 13282 layer_factory.hpp:77] Creating layer bn_inception_3b/3x3
I0321 21:29:19.337360 13282 net.cpp:84] Creating Layer bn_inception_3b/3x3
I0321 21:29:19.337370 13282 net.cpp:406] bn_inception_3b/3x3 <- inception_3b/3x3
I0321 21:29:19.337386 13282 net.cpp:367] bn_inception_3b/3x3 -> inception_3b/3x3 (in-place)
I0321 21:29:19.337715 13282 net.cpp:122] Setting up bn_inception_3b/3x3
I0321 21:29:19.337733 13282 net.cpp:129] Top shape: 1 192 81 47 (730944)
I0321 21:29:19.337741 13282 net.cpp:137] Memory required for data: 236985856
I0321 21:29:19.337755 13282 layer_factory.hpp:77] Creating layer scale_inception_3b/3x3
I0321 21:29:19.337772 13282 net.cpp:84] Creating Layer scale_inception_3b/3x3
I0321 21:29:19.337781 13282 net.cpp:406] scale_inception_3b/3x3 <- inception_3b/3x3
I0321 21:29:19.337791 13282 net.cpp:367] scale_inception_3b/3x3 -> inception_3b/3x3 (in-place)
I0321 21:29:19.337863 13282 layer_factory.hpp:77] Creating layer scale_inception_3b/3x3
I0321 21:29:19.338074 13282 net.cpp:122] Setting up scale_inception_3b/3x3
I0321 21:29:19.338093 13282 net.cpp:129] Top shape: 1 192 81 47 (730944)
I0321 21:29:19.338100 13282 net.cpp:137] Memory required for data: 239909632
I0321 21:29:19.338112 13282 layer_factory.hpp:77] Creating layer inception_3b/relu_3x3
I0321 21:29:19.338124 13282 net.cpp:84] Creating Layer inception_3b/relu_3x3
I0321 21:29:19.338132 13282 net.cpp:406] inception_3b/relu_3x3 <- inception_3b/3x3
I0321 21:29:19.338145 13282 net.cpp:367] inception_3b/relu_3x3 -> inception_3b/3x3 (in-place)
I0321 21:29:19.338598 13282 net.cpp:122] Setting up inception_3b/relu_3x3
I0321 21:29:19.338621 13282 net.cpp:129] Top shape: 1 192 81 47 (730944)
I0321 21:29:19.338629 13282 net.cpp:137] Memory required for data: 242833408
I0321 21:29:19.338636 13282 layer_factory.hpp:77] Creating layer inception_3b/5x5_reduce
I0321 21:29:19.338659 13282 net.cpp:84] Creating Layer inception_3b/5x5_reduce
I0321 21:29:19.338668 13282 net.cpp:406] inception_3b/5x5_reduce <- inception_3a/output_inception_3a/output_0_split_2
I0321 21:29:19.338685 13282 net.cpp:380] inception_3b/5x5_reduce -> inception_3b/5x5_reduce
I0321 21:29:19.340380 13282 net.cpp:122] Setting up inception_3b/5x5_reduce
I0321 21:29:19.340406 13282 net.cpp:129] Top shape: 1 32 81 47 (121824)
I0321 21:29:19.340415 13282 net.cpp:137] Memory required for data: 243320704
I0321 21:29:19.340427 13282 layer_factory.hpp:77] Creating layer bn_inception_3b/5x5_reduce
I0321 21:29:19.340440 13282 net.cpp:84] Creating Layer bn_inception_3b/5x5_reduce
I0321 21:29:19.340450 13282 net.cpp:406] bn_inception_3b/5x5_reduce <- inception_3b/5x5_reduce
I0321 21:29:19.340464 13282 net.cpp:367] bn_inception_3b/5x5_reduce -> inception_3b/5x5_reduce (in-place)
I0321 21:29:19.340791 13282 net.cpp:122] Setting up bn_inception_3b/5x5_reduce
I0321 21:29:19.340809 13282 net.cpp:129] Top shape: 1 32 81 47 (121824)
I0321 21:29:19.340817 13282 net.cpp:137] Memory required for data: 243808000
I0321 21:29:19.340831 13282 layer_factory.hpp:77] Creating layer scale_inception_3b/5x5_reduce
I0321 21:29:19.340844 13282 net.cpp:84] Creating Layer scale_inception_3b/5x5_reduce
I0321 21:29:19.340852 13282 net.cpp:406] scale_inception_3b/5x5_reduce <- inception_3b/5x5_reduce
I0321 21:29:19.340885 13282 net.cpp:367] scale_inception_3b/5x5_reduce -> inception_3b/5x5_reduce (in-place)
I0321 21:29:19.340963 13282 layer_factory.hpp:77] Creating layer scale_inception_3b/5x5_reduce
I0321 21:29:19.341181 13282 net.cpp:122] Setting up scale_inception_3b/5x5_reduce
I0321 21:29:19.341200 13282 net.cpp:129] Top shape: 1 32 81 47 (121824)
I0321 21:29:19.341208 13282 net.cpp:137] Memory required for data: 244295296
I0321 21:29:19.341220 13282 layer_factory.hpp:77] Creating layer inception_3b/relu_5x5_reduce
I0321 21:29:19.341233 13282 net.cpp:84] Creating Layer inception_3b/relu_5x5_reduce
I0321 21:29:19.341240 13282 net.cpp:406] inception_3b/relu_5x5_reduce <- inception_3b/5x5_reduce
I0321 21:29:19.341253 13282 net.cpp:367] inception_3b/relu_5x5_reduce -> inception_3b/5x5_reduce (in-place)
I0321 21:29:19.341518 13282 net.cpp:122] Setting up inception_3b/relu_5x5_reduce
I0321 21:29:19.341538 13282 net.cpp:129] Top shape: 1 32 81 47 (121824)
I0321 21:29:19.341545 13282 net.cpp:137] Memory required for data: 244782592
I0321 21:29:19.341553 13282 layer_factory.hpp:77] Creating layer inception_3b/5x5
I0321 21:29:19.341572 13282 net.cpp:84] Creating Layer inception_3b/5x5
I0321 21:29:19.341583 13282 net.cpp:406] inception_3b/5x5 <- inception_3b/5x5_reduce
I0321 21:29:19.341598 13282 net.cpp:380] inception_3b/5x5 -> inception_3b/5x5
I0321 21:29:19.344900 13282 net.cpp:122] Setting up inception_3b/5x5
I0321 21:29:19.344935 13282 net.cpp:129] Top shape: 1 96 81 47 (365472)
I0321 21:29:19.344947 13282 net.cpp:137] Memory required for data: 246244480
I0321 21:29:19.344961 13282 layer_factory.hpp:77] Creating layer bn_inception_3b/5x5
I0321 21:29:19.344975 13282 net.cpp:84] Creating Layer bn_inception_3b/5x5
I0321 21:29:19.344985 13282 net.cpp:406] bn_inception_3b/5x5 <- inception_3b/5x5
I0321 21:29:19.344996 13282 net.cpp:367] bn_inception_3b/5x5 -> inception_3b/5x5 (in-place)
I0321 21:29:19.345316 13282 net.cpp:122] Setting up bn_inception_3b/5x5
I0321 21:29:19.345335 13282 net.cpp:129] Top shape: 1 96 81 47 (365472)
I0321 21:29:19.345342 13282 net.cpp:137] Memory required for data: 247706368
I0321 21:29:19.345356 13282 layer_factory.hpp:77] Creating layer scale_inception_3b/5x5
I0321 21:29:19.345386 13282 net.cpp:84] Creating Layer scale_inception_3b/5x5
I0321 21:29:19.345396 13282 net.cpp:406] scale_inception_3b/5x5 <- inception_3b/5x5
I0321 21:29:19.345410 13282 net.cpp:367] scale_inception_3b/5x5 -> inception_3b/5x5 (in-place)
I0321 21:29:19.345486 13282 layer_factory.hpp:77] Creating layer scale_inception_3b/5x5
I0321 21:29:19.345695 13282 net.cpp:122] Setting up scale_inception_3b/5x5
I0321 21:29:19.345715 13282 net.cpp:129] Top shape: 1 96 81 47 (365472)
I0321 21:29:19.345722 13282 net.cpp:137] Memory required for data: 249168256
I0321 21:29:19.345736 13282 layer_factory.hpp:77] Creating layer inception_3b/relu_5x5
I0321 21:29:19.345751 13282 net.cpp:84] Creating Layer inception_3b/relu_5x5
I0321 21:29:19.345759 13282 net.cpp:406] inception_3b/relu_5x5 <- inception_3b/5x5
I0321 21:29:19.345772 13282 net.cpp:367] inception_3b/relu_5x5 -> inception_3b/5x5 (in-place)
I0321 21:29:19.346240 13282 net.cpp:122] Setting up inception_3b/relu_5x5
I0321 21:29:19.346262 13282 net.cpp:129] Top shape: 1 96 81 47 (365472)
I0321 21:29:19.346271 13282 net.cpp:137] Memory required for data: 250630144
I0321 21:29:19.346278 13282 layer_factory.hpp:77] Creating layer inception_3b/pool
I0321 21:29:19.346294 13282 net.cpp:84] Creating Layer inception_3b/pool
I0321 21:29:19.346303 13282 net.cpp:406] inception_3b/pool <- inception_3a/output_inception_3a/output_0_split_3
I0321 21:29:19.346318 13282 net.cpp:380] inception_3b/pool -> inception_3b/pool
I0321 21:29:19.346407 13282 net.cpp:122] Setting up inception_3b/pool
I0321 21:29:19.346426 13282 net.cpp:129] Top shape: 1 256 81 47 (974592)
I0321 21:29:19.346434 13282 net.cpp:137] Memory required for data: 254528512
I0321 21:29:19.346441 13282 layer_factory.hpp:77] Creating layer inception_3b/pool_proj
I0321 21:29:19.346460 13282 net.cpp:84] Creating Layer inception_3b/pool_proj
I0321 21:29:19.346469 13282 net.cpp:406] inception_3b/pool_proj <- inception_3b/pool
I0321 21:29:19.346484 13282 net.cpp:380] inception_3b/pool_proj -> inception_3b/pool_proj
I0321 21:29:19.348125 13282 net.cpp:122] Setting up inception_3b/pool_proj
I0321 21:29:19.348151 13282 net.cpp:129] Top shape: 1 64 81 47 (243648)
I0321 21:29:19.348160 13282 net.cpp:137] Memory required for data: 255503104
I0321 21:29:19.348173 13282 layer_factory.hpp:77] Creating layer bn_inception_3b/pool_proj
I0321 21:29:19.348187 13282 net.cpp:84] Creating Layer bn_inception_3b/pool_proj
I0321 21:29:19.348196 13282 net.cpp:406] bn_inception_3b/pool_proj <- inception_3b/pool_proj
I0321 21:29:19.348211 13282 net.cpp:367] bn_inception_3b/pool_proj -> inception_3b/pool_proj (in-place)
I0321 21:29:19.348536 13282 net.cpp:122] Setting up bn_inception_3b/pool_proj
I0321 21:29:19.348552 13282 net.cpp:129] Top shape: 1 64 81 47 (243648)
I0321 21:29:19.348559 13282 net.cpp:137] Memory required for data: 256477696
I0321 21:29:19.348573 13282 layer_factory.hpp:77] Creating layer scale_inception_3b/pool_proj
I0321 21:29:19.348587 13282 net.cpp:84] Creating Layer scale_inception_3b/pool_proj
I0321 21:29:19.348594 13282 net.cpp:406] scale_inception_3b/pool_proj <- inception_3b/pool_proj
I0321 21:29:19.348608 13282 net.cpp:367] scale_inception_3b/pool_proj -> inception_3b/pool_proj (in-place)
I0321 21:29:19.348680 13282 layer_factory.hpp:77] Creating layer scale_inception_3b/pool_proj
I0321 21:29:19.348904 13282 net.cpp:122] Setting up scale_inception_3b/pool_proj
I0321 21:29:19.348922 13282 net.cpp:129] Top shape: 1 64 81 47 (243648)
I0321 21:29:19.348928 13282 net.cpp:137] Memory required for data: 257452288
I0321 21:29:19.348942 13282 layer_factory.hpp:77] Creating layer inception_3b/relu_pool_proj
I0321 21:29:19.348953 13282 net.cpp:84] Creating Layer inception_3b/relu_pool_proj
I0321 21:29:19.348961 13282 net.cpp:406] inception_3b/relu_pool_proj <- inception_3b/pool_proj
I0321 21:29:19.348974 13282 net.cpp:367] inception_3b/relu_pool_proj -> inception_3b/pool_proj (in-place)
I0321 21:29:19.349434 13282 net.cpp:122] Setting up inception_3b/relu_pool_proj
I0321 21:29:19.349454 13282 net.cpp:129] Top shape: 1 64 81 47 (243648)
I0321 21:29:19.349462 13282 net.cpp:137] Memory required for data: 258426880
I0321 21:29:19.349469 13282 layer_factory.hpp:77] Creating layer inception_3b/output
I0321 21:29:19.349483 13282 net.cpp:84] Creating Layer inception_3b/output
I0321 21:29:19.349491 13282 net.cpp:406] inception_3b/output <- inception_3b/1x1
I0321 21:29:19.349503 13282 net.cpp:406] inception_3b/output <- inception_3b/3x3
I0321 21:29:19.349511 13282 net.cpp:406] inception_3b/output <- inception_3b/5x5
I0321 21:29:19.349520 13282 net.cpp:406] inception_3b/output <- inception_3b/pool_proj
I0321 21:29:19.349534 13282 net.cpp:380] inception_3b/output -> inception_3b/output
I0321 21:29:19.349589 13282 net.cpp:122] Setting up inception_3b/output
I0321 21:29:19.349603 13282 net.cpp:129] Top shape: 1 480 81 47 (1827360)
I0321 21:29:19.349611 13282 net.cpp:137] Memory required for data: 265736320
I0321 21:29:19.349617 13282 layer_factory.hpp:77] Creating layer inception_3b/output_inception_3b/output_0_split
I0321 21:29:19.349629 13282 net.cpp:84] Creating Layer inception_3b/output_inception_3b/output_0_split
I0321 21:29:19.349637 13282 net.cpp:406] inception_3b/output_inception_3b/output_0_split <- inception_3b/output
I0321 21:29:19.349648 13282 net.cpp:380] inception_3b/output_inception_3b/output_0_split -> inception_3b/output_inception_3b/output_0_split_0
I0321 21:29:19.349669 13282 net.cpp:380] inception_3b/output_inception_3b/output_0_split -> inception_3b/output_inception_3b/output_0_split_1
I0321 21:29:19.349735 13282 net.cpp:122] Setting up inception_3b/output_inception_3b/output_0_split
I0321 21:29:19.349750 13282 net.cpp:129] Top shape: 1 480 81 47 (1827360)
I0321 21:29:19.349758 13282 net.cpp:129] Top shape: 1 480 81 47 (1827360)
I0321 21:29:19.349764 13282 net.cpp:137] Memory required for data: 280355200
I0321 21:29:19.349772 13282 layer_factory.hpp:77] Creating layer pool3/3x3_s2
I0321 21:29:19.349786 13282 net.cpp:84] Creating Layer pool3/3x3_s2
I0321 21:29:19.349794 13282 net.cpp:406] pool3/3x3_s2 <- inception_3b/output_inception_3b/output_0_split_0
I0321 21:29:19.349805 13282 net.cpp:380] pool3/3x3_s2 -> pool3/3x3_s2
I0321 21:29:19.349874 13282 net.cpp:122] Setting up pool3/3x3_s2
I0321 21:29:19.349889 13282 net.cpp:129] Top shape: 1 480 40 23 (441600)
I0321 21:29:19.349896 13282 net.cpp:137] Memory required for data: 282121600
I0321 21:29:19.349903 13282 layer_factory.hpp:77] Creating layer pool3/3x3_s2_pool3/3x3_s2_0_split
I0321 21:29:19.349915 13282 net.cpp:84] Creating Layer pool3/3x3_s2_pool3/3x3_s2_0_split
I0321 21:29:19.349921 13282 net.cpp:406] pool3/3x3_s2_pool3/3x3_s2_0_split <- pool3/3x3_s2
I0321 21:29:19.349937 13282 net.cpp:380] pool3/3x3_s2_pool3/3x3_s2_0_split -> pool3/3x3_s2_pool3/3x3_s2_0_split_0
I0321 21:29:19.349951 13282 net.cpp:380] pool3/3x3_s2_pool3/3x3_s2_0_split -> pool3/3x3_s2_pool3/3x3_s2_0_split_1
I0321 21:29:19.349963 13282 net.cpp:380] pool3/3x3_s2_pool3/3x3_s2_0_split -> pool3/3x3_s2_pool3/3x3_s2_0_split_2
I0321 21:29:19.349974 13282 net.cpp:380] pool3/3x3_s2_pool3/3x3_s2_0_split -> pool3/3x3_s2_pool3/3x3_s2_0_split_3
I0321 21:29:19.350072 13282 net.cpp:122] Setting up pool3/3x3_s2_pool3/3x3_s2_0_split
I0321 21:29:19.350088 13282 net.cpp:129] Top shape: 1 480 40 23 (441600)
I0321 21:29:19.350097 13282 net.cpp:129] Top shape: 1 480 40 23 (441600)
I0321 21:29:19.350106 13282 net.cpp:129] Top shape: 1 480 40 23 (441600)
I0321 21:29:19.350114 13282 net.cpp:129] Top shape: 1 480 40 23 (441600)
I0321 21:29:19.350121 13282 net.cpp:137] Memory required for data: 289187200
I0321 21:29:19.350128 13282 layer_factory.hpp:77] Creating layer inception_4a/1x1
I0321 21:29:19.350147 13282 net.cpp:84] Creating Layer inception_4a/1x1
I0321 21:29:19.350155 13282 net.cpp:406] inception_4a/1x1 <- pool3/3x3_s2_pool3/3x3_s2_0_split_0
I0321 21:29:19.350168 13282 net.cpp:380] inception_4a/1x1 -> inception_4a/1x1
I0321 21:29:19.353843 13282 net.cpp:122] Setting up inception_4a/1x1
I0321 21:29:19.353869 13282 net.cpp:129] Top shape: 1 192 40 23 (176640)
I0321 21:29:19.353878 13282 net.cpp:137] Memory required for data: 289893760
I0321 21:29:19.353890 13282 layer_factory.hpp:77] Creating layer bn_inception_4a/1x1
I0321 21:29:19.353904 13282 net.cpp:84] Creating Layer bn_inception_4a/1x1
I0321 21:29:19.353911 13282 net.cpp:406] bn_inception_4a/1x1 <- inception_4a/1x1
I0321 21:29:19.353924 13282 net.cpp:367] bn_inception_4a/1x1 -> inception_4a/1x1 (in-place)
I0321 21:29:19.354244 13282 net.cpp:122] Setting up bn_inception_4a/1x1
I0321 21:29:19.354259 13282 net.cpp:129] Top shape: 1 192 40 23 (176640)
I0321 21:29:19.354266 13282 net.cpp:137] Memory required for data: 290600320
I0321 21:29:19.354281 13282 layer_factory.hpp:77] Creating layer scale_inception_4a/1x1
I0321 21:29:19.354295 13282 net.cpp:84] Creating Layer scale_inception_4a/1x1
I0321 21:29:19.354302 13282 net.cpp:406] scale_inception_4a/1x1 <- inception_4a/1x1
I0321 21:29:19.354315 13282 net.cpp:367] scale_inception_4a/1x1 -> inception_4a/1x1 (in-place)
I0321 21:29:19.354396 13282 layer_factory.hpp:77] Creating layer scale_inception_4a/1x1
I0321 21:29:19.354598 13282 net.cpp:122] Setting up scale_inception_4a/1x1
I0321 21:29:19.354614 13282 net.cpp:129] Top shape: 1 192 40 23 (176640)
I0321 21:29:19.354629 13282 net.cpp:137] Memory required for data: 291306880
I0321 21:29:19.354640 13282 layer_factory.hpp:77] Creating layer inception_4a/relu_1x1
I0321 21:29:19.354651 13282 net.cpp:84] Creating Layer inception_4a/relu_1x1
I0321 21:29:19.354660 13282 net.cpp:406] inception_4a/relu_1x1 <- inception_4a/1x1
I0321 21:29:19.354672 13282 net.cpp:367] inception_4a/relu_1x1 -> inception_4a/1x1 (in-place)
I0321 21:29:19.354944 13282 net.cpp:122] Setting up inception_4a/relu_1x1
I0321 21:29:19.354964 13282 net.cpp:129] Top shape: 1 192 40 23 (176640)
I0321 21:29:19.354972 13282 net.cpp:137] Memory required for data: 292013440
I0321 21:29:19.354979 13282 layer_factory.hpp:77] Creating layer inception_4a/3x3_reduce
I0321 21:29:19.354998 13282 net.cpp:84] Creating Layer inception_4a/3x3_reduce
I0321 21:29:19.355007 13282 net.cpp:406] inception_4a/3x3_reduce <- pool3/3x3_s2_pool3/3x3_s2_0_split_1
I0321 21:29:19.355020 13282 net.cpp:380] inception_4a/3x3_reduce -> inception_4a/3x3_reduce
I0321 21:29:19.357234 13282 net.cpp:122] Setting up inception_4a/3x3_reduce
I0321 21:29:19.357260 13282 net.cpp:129] Top shape: 1 96 40 23 (88320)
I0321 21:29:19.357270 13282 net.cpp:137] Memory required for data: 292366720
I0321 21:29:19.357282 13282 layer_factory.hpp:77] Creating layer bn_inception_4a/3x3_reduce
I0321 21:29:19.357295 13282 net.cpp:84] Creating Layer bn_inception_4a/3x3_reduce
I0321 21:29:19.357303 13282 net.cpp:406] bn_inception_4a/3x3_reduce <- inception_4a/3x3_reduce
I0321 21:29:19.357318 13282 net.cpp:367] bn_inception_4a/3x3_reduce -> inception_4a/3x3_reduce (in-place)
I0321 21:29:19.357661 13282 net.cpp:122] Setting up bn_inception_4a/3x3_reduce
I0321 21:29:19.357682 13282 net.cpp:129] Top shape: 1 96 40 23 (88320)
I0321 21:29:19.357689 13282 net.cpp:137] Memory required for data: 292720000
I0321 21:29:19.357704 13282 layer_factory.hpp:77] Creating layer scale_inception_4a/3x3_reduce
I0321 21:29:19.357717 13282 net.cpp:84] Creating Layer scale_inception_4a/3x3_reduce
I0321 21:29:19.357724 13282 net.cpp:406] scale_inception_4a/3x3_reduce <- inception_4a/3x3_reduce
I0321 21:29:19.357738 13282 net.cpp:367] scale_inception_4a/3x3_reduce -> inception_4a/3x3_reduce (in-place)
I0321 21:29:19.357815 13282 layer_factory.hpp:77] Creating layer scale_inception_4a/3x3_reduce
I0321 21:29:19.358023 13282 net.cpp:122] Setting up scale_inception_4a/3x3_reduce
I0321 21:29:19.358042 13282 net.cpp:129] Top shape: 1 96 40 23 (88320)
I0321 21:29:19.358049 13282 net.cpp:137] Memory required for data: 293073280
I0321 21:29:19.358062 13282 layer_factory.hpp:77] Creating layer inception_4a/relu_3x3_reduce
I0321 21:29:19.358078 13282 net.cpp:84] Creating Layer inception_4a/relu_3x3_reduce
I0321 21:29:19.358088 13282 net.cpp:406] inception_4a/relu_3x3_reduce <- inception_4a/3x3_reduce
I0321 21:29:19.358099 13282 net.cpp:367] inception_4a/relu_3x3_reduce -> inception_4a/3x3_reduce (in-place)
I0321 21:29:19.358574 13282 net.cpp:122] Setting up inception_4a/relu_3x3_reduce
I0321 21:29:19.358597 13282 net.cpp:129] Top shape: 1 96 40 23 (88320)
I0321 21:29:19.358605 13282 net.cpp:137] Memory required for data: 293426560
I0321 21:29:19.358613 13282 layer_factory.hpp:77] Creating layer inception_4a/3x3
I0321 21:29:19.358639 13282 net.cpp:84] Creating Layer inception_4a/3x3
I0321 21:29:19.358647 13282 net.cpp:406] inception_4a/3x3 <- inception_4a/3x3_reduce
I0321 21:29:19.358661 13282 net.cpp:380] inception_4a/3x3 -> inception_4a/3x3
I0321 21:29:19.363104 13282 net.cpp:122] Setting up inception_4a/3x3
I0321 21:29:19.363134 13282 net.cpp:129] Top shape: 1 208 40 23 (191360)
I0321 21:29:19.363142 13282 net.cpp:137] Memory required for data: 294192000
I0321 21:29:19.363157 13282 layer_factory.hpp:77] Creating layer bn_inception_4a/3x3
I0321 21:29:19.363169 13282 net.cpp:84] Creating Layer bn_inception_4a/3x3
I0321 21:29:19.363178 13282 net.cpp:406] bn_inception_4a/3x3 <- inception_4a/3x3
I0321 21:29:19.363189 13282 net.cpp:367] bn_inception_4a/3x3 -> inception_4a/3x3 (in-place)
I0321 21:29:19.363517 13282 net.cpp:122] Setting up bn_inception_4a/3x3
I0321 21:29:19.363535 13282 net.cpp:129] Top shape: 1 208 40 23 (191360)
I0321 21:29:19.363543 13282 net.cpp:137] Memory required for data: 294957440
I0321 21:29:19.363557 13282 layer_factory.hpp:77] Creating layer scale_inception_4a/3x3
I0321 21:29:19.363570 13282 net.cpp:84] Creating Layer scale_inception_4a/3x3
I0321 21:29:19.363579 13282 net.cpp:406] scale_inception_4a/3x3 <- inception_4a/3x3
I0321 21:29:19.363597 13282 net.cpp:367] scale_inception_4a/3x3 -> inception_4a/3x3 (in-place)
I0321 21:29:19.363673 13282 layer_factory.hpp:77] Creating layer scale_inception_4a/3x3
I0321 21:29:19.363881 13282 net.cpp:122] Setting up scale_inception_4a/3x3
I0321 21:29:19.363900 13282 net.cpp:129] Top shape: 1 208 40 23 (191360)
I0321 21:29:19.363907 13282 net.cpp:137] Memory required for data: 295722880
I0321 21:29:19.363920 13282 layer_factory.hpp:77] Creating layer inception_4a/relu_3x3
I0321 21:29:19.363932 13282 net.cpp:84] Creating Layer inception_4a/relu_3x3
I0321 21:29:19.363940 13282 net.cpp:406] inception_4a/relu_3x3 <- inception_4a/3x3
I0321 21:29:19.363953 13282 net.cpp:367] inception_4a/relu_3x3 -> inception_4a/3x3 (in-place)
I0321 21:29:19.364423 13282 net.cpp:122] Setting up inception_4a/relu_3x3
I0321 21:29:19.364442 13282 net.cpp:129] Top shape: 1 208 40 23 (191360)
I0321 21:29:19.364449 13282 net.cpp:137] Memory required for data: 296488320
I0321 21:29:19.364457 13282 layer_factory.hpp:77] Creating layer inception_4a/5x5_reduce
I0321 21:29:19.364478 13282 net.cpp:84] Creating Layer inception_4a/5x5_reduce
I0321 21:29:19.364487 13282 net.cpp:406] inception_4a/5x5_reduce <- pool3/3x3_s2_pool3/3x3_s2_0_split_2
I0321 21:29:19.364503 13282 net.cpp:380] inception_4a/5x5_reduce -> inception_4a/5x5_reduce
I0321 21:29:19.366236 13282 net.cpp:122] Setting up inception_4a/5x5_reduce
I0321 21:29:19.366258 13282 net.cpp:129] Top shape: 1 16 40 23 (14720)
I0321 21:29:19.366266 13282 net.cpp:137] Memory required for data: 296547200
I0321 21:29:19.366281 13282 layer_factory.hpp:77] Creating layer bn_inception_4a/5x5_reduce
I0321 21:29:19.366295 13282 net.cpp:84] Creating Layer bn_inception_4a/5x5_reduce
I0321 21:29:19.366304 13282 net.cpp:406] bn_inception_4a/5x5_reduce <- inception_4a/5x5_reduce
I0321 21:29:19.366317 13282 net.cpp:367] bn_inception_4a/5x5_reduce -> inception_4a/5x5_reduce (in-place)
I0321 21:29:19.366639 13282 net.cpp:122] Setting up bn_inception_4a/5x5_reduce
I0321 21:29:19.366655 13282 net.cpp:129] Top shape: 1 16 40 23 (14720)
I0321 21:29:19.366662 13282 net.cpp:137] Memory required for data: 296606080
I0321 21:29:19.366708 13282 layer_factory.hpp:77] Creating layer scale_inception_4a/5x5_reduce
I0321 21:29:19.366722 13282 net.cpp:84] Creating Layer scale_inception_4a/5x5_reduce
I0321 21:29:19.366730 13282 net.cpp:406] scale_inception_4a/5x5_reduce <- inception_4a/5x5_reduce
I0321 21:29:19.366741 13282 net.cpp:367] scale_inception_4a/5x5_reduce -> inception_4a/5x5_reduce (in-place)
I0321 21:29:19.366819 13282 layer_factory.hpp:77] Creating layer scale_inception_4a/5x5_reduce
I0321 21:29:19.367024 13282 net.cpp:122] Setting up scale_inception_4a/5x5_reduce
I0321 21:29:19.367039 13282 net.cpp:129] Top shape: 1 16 40 23 (14720)
I0321 21:29:19.367046 13282 net.cpp:137] Memory required for data: 296664960
I0321 21:29:19.367059 13282 layer_factory.hpp:77] Creating layer inception_4a/relu_5x5_reduce
I0321 21:29:19.367070 13282 net.cpp:84] Creating Layer inception_4a/relu_5x5_reduce
I0321 21:29:19.367079 13282 net.cpp:406] inception_4a/relu_5x5_reduce <- inception_4a/5x5_reduce
I0321 21:29:19.367089 13282 net.cpp:367] inception_4a/relu_5x5_reduce -> inception_4a/5x5_reduce (in-place)
I0321 21:29:19.367363 13282 net.cpp:122] Setting up inception_4a/relu_5x5_reduce
I0321 21:29:19.367380 13282 net.cpp:129] Top shape: 1 16 40 23 (14720)
I0321 21:29:19.367388 13282 net.cpp:137] Memory required for data: 296723840
I0321 21:29:19.367395 13282 layer_factory.hpp:77] Creating layer inception_4a/5x5
I0321 21:29:19.367420 13282 net.cpp:84] Creating Layer inception_4a/5x5
I0321 21:29:19.367429 13282 net.cpp:406] inception_4a/5x5 <- inception_4a/5x5_reduce
I0321 21:29:19.367442 13282 net.cpp:380] inception_4a/5x5 -> inception_4a/5x5
I0321 21:29:19.369338 13282 net.cpp:122] Setting up inception_4a/5x5
I0321 21:29:19.369360 13282 net.cpp:129] Top shape: 1 48 40 23 (44160)
I0321 21:29:19.369369 13282 net.cpp:137] Memory required for data: 296900480
I0321 21:29:19.369381 13282 layer_factory.hpp:77] Creating layer bn_inception_4a/5x5
I0321 21:29:19.369396 13282 net.cpp:84] Creating Layer bn_inception_4a/5x5
I0321 21:29:19.369406 13282 net.cpp:406] bn_inception_4a/5x5 <- inception_4a/5x5
I0321 21:29:19.369417 13282 net.cpp:367] bn_inception_4a/5x5 -> inception_4a/5x5 (in-place)
I0321 21:29:19.369751 13282 net.cpp:122] Setting up bn_inception_4a/5x5
I0321 21:29:19.369767 13282 net.cpp:129] Top shape: 1 48 40 23 (44160)
I0321 21:29:19.369774 13282 net.cpp:137] Memory required for data: 297077120
I0321 21:29:19.369788 13282 layer_factory.hpp:77] Creating layer scale_inception_4a/5x5
I0321 21:29:19.369801 13282 net.cpp:84] Creating Layer scale_inception_4a/5x5
I0321 21:29:19.369809 13282 net.cpp:406] scale_inception_4a/5x5 <- inception_4a/5x5
I0321 21:29:19.369820 13282 net.cpp:367] scale_inception_4a/5x5 -> inception_4a/5x5 (in-place)
I0321 21:29:19.369899 13282 layer_factory.hpp:77] Creating layer scale_inception_4a/5x5
I0321 21:29:19.370105 13282 net.cpp:122] Setting up scale_inception_4a/5x5
I0321 21:29:19.370122 13282 net.cpp:129] Top shape: 1 48 40 23 (44160)
I0321 21:29:19.370129 13282 net.cpp:137] Memory required for data: 297253760
I0321 21:29:19.370142 13282 layer_factory.hpp:77] Creating layer inception_4a/relu_5x5
I0321 21:29:19.370154 13282 net.cpp:84] Creating Layer inception_4a/relu_5x5
I0321 21:29:19.370162 13282 net.cpp:406] inception_4a/relu_5x5 <- inception_4a/5x5
I0321 21:29:19.370172 13282 net.cpp:367] inception_4a/relu_5x5 -> inception_4a/5x5 (in-place)
I0321 21:29:19.370638 13282 net.cpp:122] Setting up inception_4a/relu_5x5
I0321 21:29:19.370661 13282 net.cpp:129] Top shape: 1 48 40 23 (44160)
I0321 21:29:19.370668 13282 net.cpp:137] Memory required for data: 297430400
I0321 21:29:19.370676 13282 layer_factory.hpp:77] Creating layer inception_4a/pool
I0321 21:29:19.370689 13282 net.cpp:84] Creating Layer inception_4a/pool
I0321 21:29:19.370698 13282 net.cpp:406] inception_4a/pool <- pool3/3x3_s2_pool3/3x3_s2_0_split_3
I0321 21:29:19.370710 13282 net.cpp:380] inception_4a/pool -> inception_4a/pool
I0321 21:29:19.370790 13282 net.cpp:122] Setting up inception_4a/pool
I0321 21:29:19.370805 13282 net.cpp:129] Top shape: 1 480 40 23 (441600)
I0321 21:29:19.370811 13282 net.cpp:137] Memory required for data: 299196800
I0321 21:29:19.370818 13282 layer_factory.hpp:77] Creating layer inception_4a/pool_proj
I0321 21:29:19.370838 13282 net.cpp:84] Creating Layer inception_4a/pool_proj
I0321 21:29:19.370847 13282 net.cpp:406] inception_4a/pool_proj <- inception_4a/pool
I0321 21:29:19.370865 13282 net.cpp:380] inception_4a/pool_proj -> inception_4a/pool_proj
I0321 21:29:19.372704 13282 net.cpp:122] Setting up inception_4a/pool_proj
I0321 21:29:19.372725 13282 net.cpp:129] Top shape: 1 64 40 23 (58880)
I0321 21:29:19.372732 13282 net.cpp:137] Memory required for data: 299432320
I0321 21:29:19.372746 13282 layer_factory.hpp:77] Creating layer bn_inception_4a/pool_proj
I0321 21:29:19.372761 13282 net.cpp:84] Creating Layer bn_inception_4a/pool_proj
I0321 21:29:19.372771 13282 net.cpp:406] bn_inception_4a/pool_proj <- inception_4a/pool_proj
I0321 21:29:19.372782 13282 net.cpp:367] bn_inception_4a/pool_proj -> inception_4a/pool_proj (in-place)
I0321 21:29:19.373133 13282 net.cpp:122] Setting up bn_inception_4a/pool_proj
I0321 21:29:19.373150 13282 net.cpp:129] Top shape: 1 64 40 23 (58880)
I0321 21:29:19.373157 13282 net.cpp:137] Memory required for data: 299667840
I0321 21:29:19.373172 13282 layer_factory.hpp:77] Creating layer scale_inception_4a/pool_proj
I0321 21:29:19.373191 13282 net.cpp:84] Creating Layer scale_inception_4a/pool_proj
I0321 21:29:19.373200 13282 net.cpp:406] scale_inception_4a/pool_proj <- inception_4a/pool_proj
I0321 21:29:19.373211 13282 net.cpp:367] scale_inception_4a/pool_proj -> inception_4a/pool_proj (in-place)
I0321 21:29:19.373291 13282 layer_factory.hpp:77] Creating layer scale_inception_4a/pool_proj
I0321 21:29:19.373505 13282 net.cpp:122] Setting up scale_inception_4a/pool_proj
I0321 21:29:19.373522 13282 net.cpp:129] Top shape: 1 64 40 23 (58880)
I0321 21:29:19.373528 13282 net.cpp:137] Memory required for data: 299903360
I0321 21:29:19.373540 13282 layer_factory.hpp:77] Creating layer inception_4a/relu_pool_proj
I0321 21:29:19.373554 13282 net.cpp:84] Creating Layer inception_4a/relu_pool_proj
I0321 21:29:19.373563 13282 net.cpp:406] inception_4a/relu_pool_proj <- inception_4a/pool_proj
I0321 21:29:19.373572 13282 net.cpp:367] inception_4a/relu_pool_proj -> inception_4a/pool_proj (in-place)
I0321 21:29:19.374045 13282 net.cpp:122] Setting up inception_4a/relu_pool_proj
I0321 21:29:19.374065 13282 net.cpp:129] Top shape: 1 64 40 23 (58880)
I0321 21:29:19.374073 13282 net.cpp:137] Memory required for data: 300138880
I0321 21:29:19.374080 13282 layer_factory.hpp:77] Creating layer inception_4a/output
I0321 21:29:19.374092 13282 net.cpp:84] Creating Layer inception_4a/output
I0321 21:29:19.374102 13282 net.cpp:406] inception_4a/output <- inception_4a/1x1
I0321 21:29:19.374112 13282 net.cpp:406] inception_4a/output <- inception_4a/3x3
I0321 21:29:19.374122 13282 net.cpp:406] inception_4a/output <- inception_4a/5x5
I0321 21:29:19.374131 13282 net.cpp:406] inception_4a/output <- inception_4a/pool_proj
I0321 21:29:19.374145 13282 net.cpp:380] inception_4a/output -> inception_4a/output
I0321 21:29:19.374197 13282 net.cpp:122] Setting up inception_4a/output
I0321 21:29:19.374210 13282 net.cpp:129] Top shape: 1 512 40 23 (471040)
I0321 21:29:19.374217 13282 net.cpp:137] Memory required for data: 302023040
I0321 21:29:19.374225 13282 layer_factory.hpp:77] Creating layer inception_4a/output_inception_4a/output_0_split
I0321 21:29:19.374239 13282 net.cpp:84] Creating Layer inception_4a/output_inception_4a/output_0_split
I0321 21:29:19.374248 13282 net.cpp:406] inception_4a/output_inception_4a/output_0_split <- inception_4a/output
I0321 21:29:19.374258 13282 net.cpp:380] inception_4a/output_inception_4a/output_0_split -> inception_4a/output_inception_4a/output_0_split_0
I0321 21:29:19.374272 13282 net.cpp:380] inception_4a/output_inception_4a/output_0_split -> inception_4a/output_inception_4a/output_0_split_1
I0321 21:29:19.374287 13282 net.cpp:380] inception_4a/output_inception_4a/output_0_split -> inception_4a/output_inception_4a/output_0_split_2
I0321 21:29:19.374300 13282 net.cpp:380] inception_4a/output_inception_4a/output_0_split -> inception_4a/output_inception_4a/output_0_split_3
I0321 21:29:19.374405 13282 net.cpp:122] Setting up inception_4a/output_inception_4a/output_0_split
I0321 21:29:19.374418 13282 net.cpp:129] Top shape: 1 512 40 23 (471040)
I0321 21:29:19.374428 13282 net.cpp:129] Top shape: 1 512 40 23 (471040)
I0321 21:29:19.374435 13282 net.cpp:129] Top shape: 1 512 40 23 (471040)
I0321 21:29:19.374444 13282 net.cpp:129] Top shape: 1 512 40 23 (471040)
I0321 21:29:19.374450 13282 net.cpp:137] Memory required for data: 309559680
I0321 21:29:19.374457 13282 layer_factory.hpp:77] Creating layer inception_4b/1x1
I0321 21:29:19.374477 13282 net.cpp:84] Creating Layer inception_4b/1x1
I0321 21:29:19.374486 13282 net.cpp:406] inception_4b/1x1 <- inception_4a/output_inception_4a/output_0_split_0
I0321 21:29:19.374503 13282 net.cpp:380] inception_4b/1x1 -> inception_4b/1x1
I0321 21:29:19.377187 13282 net.cpp:122] Setting up inception_4b/1x1
I0321 21:29:19.377209 13282 net.cpp:129] Top shape: 1 160 40 23 (147200)
I0321 21:29:19.377218 13282 net.cpp:137] Memory required for data: 310148480
I0321 21:29:19.377231 13282 layer_factory.hpp:77] Creating layer bn_inception_4b/1x1
I0321 21:29:19.377244 13282 net.cpp:84] Creating Layer bn_inception_4b/1x1
I0321 21:29:19.377252 13282 net.cpp:406] bn_inception_4b/1x1 <- inception_4b/1x1
I0321 21:29:19.377267 13282 net.cpp:367] bn_inception_4b/1x1 -> inception_4b/1x1 (in-place)
I0321 21:29:19.377605 13282 net.cpp:122] Setting up bn_inception_4b/1x1
I0321 21:29:19.377620 13282 net.cpp:129] Top shape: 1 160 40 23 (147200)
I0321 21:29:19.377627 13282 net.cpp:137] Memory required for data: 310737280
I0321 21:29:19.377641 13282 layer_factory.hpp:77] Creating layer scale_inception_4b/1x1
I0321 21:29:19.377655 13282 net.cpp:84] Creating Layer scale_inception_4b/1x1
I0321 21:29:19.377663 13282 net.cpp:406] scale_inception_4b/1x1 <- inception_4b/1x1
I0321 21:29:19.377677 13282 net.cpp:367] scale_inception_4b/1x1 -> inception_4b/1x1 (in-place)
I0321 21:29:19.377750 13282 layer_factory.hpp:77] Creating layer scale_inception_4b/1x1
I0321 21:29:19.377961 13282 net.cpp:122] Setting up scale_inception_4b/1x1
I0321 21:29:19.377976 13282 net.cpp:129] Top shape: 1 160 40 23 (147200)
I0321 21:29:19.377984 13282 net.cpp:137] Memory required for data: 311326080
I0321 21:29:19.377995 13282 layer_factory.hpp:77] Creating layer inception_4b/relu_1x1
I0321 21:29:19.378007 13282 net.cpp:84] Creating Layer inception_4b/relu_1x1
I0321 21:29:19.378015 13282 net.cpp:406] inception_4b/relu_1x1 <- inception_4b/1x1
I0321 21:29:19.378033 13282 net.cpp:367] inception_4b/relu_1x1 -> inception_4b/1x1 (in-place)
I0321 21:29:19.378310 13282 net.cpp:122] Setting up inception_4b/relu_1x1
I0321 21:29:19.378329 13282 net.cpp:129] Top shape: 1 160 40 23 (147200)
I0321 21:29:19.378336 13282 net.cpp:137] Memory required for data: 311914880
I0321 21:29:19.378343 13282 layer_factory.hpp:77] Creating layer inception_4b/3x3_reduce
I0321 21:29:19.378363 13282 net.cpp:84] Creating Layer inception_4b/3x3_reduce
I0321 21:29:19.378372 13282 net.cpp:406] inception_4b/3x3_reduce <- inception_4a/output_inception_4a/output_0_split_1
I0321 21:29:19.378389 13282 net.cpp:380] inception_4b/3x3_reduce -> inception_4b/3x3_reduce
I0321 21:29:19.381019 13282 net.cpp:122] Setting up inception_4b/3x3_reduce
I0321 21:29:19.381042 13282 net.cpp:129] Top shape: 1 112 40 23 (103040)
I0321 21:29:19.381049 13282 net.cpp:137] Memory required for data: 312327040
I0321 21:29:19.381062 13282 layer_factory.hpp:77] Creating layer bn_inception_4b/3x3_reduce
I0321 21:29:19.381078 13282 net.cpp:84] Creating Layer bn_inception_4b/3x3_reduce
I0321 21:29:19.381086 13282 net.cpp:406] bn_inception_4b/3x3_reduce <- inception_4b/3x3_reduce
I0321 21:29:19.381098 13282 net.cpp:367] bn_inception_4b/3x3_reduce -> inception_4b/3x3_reduce (in-place)
I0321 21:29:19.381443 13282 net.cpp:122] Setting up bn_inception_4b/3x3_reduce
I0321 21:29:19.381459 13282 net.cpp:129] Top shape: 1 112 40 23 (103040)
I0321 21:29:19.381466 13282 net.cpp:137] Memory required for data: 312739200
I0321 21:29:19.381481 13282 layer_factory.hpp:77] Creating layer scale_inception_4b/3x3_reduce
I0321 21:29:19.381494 13282 net.cpp:84] Creating Layer scale_inception_4b/3x3_reduce
I0321 21:29:19.381502 13282 net.cpp:406] scale_inception_4b/3x3_reduce <- inception_4b/3x3_reduce
I0321 21:29:19.381512 13282 net.cpp:367] scale_inception_4b/3x3_reduce -> inception_4b/3x3_reduce (in-place)
I0321 21:29:19.381595 13282 layer_factory.hpp:77] Creating layer scale_inception_4b/3x3_reduce
I0321 21:29:19.381808 13282 net.cpp:122] Setting up scale_inception_4b/3x3_reduce
I0321 21:29:19.381822 13282 net.cpp:129] Top shape: 1 112 40 23 (103040)
I0321 21:29:19.381829 13282 net.cpp:137] Memory required for data: 313151360
I0321 21:29:19.381842 13282 layer_factory.hpp:77] Creating layer inception_4b/relu_3x3_reduce
I0321 21:29:19.381857 13282 net.cpp:84] Creating Layer inception_4b/relu_3x3_reduce
I0321 21:29:19.381866 13282 net.cpp:406] inception_4b/relu_3x3_reduce <- inception_4b/3x3_reduce
I0321 21:29:19.381875 13282 net.cpp:367] inception_4b/relu_3x3_reduce -> inception_4b/3x3_reduce (in-place)
I0321 21:29:19.382361 13282 net.cpp:122] Setting up inception_4b/relu_3x3_reduce
I0321 21:29:19.382381 13282 net.cpp:129] Top shape: 1 112 40 23 (103040)
I0321 21:29:19.382388 13282 net.cpp:137] Memory required for data: 313563520
I0321 21:29:19.382396 13282 layer_factory.hpp:77] Creating layer inception_4b/3x3
I0321 21:29:19.382416 13282 net.cpp:84] Creating Layer inception_4b/3x3
I0321 21:29:19.382426 13282 net.cpp:406] inception_4b/3x3 <- inception_4b/3x3_reduce
I0321 21:29:19.382438 13282 net.cpp:380] inception_4b/3x3 -> inception_4b/3x3
I0321 21:29:19.387462 13282 net.cpp:122] Setting up inception_4b/3x3
I0321 21:29:19.387485 13282 net.cpp:129] Top shape: 1 224 40 23 (206080)
I0321 21:29:19.387492 13282 net.cpp:137] Memory required for data: 314387840
I0321 21:29:19.387506 13282 layer_factory.hpp:77] Creating layer bn_inception_4b/3x3
I0321 21:29:19.387521 13282 net.cpp:84] Creating Layer bn_inception_4b/3x3
I0321 21:29:19.387531 13282 net.cpp:406] bn_inception_4b/3x3 <- inception_4b/3x3
I0321 21:29:19.387544 13282 net.cpp:367] bn_inception_4b/3x3 -> inception_4b/3x3 (in-place)
I0321 21:29:19.387888 13282 net.cpp:122] Setting up bn_inception_4b/3x3
I0321 21:29:19.387907 13282 net.cpp:129] Top shape: 1 224 40 23 (206080)
I0321 21:29:19.387913 13282 net.cpp:137] Memory required for data: 315212160
I0321 21:29:19.387928 13282 layer_factory.hpp:77] Creating layer scale_inception_4b/3x3
I0321 21:29:19.387941 13282 net.cpp:84] Creating Layer scale_inception_4b/3x3
I0321 21:29:19.387949 13282 net.cpp:406] scale_inception_4b/3x3 <- inception_4b/3x3
I0321 21:29:19.387959 13282 net.cpp:367] scale_inception_4b/3x3 -> inception_4b/3x3 (in-place)
I0321 21:29:19.388037 13282 layer_factory.hpp:77] Creating layer scale_inception_4b/3x3
I0321 21:29:19.388250 13282 net.cpp:122] Setting up scale_inception_4b/3x3
I0321 21:29:19.388267 13282 net.cpp:129] Top shape: 1 224 40 23 (206080)
I0321 21:29:19.388273 13282 net.cpp:137] Memory required for data: 316036480
I0321 21:29:19.388286 13282 layer_factory.hpp:77] Creating layer inception_4b/relu_3x3
I0321 21:29:19.388298 13282 net.cpp:84] Creating Layer inception_4b/relu_3x3
I0321 21:29:19.388305 13282 net.cpp:406] inception_4b/relu_3x3 <- inception_4b/3x3
I0321 21:29:19.388319 13282 net.cpp:367] inception_4b/relu_3x3 -> inception_4b/3x3 (in-place)
I0321 21:29:19.388798 13282 net.cpp:122] Setting up inception_4b/relu_3x3
I0321 21:29:19.388818 13282 net.cpp:129] Top shape: 1 224 40 23 (206080)
I0321 21:29:19.388829 13282 net.cpp:137] Memory required for data: 316860800
I0321 21:29:19.388837 13282 layer_factory.hpp:77] Creating layer inception_4b/5x5_reduce
I0321 21:29:19.388855 13282 net.cpp:84] Creating Layer inception_4b/5x5_reduce
I0321 21:29:19.388883 13282 net.cpp:406] inception_4b/5x5_reduce <- inception_4a/output_inception_4a/output_0_split_2
I0321 21:29:19.388901 13282 net.cpp:380] inception_4b/5x5_reduce -> inception_4b/5x5_reduce
I0321 21:29:19.390800 13282 net.cpp:122] Setting up inception_4b/5x5_reduce
I0321 21:29:19.390825 13282 net.cpp:129] Top shape: 1 24 40 23 (22080)
I0321 21:29:19.390832 13282 net.cpp:137] Memory required for data: 316949120
I0321 21:29:19.390846 13282 layer_factory.hpp:77] Creating layer bn_inception_4b/5x5_reduce
I0321 21:29:19.390858 13282 net.cpp:84] Creating Layer bn_inception_4b/5x5_reduce
I0321 21:29:19.390867 13282 net.cpp:406] bn_inception_4b/5x5_reduce <- inception_4b/5x5_reduce
I0321 21:29:19.390882 13282 net.cpp:367] bn_inception_4b/5x5_reduce -> inception_4b/5x5_reduce (in-place)
I0321 21:29:19.391237 13282 net.cpp:122] Setting up bn_inception_4b/5x5_reduce
I0321 21:29:19.391253 13282 net.cpp:129] Top shape: 1 24 40 23 (22080)
I0321 21:29:19.391260 13282 net.cpp:137] Memory required for data: 317037440
I0321 21:29:19.391274 13282 layer_factory.hpp:77] Creating layer scale_inception_4b/5x5_reduce
I0321 21:29:19.391288 13282 net.cpp:84] Creating Layer scale_inception_4b/5x5_reduce
I0321 21:29:19.391295 13282 net.cpp:406] scale_inception_4b/5x5_reduce <- inception_4b/5x5_reduce
I0321 21:29:19.391309 13282 net.cpp:367] scale_inception_4b/5x5_reduce -> inception_4b/5x5_reduce (in-place)
I0321 21:29:19.391386 13282 layer_factory.hpp:77] Creating layer scale_inception_4b/5x5_reduce
I0321 21:29:19.391598 13282 net.cpp:122] Setting up scale_inception_4b/5x5_reduce
I0321 21:29:19.391614 13282 net.cpp:129] Top shape: 1 24 40 23 (22080)
I0321 21:29:19.391621 13282 net.cpp:137] Memory required for data: 317125760
I0321 21:29:19.391633 13282 layer_factory.hpp:77] Creating layer inception_4b/relu_5x5_reduce
I0321 21:29:19.391645 13282 net.cpp:84] Creating Layer inception_4b/relu_5x5_reduce
I0321 21:29:19.391659 13282 net.cpp:406] inception_4b/relu_5x5_reduce <- inception_4b/5x5_reduce
I0321 21:29:19.391672 13282 net.cpp:367] inception_4b/relu_5x5_reduce -> inception_4b/5x5_reduce (in-place)
I0321 21:29:19.391954 13282 net.cpp:122] Setting up inception_4b/relu_5x5_reduce
I0321 21:29:19.391973 13282 net.cpp:129] Top shape: 1 24 40 23 (22080)
I0321 21:29:19.391979 13282 net.cpp:137] Memory required for data: 317214080
I0321 21:29:19.391988 13282 layer_factory.hpp:77] Creating layer inception_4b/5x5
I0321 21:29:19.392006 13282 net.cpp:84] Creating Layer inception_4b/5x5
I0321 21:29:19.392016 13282 net.cpp:406] inception_4b/5x5 <- inception_4b/5x5_reduce
I0321 21:29:19.392031 13282 net.cpp:380] inception_4b/5x5 -> inception_4b/5x5
I0321 21:29:19.395090 13282 net.cpp:122] Setting up inception_4b/5x5
I0321 21:29:19.395112 13282 net.cpp:129] Top shape: 1 64 40 23 (58880)
I0321 21:29:19.395120 13282 net.cpp:137] Memory required for data: 317449600
I0321 21:29:19.395134 13282 layer_factory.hpp:77] Creating layer bn_inception_4b/5x5
I0321 21:29:19.395149 13282 net.cpp:84] Creating Layer bn_inception_4b/5x5
I0321 21:29:19.395159 13282 net.cpp:406] bn_inception_4b/5x5 <- inception_4b/5x5
I0321 21:29:19.395170 13282 net.cpp:367] bn_inception_4b/5x5 -> inception_4b/5x5 (in-place)
I0321 21:29:19.395530 13282 net.cpp:122] Setting up bn_inception_4b/5x5
I0321 21:29:19.395546 13282 net.cpp:129] Top shape: 1 64 40 23 (58880)
I0321 21:29:19.395553 13282 net.cpp:137] Memory required for data: 317685120
I0321 21:29:19.395568 13282 layer_factory.hpp:77] Creating layer scale_inception_4b/5x5
I0321 21:29:19.395583 13282 net.cpp:84] Creating Layer scale_inception_4b/5x5
I0321 21:29:19.395592 13282 net.cpp:406] scale_inception_4b/5x5 <- inception_4b/5x5
I0321 21:29:19.395602 13282 net.cpp:367] scale_inception_4b/5x5 -> inception_4b/5x5 (in-place)
I0321 21:29:19.395684 13282 layer_factory.hpp:77] Creating layer scale_inception_4b/5x5
I0321 21:29:19.395903 13282 net.cpp:122] Setting up scale_inception_4b/5x5
I0321 21:29:19.395920 13282 net.cpp:129] Top shape: 1 64 40 23 (58880)
I0321 21:29:19.395926 13282 net.cpp:137] Memory required for data: 317920640
I0321 21:29:19.395938 13282 layer_factory.hpp:77] Creating layer inception_4b/relu_5x5
I0321 21:29:19.395952 13282 net.cpp:84] Creating Layer inception_4b/relu_5x5
I0321 21:29:19.395961 13282 net.cpp:406] inception_4b/relu_5x5 <- inception_4b/5x5
I0321 21:29:19.395972 13282 net.cpp:367] inception_4b/relu_5x5 -> inception_4b/5x5 (in-place)
I0321 21:29:19.396461 13282 net.cpp:122] Setting up inception_4b/relu_5x5
I0321 21:29:19.396479 13282 net.cpp:129] Top shape: 1 64 40 23 (58880)
I0321 21:29:19.396487 13282 net.cpp:137] Memory required for data: 318156160
I0321 21:29:19.396495 13282 layer_factory.hpp:77] Creating layer inception_4b/pool
I0321 21:29:19.396510 13282 net.cpp:84] Creating Layer inception_4b/pool
I0321 21:29:19.396519 13282 net.cpp:406] inception_4b/pool <- inception_4a/output_inception_4a/output_0_split_3
I0321 21:29:19.396533 13282 net.cpp:380] inception_4b/pool -> inception_4b/pool
I0321 21:29:19.396618 13282 net.cpp:122] Setting up inception_4b/pool
I0321 21:29:19.396633 13282 net.cpp:129] Top shape: 1 512 40 23 (471040)
I0321 21:29:19.396641 13282 net.cpp:137] Memory required for data: 320040320
I0321 21:29:19.396647 13282 layer_factory.hpp:77] Creating layer inception_4b/pool_proj
I0321 21:29:19.396667 13282 net.cpp:84] Creating Layer inception_4b/pool_proj
I0321 21:29:19.396677 13282 net.cpp:406] inception_4b/pool_proj <- inception_4b/pool
I0321 21:29:19.396690 13282 net.cpp:380] inception_4b/pool_proj -> inception_4b/pool_proj
I0321 21:29:19.398593 13282 net.cpp:122] Setting up inception_4b/pool_proj
I0321 21:29:19.398614 13282 net.cpp:129] Top shape: 1 64 40 23 (58880)
I0321 21:29:19.398622 13282 net.cpp:137] Memory required for data: 320275840
I0321 21:29:19.398636 13282 layer_factory.hpp:77] Creating layer bn_inception_4b/pool_proj
I0321 21:29:19.398651 13282 net.cpp:84] Creating Layer bn_inception_4b/pool_proj
I0321 21:29:19.398660 13282 net.cpp:406] bn_inception_4b/pool_proj <- inception_4b/pool_proj
I0321 21:29:19.398672 13282 net.cpp:367] bn_inception_4b/pool_proj -> inception_4b/pool_proj (in-place)
I0321 21:29:19.399034 13282 net.cpp:122] Setting up bn_inception_4b/pool_proj
I0321 21:29:19.399050 13282 net.cpp:129] Top shape: 1 64 40 23 (58880)
I0321 21:29:19.399057 13282 net.cpp:137] Memory required for data: 320511360
I0321 21:29:19.399072 13282 layer_factory.hpp:77] Creating layer scale_inception_4b/pool_proj
I0321 21:29:19.399085 13282 net.cpp:84] Creating Layer scale_inception_4b/pool_proj
I0321 21:29:19.399093 13282 net.cpp:406] scale_inception_4b/pool_proj <- inception_4b/pool_proj
I0321 21:29:19.399104 13282 net.cpp:367] scale_inception_4b/pool_proj -> inception_4b/pool_proj (in-place)
I0321 21:29:19.399189 13282 layer_factory.hpp:77] Creating layer scale_inception_4b/pool_proj
I0321 21:29:19.399408 13282 net.cpp:122] Setting up scale_inception_4b/pool_proj
I0321 21:29:19.399425 13282 net.cpp:129] Top shape: 1 64 40 23 (58880)
I0321 21:29:19.399431 13282 net.cpp:137] Memory required for data: 320746880
I0321 21:29:19.399443 13282 layer_factory.hpp:77] Creating layer inception_4b/relu_pool_proj
I0321 21:29:19.399456 13282 net.cpp:84] Creating Layer inception_4b/relu_pool_proj
I0321 21:29:19.399463 13282 net.cpp:406] inception_4b/relu_pool_proj <- inception_4b/pool_proj
I0321 21:29:19.399473 13282 net.cpp:367] inception_4b/relu_pool_proj -> inception_4b/pool_proj (in-place)
I0321 21:29:19.399957 13282 net.cpp:122] Setting up inception_4b/relu_pool_proj
I0321 21:29:19.399977 13282 net.cpp:129] Top shape: 1 64 40 23 (58880)
I0321 21:29:19.399986 13282 net.cpp:137] Memory required for data: 320982400
I0321 21:29:19.399993 13282 layer_factory.hpp:77] Creating layer inception_4b/output
I0321 21:29:19.400005 13282 net.cpp:84] Creating Layer inception_4b/output
I0321 21:29:19.400014 13282 net.cpp:406] inception_4b/output <- inception_4b/1x1
I0321 21:29:19.400024 13282 net.cpp:406] inception_4b/output <- inception_4b/3x3
I0321 21:29:19.400033 13282 net.cpp:406] inception_4b/output <- inception_4b/5x5
I0321 21:29:19.400043 13282 net.cpp:406] inception_4b/output <- inception_4b/pool_proj
I0321 21:29:19.400055 13282 net.cpp:380] inception_4b/output -> inception_4b/output
I0321 21:29:19.400113 13282 net.cpp:122] Setting up inception_4b/output
I0321 21:29:19.400128 13282 net.cpp:129] Top shape: 1 512 40 23 (471040)
I0321 21:29:19.400135 13282 net.cpp:137] Memory required for data: 322866560
I0321 21:29:19.400143 13282 layer_factory.hpp:77] Creating layer inception_4b/output_inception_4b/output_0_split
I0321 21:29:19.400176 13282 net.cpp:84] Creating Layer inception_4b/output_inception_4b/output_0_split
I0321 21:29:19.400184 13282 net.cpp:406] inception_4b/output_inception_4b/output_0_split <- inception_4b/output
I0321 21:29:19.400197 13282 net.cpp:380] inception_4b/output_inception_4b/output_0_split -> inception_4b/output_inception_4b/output_0_split_0
I0321 21:29:19.400210 13282 net.cpp:380] inception_4b/output_inception_4b/output_0_split -> inception_4b/output_inception_4b/output_0_split_1
I0321 21:29:19.400223 13282 net.cpp:380] inception_4b/output_inception_4b/output_0_split -> inception_4b/output_inception_4b/output_0_split_2
I0321 21:29:19.400246 13282 net.cpp:380] inception_4b/output_inception_4b/output_0_split -> inception_4b/output_inception_4b/output_0_split_3
I0321 21:29:19.400364 13282 net.cpp:122] Setting up inception_4b/output_inception_4b/output_0_split
I0321 21:29:19.400379 13282 net.cpp:129] Top shape: 1 512 40 23 (471040)
I0321 21:29:19.400388 13282 net.cpp:129] Top shape: 1 512 40 23 (471040)
I0321 21:29:19.400398 13282 net.cpp:129] Top shape: 1 512 40 23 (471040)
I0321 21:29:19.400405 13282 net.cpp:129] Top shape: 1 512 40 23 (471040)
I0321 21:29:19.400413 13282 net.cpp:137] Memory required for data: 330403200
I0321 21:29:19.400420 13282 layer_factory.hpp:77] Creating layer inception_4c/1x1
I0321 21:29:19.400442 13282 net.cpp:84] Creating Layer inception_4c/1x1
I0321 21:29:19.400451 13282 net.cpp:406] inception_4c/1x1 <- inception_4b/output_inception_4b/output_0_split_0
I0321 21:29:19.400465 13282 net.cpp:380] inception_4c/1x1 -> inception_4c/1x1
I0321 21:29:19.402982 13282 net.cpp:122] Setting up inception_4c/1x1
I0321 21:29:19.403004 13282 net.cpp:129] Top shape: 1 128 40 23 (117760)
I0321 21:29:19.403012 13282 net.cpp:137] Memory required for data: 330874240
I0321 21:29:19.403025 13282 layer_factory.hpp:77] Creating layer bn_inception_4c/1x1
I0321 21:29:19.403051 13282 net.cpp:84] Creating Layer bn_inception_4c/1x1
I0321 21:29:19.403061 13282 net.cpp:406] bn_inception_4c/1x1 <- inception_4c/1x1
I0321 21:29:19.403075 13282 net.cpp:367] bn_inception_4c/1x1 -> inception_4c/1x1 (in-place)
I0321 21:29:19.403419 13282 net.cpp:122] Setting up bn_inception_4c/1x1
I0321 21:29:19.403434 13282 net.cpp:129] Top shape: 1 128 40 23 (117760)
I0321 21:29:19.403441 13282 net.cpp:137] Memory required for data: 331345280
I0321 21:29:19.403456 13282 layer_factory.hpp:77] Creating layer scale_inception_4c/1x1
I0321 21:29:19.403472 13282 net.cpp:84] Creating Layer scale_inception_4c/1x1
I0321 21:29:19.403481 13282 net.cpp:406] scale_inception_4c/1x1 <- inception_4c/1x1
I0321 21:29:19.403491 13282 net.cpp:367] scale_inception_4c/1x1 -> inception_4c/1x1 (in-place)
I0321 21:29:19.403571 13282 layer_factory.hpp:77] Creating layer scale_inception_4c/1x1
I0321 21:29:19.403777 13282 net.cpp:122] Setting up scale_inception_4c/1x1
I0321 21:29:19.403794 13282 net.cpp:129] Top shape: 1 128 40 23 (117760)
I0321 21:29:19.403800 13282 net.cpp:137] Memory required for data: 331816320
I0321 21:29:19.403812 13282 layer_factory.hpp:77] Creating layer inception_4c/relu_1x1
I0321 21:29:19.403825 13282 net.cpp:84] Creating Layer inception_4c/relu_1x1
I0321 21:29:19.403832 13282 net.cpp:406] inception_4c/relu_1x1 <- inception_4c/1x1
I0321 21:29:19.403846 13282 net.cpp:367] inception_4c/relu_1x1 -> inception_4c/1x1 (in-place)
I0321 21:29:19.404122 13282 net.cpp:122] Setting up inception_4c/relu_1x1
I0321 21:29:19.404142 13282 net.cpp:129] Top shape: 1 128 40 23 (117760)
I0321 21:29:19.404150 13282 net.cpp:137] Memory required for data: 332287360
I0321 21:29:19.404157 13282 layer_factory.hpp:77] Creating layer inception_4c/3x3_reduce
I0321 21:29:19.404176 13282 net.cpp:84] Creating Layer inception_4c/3x3_reduce
I0321 21:29:19.404186 13282 net.cpp:406] inception_4c/3x3_reduce <- inception_4b/output_inception_4b/output_0_split_1
I0321 21:29:19.404198 13282 net.cpp:380] inception_4c/3x3_reduce -> inception_4c/3x3_reduce
I0321 21:29:19.406761 13282 net.cpp:122] Setting up inception_4c/3x3_reduce
I0321 21:29:19.406783 13282 net.cpp:129] Top shape: 1 128 40 23 (117760)
I0321 21:29:19.406790 13282 net.cpp:137] Memory required for data: 332758400
I0321 21:29:19.406805 13282 layer_factory.hpp:77] Creating layer bn_inception_4c/3x3_reduce
I0321 21:29:19.406816 13282 net.cpp:84] Creating Layer bn_inception_4c/3x3_reduce
I0321 21:29:19.406826 13282 net.cpp:406] bn_inception_4c/3x3_reduce <- inception_4c/3x3_reduce
I0321 21:29:19.406839 13282 net.cpp:367] bn_inception_4c/3x3_reduce -> inception_4c/3x3_reduce (in-place)
I0321 21:29:19.407184 13282 net.cpp:122] Setting up bn_inception_4c/3x3_reduce
I0321 21:29:19.407201 13282 net.cpp:129] Top shape: 1 128 40 23 (117760)
I0321 21:29:19.407207 13282 net.cpp:137] Memory required for data: 333229440
I0321 21:29:19.407222 13282 layer_factory.hpp:77] Creating layer scale_inception_4c/3x3_reduce
I0321 21:29:19.407235 13282 net.cpp:84] Creating Layer scale_inception_4c/3x3_reduce
I0321 21:29:19.407243 13282 net.cpp:406] scale_inception_4c/3x3_reduce <- inception_4c/3x3_reduce
I0321 21:29:19.407253 13282 net.cpp:367] scale_inception_4c/3x3_reduce -> inception_4c/3x3_reduce (in-place)
I0321 21:29:19.407336 13282 layer_factory.hpp:77] Creating layer scale_inception_4c/3x3_reduce
I0321 21:29:19.407546 13282 net.cpp:122] Setting up scale_inception_4c/3x3_reduce
I0321 21:29:19.407562 13282 net.cpp:129] Top shape: 1 128 40 23 (117760)
I0321 21:29:19.407568 13282 net.cpp:137] Memory required for data: 333700480
I0321 21:29:19.407582 13282 layer_factory.hpp:77] Creating layer inception_4c/relu_3x3_reduce
I0321 21:29:19.407596 13282 net.cpp:84] Creating Layer inception_4c/relu_3x3_reduce
I0321 21:29:19.407604 13282 net.cpp:406] inception_4c/relu_3x3_reduce <- inception_4c/3x3_reduce
I0321 21:29:19.407614 13282 net.cpp:367] inception_4c/relu_3x3_reduce -> inception_4c/3x3_reduce (in-place)
I0321 21:29:19.408270 13282 net.cpp:122] Setting up inception_4c/relu_3x3_reduce
I0321 21:29:19.408290 13282 net.cpp:129] Top shape: 1 128 40 23 (117760)
I0321 21:29:19.408298 13282 net.cpp:137] Memory required for data: 334171520
I0321 21:29:19.408306 13282 layer_factory.hpp:77] Creating layer inception_4c/3x3
I0321 21:29:19.408326 13282 net.cpp:84] Creating Layer inception_4c/3x3
I0321 21:29:19.408337 13282 net.cpp:406] inception_4c/3x3 <- inception_4c/3x3_reduce
I0321 21:29:19.408350 13282 net.cpp:380] inception_4c/3x3 -> inception_4c/3x3
I0321 21:29:19.414410 13282 net.cpp:122] Setting up inception_4c/3x3
I0321 21:29:19.414433 13282 net.cpp:129] Top shape: 1 256 40 23 (235520)
I0321 21:29:19.414440 13282 net.cpp:137] Memory required for data: 335113600
I0321 21:29:19.414454 13282 layer_factory.hpp:77] Creating layer bn_inception_4c/3x3
I0321 21:29:19.414469 13282 net.cpp:84] Creating Layer bn_inception_4c/3x3
I0321 21:29:19.414479 13282 net.cpp:406] bn_inception_4c/3x3 <- inception_4c/3x3
I0321 21:29:19.414490 13282 net.cpp:367] bn_inception_4c/3x3 -> inception_4c/3x3 (in-place)
I0321 21:29:19.414841 13282 net.cpp:122] Setting up bn_inception_4c/3x3
I0321 21:29:19.414856 13282 net.cpp:129] Top shape: 1 256 40 23 (235520)
I0321 21:29:19.414865 13282 net.cpp:137] Memory required for data: 336055680
I0321 21:29:19.414878 13282 layer_factory.hpp:77] Creating layer scale_inception_4c/3x3
I0321 21:29:19.414894 13282 net.cpp:84] Creating Layer scale_inception_4c/3x3
I0321 21:29:19.414903 13282 net.cpp:406] scale_inception_4c/3x3 <- inception_4c/3x3
I0321 21:29:19.414913 13282 net.cpp:367] scale_inception_4c/3x3 -> inception_4c/3x3 (in-place)
I0321 21:29:19.414994 13282 layer_factory.hpp:77] Creating layer scale_inception_4c/3x3
I0321 21:29:19.415205 13282 net.cpp:122] Setting up scale_inception_4c/3x3
I0321 21:29:19.415220 13282 net.cpp:129] Top shape: 1 256 40 23 (235520)
I0321 21:29:19.415227 13282 net.cpp:137] Memory required for data: 336997760
I0321 21:29:19.415240 13282 layer_factory.hpp:77] Creating layer inception_4c/relu_3x3
I0321 21:29:19.415251 13282 net.cpp:84] Creating Layer inception_4c/relu_3x3
I0321 21:29:19.415259 13282 net.cpp:406] inception_4c/relu_3x3 <- inception_4c/3x3
I0321 21:29:19.415272 13282 net.cpp:367] inception_4c/relu_3x3 -> inception_4c/3x3 (in-place)
I0321 21:29:19.415765 13282 net.cpp:122] Setting up inception_4c/relu_3x3
I0321 21:29:19.415783 13282 net.cpp:129] Top shape: 1 256 40 23 (235520)
I0321 21:29:19.415791 13282 net.cpp:137] Memory required for data: 337939840
I0321 21:29:19.415799 13282 layer_factory.hpp:77] Creating layer inception_4c/5x5_reduce
I0321 21:29:19.415822 13282 net.cpp:84] Creating Layer inception_4c/5x5_reduce
I0321 21:29:19.415837 13282 net.cpp:406] inception_4c/5x5_reduce <- inception_4b/output_inception_4b/output_0_split_2
I0321 21:29:19.415849 13282 net.cpp:380] inception_4c/5x5_reduce -> inception_4c/5x5_reduce
I0321 21:29:19.417758 13282 net.cpp:122] Setting up inception_4c/5x5_reduce
I0321 21:29:19.417779 13282 net.cpp:129] Top shape: 1 24 40 23 (22080)
I0321 21:29:19.417788 13282 net.cpp:137] Memory required for data: 338028160
I0321 21:29:19.417801 13282 layer_factory.hpp:77] Creating layer bn_inception_4c/5x5_reduce
I0321 21:29:19.417816 13282 net.cpp:84] Creating Layer bn_inception_4c/5x5_reduce
I0321 21:29:19.417825 13282 net.cpp:406] bn_inception_4c/5x5_reduce <- inception_4c/5x5_reduce
I0321 21:29:19.417840 13282 net.cpp:367] bn_inception_4c/5x5_reduce -> inception_4c/5x5_reduce (in-place)
I0321 21:29:19.418208 13282 net.cpp:122] Setting up bn_inception_4c/5x5_reduce
I0321 21:29:19.418225 13282 net.cpp:129] Top shape: 1 24 40 23 (22080)
I0321 21:29:19.418231 13282 net.cpp:137] Memory required for data: 338116480
I0321 21:29:19.418246 13282 layer_factory.hpp:77] Creating layer scale_inception_4c/5x5_reduce
I0321 21:29:19.418259 13282 net.cpp:84] Creating Layer scale_inception_4c/5x5_reduce
I0321 21:29:19.418267 13282 net.cpp:406] scale_inception_4c/5x5_reduce <- inception_4c/5x5_reduce
I0321 21:29:19.418278 13282 net.cpp:367] scale_inception_4c/5x5_reduce -> inception_4c/5x5_reduce (in-place)
I0321 21:29:19.418361 13282 layer_factory.hpp:77] Creating layer scale_inception_4c/5x5_reduce
I0321 21:29:19.418587 13282 net.cpp:122] Setting up scale_inception_4c/5x5_reduce
I0321 21:29:19.418603 13282 net.cpp:129] Top shape: 1 24 40 23 (22080)
I0321 21:29:19.418611 13282 net.cpp:137] Memory required for data: 338204800
I0321 21:29:19.418622 13282 layer_factory.hpp:77] Creating layer inception_4c/relu_5x5_reduce
I0321 21:29:19.418637 13282 net.cpp:84] Creating Layer inception_4c/relu_5x5_reduce
I0321 21:29:19.418645 13282 net.cpp:406] inception_4c/relu_5x5_reduce <- inception_4c/5x5_reduce
I0321 21:29:19.418655 13282 net.cpp:367] inception_4c/relu_5x5_reduce -> inception_4c/5x5_reduce (in-place)
I0321 21:29:19.418946 13282 net.cpp:122] Setting up inception_4c/relu_5x5_reduce
I0321 21:29:19.418963 13282 net.cpp:129] Top shape: 1 24 40 23 (22080)
I0321 21:29:19.418970 13282 net.cpp:137] Memory required for data: 338293120
I0321 21:29:19.418978 13282 layer_factory.hpp:77] Creating layer inception_4c/5x5
I0321 21:29:19.418998 13282 net.cpp:84] Creating Layer inception_4c/5x5
I0321 21:29:19.419008 13282 net.cpp:406] inception_4c/5x5 <- inception_4c/5x5_reduce
I0321 21:29:19.419028 13282 net.cpp:380] inception_4c/5x5 -> inception_4c/5x5
I0321 21:29:19.421262 13282 net.cpp:122] Setting up inception_4c/5x5
I0321 21:29:19.421284 13282 net.cpp:129] Top shape: 1 64 40 23 (58880)
I0321 21:29:19.421293 13282 net.cpp:137] Memory required for data: 338528640
I0321 21:29:19.421305 13282 layer_factory.hpp:77] Creating layer bn_inception_4c/5x5
I0321 21:29:19.421319 13282 net.cpp:84] Creating Layer bn_inception_4c/5x5
I0321 21:29:19.421327 13282 net.cpp:406] bn_inception_4c/5x5 <- inception_4c/5x5
I0321 21:29:19.421344 13282 net.cpp:367] bn_inception_4c/5x5 -> inception_4c/5x5 (in-place)
I0321 21:29:19.421715 13282 net.cpp:122] Setting up bn_inception_4c/5x5
I0321 21:29:19.421731 13282 net.cpp:129] Top shape: 1 64 40 23 (58880)
I0321 21:29:19.421738 13282 net.cpp:137] Memory required for data: 338764160
I0321 21:29:19.421753 13282 layer_factory.hpp:77] Creating layer scale_inception_4c/5x5
I0321 21:29:19.421766 13282 net.cpp:84] Creating Layer scale_inception_4c/5x5
I0321 21:29:19.421774 13282 net.cpp:406] scale_inception_4c/5x5 <- inception_4c/5x5
I0321 21:29:19.421792 13282 net.cpp:367] scale_inception_4c/5x5 -> inception_4c/5x5 (in-place)
I0321 21:29:19.421874 13282 layer_factory.hpp:77] Creating layer scale_inception_4c/5x5
I0321 21:29:19.422098 13282 net.cpp:122] Setting up scale_inception_4c/5x5
I0321 21:29:19.422114 13282 net.cpp:129] Top shape: 1 64 40 23 (58880)
I0321 21:29:19.422122 13282 net.cpp:137] Memory required for data: 338999680
I0321 21:29:19.422134 13282 layer_factory.hpp:77] Creating layer inception_4c/relu_5x5
I0321 21:29:19.422145 13282 net.cpp:84] Creating Layer inception_4c/relu_5x5
I0321 21:29:19.422153 13282 net.cpp:406] inception_4c/relu_5x5 <- inception_4c/5x5
I0321 21:29:19.422168 13282 net.cpp:367] inception_4c/relu_5x5 -> inception_4c/5x5 (in-place)
I0321 21:29:19.422824 13282 net.cpp:122] Setting up inception_4c/relu_5x5
I0321 21:29:19.422852 13282 net.cpp:129] Top shape: 1 64 40 23 (58880)
I0321 21:29:19.422859 13282 net.cpp:137] Memory required for data: 339235200
I0321 21:29:19.422868 13282 layer_factory.hpp:77] Creating layer inception_4c/pool
I0321 21:29:19.422891 13282 net.cpp:84] Creating Layer inception_4c/pool
I0321 21:29:19.422900 13282 net.cpp:406] inception_4c/pool <- inception_4b/output_inception_4b/output_0_split_3
I0321 21:29:19.422914 13282 net.cpp:380] inception_4c/pool -> inception_4c/pool
I0321 21:29:19.423015 13282 net.cpp:122] Setting up inception_4c/pool
I0321 21:29:19.423032 13282 net.cpp:129] Top shape: 1 512 40 23 (471040)
I0321 21:29:19.423038 13282 net.cpp:137] Memory required for data: 341119360
I0321 21:29:19.423046 13282 layer_factory.hpp:77] Creating layer inception_4c/pool_proj
I0321 21:29:19.423066 13282 net.cpp:84] Creating Layer inception_4c/pool_proj
I0321 21:29:19.423075 13282 net.cpp:406] inception_4c/pool_proj <- inception_4c/pool
I0321 21:29:19.423087 13282 net.cpp:380] inception_4c/pool_proj -> inception_4c/pool_proj
I0321 21:29:19.425784 13282 net.cpp:122] Setting up inception_4c/pool_proj
I0321 21:29:19.425807 13282 net.cpp:129] Top shape: 1 64 40 23 (58880)
I0321 21:29:19.425817 13282 net.cpp:137] Memory required for data: 341354880
I0321 21:29:19.425829 13282 layer_factory.hpp:77] Creating layer bn_inception_4c/pool_proj
I0321 21:29:19.425845 13282 net.cpp:84] Creating Layer bn_inception_4c/pool_proj
I0321 21:29:19.425854 13282 net.cpp:406] bn_inception_4c/pool_proj <- inception_4c/pool_proj
I0321 21:29:19.425866 13282 net.cpp:367] bn_inception_4c/pool_proj -> inception_4c/pool_proj (in-place)
I0321 21:29:19.426241 13282 net.cpp:122] Setting up bn_inception_4c/pool_proj
I0321 21:29:19.426257 13282 net.cpp:129] Top shape: 1 64 40 23 (58880)
I0321 21:29:19.426265 13282 net.cpp:137] Memory required for data: 341590400
I0321 21:29:19.426280 13282 layer_factory.hpp:77] Creating layer scale_inception_4c/pool_proj
I0321 21:29:19.426292 13282 net.cpp:84] Creating Layer scale_inception_4c/pool_proj
I0321 21:29:19.426301 13282 net.cpp:406] scale_inception_4c/pool_proj <- inception_4c/pool_proj
I0321 21:29:19.426311 13282 net.cpp:367] scale_inception_4c/pool_proj -> inception_4c/pool_proj (in-place)
I0321 21:29:19.426400 13282 layer_factory.hpp:77] Creating layer scale_inception_4c/pool_proj
I0321 21:29:19.426631 13282 net.cpp:122] Setting up scale_inception_4c/pool_proj
I0321 21:29:19.426651 13282 net.cpp:129] Top shape: 1 64 40 23 (58880)
I0321 21:29:19.426657 13282 net.cpp:137] Memory required for data: 341825920
I0321 21:29:19.426671 13282 layer_factory.hpp:77] Creating layer inception_4c/relu_pool_proj
I0321 21:29:19.426681 13282 net.cpp:84] Creating Layer inception_4c/relu_pool_proj
I0321 21:29:19.426689 13282 net.cpp:406] inception_4c/relu_pool_proj <- inception_4c/pool_proj
I0321 21:29:19.426699 13282 net.cpp:367] inception_4c/relu_pool_proj -> inception_4c/pool_proj (in-place)
I0321 21:29:19.427227 13282 net.cpp:122] Setting up inception_4c/relu_pool_proj
I0321 21:29:19.427247 13282 net.cpp:129] Top shape: 1 64 40 23 (58880)
I0321 21:29:19.427253 13282 net.cpp:137] Memory required for data: 342061440
I0321 21:29:19.427261 13282 layer_factory.hpp:77] Creating layer inception_4c/output
I0321 21:29:19.427273 13282 net.cpp:84] Creating Layer inception_4c/output
I0321 21:29:19.427283 13282 net.cpp:406] inception_4c/output <- inception_4c/1x1
I0321 21:29:19.427292 13282 net.cpp:406] inception_4c/output <- inception_4c/3x3
I0321 21:29:19.427301 13282 net.cpp:406] inception_4c/output <- inception_4c/5x5
I0321 21:29:19.427310 13282 net.cpp:406] inception_4c/output <- inception_4c/pool_proj
I0321 21:29:19.427320 13282 net.cpp:380] inception_4c/output -> inception_4c/output
I0321 21:29:19.427383 13282 net.cpp:122] Setting up inception_4c/output
I0321 21:29:19.427398 13282 net.cpp:129] Top shape: 1 512 40 23 (471040)
I0321 21:29:19.427405 13282 net.cpp:137] Memory required for data: 343945600
I0321 21:29:19.427413 13282 layer_factory.hpp:77] Creating layer inception_4c/output_inception_4c/output_0_split
I0321 21:29:19.427428 13282 net.cpp:84] Creating Layer inception_4c/output_inception_4c/output_0_split
I0321 21:29:19.427435 13282 net.cpp:406] inception_4c/output_inception_4c/output_0_split <- inception_4c/output
I0321 21:29:19.427446 13282 net.cpp:380] inception_4c/output_inception_4c/output_0_split -> inception_4c/output_inception_4c/output_0_split_0
I0321 21:29:19.427460 13282 net.cpp:380] inception_4c/output_inception_4c/output_0_split -> inception_4c/output_inception_4c/output_0_split_1
I0321 21:29:19.427474 13282 net.cpp:380] inception_4c/output_inception_4c/output_0_split -> inception_4c/output_inception_4c/output_0_split_2
I0321 21:29:19.427485 13282 net.cpp:380] inception_4c/output_inception_4c/output_0_split -> inception_4c/output_inception_4c/output_0_split_3
I0321 21:29:19.427606 13282 net.cpp:122] Setting up inception_4c/output_inception_4c/output_0_split
I0321 21:29:19.427621 13282 net.cpp:129] Top shape: 1 512 40 23 (471040)
I0321 21:29:19.427629 13282 net.cpp:129] Top shape: 1 512 40 23 (471040)
I0321 21:29:19.427639 13282 net.cpp:129] Top shape: 1 512 40 23 (471040)
I0321 21:29:19.427646 13282 net.cpp:129] Top shape: 1 512 40 23 (471040)
I0321 21:29:19.427652 13282 net.cpp:137] Memory required for data: 351482240
I0321 21:29:19.427659 13282 layer_factory.hpp:77] Creating layer inception_4d/1x1
I0321 21:29:19.427680 13282 net.cpp:84] Creating Layer inception_4d/1x1
I0321 21:29:19.427690 13282 net.cpp:406] inception_4d/1x1 <- inception_4c/output_inception_4c/output_0_split_0
I0321 21:29:19.427705 13282 net.cpp:380] inception_4d/1x1 -> inception_4d/1x1
I0321 21:29:19.430148 13282 net.cpp:122] Setting up inception_4d/1x1
I0321 21:29:19.430171 13282 net.cpp:129] Top shape: 1 112 40 23 (103040)
I0321 21:29:19.430179 13282 net.cpp:137] Memory required for data: 351894400
I0321 21:29:19.430192 13282 layer_factory.hpp:77] Creating layer bn_inception_4d/1x1
I0321 21:29:19.430208 13282 net.cpp:84] Creating Layer bn_inception_4d/1x1
I0321 21:29:19.430217 13282 net.cpp:406] bn_inception_4d/1x1 <- inception_4d/1x1
I0321 21:29:19.430232 13282 net.cpp:367] bn_inception_4d/1x1 -> inception_4d/1x1 (in-place)
I0321 21:29:19.430611 13282 net.cpp:122] Setting up bn_inception_4d/1x1
I0321 21:29:19.430627 13282 net.cpp:129] Top shape: 1 112 40 23 (103040)
I0321 21:29:19.430634 13282 net.cpp:137] Memory required for data: 352306560
I0321 21:29:19.430649 13282 layer_factory.hpp:77] Creating layer scale_inception_4d/1x1
I0321 21:29:19.430661 13282 net.cpp:84] Creating Layer scale_inception_4d/1x1
I0321 21:29:19.430670 13282 net.cpp:406] scale_inception_4d/1x1 <- inception_4d/1x1
I0321 21:29:19.430680 13282 net.cpp:367] scale_inception_4d/1x1 -> inception_4d/1x1 (in-place)
I0321 21:29:19.430768 13282 layer_factory.hpp:77] Creating layer scale_inception_4d/1x1
I0321 21:29:19.430999 13282 net.cpp:122] Setting up scale_inception_4d/1x1
I0321 21:29:19.431015 13282 net.cpp:129] Top shape: 1 112 40 23 (103040)
I0321 21:29:19.431022 13282 net.cpp:137] Memory required for data: 352718720
I0321 21:29:19.431035 13282 layer_factory.hpp:77] Creating layer inception_4d/relu_1x1
I0321 21:29:19.431046 13282 net.cpp:84] Creating Layer inception_4d/relu_1x1
I0321 21:29:19.431057 13282 net.cpp:406] inception_4d/relu_1x1 <- inception_4d/1x1
I0321 21:29:19.431067 13282 net.cpp:367] inception_4d/relu_1x1 -> inception_4d/1x1 (in-place)
I0321 21:29:19.431354 13282 net.cpp:122] Setting up inception_4d/relu_1x1
I0321 21:29:19.431373 13282 net.cpp:129] Top shape: 1 112 40 23 (103040)
I0321 21:29:19.431380 13282 net.cpp:137] Memory required for data: 353130880
I0321 21:29:19.431388 13282 layer_factory.hpp:77] Creating layer inception_4d/3x3_reduce
I0321 21:29:19.431408 13282 net.cpp:84] Creating Layer inception_4d/3x3_reduce
I0321 21:29:19.431417 13282 net.cpp:406] inception_4d/3x3_reduce <- inception_4c/output_inception_4c/output_0_split_1
I0321 21:29:19.431430 13282 net.cpp:380] inception_4d/3x3_reduce -> inception_4d/3x3_reduce
I0321 21:29:19.434149 13282 net.cpp:122] Setting up inception_4d/3x3_reduce
I0321 21:29:19.434173 13282 net.cpp:129] Top shape: 1 144 40 23 (132480)
I0321 21:29:19.434182 13282 net.cpp:137] Memory required for data: 353660800
I0321 21:29:19.434195 13282 layer_factory.hpp:77] Creating layer bn_inception_4d/3x3_reduce
I0321 21:29:19.434208 13282 net.cpp:84] Creating Layer bn_inception_4d/3x3_reduce
I0321 21:29:19.434217 13282 net.cpp:406] bn_inception_4d/3x3_reduce <- inception_4d/3x3_reduce
I0321 21:29:19.434229 13282 net.cpp:367] bn_inception_4d/3x3_reduce -> inception_4d/3x3_reduce (in-place)
I0321 21:29:19.434615 13282 net.cpp:122] Setting up bn_inception_4d/3x3_reduce
I0321 21:29:19.434631 13282 net.cpp:129] Top shape: 1 144 40 23 (132480)
I0321 21:29:19.434638 13282 net.cpp:137] Memory required for data: 354190720
I0321 21:29:19.434653 13282 layer_factory.hpp:77] Creating layer scale_inception_4d/3x3_reduce
I0321 21:29:19.434666 13282 net.cpp:84] Creating Layer scale_inception_4d/3x3_reduce
I0321 21:29:19.434675 13282 net.cpp:406] scale_inception_4d/3x3_reduce <- inception_4d/3x3_reduce
I0321 21:29:19.434689 13282 net.cpp:367] scale_inception_4d/3x3_reduce -> inception_4d/3x3_reduce (in-place)
I0321 21:29:19.434773 13282 layer_factory.hpp:77] Creating layer scale_inception_4d/3x3_reduce
I0321 21:29:19.435004 13282 net.cpp:122] Setting up scale_inception_4d/3x3_reduce
I0321 21:29:19.435020 13282 net.cpp:129] Top shape: 1 144 40 23 (132480)
I0321 21:29:19.435027 13282 net.cpp:137] Memory required for data: 354720640
I0321 21:29:19.435039 13282 layer_factory.hpp:77] Creating layer inception_4d/relu_3x3_reduce
I0321 21:29:19.435051 13282 net.cpp:84] Creating Layer inception_4d/relu_3x3_reduce
I0321 21:29:19.435060 13282 net.cpp:406] inception_4d/relu_3x3_reduce <- inception_4d/3x3_reduce
I0321 21:29:19.435072 13282 net.cpp:367] inception_4d/relu_3x3_reduce -> inception_4d/3x3_reduce (in-place)
I0321 21:29:19.435559 13282 net.cpp:122] Setting up inception_4d/relu_3x3_reduce
I0321 21:29:19.435578 13282 net.cpp:129] Top shape: 1 144 40 23 (132480)
I0321 21:29:19.435586 13282 net.cpp:137] Memory required for data: 355250560
I0321 21:29:19.435595 13282 layer_factory.hpp:77] Creating layer inception_4d/3x3
I0321 21:29:19.435614 13282 net.cpp:84] Creating Layer inception_4d/3x3
I0321 21:29:19.435623 13282 net.cpp:406] inception_4d/3x3 <- inception_4d/3x3_reduce
I0321 21:29:19.435639 13282 net.cpp:380] inception_4d/3x3 -> inception_4d/3x3
I0321 21:29:19.442853 13282 net.cpp:122] Setting up inception_4d/3x3
I0321 21:29:19.442876 13282 net.cpp:129] Top shape: 1 288 40 23 (264960)
I0321 21:29:19.442883 13282 net.cpp:137] Memory required for data: 356310400
I0321 21:29:19.442898 13282 layer_factory.hpp:77] Creating layer bn_inception_4d/3x3
I0321 21:29:19.442914 13282 net.cpp:84] Creating Layer bn_inception_4d/3x3
I0321 21:29:19.442922 13282 net.cpp:406] bn_inception_4d/3x3 <- inception_4d/3x3
I0321 21:29:19.442936 13282 net.cpp:367] bn_inception_4d/3x3 -> inception_4d/3x3 (in-place)
I0321 21:29:19.443320 13282 net.cpp:122] Setting up bn_inception_4d/3x3
I0321 21:29:19.443336 13282 net.cpp:129] Top shape: 1 288 40 23 (264960)
I0321 21:29:19.443343 13282 net.cpp:137] Memory required for data: 357370240
I0321 21:29:19.443357 13282 layer_factory.hpp:77] Creating layer scale_inception_4d/3x3
I0321 21:29:19.443370 13282 net.cpp:84] Creating Layer scale_inception_4d/3x3
I0321 21:29:19.443379 13282 net.cpp:406] scale_inception_4d/3x3 <- inception_4d/3x3
I0321 21:29:19.443389 13282 net.cpp:367] scale_inception_4d/3x3 -> inception_4d/3x3 (in-place)
I0321 21:29:19.443478 13282 layer_factory.hpp:77] Creating layer scale_inception_4d/3x3
I0321 21:29:19.443713 13282 net.cpp:122] Setting up scale_inception_4d/3x3
I0321 21:29:19.443729 13282 net.cpp:129] Top shape: 1 288 40 23 (264960)
I0321 21:29:19.443737 13282 net.cpp:137] Memory required for data: 358430080
I0321 21:29:19.443748 13282 layer_factory.hpp:77] Creating layer inception_4d/relu_3x3
I0321 21:29:19.443763 13282 net.cpp:84] Creating Layer inception_4d/relu_3x3
I0321 21:29:19.443780 13282 net.cpp:406] inception_4d/relu_3x3 <- inception_4d/3x3
I0321 21:29:19.443790 13282 net.cpp:367] inception_4d/relu_3x3 -> inception_4d/3x3 (in-place)
I0321 21:29:19.444454 13282 net.cpp:122] Setting up inception_4d/relu_3x3
I0321 21:29:19.444474 13282 net.cpp:129] Top shape: 1 288 40 23 (264960)
I0321 21:29:19.444481 13282 net.cpp:137] Memory required for data: 359489920
I0321 21:29:19.444489 13282 layer_factory.hpp:77] Creating layer inception_4d/5x5_reduce
I0321 21:29:19.444509 13282 net.cpp:84] Creating Layer inception_4d/5x5_reduce
I0321 21:29:19.444519 13282 net.cpp:406] inception_4d/5x5_reduce <- inception_4c/output_inception_4c/output_0_split_2
I0321 21:29:19.444535 13282 net.cpp:380] inception_4d/5x5_reduce -> inception_4d/5x5_reduce
I0321 21:29:19.446540 13282 net.cpp:122] Setting up inception_4d/5x5_reduce
I0321 21:29:19.446563 13282 net.cpp:129] Top shape: 1 32 40 23 (29440)
I0321 21:29:19.446570 13282 net.cpp:137] Memory required for data: 359607680
I0321 21:29:19.446584 13282 layer_factory.hpp:77] Creating layer bn_inception_4d/5x5_reduce
I0321 21:29:19.446600 13282 net.cpp:84] Creating Layer bn_inception_4d/5x5_reduce
I0321 21:29:19.446609 13282 net.cpp:406] bn_inception_4d/5x5_reduce <- inception_4d/5x5_reduce
I0321 21:29:19.446621 13282 net.cpp:367] bn_inception_4d/5x5_reduce -> inception_4d/5x5_reduce (in-place)
I0321 21:29:19.447012 13282 net.cpp:122] Setting up bn_inception_4d/5x5_reduce
I0321 21:29:19.447028 13282 net.cpp:129] Top shape: 1 32 40 23 (29440)
I0321 21:29:19.447036 13282 net.cpp:137] Memory required for data: 359725440
I0321 21:29:19.447096 13282 layer_factory.hpp:77] Creating layer scale_inception_4d/5x5_reduce
I0321 21:29:19.447114 13282 net.cpp:84] Creating Layer scale_inception_4d/5x5_reduce
I0321 21:29:19.447124 13282 net.cpp:406] scale_inception_4d/5x5_reduce <- inception_4d/5x5_reduce
I0321 21:29:19.447134 13282 net.cpp:367] scale_inception_4d/5x5_reduce -> inception_4d/5x5_reduce (in-place)
I0321 21:29:19.447224 13282 layer_factory.hpp:77] Creating layer scale_inception_4d/5x5_reduce
I0321 21:29:19.447474 13282 net.cpp:122] Setting up scale_inception_4d/5x5_reduce
I0321 21:29:19.447490 13282 net.cpp:129] Top shape: 1 32 40 23 (29440)
I0321 21:29:19.447497 13282 net.cpp:137] Memory required for data: 359843200
I0321 21:29:19.447515 13282 layer_factory.hpp:77] Creating layer inception_4d/relu_5x5_reduce
I0321 21:29:19.447526 13282 net.cpp:84] Creating Layer inception_4d/relu_5x5_reduce
I0321 21:29:19.447535 13282 net.cpp:406] inception_4d/relu_5x5_reduce <- inception_4d/5x5_reduce
I0321 21:29:19.447548 13282 net.cpp:367] inception_4d/relu_5x5_reduce -> inception_4d/5x5_reduce (in-place)
I0321 21:29:19.447836 13282 net.cpp:122] Setting up inception_4d/relu_5x5_reduce
I0321 21:29:19.447857 13282 net.cpp:129] Top shape: 1 32 40 23 (29440)
I0321 21:29:19.447865 13282 net.cpp:137] Memory required for data: 359960960
I0321 21:29:19.447872 13282 layer_factory.hpp:77] Creating layer inception_4d/5x5
I0321 21:29:19.447892 13282 net.cpp:84] Creating Layer inception_4d/5x5
I0321 21:29:19.447901 13282 net.cpp:406] inception_4d/5x5 <- inception_4d/5x5_reduce
I0321 21:29:19.447917 13282 net.cpp:380] inception_4d/5x5 -> inception_4d/5x5
I0321 21:29:19.450381 13282 net.cpp:122] Setting up inception_4d/5x5
I0321 21:29:19.450405 13282 net.cpp:129] Top shape: 1 64 40 23 (58880)
I0321 21:29:19.450412 13282 net.cpp:137] Memory required for data: 360196480
I0321 21:29:19.450426 13282 layer_factory.hpp:77] Creating layer bn_inception_4d/5x5
I0321 21:29:19.450441 13282 net.cpp:84] Creating Layer bn_inception_4d/5x5
I0321 21:29:19.450451 13282 net.cpp:406] bn_inception_4d/5x5 <- inception_4d/5x5
I0321 21:29:19.450462 13282 net.cpp:367] bn_inception_4d/5x5 -> inception_4d/5x5 (in-place)
I0321 21:29:19.450850 13282 net.cpp:122] Setting up bn_inception_4d/5x5
I0321 21:29:19.450866 13282 net.cpp:129] Top shape: 1 64 40 23 (58880)
I0321 21:29:19.450873 13282 net.cpp:137] Memory required for data: 360432000
I0321 21:29:19.450888 13282 layer_factory.hpp:77] Creating layer scale_inception_4d/5x5
I0321 21:29:19.450901 13282 net.cpp:84] Creating Layer scale_inception_4d/5x5
I0321 21:29:19.450909 13282 net.cpp:406] scale_inception_4d/5x5 <- inception_4d/5x5
I0321 21:29:19.450920 13282 net.cpp:367] scale_inception_4d/5x5 -> inception_4d/5x5 (in-place)
I0321 21:29:19.451009 13282 layer_factory.hpp:77] Creating layer scale_inception_4d/5x5
I0321 21:29:19.451248 13282 net.cpp:122] Setting up scale_inception_4d/5x5
I0321 21:29:19.451264 13282 net.cpp:129] Top shape: 1 64 40 23 (58880)
I0321 21:29:19.451272 13282 net.cpp:137] Memory required for data: 360667520
I0321 21:29:19.451283 13282 layer_factory.hpp:77] Creating layer inception_4d/relu_5x5
I0321 21:29:19.451297 13282 net.cpp:84] Creating Layer inception_4d/relu_5x5
I0321 21:29:19.451306 13282 net.cpp:406] inception_4d/relu_5x5 <- inception_4d/5x5
I0321 21:29:19.451316 13282 net.cpp:367] inception_4d/relu_5x5 -> inception_4d/5x5 (in-place)
I0321 21:29:19.451900 13282 net.cpp:122] Setting up inception_4d/relu_5x5
I0321 21:29:19.451920 13282 net.cpp:129] Top shape: 1 64 40 23 (58880)
I0321 21:29:19.451928 13282 net.cpp:137] Memory required for data: 360903040
I0321 21:29:19.451936 13282 layer_factory.hpp:77] Creating layer inception_4d/pool
I0321 21:29:19.451952 13282 net.cpp:84] Creating Layer inception_4d/pool
I0321 21:29:19.451961 13282 net.cpp:406] inception_4d/pool <- inception_4c/output_inception_4c/output_0_split_3
I0321 21:29:19.451973 13282 net.cpp:380] inception_4d/pool -> inception_4d/pool
I0321 21:29:19.452065 13282 net.cpp:122] Setting up inception_4d/pool
I0321 21:29:19.452081 13282 net.cpp:129] Top shape: 1 512 40 23 (471040)
I0321 21:29:19.452088 13282 net.cpp:137] Memory required for data: 362787200
I0321 21:29:19.452095 13282 layer_factory.hpp:77] Creating layer inception_4d/pool_proj
I0321 21:29:19.452114 13282 net.cpp:84] Creating Layer inception_4d/pool_proj
I0321 21:29:19.452123 13282 net.cpp:406] inception_4d/pool_proj <- inception_4d/pool
I0321 21:29:19.452137 13282 net.cpp:380] inception_4d/pool_proj -> inception_4d/pool_proj
I0321 21:29:19.454134 13282 net.cpp:122] Setting up inception_4d/pool_proj
I0321 21:29:19.454160 13282 net.cpp:129] Top shape: 1 64 40 23 (58880)
I0321 21:29:19.454169 13282 net.cpp:137] Memory required for data: 363022720
I0321 21:29:19.454182 13282 layer_factory.hpp:77] Creating layer bn_inception_4d/pool_proj
I0321 21:29:19.454195 13282 net.cpp:84] Creating Layer bn_inception_4d/pool_proj
I0321 21:29:19.454205 13282 net.cpp:406] bn_inception_4d/pool_proj <- inception_4d/pool_proj
I0321 21:29:19.454216 13282 net.cpp:367] bn_inception_4d/pool_proj -> inception_4d/pool_proj (in-place)
I0321 21:29:19.454603 13282 net.cpp:122] Setting up bn_inception_4d/pool_proj
I0321 21:29:19.454619 13282 net.cpp:129] Top shape: 1 64 40 23 (58880)
I0321 21:29:19.454627 13282 net.cpp:137] Memory required for data: 363258240
I0321 21:29:19.454641 13282 layer_factory.hpp:77] Creating layer scale_inception_4d/pool_proj
I0321 21:29:19.454654 13282 net.cpp:84] Creating Layer scale_inception_4d/pool_proj
I0321 21:29:19.454663 13282 net.cpp:406] scale_inception_4d/pool_proj <- inception_4d/pool_proj
I0321 21:29:19.454676 13282 net.cpp:367] scale_inception_4d/pool_proj -> inception_4d/pool_proj (in-place)
I0321 21:29:19.454764 13282 layer_factory.hpp:77] Creating layer scale_inception_4d/pool_proj
I0321 21:29:19.455004 13282 net.cpp:122] Setting up scale_inception_4d/pool_proj
I0321 21:29:19.455020 13282 net.cpp:129] Top shape: 1 64 40 23 (58880)
I0321 21:29:19.455027 13282 net.cpp:137] Memory required for data: 363493760
I0321 21:29:19.455039 13282 layer_factory.hpp:77] Creating layer inception_4d/relu_pool_proj
I0321 21:29:19.455051 13282 net.cpp:84] Creating Layer inception_4d/relu_pool_proj
I0321 21:29:19.455060 13282 net.cpp:406] inception_4d/relu_pool_proj <- inception_4d/pool_proj
I0321 21:29:19.455072 13282 net.cpp:367] inception_4d/relu_pool_proj -> inception_4d/pool_proj (in-place)
I0321 21:29:19.455570 13282 net.cpp:122] Setting up inception_4d/relu_pool_proj
I0321 21:29:19.455590 13282 net.cpp:129] Top shape: 1 64 40 23 (58880)
I0321 21:29:19.455597 13282 net.cpp:137] Memory required for data: 363729280
I0321 21:29:19.455605 13282 layer_factory.hpp:77] Creating layer inception_4d/output
I0321 21:29:19.455621 13282 net.cpp:84] Creating Layer inception_4d/output
I0321 21:29:19.455629 13282 net.cpp:406] inception_4d/output <- inception_4d/1x1
I0321 21:29:19.455641 13282 net.cpp:406] inception_4d/output <- inception_4d/3x3
I0321 21:29:19.455651 13282 net.cpp:406] inception_4d/output <- inception_4d/5x5
I0321 21:29:19.455659 13282 net.cpp:406] inception_4d/output <- inception_4d/pool_proj
I0321 21:29:19.455669 13282 net.cpp:380] inception_4d/output -> inception_4d/output
I0321 21:29:19.455732 13282 net.cpp:122] Setting up inception_4d/output
I0321 21:29:19.455747 13282 net.cpp:129] Top shape: 1 528 40 23 (485760)
I0321 21:29:19.455754 13282 net.cpp:137] Memory required for data: 365672320
I0321 21:29:19.455761 13282 layer_factory.hpp:77] Creating layer inception_4d/output_inception_4d/output_0_split
I0321 21:29:19.455772 13282 net.cpp:84] Creating Layer inception_4d/output_inception_4d/output_0_split
I0321 21:29:19.455781 13282 net.cpp:406] inception_4d/output_inception_4d/output_0_split <- inception_4d/output
I0321 21:29:19.455795 13282 net.cpp:380] inception_4d/output_inception_4d/output_0_split -> inception_4d/output_inception_4d/output_0_split_0
I0321 21:29:19.455809 13282 net.cpp:380] inception_4d/output_inception_4d/output_0_split -> inception_4d/output_inception_4d/output_0_split_1
I0321 21:29:19.455821 13282 net.cpp:380] inception_4d/output_inception_4d/output_0_split -> inception_4d/output_inception_4d/output_0_split_2
I0321 21:29:19.455833 13282 net.cpp:380] inception_4d/output_inception_4d/output_0_split -> inception_4d/output_inception_4d/output_0_split_3
I0321 21:29:19.455960 13282 net.cpp:122] Setting up inception_4d/output_inception_4d/output_0_split
I0321 21:29:19.455974 13282 net.cpp:129] Top shape: 1 528 40 23 (485760)
I0321 21:29:19.455983 13282 net.cpp:129] Top shape: 1 528 40 23 (485760)
I0321 21:29:19.455991 13282 net.cpp:129] Top shape: 1 528 40 23 (485760)
I0321 21:29:19.455999 13282 net.cpp:129] Top shape: 1 528 40 23 (485760)
I0321 21:29:19.456006 13282 net.cpp:137] Memory required for data: 373444480
I0321 21:29:19.456013 13282 layer_factory.hpp:77] Creating layer inception_4e/1x1
I0321 21:29:19.456034 13282 net.cpp:84] Creating Layer inception_4e/1x1
I0321 21:29:19.456043 13282 net.cpp:406] inception_4e/1x1 <- inception_4d/output_inception_4d/output_0_split_0
I0321 21:29:19.456056 13282 net.cpp:380] inception_4e/1x1 -> inception_4e/1x1
I0321 21:29:19.460276 13282 net.cpp:122] Setting up inception_4e/1x1
I0321 21:29:19.460304 13282 net.cpp:129] Top shape: 1 256 40 23 (235520)
I0321 21:29:19.460311 13282 net.cpp:137] Memory required for data: 374386560
I0321 21:29:19.460325 13282 layer_factory.hpp:77] Creating layer bn_inception_4e/1x1
I0321 21:29:19.460338 13282 net.cpp:84] Creating Layer bn_inception_4e/1x1
I0321 21:29:19.460348 13282 net.cpp:406] bn_inception_4e/1x1 <- inception_4e/1x1
I0321 21:29:19.460363 13282 net.cpp:367] bn_inception_4e/1x1 -> inception_4e/1x1 (in-place)
I0321 21:29:19.460744 13282 net.cpp:122] Setting up bn_inception_4e/1x1
I0321 21:29:19.460759 13282 net.cpp:129] Top shape: 1 256 40 23 (235520)
I0321 21:29:19.460767 13282 net.cpp:137] Memory required for data: 375328640
I0321 21:29:19.460783 13282 layer_factory.hpp:77] Creating layer scale_inception_4e/1x1
I0321 21:29:19.460795 13282 net.cpp:84] Creating Layer scale_inception_4e/1x1
I0321 21:29:19.460804 13282 net.cpp:406] scale_inception_4e/1x1 <- inception_4e/1x1
I0321 21:29:19.460814 13282 net.cpp:367] scale_inception_4e/1x1 -> inception_4e/1x1 (in-place)
I0321 21:29:19.460922 13282 layer_factory.hpp:77] Creating layer scale_inception_4e/1x1
I0321 21:29:19.461154 13282 net.cpp:122] Setting up scale_inception_4e/1x1
I0321 21:29:19.461170 13282 net.cpp:129] Top shape: 1 256 40 23 (235520)
I0321 21:29:19.461177 13282 net.cpp:137] Memory required for data: 376270720
I0321 21:29:19.461190 13282 layer_factory.hpp:77] Creating layer inception_4e/relu_1x1
I0321 21:29:19.461202 13282 net.cpp:84] Creating Layer inception_4e/relu_1x1
I0321 21:29:19.461213 13282 net.cpp:406] inception_4e/relu_1x1 <- inception_4e/1x1
I0321 21:29:19.461225 13282 net.cpp:367] inception_4e/relu_1x1 -> inception_4e/1x1 (in-place)
I0321 21:29:19.461520 13282 net.cpp:122] Setting up inception_4e/relu_1x1
I0321 21:29:19.461541 13282 net.cpp:129] Top shape: 1 256 40 23 (235520)
I0321 21:29:19.461549 13282 net.cpp:137] Memory required for data: 377212800
I0321 21:29:19.461556 13282 layer_factory.hpp:77] Creating layer inception_4e/3x3_reduce
I0321 21:29:19.461576 13282 net.cpp:84] Creating Layer inception_4e/3x3_reduce
I0321 21:29:19.461586 13282 net.cpp:406] inception_4e/3x3_reduce <- inception_4d/output_inception_4d/output_0_split_1
I0321 21:29:19.461599 13282 net.cpp:380] inception_4e/3x3_reduce -> inception_4e/3x3_reduce
I0321 21:29:19.464462 13282 net.cpp:122] Setting up inception_4e/3x3_reduce
I0321 21:29:19.464484 13282 net.cpp:129] Top shape: 1 160 40 23 (147200)
I0321 21:29:19.464493 13282 net.cpp:137] Memory required for data: 377801600
I0321 21:29:19.464505 13282 layer_factory.hpp:77] Creating layer bn_inception_4e/3x3_reduce
I0321 21:29:19.464520 13282 net.cpp:84] Creating Layer bn_inception_4e/3x3_reduce
I0321 21:29:19.464529 13282 net.cpp:406] bn_inception_4e/3x3_reduce <- inception_4e/3x3_reduce
I0321 21:29:19.464541 13282 net.cpp:367] bn_inception_4e/3x3_reduce -> inception_4e/3x3_reduce (in-place)
I0321 21:29:19.464954 13282 net.cpp:122] Setting up bn_inception_4e/3x3_reduce
I0321 21:29:19.464972 13282 net.cpp:129] Top shape: 1 160 40 23 (147200)
I0321 21:29:19.464978 13282 net.cpp:137] Memory required for data: 378390400
I0321 21:29:19.464993 13282 layer_factory.hpp:77] Creating layer scale_inception_4e/3x3_reduce
I0321 21:29:19.465006 13282 net.cpp:84] Creating Layer scale_inception_4e/3x3_reduce
I0321 21:29:19.465014 13282 net.cpp:406] scale_inception_4e/3x3_reduce <- inception_4e/3x3_reduce
I0321 21:29:19.465025 13282 net.cpp:367] scale_inception_4e/3x3_reduce -> inception_4e/3x3_reduce (in-place)
I0321 21:29:19.465114 13282 layer_factory.hpp:77] Creating layer scale_inception_4e/3x3_reduce
I0321 21:29:19.465358 13282 net.cpp:122] Setting up scale_inception_4e/3x3_reduce
I0321 21:29:19.465376 13282 net.cpp:129] Top shape: 1 160 40 23 (147200)
I0321 21:29:19.465384 13282 net.cpp:137] Memory required for data: 378979200
…
I0321 21:29:20.316330 13282 net.cpp:122] Setting up inception_4b/output_inception_4b/output_0_split
I0321 21:29:20.316347 13282 net.cpp:129] Top shape: 10 512 14 14 (1003520)
I0321 21:29:20.316356 13282 net.cpp:129] Top shape: 10 512 14 14 (1003520)
I0321 21:29:20.316365 13282 net.cpp:129] Top shape: 10 512 14 14 (1003520)
I0321 21:29:20.316373 13282 net.cpp:129] Top shape: 10 512 14 14 (1003520)
I0321 21:29:20.316380 13282 net.cpp:137] Memory required for data: 423861760
I0321 21:29:20.316386 13282 layer_factory.hpp:77] Creating layer inception_4c/1x1
I0321 21:29:20.316406 13282 net.cpp:84] Creating Layer inception_4c/1x1
I0321 21:29:20.316414 13282 net.cpp:406] inception_4c/1x1 <- inception_4b/output_inception_4b/output_0_split_0
I0321 21:29:20.316429 13282 net.cpp:380] inception_4c/1x1 -> inception_4c/1x1
I0321 21:29:20.319346 13282 net.cpp:122] Setting up inception_4c/1x1
I0321 21:29:20.319371 13282 net.cpp:129] Top shape: 10 128 14 14 (250880)
I0321 21:29:20.319380 13282 net.cpp:137] Memory required for data: 424865280
I0321 21:29:20.319392 13282 layer_factory.hpp:77] Creating layer inception_4c/relu_1x1
I0321 21:29:20.319408 13282 net.cpp:84] Creating Layer inception_4c/relu_1x1
I0321 21:29:20.319416 13282 net.cpp:406] inception_4c/relu_1x1 <- inception_4c/1x1
I0321 21:29:20.319427 13282 net.cpp:367] inception_4c/relu_1x1 -> inception_4c/1x1 (in-place)
I0321 21:29:20.319792 13282 net.cpp:122] Setting up inception_4c/relu_1x1
I0321 21:29:20.319813 13282 net.cpp:129] Top shape: 10 128 14 14 (250880)
I0321 21:29:20.319819 13282 net.cpp:137] Memory required for data: 425868800
I0321 21:29:20.319828 13282 layer_factory.hpp:77] Creating layer inception_4c/3x3_reduce
I0321 21:29:20.319846 13282 net.cpp:84] Creating Layer inception_4c/3x3_reduce
I0321 21:29:20.319855 13282 net.cpp:406] inception_4c/3x3_reduce <- inception_4b/output_inception_4b/output_0_split_1
I0321 21:29:20.319871 13282 net.cpp:380] inception_4c/3x3_reduce -> inception_4c/3x3_reduce
I0321 21:29:20.323592 13282 net.cpp:122] Setting up inception_4c/3x3_reduce
I0321 21:29:20.323617 13282 net.cpp:129] Top shape: 10 128 14 14 (250880)
I0321 21:29:20.323626 13282 net.cpp:137] Memory required for data: 426872320
I0321 21:29:20.323639 13282 layer_factory.hpp:77] Creating layer inception_4c/relu_3x3_reduce
I0321 21:29:20.323654 13282 net.cpp:84] Creating Layer inception_4c/relu_3x3_reduce
I0321 21:29:20.323663 13282 net.cpp:406] inception_4c/relu_3x3_reduce <- inception_4c/3x3_reduce
I0321 21:29:20.323675 13282 net.cpp:367] inception_4c/relu_3x3_reduce -> inception_4c/3x3_reduce (in-place)
I0321 21:29:20.324286 13282 net.cpp:122] Setting up inception_4c/relu_3x3_reduce
I0321 21:29:20.324308 13282 net.cpp:129] Top shape: 10 128 14 14 (250880)
I0321 21:29:20.324316 13282 net.cpp:137] Memory required for data: 427875840
I0321 21:29:20.324324 13282 layer_factory.hpp:77] Creating layer inception_4c/3x3
I0321 21:29:20.324344 13282 net.cpp:84] Creating Layer inception_4c/3x3
I0321 21:29:20.324353 13282 net.cpp:406] inception_4c/3x3 <- inception_4c/3x3_reduce
I0321 21:29:20.324369 13282 net.cpp:380] inception_4c/3x3 -> inception_4c/3x3
I0321 21:29:20.331126 13282 net.cpp:122] Setting up inception_4c/3x3
I0321 21:29:20.331151 13282 net.cpp:129] Top shape: 10 256 14 14 (501760)
I0321 21:29:20.331161 13282 net.cpp:137] Memory required for data: 429882880
I0321 21:29:20.331173 13282 layer_factory.hpp:77] Creating layer inception_4c/relu_3x3
I0321 21:29:20.331189 13282 net.cpp:84] Creating Layer inception_4c/relu_3x3
I0321 21:29:20.331198 13282 net.cpp:406] inception_4c/relu_3x3 <- inception_4c/3x3
I0321 21:29:20.331212 13282 net.cpp:367] inception_4c/relu_3x3 -> inception_4c/3x3 (in-place)
I0321 21:29:20.331571 13282 net.cpp:122] Setting up inception_4c/relu_3x3
I0321 21:29:20.331601 13282 net.cpp:129] Top shape: 10 256 14 14 (501760)
I0321 21:29:20.331609 13282 net.cpp:137] Memory required for data: 431889920
I0321 21:29:20.331616 13282 layer_factory.hpp:77] Creating layer inception_4c/5x5_reduce
I0321 21:29:20.331634 13282 net.cpp:84] Creating Layer inception_4c/5x5_reduce
I0321 21:29:20.331643 13282 net.cpp:406] inception_4c/5x5_reduce <- inception_4b/output_inception_4b/output_0_split_2
I0321 21:29:20.331660 13282 net.cpp:380] inception_4c/5x5_reduce -> inception_4c/5x5_reduce
I0321 21:29:20.334193 13282 net.cpp:122] Setting up inception_4c/5x5_reduce
I0321 21:29:20.334220 13282 net.cpp:129] Top shape: 10 24 14 14 (47040)
I0321 21:29:20.334228 13282 net.cpp:137] Memory required for data: 432078080
I0321 21:29:20.334241 13282 layer_factory.hpp:77] Creating layer inception_4c/relu_5x5_reduce
I0321 21:29:20.334254 13282 net.cpp:84] Creating Layer inception_4c/relu_5x5_reduce
I0321 21:29:20.334262 13282 net.cpp:406] inception_4c/relu_5x5_reduce <- inception_4c/5x5_reduce
I0321 21:29:20.334275 13282 net.cpp:367] inception_4c/relu_5x5_reduce -> inception_4c/5x5_reduce (in-place)
I0321 21:29:20.334640 13282 net.cpp:122] Setting up inception_4c/relu_5x5_reduce
I0321 21:29:20.334663 13282 net.cpp:129] Top shape: 10 24 14 14 (47040)
I0321 21:29:20.334671 13282 net.cpp:137] Memory required for data: 432266240
I0321 21:29:20.334679 13282 layer_factory.hpp:77] Creating layer inception_4c/5x5
I0321 21:29:20.334699 13282 net.cpp:84] Creating Layer inception_4c/5x5
I0321 21:29:20.334708 13282 net.cpp:406] inception_4c/5x5 <- inception_4c/5x5_reduce
I0321 21:29:20.334722 13282 net.cpp:380] inception_4c/5x5 -> inception_4c/5x5
I0321 21:29:20.337316 13282 net.cpp:122] Setting up inception_4c/5x5
I0321 21:29:20.337340 13282 net.cpp:129] Top shape: 10 64 14 14 (125440)
I0321 21:29:20.337348 13282 net.cpp:137] Memory required for data: 432768000
I0321 21:29:20.337362 13282 layer_factory.hpp:77] Creating layer inception_4c/relu_5x5
I0321 21:29:20.337378 13282 net.cpp:84] Creating Layer inception_4c/relu_5x5
I0321 21:29:20.337386 13282 net.cpp:406] inception_4c/relu_5x5 <- inception_4c/5x5
I0321 21:29:20.337397 13282 net.cpp:367] inception_4c/relu_5x5 -> inception_4c/5x5 (in-place)
I0321 21:29:20.338012 13282 net.cpp:122] Setting up inception_4c/relu_5x5
I0321 21:29:20.338034 13282 net.cpp:129] Top shape: 10 64 14 14 (125440)
I0321 21:29:20.338042 13282 net.cpp:137] Memory required for data: 433269760
I0321 21:29:20.338050 13282 layer_factory.hpp:77] Creating layer inception_4c/pool
I0321 21:29:20.338068 13282 net.cpp:84] Creating Layer inception_4c/pool
I0321 21:29:20.338076 13282 net.cpp:406] inception_4c/pool <- inception_4b/output_inception_4b/output_0_split_3
I0321 21:29:20.338090 13282 net.cpp:380] inception_4c/pool -> inception_4c/pool
I0321 21:29:20.338178 13282 net.cpp:122] Setting up inception_4c/pool
I0321 21:29:20.338196 13282 net.cpp:129] Top shape: 10 512 14 14 (1003520)
I0321 21:29:20.338203 13282 net.cpp:137] Memory required for data: 437283840
I0321 21:29:20.338210 13282 layer_factory.hpp:77] Creating layer inception_4c/pool_proj
I0321 21:29:20.338229 13282 net.cpp:84] Creating Layer inception_4c/pool_proj
I0321 21:29:20.338238 13282 net.cpp:406] inception_4c/pool_proj <- inception_4c/pool
I0321 21:29:20.338253 13282 net.cpp:380] inception_4c/pool_proj -> inception_4c/pool_proj
I0321 21:29:20.340760 13282 net.cpp:122] Setting up inception_4c/pool_proj
I0321 21:29:20.340785 13282 net.cpp:129] Top shape: 10 64 14 14 (125440)
I0321 21:29:20.340792 13282 net.cpp:137] Memory required for data: 437785600
I0321 21:29:20.340829 13282 layer_factory.hpp:77] Creating layer inception_4c/relu_pool_proj
I0321 21:29:20.340842 13282 net.cpp:84] Creating Layer inception_4c/relu_pool_proj
I0321 21:29:20.340852 13282 net.cpp:406] inception_4c/relu_pool_proj <- inception_4c/pool_proj
I0321 21:29:20.340874 13282 net.cpp:367] inception_4c/relu_pool_proj -> inception_4c/pool_proj (in-place)
I0321 21:29:20.341243 13282 net.cpp:122] Setting up inception_4c/relu_pool_proj
I0321 21:29:20.341264 13282 net.cpp:129] Top shape: 10 64 14 14 (125440)
I0321 21:29:20.341272 13282 net.cpp:137] Memory required for data: 438287360
I0321 21:29:20.341280 13282 layer_factory.hpp:77] Creating layer inception_4c/output
I0321 21:29:20.341295 13282 net.cpp:84] Creating Layer inception_4c/output
I0321 21:29:20.341303 13282 net.cpp:406] inception_4c/output <- inception_4c/1x1
I0321 21:29:20.341313 13282 net.cpp:406] inception_4c/output <- inception_4c/3x3
I0321 21:29:20.341322 13282 net.cpp:406] inception_4c/output <- inception_4c/5x5
I0321 21:29:20.341331 13282 net.cpp:406] inception_4c/output <- inception_4c/pool_proj
I0321 21:29:20.341341 13282 net.cpp:380] inception_4c/output -> inception_4c/output
I0321 21:29:20.341400 13282 net.cpp:122] Setting up inception_4c/output
I0321 21:29:20.341418 13282 net.cpp:129] Top shape: 10 512 14 14 (1003520)
I0321 21:29:20.341425 13282 net.cpp:137] Memory required for data: 442301440
I0321 21:29:20.341433 13282 layer_factory.hpp:77] Creating layer inception_4c/output_inception_4c/output_0_split
I0321 21:29:20.341444 13282 net.cpp:84] Creating Layer inception_4c/output_inception_4c/output_0_split
I0321 21:29:20.341451 13282 net.cpp:406] inception_4c/output_inception_4c/output_0_split <- inception_4c/output
I0321 21:29:20.341464 13282 net.cpp:380] inception_4c/output_inception_4c/output_0_split -> inception_4c/output_inception_4c/output_0_split_0
I0321 21:29:20.341478 13282 net.cpp:380] inception_4c/output_inception_4c/output_0_split -> inception_4c/output_inception_4c/output_0_split_1
I0321 21:29:20.341490 13282 net.cpp:380] inception_4c/output_inception_4c/output_0_split -> inception_4c/output_inception_4c/output_0_split_2
I0321 21:29:20.341502 13282 net.cpp:380] inception_4c/output_inception_4c/output_0_split -> inception_4c/output_inception_4c/output_0_split_3
I0321 21:29:20.341619 13282 net.cpp:122] Setting up inception_4c/output_inception_4c/output_0_split
I0321 21:29:20.341639 13282 net.cpp:129] Top shape: 10 512 14 14 (1003520)
I0321 21:29:20.341647 13282 net.cpp:129] Top shape: 10 512 14 14 (1003520)
I0321 21:29:20.341655 13282 net.cpp:129] Top shape: 10 512 14 14 (1003520)
I0321 21:29:20.341663 13282 net.cpp:129] Top shape: 10 512 14 14 (1003520)
I0321 21:29:20.341670 13282 net.cpp:137] Memory required for data: 458357760
I0321 21:29:20.341677 13282 layer_factory.hpp:77] Creating layer inception_4d/1x1
I0321 21:29:20.341693 13282 net.cpp:84] Creating Layer inception_4d/1x1
I0321 21:29:20.341701 13282 net.cpp:406] inception_4d/1x1 <- inception_4c/output_inception_4c/output_0_split_0
I0321 21:29:20.341717 13282 net.cpp:380] inception_4d/1x1 -> inception_4d/1x1
I0321 21:29:20.344547 13282 net.cpp:122] Setting up inception_4d/1x1
I0321 21:29:20.344571 13282 net.cpp:129] Top shape: 10 112 14 14 (219520)
I0321 21:29:20.344579 13282 net.cpp:137] Memory required for data: 459235840
I0321 21:29:20.344594 13282 layer_factory.hpp:77] Creating layer inception_4d/relu_1x1
I0321 21:29:20.344605 13282 net.cpp:84] Creating Layer inception_4d/relu_1x1
I0321 21:29:20.344614 13282 net.cpp:406] inception_4d/relu_1x1 <- inception_4d/1x1
I0321 21:29:20.344629 13282 net.cpp:367] inception_4d/relu_1x1 -> inception_4d/1x1 (in-place)
I0321 21:29:20.345005 13282 net.cpp:122] Setting up inception_4d/relu_1x1
I0321 21:29:20.345026 13282 net.cpp:129] Top shape: 10 112 14 14 (219520)
I0321 21:29:20.345034 13282 net.cpp:137] Memory required for data: 460113920
I0321 21:29:20.345042 13282 layer_factory.hpp:77] Creating layer inception_4d/3x3_reduce
I0321 21:29:20.345062 13282 net.cpp:84] Creating Layer inception_4d/3x3_reduce
I0321 21:29:20.345070 13282 net.cpp:406] inception_4d/3x3_reduce <- inception_4c/output_inception_4c/output_0_split_1
I0321 21:29:20.345085 13282 net.cpp:380] inception_4d/3x3_reduce -> inception_4d/3x3_reduce
I0321 21:29:20.348917 13282 net.cpp:122] Setting up inception_4d/3x3_reduce
I0321 21:29:20.348943 13282 net.cpp:129] Top shape: 10 144 14 14 (282240)
I0321 21:29:20.348951 13282 net.cpp:137] Memory required for data: 461242880
I0321 21:29:20.348964 13282 layer_factory.hpp:77] Creating layer inception_4d/relu_3x3_reduce
I0321 21:29:20.348976 13282 net.cpp:84] Creating Layer inception_4d/relu_3x3_reduce
I0321 21:29:20.348986 13282 net.cpp:406] inception_4d/relu_3x3_reduce <- inception_4d/3x3_reduce
I0321 21:29:20.349000 13282 net.cpp:367] inception_4d/relu_3x3_reduce -> inception_4d/3x3_reduce (in-place)
I0321 21:29:20.349606 13282 net.cpp:122] Setting up inception_4d/relu_3x3_reduce
I0321 21:29:20.349628 13282 net.cpp:129] Top shape: 10 144 14 14 (282240)
I0321 21:29:20.349635 13282 net.cpp:137] Memory required for data: 462371840
I0321 21:29:20.349643 13282 layer_factory.hpp:77] Creating layer inception_4d/3x3
I0321 21:29:20.349663 13282 net.cpp:84] Creating Layer inception_4d/3x3
I0321 21:29:20.349673 13282 net.cpp:406] inception_4d/3x3 <- inception_4d/3x3_reduce
I0321 21:29:20.349689 13282 net.cpp:380] inception_4d/3x3 -> inception_4d/3x3
I0321 21:29:20.357604 13282 net.cpp:122] Setting up inception_4d/3x3
I0321 21:29:20.357630 13282 net.cpp:129] Top shape: 10 288 14 14 (564480)
I0321 21:29:20.357638 13282 net.cpp:137] Memory required for data: 464629760
I0321 21:29:20.357651 13282 layer_factory.hpp:77] Creating layer inception_4d/relu_3x3
I0321 21:29:20.357664 13282 net.cpp:84] Creating Layer inception_4d/relu_3x3
I0321 21:29:20.357672 13282 net.cpp:406] inception_4d/relu_3x3 <- inception_4d/3x3
I0321 21:29:20.357687 13282 net.cpp:367] inception_4d/relu_3x3 -> inception_4d/3x3 (in-place)
I0321 21:29:20.358047 13282 net.cpp:122] Setting up inception_4d/relu_3x3
I0321 21:29:20.358067 13282 net.cpp:129] Top shape: 10 288 14 14 (564480)
I0321 21:29:20.358074 13282 net.cpp:137] Memory required for data: 466887680
I0321 21:29:20.358081 13282 layer_factory.hpp:77] Creating layer inception_4d/5x5_reduce
I0321 21:29:20.358100 13282 net.cpp:84] Creating Layer inception_4d/5x5_reduce
I0321 21:29:20.358109 13282 net.cpp:406] inception_4d/5x5_reduce <- inception_4c/output_inception_4c/output_0_split_2
I0321 21:29:20.358125 13282 net.cpp:380] inception_4d/5x5_reduce -> inception_4d/5x5_reduce
I0321 21:29:20.360472 13282 net.cpp:122] Setting up inception_4d/5x5_reduce
I0321 21:29:20.360496 13282 net.cpp:129] Top shape: 10 32 14 14 (62720)
I0321 21:29:20.360504 13282 net.cpp:137] Memory required for data: 467138560
I0321 21:29:20.360517 13282 layer_factory.hpp:77] Creating layer inception_4d/relu_5x5_reduce
I0321 21:29:20.360532 13282 net.cpp:84] Creating Layer inception_4d/relu_5x5_reduce
I0321 21:29:20.360543 13282 net.cpp:406] inception_4d/relu_5x5_reduce <- inception_4d/5x5_reduce
I0321 21:29:20.360555 13282 net.cpp:367] inception_4d/relu_5x5_reduce -> inception_4d/5x5_reduce (in-place)
I0321 21:29:20.360936 13282 net.cpp:122] Setting up inception_4d/relu_5x5_reduce
I0321 21:29:20.360957 13282 net.cpp:129] Top shape: 10 32 14 14 (62720)
I0321 21:29:20.360965 13282 net.cpp:137] Memory required for data: 467389440
I0321 21:29:20.360972 13282 layer_factory.hpp:77] Creating layer inception_4d/5x5
I0321 21:29:20.360992 13282 net.cpp:84] Creating Layer inception_4d/5x5
I0321 21:29:20.361001 13282 net.cpp:406] inception_4d/5x5 <- inception_4d/5x5_reduce
I0321 21:29:20.361017 13282 net.cpp:380] inception_4d/5x5 -> inception_4d/5x5
I0321 21:29:20.363790 13282 net.cpp:122] Setting up inception_4d/5x5
I0321 21:29:20.363814 13282 net.cpp:129] Top shape: 10 64 14 14 (125440)
I0321 21:29:20.363822 13282 net.cpp:137] Memory required for data: 467891200
I0321 21:29:20.363836 13282 layer_factory.hpp:77] Creating layer inception_4d/relu_5x5
I0321 21:29:20.363847 13282 net.cpp:84] Creating Layer inception_4d/relu_5x5
I0321 21:29:20.363859 13282 net.cpp:406] inception_4d/relu_5x5 <- inception_4d/5x5
I0321 21:29:20.363872 13282 net.cpp:367] inception_4d/relu_5x5 -> inception_4d/5x5 (in-place)
I0321 21:29:20.364477 13282 net.cpp:122] Setting up inception_4d/relu_5x5
I0321 21:29:20.364500 13282 net.cpp:129] Top shape: 10 64 14 14 (125440)
I0321 21:29:20.364507 13282 net.cpp:137] Memory required for data: 468392960
I0321 21:29:20.364516 13282 layer_factory.hpp:77] Creating layer inception_4d/pool
I0321 21:29:20.364528 13282 net.cpp:84] Creating Layer inception_4d/pool
I0321 21:29:20.364537 13282 net.cpp:406] inception_4d/pool <- inception_4c/output_inception_4c/output_0_split_3
I0321 21:29:20.364552 13282 net.cpp:380] inception_4d/pool -> inception_4d/pool
I0321 21:29:20.364641 13282 net.cpp:122] Setting up inception_4d/pool
I0321 21:29:20.364662 13282 net.cpp:129] Top shape: 10 512 14 14 (1003520)
I0321 21:29:20.364670 13282 net.cpp:137] Memory required for data: 472407040
I0321 21:29:20.364677 13282 layer_factory.hpp:77] Creating layer inception_4d/pool_proj
I0321 21:29:20.364694 13282 net.cpp:84] Creating Layer inception_4d/pool_proj
I0321 21:29:20.364702 13282 net.cpp:406] inception_4d/pool_proj <- inception_4d/pool
I0321 21:29:20.364717 13282 net.cpp:380] inception_4d/pool_proj -> inception_4d/pool_proj
I0321 21:29:20.367544 13282 net.cpp:122] Setting up inception_4d/pool_proj
I0321 21:29:20.367571 13282 net.cpp:129] Top shape: 10 64 14 14 (125440)
I0321 21:29:20.367579 13282 net.cpp:137] Memory required for data: 472908800
I0321 21:29:20.367593 13282 layer_factory.hpp:77] Creating layer inception_4d/relu_pool_proj
I0321 21:29:20.367604 13282 net.cpp:84] Creating Layer inception_4d/relu_pool_proj
I0321 21:29:20.367614 13282 net.cpp:406] inception_4d/relu_pool_proj <- inception_4d/pool_proj
I0321 21:29:20.367626 13282 net.cpp:367] inception_4d/relu_pool_proj -> inception_4d/pool_proj (in-place)
I0321 21:29:20.367995 13282 net.cpp:122] Setting up inception_4d/relu_pool_proj
I0321 21:29:20.368016 13282 net.cpp:129] Top shape: 10 64 14 14 (125440)
I0321 21:29:20.368023 13282 net.cpp:137] Memory required for data: 473410560
I0321 21:29:20.368031 13282 layer_factory.hpp:77] Creating layer inception_4d/output
I0321 21:29:20.368041 13282 net.cpp:84] Creating Layer inception_4d/output
I0321 21:29:20.368050 13282 net.cpp:406] inception_4d/output <- inception_4d/1x1
I0321 21:29:20.368063 13282 net.cpp:406] inception_4d/output <- inception_4d/3x3
I0321 21:29:20.368073 13282 net.cpp:406] inception_4d/output <- inception_4d/5x5
I0321 21:29:20.368082 13282 net.cpp:406] inception_4d/output <- inception_4d/pool_proj
I0321 21:29:20.368093 13282 net.cpp:380] inception_4d/output -> inception_4d/output
I0321 21:29:20.368154 13282 net.cpp:122] Setting up inception_4d/output
I0321 21:29:20.368170 13282 net.cpp:129] Top shape: 10 528 14 14 (1034880)
I0321 21:29:20.368177 13282 net.cpp:137] Memory required for data: 477550080
I0321 21:29:20.368185 13282 layer_factory.hpp:77] Creating layer inception_4d/output_inception_4d/output_0_split
I0321 21:29:20.368196 13282 net.cpp:84] Creating Layer inception_4d/output_inception_4d/output_0_split
I0321 21:29:20.368203 13282 net.cpp:406] inception_4d/output_inception_4d/output_0_split <- inception_4d/output
I0321 21:29:20.368213 13282 net.cpp:380] inception_4d/output_inception_4d/output_0_split -> inception_4d/output_inception_4d/output_0_split_0
I0321 21:29:20.368230 13282 net.cpp:380] inception_4d/output_inception_4d/output_0_split -> inception_4d/output_inception_4d/output_0_split_1
I0321 21:29:20.368243 13282 net.cpp:380] inception_4d/output_inception_4d/output_0_split -> inception_4d/output_inception_4d/output_0_split_2
I0321 21:29:20.368254 13282 net.cpp:380] inception_4d/output_inception_4d/output_0_split -> inception_4d/output_inception_4d/output_0_split_3
I0321 21:29:20.368394 13282 net.cpp:122] Setting up inception_4d/output_inception_4d/output_0_split
I0321 21:29:20.368412 13282 net.cpp:129] Top shape: 10 528 14 14 (1034880)
I0321 21:29:20.368420 13282 net.cpp:129] Top shape: 10 528 14 14 (1034880)
I0321 21:29:20.368428 13282 net.cpp:129] Top shape: 10 528 14 14 (1034880)
I0321 21:29:20.368437 13282 net.cpp:129] Top shape: 10 528 14 14 (1034880)
I0321 21:29:20.368443 13282 net.cpp:137] Memory required for data: 494108160
I0321 21:29:20.368450 13282 layer_factory.hpp:77] Creating layer inception_4e/1x1
I0321 21:29:20.368471 13282 net.cpp:84] Creating Layer inception_4e/1x1
I0321 21:29:20.368480 13282 net.cpp:406] inception_4e/1x1 <- inception_4d/output_inception_4d/output_0_split_0
I0321 21:29:20.368494 13282 net.cpp:380] inception_4e/1x1 -> inception_4e/1x1
I0321 21:29:20.372336 13282 net.cpp:122] Setting up inception_4e/1x1
I0321 21:29:20.372361 13282 net.cpp:129] Top shape: 10 256 14 14 (501760)
I0321 21:29:20.372370 13282 net.cpp:137] Memory required for data: 496115200
I0321 21:29:20.372382 13282 layer_factory.hpp:77] Creating layer inception_4e/relu_1x1
I0321 21:29:20.372395 13282 net.cpp:84] Creating Layer inception_4e/relu_1x1
I0321 21:29:20.372406 13282 net.cpp:406] inception_4e/relu_1x1 <- inception_4e/1x1
I0321 21:29:20.372417 13282 net.cpp:367] inception_4e/relu_1x1 -> inception_4e/1x1 (in-place)
I0321 21:29:20.372788 13282 net.cpp:122] Setting up inception_4e/relu_1x1
I0321 21:29:20.372809 13282 net.cpp:129] Top shape: 10 256 14 14 (501760)
I0321 21:29:20.372817 13282 net.cpp:137] Memory required for data: 498122240
I0321 21:29:20.372824 13282 layer_factory.hpp:77] Creating layer inception_4e/3x3_reduce
I0321 21:29:20.372846 13282 net.cpp:84] Creating Layer inception_4e/3x3_reduce
I0321 21:29:20.372855 13282 net.cpp:406] inception_4e/3x3_reduce <- inception_4d/output_inception_4d/output_0_split_1
I0321 21:29:20.372884 13282 net.cpp:380] inception_4e/3x3_reduce -> inception_4e/3x3_reduce
I0321 21:29:20.376924 13282 net.cpp:122] Setting up inception_4e/3x3_reduce
I0321 21:29:20.376950 13282 net.cpp:129] Top shape: 10 160 14 14 (313600)
I0321 21:29:20.376958 13282 net.cpp:137] Memory required for data: 499376640
I0321 21:29:20.376971 13282 layer_factory.hpp:77] Creating layer inception_4e/relu_3x3_reduce
I0321 21:29:20.376987 13282 net.cpp:84] Creating Layer inception_4e/relu_3x3_reduce
I0321 21:29:20.376997 13282 net.cpp:406] inception_4e/relu_3x3_reduce <- inception_4e/3x3_reduce
I0321 21:29:20.377008 13282 net.cpp:367] inception_4e/relu_3x3_reduce -> inception_4e/3x3_reduce (in-place)
I0321 21:29:20.377627 13282 net.cpp:122] Setting up inception_4e/relu_3x3_reduce
I0321 21:29:20.377650 13282 net.cpp:129] Top shape: 10 160 14 14 (313600)
I0321 21:29:20.377657 13282 net.cpp:137] Memory required for data: 500631040
I0321 21:29:20.377665 13282 layer_factory.hpp:77] Creating layer inception_4e/3x3
I0321 21:29:20.377688 13282 net.cpp:84] Creating Layer inception_4e/3x3
I0321 21:29:20.377697 13282 net.cpp:406] inception_4e/3x3 <- inception_4e/3x3_reduce
I0321 21:29:20.377710 13282 net.cpp:380] inception_4e/3x3 -> inception_4e/3x3
I0321 21:29:20.386991 13282 net.cpp:122] Setting up inception_4e/3x3
I0321 21:29:20.387017 13282 net.cpp:129] Top shape: 10 320 14 14 (627200)
I0321 21:29:20.387025 13282 net.cpp:137] Memory required for data: 503139840
I0321 21:29:20.387039 13282 layer_factory.hpp:77] Creating layer inception_4e/relu_3x3
I0321 21:29:20.387051 13282 net.cpp:84] Creating Layer inception_4e/relu_3x3
I0321 21:29:20.387060 13282 net.cpp:406] inception_4e/relu_3x3 <- inception_4e/3x3
I0321 21:29:20.387073 13282 net.cpp:367] inception_4e/relu_3x3 -> inception_4e/3x3 (in-place)
I0321 21:29:20.387446 13282 net.cpp:122] Setting up inception_4e/relu_3x3
I0321 21:29:20.387466 13282 net.cpp:129] Top shape: 10 320 14 14 (627200)
I0321 21:29:20.387475 13282 net.cpp:137] Memory required for data: 505648640
I0321 21:29:20.387481 13282 layer_factory.hpp:77] Creating layer inception_4e/5x5_reduce
I0321 21:29:20.387502 13282 net.cpp:84] Creating Layer inception_4e/5x5_reduce
I0321 21:29:20.387511 13282 net.cpp:406] inception_4e/5x5_reduce <- inception_4d/output_inception_4d/output_0_split_2
I0321 21:29:20.387527 13282 net.cpp:380] inception_4e/5x5_reduce -> inception_4e/5x5_reduce
I0321 21:29:20.389914 13282 net.cpp:122] Setting up inception_4e/5x5_reduce
I0321 21:29:20.389940 13282 net.cpp:129] Top shape: 10 32 14 14 (62720)
I0321 21:29:20.389948 13282 net.cpp:137] Memory required for data: 505899520
I0321 21:29:20.389961 13282 layer_factory.hpp:77] Creating layer inception_4e/relu_5x5_reduce
I0321 21:29:20.389973 13282 net.cpp:84] Creating Layer inception_4e/relu_5x5_reduce
I0321 21:29:20.389982 13282 net.cpp:406] inception_4e/relu_5x5_reduce <- inception_4e/5x5_reduce
I0321 21:29:20.389992 13282 net.cpp:367] inception_4e/relu_5x5_reduce -> inception_4e/5x5_reduce (in-place)
I0321 21:29:20.390368 13282 net.cpp:122] Setting up inception_4e/relu_5x5_reduce
I0321 21:29:20.390389 13282 net.cpp:129] Top shape: 10 32 14 14 (62720)
I0321 21:29:20.390396 13282 net.cpp:137] Memory required for data: 506150400
I0321 21:29:20.390404 13282 layer_factory.hpp:77] Creating layer inception_4e/5x5
I0321 21:29:20.390424 13282 net.cpp:84] Creating Layer inception_4e/5x5
I0321 21:29:20.390434 13282 net.cpp:406] inception_4e/5x5 <- inception_4e/5x5_reduce
I0321 21:29:20.390450 13282 net.cpp:380] inception_4e/5x5 -> inception_4e/5x5
I0321 21:29:20.393929 13282 net.cpp:122] Setting up inception_4e/5x5
I0321 21:29:20.393954 13282 net.cpp:129] Top shape: 10 128 14 14 (250880)
I0321 21:29:20.393962 13282 net.cpp:137] Memory required for data: 507153920
I0321 21:29:20.393975 13282 layer_factory.hpp:77] Creating layer inception_4e/relu_5x5
I0321 21:29:20.393987 13282 net.cpp:84] Creating Layer inception_4e/relu_5x5
I0321 21:29:20.393996 13282 net.cpp:406] inception_4e/relu_5x5 <- inception_4e/5x5
I0321 21:29:20.394007 13282 net.cpp:367] inception_4e/relu_5x5 -> inception_4e/5x5 (in-place)
I0321 21:29:20.394629 13282 net.cpp:122] Setting up inception_4e/relu_5x5
I0321 21:29:20.394651 13282 net.cpp:129] Top shape: 10 128 14 14 (250880)
I0321 21:29:20.394659 13282 net.cpp:137] Memory required for data: 508157440
I0321 21:29:20.394667 13282 layer_factory.hpp:77] Creating layer inception_4e/pool
I0321 21:29:20.394680 13282 net.cpp:84] Creating Layer inception_4e/pool
I0321 21:29:20.394688 13282 net.cpp:406] inception_4e/pool <- inception_4d/output_inception_4d/output_0_split_3
I0321 21:29:20.394703 13282 net.cpp:380] inception_4e/pool -> inception_4e/pool
I0321 21:29:20.394796 13282 net.cpp:122] Setting up inception_4e/pool
I0321 21:29:20.394815 13282 net.cpp:129] Top shape: 10 528 14 14 (1034880)
I0321 21:29:20.394822 13282 net.cpp:137] Memory required for data: 512296960
I0321 21:29:20.394829 13282 layer_factory.hpp:77] Creating layer inception_4e/pool_proj
I0321 21:29:20.394851 13282 net.cpp:84] Creating Layer inception_4e/pool_proj
I0321 21:29:20.394860 13282 net.cpp:406] inception_4e/pool_proj <- inception_4e/pool
I0321 21:29:20.394873 13282 net.cpp:380] inception_4e/pool_proj -> inception_4e/pool_proj
I0321 21:29:20.397919 13282 net.cpp:122] Setting up inception_4e/pool_proj
I0321 21:29:20.397944 13282 net.cpp:129] Top shape: 10 128 14 14 (250880)
I0321 21:29:20.397953 13282 net.cpp:137] Memory required for data: 513300480
I0321 21:29:20.397965 13282 layer_factory.hpp:77] Creating layer inception_4e/relu_pool_proj
I0321 21:29:20.397981 13282 net.cpp:84] Creating Layer inception_4e/relu_pool_proj
I0321 21:29:20.397990 13282 net.cpp:406] inception_4e/relu_pool_proj <- inception_4e/pool_proj
I0321 21:29:20.398002 13282 net.cpp:367] inception_4e/relu_pool_proj -> inception_4e/pool_proj (in-place)
I0321 21:29:20.398383 13282 net.cpp:122] Setting up inception_4e/relu_pool_proj
I0321 21:29:20.398404 13282 net.cpp:129] Top shape: 10 128 14 14 (250880)
I0321 21:29:20.398412 13282 net.cpp:137] Memory required for data: 514304000
I0321 21:29:20.398419 13282 layer_factory.hpp:77] Creating layer inception_4e/output
I0321 21:29:20.398432 13282 net.cpp:84] Creating Layer inception_4e/output
I0321 21:29:20.398439 13282 net.cpp:406] inception_4e/output <- inception_4e/1x1
I0321 21:29:20.398449 13282 net.cpp:406] inception_4e/output <- inception_4e/3x3
I0321 21:29:20.398458 13282 net.cpp:406] inception_4e/output <- inception_4e/5x5
I0321 21:29:20.398468 13282 net.cpp:406] inception_4e/output <- inception_4e/pool_proj
I0321 21:29:20.398481 13282 net.cpp:380] inception_4e/output -> inception_4e/output
I0321 21:29:20.398550 13282 net.cpp:122] Setting up inception_4e/output
I0321 21:29:20.398566 13282 net.cpp:129] Top shape: 10 832 14 14 (1630720)
I0321 21:29:20.398573 13282 net.cpp:137] Memory required for data: 520826880
I0321 21:29:20.398581 13282 layer_factory.hpp:77] Creating layer pool4/3x3_s2
I0321 21:29:20.398593 13282 net.cpp:84] Creating Layer pool4/3x3_s2
I0321 21:29:20.398602 13282 net.cpp:406] pool4/3x3_s2 <- inception_4e/output
I0321 21:29:20.398613 13282 net.cpp:380] pool4/3x3_s2 -> pool4/3x3_s2
I0321 21:29:20.398705 13282 net.cpp:122] Setting up pool4/3x3_s2
I0321 21:29:20.398722 13282 net.cpp:129] Top shape: 10 832 7 7 (407680)
I0321 21:29:20.398730 13282 net.cpp:137] Memory required for data: 522457600
I0321 21:29:20.398736 13282 layer_factory.hpp:77] Creating layer pool4/3x3_s2_pool4/3x3_s2_0_split
I0321 21:29:20.398747 13282 net.cpp:84] Creating Layer pool4/3x3_s2_pool4/3x3_s2_0_split
I0321 21:29:20.398756 13282 net.cpp:406] pool4/3x3_s2_pool4/3x3_s2_0_split <- pool4/3x3_s2
I0321 21:29:20.398768 13282 net.cpp:380] pool4/3x3_s2_pool4/3x3_s2_0_split -> pool4/3x3_s2_pool4/3x3_s2_0_split_0
I0321 21:29:20.398782 13282 net.cpp:380] pool4/3x3_s2_pool4/3x3_s2_0_split -> pool4/3x3_s2_pool4/3x3_s2_0_split_1
I0321 21:29:20.398794 13282 net.cpp:380] pool4/3x3_s2_pool4/3x3_s2_0_split -> pool4/3x3_s2_pool4/3x3_s2_0_split_2
I0321 21:29:20.398807 13282 net.cpp:380] pool4/3x3_s2_pool4/3x3_s2_0_split -> pool4/3x3_s2_pool4/3x3_s2_0_split_3
I0321 21:29:20.398938 13282 net.cpp:122] Setting up pool4/3x3_s2_pool4/3x3_s2_0_split
I0321 21:29:20.398955 13282 net.cpp:129] Top shape: 10 832 7 7 (407680)
I0321 21:29:20.398964 13282 net.cpp:129] Top shape: 10 832 7 7 (407680)
I0321 21:29:20.398973 13282 net.cpp:129] Top shape: 10 832 7 7 (407680)
I0321 21:29:20.398982 13282 net.cpp:129] Top shape: 10 832 7 7 (407680)
I0321 21:29:20.398988 13282 net.cpp:137] Memory required for data: 528980480
I0321 21:29:20.398994 13282 layer_factory.hpp:77] Creating layer inception_5a/1x1
I0321 21:29:20.399015 13282 net.cpp:84] Creating Layer inception_5a/1x1
I0321 21:29:20.399024 13282 net.cpp:406] inception_5a/1x1 <- pool4/3x3_s2_pool4/3x3_s2_0_split_0
I0321 21:29:20.399036 13282 net.cpp:380] inception_5a/1x1 -> inception_5a/1x1
I0321 21:29:20.404953 13282 net.cpp:122] Setting up inception_5a/1x1
I0321 21:29:20.404988 13282 net.cpp:129] Top shape: 10 256 7 7 (125440)
I0321 21:29:20.404995 13282 net.cpp:137] Memory required for data: 529482240
I0321 21:29:20.405011 13282 layer_factory.hpp:77] Creating layer inception_5a/relu_1x1
I0321 21:29:20.405030 13282 net.cpp:84] Creating Layer inception_5a/relu_1x1
I0321 21:29:20.405040 13282 net.cpp:406] inception_5a/relu_1x1 <- inception_5a/1x1
I0321 21:29:20.405053 13282 net.cpp:367] inception_5a/relu_1x1 -> inception_5a/1x1 (in-place)
I0321 21:29:20.405421 13282 net.cpp:122] Setting up inception_5a/relu_1x1
I0321 21:29:20.405447 13282 net.cpp:129] Top shape: 10 256 7 7 (125440)
I0321 21:29:20.405454 13282 net.cpp:137] Memory required for data: 529984000
I0321 21:29:20.405462 13282 layer_factory.hpp:77] Creating layer inception_5a/3x3_reduce
I0321 21:29:20.405488 13282 net.cpp:84] Creating Layer inception_5a/3x3_reduce
I0321 21:29:20.405498 13282 net.cpp:406] inception_5a/3x3_reduce <- pool4/3x3_s2_pool4/3x3_s2_0_split_1
I0321 21:29:20.405511 13282 net.cpp:380] inception_5a/3x3_reduce -> inception_5a/3x3_reduce
I0321 21:29:20.410604 13282 net.cpp:122] Setting up inception_5a/3x3_reduce
I0321 21:29:20.410636 13282 net.cpp:129] Top shape: 10 160 7 7 (78400)
I0321 21:29:20.410645 13282 net.cpp:137] Memory required for data: 530297600
I0321 21:29:20.410660 13282 layer_factory.hpp:77] Creating layer inception_5a/relu_3x3_reduce
I0321 21:29:20.410675 13282 net.cpp:84] Creating Layer inception_5a/relu_3x3_reduce
I0321 21:29:20.410683 13282 net.cpp:406] inception_5a/relu_3x3_reduce <- inception_5a/3x3_reduce
I0321 21:29:20.410701 13282 net.cpp:367] inception_5a/relu_3x3_reduce -> inception_5a/3x3_reduce (in-place)
I0321 21:29:20.411334 13282 net.cpp:122] Setting up inception_5a/relu_3x3_reduce
I0321 21:29:20.411356 13282 net.cpp:129] Top shape: 10 160 7 7 (78400)
I0321 21:29:20.411365 13282 net.cpp:137] Memory required for data: 530611200
I0321 21:29:20.411372 13282 layer_factory.hpp:77] Creating layer inception_5a/3x3
I0321 21:29:20.411394 13282 net.cpp:84] Creating Layer inception_5a/3x3
I0321 21:29:20.411407 13282 net.cpp:406] inception_5a/3x3 <- inception_5a/3x3_reduce
I0321 21:29:20.411423 13282 net.cpp:380] inception_5a/3x3 -> inception_5a/3x3
I0321 21:29:20.421097 13282 net.cpp:122] Setting up inception_5a/3x3
I0321 21:29:20.421145 13282 net.cpp:129] Top shape: 10 320 7 7 (156800)
I0321 21:29:20.421154 13282 net.cpp:137] Memory required for data: 531238400
I0321 21:29:20.421171 13282 layer_factory.hpp:77] Creating layer inception_5a/relu_3x3
I0321 21:29:20.421190 13282 net.cpp:84] Creating Layer inception_5a/relu_3x3
I0321 21:29:20.421201 13282 net.cpp:406] inception_5a/relu_3x3 <- inception_5a/3x3
I0321 21:29:20.421216 13282 net.cpp:367] inception_5a/relu_3x3 -> inception_5a/3x3 (in-place)
I0321 21:29:20.421600 13282 net.cpp:122] Setting up inception_5a/relu_3x3
I0321 21:29:20.421622 13282 net.cpp:129] Top shape: 10 320 7 7 (156800)
I0321 21:29:20.421633 13282 net.cpp:137] Memory required for data: 531865600
I0321 21:29:20.421640 13282 layer_factory.hpp:77] Creating layer inception_5a/5x5_reduce
I0321 21:29:20.421663 13282 net.cpp:84] Creating Layer inception_5a/5x5_reduce
I0321 21:29:20.421676 13282 net.cpp:406] inception_5a/5x5_reduce <- pool4/3x3_s2_pool4/3x3_s2_0_split_2
I0321 21:29:20.421696 13282 net.cpp:380] inception_5a/5x5_reduce -> inception_5a/5x5_reduce
I0321 21:29:20.424477 13282 net.cpp:122] Setting up inception_5a/5x5_reduce
I0321 21:29:20.424504 13282 net.cpp:129] Top shape: 10 32 7 7 (15680)
I0321 21:29:20.424511 13282 net.cpp:137] Memory required for data: 531928320
I0321 21:29:20.424525 13282 layer_factory.hpp:77] Creating layer inception_5a/relu_5x5_reduce
I0321 21:29:20.424540 13282 net.cpp:84] Creating Layer inception_5a/relu_5x5_reduce
I0321 21:29:20.424552 13282 net.cpp:406] inception_5a/relu_5x5_reduce <- inception_5a/5x5_reduce
I0321 21:29:20.424564 13282 net.cpp:367] inception_5a/relu_5x5_reduce -> inception_5a/5x5_reduce (in-place)
I0321 21:29:20.424959 13282 net.cpp:122] Setting up inception_5a/relu_5x5_reduce
I0321 21:29:20.424981 13282 net.cpp:129] Top shape: 10 32 7 7 (15680)
I0321 21:29:20.424989 13282 net.cpp:137] Memory required for data: 531991040
I0321 21:29:20.424996 13282 layer_factory.hpp:77] Creating layer inception_5a/5x5
I0321 21:29:20.425024 13282 net.cpp:84] Creating Layer inception_5a/5x5
I0321 21:29:20.425036 13282 net.cpp:406] inception_5a/5x5 <- inception_5a/5x5_reduce
I0321 21:29:20.425052 13282 net.cpp:380] inception_5a/5x5 -> inception_5a/5x5
I0321 21:29:20.428637 13282 net.cpp:122] Setting up inception_5a/5x5
I0321 21:29:20.428666 13282 net.cpp:129] Top shape: 10 128 7 7 (62720)
I0321 21:29:20.428680 13282 net.cpp:137] Memory required for data: 532241920
I0321 21:29:20.428709 13282 layer_factory.hpp:77] Creating layer inception_5a/relu_5x5
I0321 21:29:20.428773 13282 net.cpp:84] Creating Layer inception_5a/relu_5x5
I0321 21:29:20.428791 13282 net.cpp:406] inception_5a/relu_5x5 <- inception_5a/5x5
I0321 21:29:20.428805 13282 net.cpp:367] inception_5a/relu_5x5 -> inception_5a/5x5 (in-place)
I0321 21:29:20.429455 13282 net.cpp:122] Setting up inception_5a/relu_5x5
I0321 21:29:20.429481 13282 net.cpp:129] Top shape: 10 128 7 7 (62720)
I0321 21:29:20.429493 13282 net.cpp:137] Memory required for data: 532492800
I0321 21:29:20.429502 13282 layer_factory.hpp:77] Creating layer inception_5a/pool
I0321 21:29:20.429519 13282 net.cpp:84] Creating Layer inception_5a/pool
I0321 21:29:20.429530 13282 net.cpp:406] inception_5a/pool <- pool4/3x3_s2_pool4/3x3_s2_0_split_3
I0321 21:29:20.429543 13282 net.cpp:380] inception_5a/pool -> inception_5a/pool
I0321 21:29:20.429647 13282 net.cpp:122] Setting up inception_5a/pool
I0321 21:29:20.429666 13282 net.cpp:129] Top shape: 10 832 7 7 (407680)
I0321 21:29:20.429672 13282 net.cpp:137] Memory required for data: 534123520
I0321 21:29:20.429680 13282 layer_factory.hpp:77] Creating layer inception_5a/pool_proj
I0321 21:29:20.429700 13282 net.cpp:84] Creating Layer inception_5a/pool_proj
I0321 21:29:20.429711 13282 net.cpp:406] inception_5a/pool_proj <- inception_5a/pool
I0321 21:29:20.429728 13282 net.cpp:380] inception_5a/pool_proj -> inception_5a/pool_proj
I0321 21:29:20.434207 13282 net.cpp:122] Setting up inception_5a/pool_proj
I0321 21:29:20.434240 13282 net.cpp:129] Top shape: 10 128 7 7 (62720)
I0321 21:29:20.434249 13282 net.cpp:137] Memory required for data: 534374400
I0321 21:29:20.434263 13282 layer_factory.hpp:77] Creating layer inception_5a/relu_pool_proj
I0321 21:29:20.434276 13282 net.cpp:84] Creating Layer inception_5a/relu_pool_proj
I0321 21:29:20.434286 13282 net.cpp:406] inception_5a/relu_pool_proj <- inception_5a/pool_proj
I0321 21:29:20.434298 13282 net.cpp:367] inception_5a/relu_pool_proj -> inception_5a/pool_proj (in-place)
I0321 21:29:20.434684 13282 net.cpp:122] Setting up inception_5a/relu_pool_proj
I0321 21:29:20.434705 13282 net.cpp:129] Top shape: 10 128 7 7 (62720)
I0321 21:29:20.434712 13282 net.cpp:137] Memory required for data: 534625280
I0321 21:29:20.434720 13282 layer_factory.hpp:77] Creating layer inception_5a/output
I0321 21:29:20.434737 13282 net.cpp:84] Creating Layer inception_5a/output
I0321 21:29:20.434746 13282 net.cpp:406] inception_5a/output <- inception_5a/1x1
I0321 21:29:20.434756 13282 net.cpp:406] inception_5a/output <- inception_5a/3x3
I0321 21:29:20.434773 13282 net.cpp:406] inception_5a/output <- inception_5a/5x5
I0321 21:29:20.434782 13282 net.cpp:406] inception_5a/output <- inception_5a/pool_proj
I0321 21:29:20.434792 13282 net.cpp:380] inception_5a/output -> inception_5a/output
I0321 21:29:20.434856 13282 net.cpp:122] Setting up inception_5a/output
I0321 21:29:20.434873 13282 net.cpp:129] Top shape: 10 832 7 7 (407680)
I0321 21:29:20.434880 13282 net.cpp:137] Memory required for data: 536256000
I0321 21:29:20.434887 13282 layer_factory.hpp:77] Creating layer inception_5a/output_inception_5a/output_0_split
I0321 21:29:20.434903 13282 net.cpp:84] Creating Layer inception_5a/output_inception_5a/output_0_split
I0321 21:29:20.434913 13282 net.cpp:406] inception_5a/output_inception_5a/output_0_split <- inception_5a/output
I0321 21:29:20.434927 13282 net.cpp:380] inception_5a/output_inception_5a/output_0_split -> inception_5a/output_inception_5a/output_0_split_0
I0321 21:29:20.434943 13282 net.cpp:380] inception_5a/output_inception_5a/output_0_split -> inception_5a/output_inception_5a/output_0_split_1
I0321 21:29:20.434958 13282 net.cpp:380] inception_5a/output_inception_5a/output_0_split -> inception_5a/output_inception_5a/output_0_split_2
I0321 21:29:20.434970 13282 net.cpp:380] inception_5a/output_inception_5a/output_0_split -> inception_5a/output_inception_5a/output_0_split_3
I0321 21:29:20.435107 13282 net.cpp:122] Setting up inception_5a/output_inception_5a/output_0_split
I0321 21:29:20.435124 13282 net.cpp:129] Top shape: 10 832 7 7 (407680)
I0321 21:29:20.435133 13282 net.cpp:129] Top shape: 10 832 7 7 (407680)
I0321 21:29:20.435142 13282 net.cpp:129] Top shape: 10 832 7 7 (407680)
I0321 21:29:20.435149 13282 net.cpp:129] Top shape: 10 832 7 7 (407680)
I0321 21:29:20.435156 13282 net.cpp:137] Memory required for data: 542778880
I0321 21:29:20.435163 13282 layer_factory.hpp:77] Creating layer inception_5b/1x1
I0321 21:29:20.435184 13282 net.cpp:84] Creating Layer inception_5b/1x1
I0321 21:29:20.435195 13282 net.cpp:406] inception_5b/1x1 <- inception_5a/output_inception_5a/output_0_split_0
I0321 21:29:20.435211 13282 net.cpp:380] inception_5b/1x1 -> inception_5b/1x1
I0321 21:29:20.442592 13282 net.cpp:122] Setting up inception_5b/1x1
I0321 21:29:20.442627 13282 net.cpp:129] Top shape: 10 384 7 7 (188160)
I0321 21:29:20.442636 13282 net.cpp:137] Memory required for data: 543531520
I0321 21:29:20.442651 13282 layer_factory.hpp:77] Creating layer inception_5b/relu_1x1
I0321 21:29:20.442669 13282 net.cpp:84] Creating Layer inception_5b/relu_1x1
I0321 21:29:20.442689 13282 net.cpp:406] inception_5b/relu_1x1 <- inception_5b/1x1
I0321 21:29:20.442703 13282 net.cpp:367] inception_5b/relu_1x1 -> inception_5b/1x1 (in-place)
I0321 21:29:20.443091 13282 net.cpp:122] Setting up inception_5b/relu_1x1
I0321 21:29:20.443112 13282 net.cpp:129] Top shape: 10 384 7 7 (188160)
I0321 21:29:20.443120 13282 net.cpp:137] Memory required for data: 544284160
I0321 21:29:20.443127 13282 layer_factory.hpp:77] Creating layer inception_5b/3x3_reduce
I0321 21:29:20.443151 13282 net.cpp:84] Creating Layer inception_5b/3x3_reduce
I0321 21:29:20.443164 13282 net.cpp:406] inception_5b/3x3_reduce <- inception_5a/output_inception_5a/output_0_split_1
I0321 21:29:20.443177 13282 net.cpp:380] inception_5b/3x3_reduce -> inception_5b/3x3_reduce
I0321 21:29:20.449295 13282 net.cpp:122] Setting up inception_5b/3x3_reduce
I0321 21:29:20.449369 13282 net.cpp:129] Top shape: 10 192 7 7 (94080)
I0321 21:29:20.449378 13282 net.cpp:137] Memory required for data: 544660480
I0321 21:29:20.449400 13282 layer_factory.hpp:77] Creating layer inception_5b/relu_3x3_reduce
I0321 21:29:20.449422 13282 net.cpp:84] Creating Layer inception_5b/relu_3x3_reduce
I0321 21:29:20.449437 13282 net.cpp:406] inception_5b/relu_3x3_reduce <- inception_5b/3x3_reduce
I0321 21:29:20.449455 13282 net.cpp:367] inception_5b/relu_3x3_reduce -> inception_5b/3x3_reduce (in-place)
I0321 21:29:20.450201 13282 net.cpp:122] Setting up inception_5b/relu_3x3_reduce
I0321 21:29:20.450225 13282 net.cpp:129] Top shape: 10 192 7 7 (94080)
I0321 21:29:20.450233 13282 net.cpp:137] Memory required for data: 545036800
I0321 21:29:20.450242 13282 layer_factory.hpp:77] Creating layer inception_5b/3x3
I0321 21:29:20.450268 13282 net.cpp:84] Creating Layer inception_5b/3x3
I0321 21:29:20.450278 13282 net.cpp:406] inception_5b/3x3 <- inception_5b/3x3_reduce
I0321 21:29:20.450294 13282 net.cpp:380] inception_5b/3x3 -> inception_5b/3x3
I0321 21:29:20.463578 13282 net.cpp:122] Setting up inception_5b/3x3
I0321 21:29:20.463639 13282 net.cpp:129] Top shape: 10 384 7 7 (188160)
I0321 21:29:20.463649 13282 net.cpp:137] Memory required for data: 545789440
I0321 21:29:20.463668 13282 layer_factory.hpp:77] Creating layer inception_5b/relu_3x3
I0321 21:29:20.463688 13282 net.cpp:84] Creating Layer inception_5b/relu_3x3
I0321 21:29:20.463702 13282 net.cpp:406] inception_5b/relu_3x3 <- inception_5b/3x3
I0321 21:29:20.463718 13282 net.cpp:367] inception_5b/relu_3x3 -> inception_5b/3x3 (in-place)
I0321 21:29:20.464107 13282 net.cpp:122] Setting up inception_5b/relu_3x3
I0321 21:29:20.464128 13282 net.cpp:129] Top shape: 10 384 7 7 (188160)
I0321 21:29:20.464135 13282 net.cpp:137] Memory required for data: 546542080
I0321 21:29:20.464143 13282 layer_factory.hpp:77] Creating layer inception_5b/5x5_reduce
I0321 21:29:20.464169 13282 net.cpp:84] Creating Layer inception_5b/5x5_reduce
I0321 21:29:20.464179 13282 net.cpp:406] inception_5b/5x5_reduce <- inception_5a/output_inception_5a/output_0_split_2
I0321 21:29:20.464193 13282 net.cpp:380] inception_5b/5x5_reduce -> inception_5b/5x5_reduce
I0321 21:29:20.468314 13282 net.cpp:122] Setting up inception_5b/5x5_reduce
I0321 21:29:20.468343 13282 net.cpp:129] Top shape: 10 48 7 7 (23520)
I0321 21:29:20.468350 13282 net.cpp:137] Memory required for data: 546636160
I0321 21:29:20.468364 13282 layer_factory.hpp:77] Creating layer inception_5b/relu_5x5_reduce
I0321 21:29:20.468376 13282 net.cpp:84] Creating Layer inception_5b/relu_5x5_reduce
I0321 21:29:20.468385 13282 net.cpp:406] inception_5b/relu_5x5_reduce <- inception_5b/5x5_reduce
I0321 21:29:20.468396 13282 net.cpp:367] inception_5b/relu_5x5_reduce -> inception_5b/5x5_reduce (in-place)
I0321 21:29:20.468694 13282 net.cpp:122] Setting up inception_5b/relu_5x5_reduce
I0321 21:29:20.468714 13282 net.cpp:129] Top shape: 10 48 7 7 (23520)
I0321 21:29:20.468721 13282 net.cpp:137] Memory required for data: 546730240
I0321 21:29:20.468729 13282 layer_factory.hpp:77] Creating layer inception_5b/5x5
I0321 21:29:20.468750 13282 net.cpp:84] Creating Layer inception_5b/5x5
I0321 21:29:20.468760 13282 net.cpp:406] inception_5b/5x5 <- inception_5b/5x5_reduce
I0321 21:29:20.468775 13282 net.cpp:380] inception_5b/5x5 -> inception_5b/5x5
I0321 21:29:20.472754 13282 net.cpp:122] Setting up inception_5b/5x5
I0321 21:29:20.472779 13282 net.cpp:129] Top shape: 10 128 7 7 (62720)
I0321 21:29:20.472786 13282 net.cpp:137] Memory required for data: 546981120
I0321 21:29:20.472800 13282 layer_factory.hpp:77] Creating layer inception_5b/relu_5x5
I0321 21:29:20.472811 13282 net.cpp:84] Creating Layer inception_5b/relu_5x5
I0321 21:29:20.472820 13282 net.cpp:406] inception_5b/relu_5x5 <- inception_5b/5x5
I0321 21:29:20.472831 13282 net.cpp:367] inception_5b/relu_5x5 -> inception_5b/5x5 (in-place)
I0321 21:29:20.473381 13282 net.cpp:122] Setting up inception_5b/relu_5x5
I0321 21:29:20.473405 13282 net.cpp:129] Top shape: 10 128 7 7 (62720)
I0321 21:29:20.473413 13282 net.cpp:137] Memory required for data: 547232000
I0321 21:29:20.473422 13282 layer_factory.hpp:77] Creating layer inception_5b/pool
I0321 21:29:20.473436 13282 net.cpp:84] Creating Layer inception_5b/pool
I0321 21:29:20.473445 13282 net.cpp:406] inception_5b/pool <- inception_5a/output_inception_5a/output_0_split_3
I0321 21:29:20.473461 13282 net.cpp:380] inception_5b/pool -> inception_5b/pool
I0321 21:29:20.473567 13282 net.cpp:122] Setting up inception_5b/pool
I0321 21:29:20.473584 13282 net.cpp:129] Top shape: 10 832 7 7 (407680)
I0321 21:29:20.473592 13282 net.cpp:137] Memory required for data: 548862720
I0321 21:29:20.473599 13282 layer_factory.hpp:77] Creating layer inception_5b/pool_proj
I0321 21:29:20.473621 13282 net.cpp:84] Creating Layer inception_5b/pool_proj
I0321 21:29:20.473630 13282 net.cpp:406] inception_5b/pool_proj <- inception_5b/pool
I0321 21:29:20.473644 13282 net.cpp:380] inception_5b/pool_proj -> inception_5b/pool_proj
I0321 21:29:20.477761 13282 net.cpp:122] Setting up inception_5b/pool_proj
I0321 21:29:20.477787 13282 net.cpp:129] Top shape: 10 128 7 7 (62720)
I0321 21:29:20.477794 13282 net.cpp:137] Memory required for data: 549113600
I0321 21:29:20.477808 13282 layer_factory.hpp:77] Creating layer inception_5b/relu_pool_proj
I0321 21:29:20.477820 13282 net.cpp:84] Creating Layer inception_5b/relu_pool_proj
I0321 21:29:20.477829 13282 net.cpp:406] inception_5b/relu_pool_proj <- inception_5b/pool_proj
I0321 21:29:20.477843 13282 net.cpp:367] inception_5b/relu_pool_proj -> inception_5b/pool_proj (in-place)
I0321 21:29:20.478132 13282 net.cpp:122] Setting up inception_5b/relu_pool_proj
I0321 21:29:20.478152 13282 net.cpp:129] Top shape: 10 128 7 7 (62720)
I0321 21:29:20.478163 13282 net.cpp:137] Memory required for data: 549364480
I0321 21:29:20.478171 13282 layer_factory.hpp:77] Creating layer inception_5b/output
I0321 21:29:20.478184 13282 net.cpp:84] Creating Layer inception_5b/output
I0321 21:29:20.478193 13282 net.cpp:406] inception_5b/output <- inception_5b/1x1
I0321 21:29:20.478202 13282 net.cpp:406] inception_5b/output <- inception_5b/3x3
I0321 21:29:20.478211 13282 net.cpp:406] inception_5b/output <- inception_5b/5x5
I0321 21:29:20.478224 13282 net.cpp:406] inception_5b/output <- inception_5b/pool_proj
I0321 21:29:20.478235 13282 net.cpp:380] inception_5b/output -> inception_5b/output
I0321 21:29:20.478302 13282 net.cpp:122] Setting up inception_5b/output
I0321 21:29:20.478320 13282 net.cpp:129] Top shape: 10 1024 7 7 (501760)
I0321 21:29:20.478327 13282 net.cpp:137] Memory required for data: 551371520
I0321 21:29:20.478335 13282 layer_factory.hpp:77] Creating layer pool5/7x7_s1
I0321 21:29:20.478348 13282 net.cpp:84] Creating Layer pool5/7x7_s1
I0321 21:29:20.478355 13282 net.cpp:406] pool5/7x7_s1 <- inception_5b/output
I0321 21:29:20.478370 13282 net.cpp:380] pool5/7x7_s1 -> pool5/7x7_s1
I0321 21:29:20.478947 13282 net.cpp:122] Setting up pool5/7x7_s1
I0321 21:29:20.478971 13282 net.cpp:129] Top shape: 10 1024 1 1 (10240)
I0321 21:29:20.478977 13282 net.cpp:137] Memory required for data: 551412480
I0321 21:29:20.478986 13282 layer_factory.hpp:77] Creating layer pool5/drop_7x7_s1
I0321 21:29:20.478999 13282 net.cpp:84] Creating Layer pool5/drop_7x7_s1
I0321 21:29:20.479008 13282 net.cpp:406] pool5/drop_7x7_s1 <- pool5/7x7_s1
I0321 21:29:20.479022 13282 net.cpp:367] pool5/drop_7x7_s1 -> pool5/7x7_s1 (in-place)
I0321 21:29:20.479089 13282 net.cpp:122] Setting up pool5/drop_7x7_s1
I0321 21:29:20.479105 13282 net.cpp:129] Top shape: 10 1024 1 1 (10240)
I0321 21:29:20.479113 13282 net.cpp:137] Memory required for data: 551453440
I0321 21:29:20.479120 13282 layer_factory.hpp:77] Creating layer loss3/classifier
I0321 21:29:20.479136 13282 net.cpp:84] Creating Layer loss3/classifier
I0321 21:29:20.479145 13282 net.cpp:406] loss3/classifier <- pool5/7x7_s1
I0321 21:29:20.479158 13282 net.cpp:380] loss3/classifier -> loss3/classifier
I0321 21:29:20.494886 13282 net.cpp:122] Setting up loss3/classifier
I0321 21:29:20.494912 13282 net.cpp:129] Top shape: 10 1000 (10000)
I0321 21:29:20.494920 13282 net.cpp:137] Memory required for data: 551493440
I0321 21:29:20.494933 13282 layer_factory.hpp:77] Creating layer prob
I0321 21:29:20.494949 13282 net.cpp:84] Creating Layer prob
I0321 21:29:20.494958 13282 net.cpp:406] prob <- loss3/classifier
I0321 21:29:20.494971 13282 net.cpp:380] prob -> prob
I0321 21:29:20.495424 13282 net.cpp:122] Setting up prob
I0321 21:29:20.495445 13282 net.cpp:129] Top shape: 10 1000 (10000)
I0321 21:29:20.495452 13282 net.cpp:137] Memory required for data: 551533440
I0321 21:29:20.495461 13282 net.cpp:200] prob does not need backward computation.
I0321 21:29:20.495470 13282 net.cpp:200] loss3/classifier does not need backward computation.
I0321 21:29:20.495476 13282 net.cpp:200] pool5/drop_7x7_s1 does not need backward computation.
I0321 21:29:20.495482 13282 net.cpp:200] pool5/7x7_s1 does not need backward computation.
…
