…
snapshot_prefix: "./snapshot/douyu_2700_train"
test_initialization: false
average_loss: 20
iter_size: 10
I0322 11:24:37.250468  9371 solver.cpp:77] Creating training net from train_net file: trainval.prototxt
I0322 11:24:37.253176  9371 net.cpp:51] Initializing net from parameters: 
state {
  phase: TRAIN
}
layer {
  name: "data"
  type: "Python"
  top: "data"
  top: "sem"
  python_param {
    module: "data_layers"
    layer: "Douyu1000SegDataLayer"
    param_str: "{\'data_dir\': \'../../data/douyu_2700\', \'seed\': 1337, \'split\': \'trainval\'}"
  }
}
layer {
  name: "conv1/7x7_s2"
  type: "Convolution"
  bottom: "data"
  top: "conv1/7x7_s2"
  param {
    lr_mult: 1
    decay_mult: 1
  }
  param {
    lr_mult: 2
    decay_mult: 0
  }
  convolution_param {
    num_output: 64
    pad: 9
    kernel_size: 7
    stride: 2
    weight_filler {
      type: "xavier"
    }
    bias_filler {
      type: "constant"
      value: 0.2
    }
  }
}
layer {
  name: "conv1/relu_7x7"
  type: "ReLU"
  bottom: "conv1/7x7_s2"
  top: "conv1/7x7_s2"
}
layer {
  name: "pool1/3x3_s2"
  type: "Pooling"
  bottom: "conv1/7x7_s2"
  top: "pool1/3x3_s2"
  pooling_param {
    pool: MAX
    kernel_size: 3
    stride: 2
  }
}
layer {
  name: "pool1/norm1"
  type: "LRN"
  bottom: "pool1/3x3_s2"
  top: "pool1/norm1"
  lrn_param {
    local_size: 5
    alpha: 0.0001
    beta: 0.75
  }
}
layer {
  name: "conv2/3x3_reduce"
  type: "Convolution"
  bottom: "pool1/norm1"
  top: "conv2/3x3_reduce"
  param {
    lr_mult: 1
    decay_mult: 1
  }
  param {
    lr_mult: 2
    decay_mult: 0
  }
  convolution_param {
    num_output: 64
    kernel_size: 1
    weight_filler {
      type: "xavier"
    }
    bias_filler {
      type: "constant"
      value: 0.2
    }
  }
}
layer {
  name: "conv2/relu_3x3_reduce"
  type: "ReLU"
  bottom: "conv2/3x3_reduce"
  top: "conv2/3x3_reduce"
}
layer {
  name: "conv2/3x3"
  type: "Convolution"
  bottom: "conv2/3x3_reduce"
  top: "conv2/3x3"
  param {
    lr_mult: 1
    decay_mult: 1
  }
  param {
    lr_mult: 2
    decay_mult: 0
  }
  convolution_param {
    num_output: 192
    pad: 1
    kernel_size: 3
    weight_filler {
      type: "xavier"
    }
    bias_filler {
      type: "constant"
      value: 0.2
    }
  }
}
layer {
  name: "conv2/relu_3x3"
  type: "ReLU"
  bottom: "conv2/3x3"
  top: "conv2/3x3"
}
layer {
  name: "conv2/norm2"
  type: "LRN"
  bottom: "conv2/3x3"
  top: "conv2/norm2"
  lrn_param {
    local_size: 5
    alpha: 0.0001
    beta: 0.75
  }
}
layer {
  name: "pool2/3x3_s2"
  type: "Pooling"
  bottom: "conv2/norm2"
  top: "pool2/3x3_s2"
  pooling_param {
    pool: MAX
    kernel_size: 3
    stride: 2
  }
}
layer {
  name: "inception_3a/1x1"
  type: "Convolution"
  bottom: "pool2/3x3_s2"
  top: "inception_3a/1x1"
  param {
    lr_mult: 1
    decay_mult: 1
  }
  param {
    lr_mult: 2
    decay_mult: 0
  }
  convolution_param {
    num_output: 64
    kernel_size: 1
    weight_filler {
      type: "xavier"
    }
    bias_filler {
      type: "constant"
      value: 0.2
    }
  }
}
layer {
  name: "inception_3a/relu_1x1"
  type: "ReLU"
  bottom: "inception_3a/1x1"
  top: "inception_3a/1x1"
}
layer {
  name: "inception_3a/3x3_reduce"
  type: "Convolution"
  bottom: "pool2/3x3_s2"
  top: "inception_3a/3x3_reduce"
  param {
    lr_mult: 1
    decay_mult: 1
  }
  param {
    lr_mult: 2
    decay_mult: 0
  }
  convolution_param {
    num_output: 96
    kernel_size: 1
    weight_filler {
      type: "xavier"
    }
    bias_filler {
      type: "constant"
      value: 0.2
    }
  }
}
layer {
  name: "inception_3a/relu_3x3_reduce"
  type: "ReLU"
  bottom: "inception_3a/3x3_reduce"
  top: "inception_3a/3x3_reduce"
}
layer {
  name: "inception_3a/3x3"
  type: "Convolution"
  bottom: "inception_3a/3x3_reduce"
  top: "inception_3a/3x3"
  param {
    lr_mult: 1
    decay_mult: 1
  }
  param {
    lr_mult: 2
    decay_mult: 0
  }
  convolution_param {
    num_output: 128
    pad: 1
    kernel_size: 3
    weight_filler {
      type: "xavier"
    }
    bias_filler {
      type: "constant"
      value: 0.2
    }
  }
}
layer {
  name: "inception_3a/relu_3x3"
  type: "ReLU"
  bottom: "inception_3a/3x3"
  top: "inception_3a/3x3"
}
layer {
  name: "inception_3a/5x5_reduce"
  type: "Convolution"
  bottom: "pool2/3x3_s2"
  top: "inception_3a/5x5_reduce"
  param {
    lr_mult: 1
    decay_mult: 1
  }
  param {
    lr_mult: 2
    decay_mult: 0
  }
  convolution_param {
    num_output: 16
    kernel_size: 1
    weight_filler {
      type: "xavier"
    }
    bias_filler {
      type: "constant"
      value: 0.2
    }
  }
}
layer {
  name: "inception_3a/relu_5x5_reduce"
  type: "ReLU"
  bottom: "inception_3a/5x5_reduce"
  top: "inception_3a/5x5_reduce"
}
layer {
  name: "inception_3a/5x5"
  type: "Convolution"
  bottom: "inception_3a/5x5_reduce"
  top: "inception_3a/5x5"
  param {
    lr_mult: 1
    decay_mult: 1
  }
  param {
    lr_mult: 2
    decay_mult: 0
  }
  convolution_param {
    num_output: 32
    pad: 2
    kernel_size: 5
    weight_filler {
      type: "xavier"
    }
    bias_filler {
      type: "constant"
      value: 0.2
    }
  }
}
layer {
  name: "inception_3a/relu_5x5"
  type: "ReLU"
  bottom: "inception_3a/5x5"
  top: "inception_3a/5x5"
}
layer {
  name: "inception_3a/pool"
  type: "Pooling"
  bottom: "pool2/3x3_s2"
  top: "inception_3a/pool"
  pooling_param {
    pool: MAX
    kernel_size: 3
    stride: 1
    pad: 1
  }
}
layer {
  name: "inception_3a/pool_proj"
  type: "Convolution"
  bottom: "inception_3a/pool"
  top: "inception_3a/pool_proj"
  param {
    lr_mult: 1
    decay_mult: 1
  }
  param {
    lr_mult: 2
    decay_mult: 0
  }
  convolution_param {
    num_output: 32
    kernel_size: 1
    weight_filler {
      type: "xavier"
    }
    bias_filler {
      type: "constant"
      value: 0.2
    }
  }
}
layer {
  name: "inception_3a/relu_pool_proj"
  type: "ReLU"
  bottom: "inception_3a/pool_proj"
  top: "inception_3a/pool_proj"
}
layer {
  name: "inception_3a/output"
  type: "Concat"
  bottom: "inception_3a/1x1"
  bottom: "inception_3a/3x3"
  bottom: "inception_3a/5x5"
  bottom: "inception_3a/pool_proj"
  top: "inception_3a/output"
}
layer {
  name: "inception_3b/1x1"
  type: "Convolution"
  bottom: "inception_3a/output"
  top: "inception_3b/1x1"
  param {
    lr_mult: 1
    decay_mult: 1
  }
  param {
    lr_mult: 2
    decay_mult: 0
  }
  convolution_param {
    num_output: 128
    kernel_size: 1
    weight_filler {
      type: "xavier"
    }
    bias_filler {
      type: "constant"
      value: 0.2
    }
  }
}
layer {
  name: "inception_3b/relu_1x1"
  type: "ReLU"
  bottom: "inception_3b/1x1"
  top: "inception_3b/1x1"
}
layer {
  name: "inception_3b/3x3_reduce"
  type: "Convolution"
  bottom: "inception_3a/output"
  top: "inception_3b/3x3_reduce"
  param {
    lr_mult: 1
    decay_mult: 1
  }
  param {
    lr_mult: 2
    decay_mult: 0
  }
  convolution_param {
    num_output: 128
    kernel_size: 1
    weight_filler {
      type: "xavier"
    }
    bias_filler {
      type: "constant"
      value: 0.2
    }
  }
}
layer {
  name: "inception_3b/relu_3x3_reduce"
  type: "ReLU"
  bottom: "inception_3b/3x3_reduce"
  top: "inception_3b/3x3_reduce"
}
layer {
  name: "inception_3b/3x3"
  type: "Convolution"
  bottom: "inception_3b/3x3_reduce"
  top: "inception_3b/3x3"
  param {
    lr_mult: 1
    decay_mult: 1
  }
  param {
    lr_mult: 2
    decay_mult: 0
  }
  convolution_param {
    num_output: 192
    pad: 1
    kernel_size: 3
    weight_filler {
      type: "xavier"
    }
    bias_filler {
      type: "constant"
      value: 0.2
    }
  }
}
layer {
  name: "inception_3b/relu_3x3"
  type: "ReLU"
  bottom: "inception_3b/3x3"
  top: "inception_3b/3x3"
}
layer {
  name: "inception_3b/5x5_reduce"
  type: "Convolution"
  bottom: "inception_3a/output"
  top: "inception_3b/5x5_reduce"
  param {
    lr_mult: 1
    decay_mult: 1
  }
  param {
    lr_mult: 2
    decay_mult: 0
  }
  convolution_param {
    num_output: 32
    kernel_size: 1
    weight_filler {
      type: "xavier"
    }
    bias_filler {
      type: "constant"
      value: 0.2
    }
  }
}
layer {
  name: "inception_3b/relu_5x5_reduce"
  type: "ReLU"
  bottom: "inception_3b/5x5_reduce"
  top: "inception_3b/5x5_reduce"
}
layer {
  name: "inception_3b/5x5"
  type: "Convolution"
  bottom: "inception_3b/5x5_reduce"
  top: "inception_3b/5x5"
  param {
    lr_mult: 1
    decay_mult: 1
  }
  param {
    lr_mult: 2
    decay_mult: 0
  }
  convolution_param {
    num_output: 96
    pad: 2
    kernel_size: 5
    weight_filler {
      type: "xavier"
    }
    bias_filler {
      type: "constant"
      value: 0.2
    }
  }
}
layer {
  name: "inception_3b/relu_5x5"
  type: "ReLU"
  bottom: "inception_3b/5x5"
  top: "inception_3b/5x5"
}
layer {
  name: "inception_3b/pool"
  type: "Pooling"
  bottom: "inception_3a/output"
  top: "inception_3b/pool"
  pooling_param {
    pool: MAX
    kernel_size: 3
    stride: 1
    pad: 1
  }
}
layer {
  name: "inception_3b/pool_proj"
  type: "Convolution"
  bottom: "inception_3b/pool"
  top: "inception_3b/pool_proj"
  param {
    lr_mult: 1
    decay_mult: 1
  }
  param {
    lr_mult: 2
    decay_mult: 0
  }
  convolution_param {
    num_output: 64
    kernel_size: 1
    weight_filler {
      type: "xavier"
    }
    bias_filler {
      type: "constant"
      value: 0.2
    }
  }
}
layer {
  name: "inception_3b/relu_pool_proj"
  type: "ReLU"
  bottom: "inception_3b/pool_proj"
  top: "inception_3b/pool_proj"
}
layer {
  name: "inception_3b/output"
  type: "Concat"
  bottom: "inception_3b/1x1"
  bottom: "inception_3b/3x3"
  bottom: "inception_3b/5x5"
  bottom: "inception_3b/pool_proj"
  top: "inception_3b/output"
}
layer {
  name: "pool3/3x3_s2"
  type: "Pooling"
  bottom: "inception_3b/output"
  top: "pool3/3x3_s2"
  pooling_param {
    pool: MAX
    kernel_size: 3
    stride: 2
  }
}
layer {
  name: "inception_4a/1x1"
  type: "Convolution"
  bottom: "pool3/3x3_s2"
  top: "inception_4a/1x1"
  param {
    lr_mult: 1
    decay_mult: 1
  }
  param {
    lr_mult: 2
    decay_mult: 0
  }
  convolution_param {
    num_output: 192
    kernel_size: 1
    weight_filler {
      type: "xavier"
    }
    bias_filler {
      type: "constant"
      value: 0.2
    }
  }
}
layer {
  name: "inception_4a/relu_1x1"
  type: "ReLU"
  bottom: "inception_4a/1x1"
  top: "inception_4a/1x1"
}
layer {
  name: "inception_4a/3x3_reduce"
  type: "Convolution"
  bottom: "pool3/3x3_s2"
  top: "inception_4a/3x3_reduce"
  param {
    lr_mult: 1
    decay_mult: 1
  }
  param {
    lr_mult: 2
    decay_mult: 0
  }
  convolution_param {
    num_output: 96
    kernel_size: 1
    weight_filler {
      type: "xavier"
    }
    bias_filler {
      type: "constant"
      value: 0.2
    }
  }
}
layer {
  name: "inception_4a/relu_3x3_reduce"
  type: "ReLU"
  bottom: "inception_4a/3x3_reduce"
  top: "inception_4a/3x3_reduce"
}
layer {
  name: "inception_4a/3x3"
  type: "Convolution"
  bottom: "inception_4a/3x3_reduce"
  top: "inception_4a/3x3"
  param {
    lr_mult: 1
    decay_mult: 1
  }
  param {
    lr_mult: 2
    decay_mult: 0
  }
  convolution_param {
    num_output: 208
    pad: 1
    kernel_size: 3
    weight_filler {
      type: "xavier"
    }
    bias_filler {
      type: "constant"
      value: 0.2
    }
  }
}
layer {
  name: "inception_4a/relu_3x3"
  type: "ReLU"
  bottom: "inception_4a/3x3"
  top: "inception_4a/3x3"
}
layer {
  name: "inception_4a/5x5_reduce"
  type: "Convolution"
  bottom: "pool3/3x3_s2"
  top: "inception_4a/5x5_reduce"
  param {
    lr_mult: 1
    decay_mult: 1
  }
  param {
    lr_mult: 2
    decay_mult: 0
  }
  convolution_param {
    num_output: 16
    kernel_size: 1
    weight_filler {
      type: "xavier"
    }
    bias_filler {
      type: "constant"
      value: 0.2
    }
  }
}
layer {
  name: "inception_4a/relu_5x5_reduce"
  type: "ReLU"
  bottom: "inception_4a/5x5_reduce"
  top: "inception_4a/5x5_reduce"
}
layer {
  name: "inception_4a/5x5"
  type: "Convolution"
  bottom: "inception_4a/5x5_reduce"
  top: "inception_4a/5x5"
  param {
    lr_mult: 1
    decay_mult: 1
  }
  param {
    lr_mult: 2
    decay_mult: 0
  }
  convolution_param {
    num_output: 48
    pad: 2
    kernel_size: 5
    weight_filler {
      type: "xavier"
    }
    bias_filler {
      type: "constant"
      value: 0.2
    }
  }
}
layer {
  name: "inception_4a/relu_5x5"
  type: "ReLU"
  bottom: "inception_4a/5x5"
  top: "inception_4a/5x5"
}
layer {
  name: "inception_4a/pool"
  type: "Pooling"
  bottom: "pool3/3x3_s2"
  top: "inception_4a/pool"
  pooling_param {
    pool: MAX
    kernel_size: 3
    stride: 1
    pad: 1
  }
}
layer {
  name: "inception_4a/pool_proj"
  type: "Convolution"
  bottom: "inception_4a/pool"
  top: "inception_4a/pool_proj"
  param {
    lr_mult: 1
    decay_mult: 1
  }
  param {
    lr_mult: 2
    decay_mult: 0
  }
  convolution_param {
    num_output: 64
    kernel_size: 1
    weight_filler {
      type: "xavier"
    }
    bias_filler {
      type: "constant"
      value: 0.2
    }
  }
}
layer {
  name: "inception_4a/relu_pool_proj"
  type: "ReLU"
  bottom: "inception_4a/pool_proj"
  top: "inception_4a/pool_proj"
}
layer {
  name: "inception_4a/output"
  type: "Concat"
  bottom: "inception_4a/1x1"
  bottom: "inception_4a/3x3"
  bottom: "inception_4a/5x5"
  bottom: "inception_4a/pool_proj"
  top: "inception_4a/output"
}
layer {
  name: "inception_4b/1x1"
  type: "Convolution"
  bottom: "inception_4a/output"
  top: "inception_4b/1x1"
  param {
    lr_mult: 1
    decay_mult: 1
  }
  param {
    lr_mult: 2
    decay_mult: 0
  }
  convolution_param {
    num_output: 160
    kernel_size: 1
    weight_filler {
      type: "xavier"
    }
    bias_filler {
      type: "constant"
      value: 0.2
    }
  }
}
layer {
  name: "inception_4b/relu_1x1"
  type: "ReLU"
  bottom: "inception_4b/1x1"
  top: "inception_4b/1x1"
}
layer {
  name: "inception_4b/3x3_reduce"
  type: "Convolution"
  bottom: "inception_4a/output"
  top: "inception_4b/3x3_reduce"
  param {
    lr_mult: 1
    decay_mult: 1
  }
  param {
    lr_mult: 2
    decay_mult: 0
  }
  convolution_param {
    num_output: 112
    kernel_size: 1
    weight_filler {
      type: "xavier"
    }
    bias_filler {
      type: "constant"
      value: 0.2
    }
  }
}
layer {
  name: "inception_4b/relu_3x3_reduce"
  type: "ReLU"
  bottom: "inception_4b/3x3_reduce"
  top: "inception_4b/3x3_reduce"
}
layer {
  name: "inception_4b/3x3"
  type: "Convolution"
  bottom: "inception_4b/3x3_reduce"
  top: "inception_4b/3x3"
  param {
    lr_mult: 1
    decay_mult: 1
  }
  param {
    lr_mult: 2
    decay_mult: 0
  }
  convolution_param {
    num_output: 224
    pad: 1
    kernel_size: 3
    weight_filler {
      type: "xavier"
    }
    bias_filler {
      type: "constant"
      value: 0.2
    }
  }
}
layer {
  name: "inception_4b/relu_3x3"
  type: "ReLU"
  bottom: "inception_4b/3x3"
  top: "inception_4b/3x3"
}
layer {
  name: "inception_4b/5x5_reduce"
  type: "Convolution"
  bottom: "inception_4a/output"
  top: "inception_4b/5x5_reduce"
  param {
    lr_mult: 1
    decay_mult: 1
  }
  param {
    lr_mult: 2
    decay_mult: 0
  }
  convolution_param {
    num_output: 24
    kernel_size: 1
    weight_filler {
      type: "xavier"
    }
    bias_filler {
      type: "constant"
      value: 0.2
    }
  }
}
layer {
  name: "inception_4b/relu_5x5_reduce"
  type: "ReLU"
  bottom: "inception_4b/5x5_reduce"
  top: "inception_4b/5x5_reduce"
}
layer {
  name: "inception_4b/5x5"
  type: "Convolution"
  bottom: "inception_4b/5x5_reduce"
  top: "inception_4b/5x5"
  param {
    lr_mult: 1
    decay_mult: 1
  }
  param {
    lr_mult: 2
    decay_mult: 0
  }
  convolution_param {
    num_output: 64
    pad: 2
    kernel_size: 5
    weight_filler {
      type: "xavier"
    }
    bias_filler {
      type: "constant"
      value: 0.2
    }
  }
}
layer {
  name: "inception_4b/relu_5x5"
  type: "ReLU"
  bottom: "inception_4b/5x5"
  top: "inception_4b/5x5"
}
layer {
  name: "inception_4b/pool"
  type: "Pooling"
  bottom: "inception_4a/output"
  top: "inception_4b/pool"
  pooling_param {
    pool: MAX
    kernel_size: 3
    stride: 1
    pad: 1
  }
}
layer {
  name: "inception_4b/pool_proj"
  type: "Convolution"
  bottom: "inception_4b/pool"
  top: "inception_4b/pool_proj"
  param {
    lr_mult: 1
    decay_mult: 1
  }
  param {
    lr_mult: 2
    decay_mult: 0
  }
  convolution_param {
    num_output: 64
    kernel_size: 1
    weight_filler {
      type: "xavier"
    }
    bias_filler {
      type: "constant"
      value: 0.2
    }
  }
}
layer {
  name: "inception_4b/relu_pool_proj"
  type: "ReLU"
  bottom: "inception_4b/pool_proj"
  top: "inception_4b/pool_proj"
}
layer {
  name: "inception_4b/output"
  type: "Concat"
  bottom: "inception_4b/1x1"
  bottom: "inception_4b/3x3"
  bottom: "inception_4b/5x5"
  bottom: "inception_4b/pool_proj"
  top: "inception_4b/output"
}
layer {
  name: "inception_4c/1x1"
  type: "Convolution"
  bottom: "inception_4b/output"
  top: "inception_4c/1x1"
  param {
    lr_mult: 1
    decay_mult: 1
  }
  param {
    lr_mult: 2
    decay_mult: 0
  }
  convolution_param {
    num_output: 128
    kernel_size: 1
    weight_filler {
      type: "xavier"
    }
    bias_filler {
      type: "constant"
      value: 0.2
    }
  }
}
layer {
  name: "inception_4c/relu_1x1"
  type: "ReLU"
  bottom: "inception_4c/1x1"
  top: "inception_4c/1x1"
}
layer {
  name: "inception_4c/3x3_reduce"
  type: "Convolution"
  bottom: "inception_4b/output"
  top: "inception_4c/3x3_reduce"
  param {
    lr_mult: 1
    decay_mult: 1
  }
  param {
    lr_mult: 2
    decay_mult: 0
  }
  convolution_param {
    num_output: 128
    kernel_size: 1
    weight_filler {
      type: "xavier"
    }
    bias_filler {
      type: "constant"
      value: 0.2
    }
  }
}
layer {
  name: "inception_4c/relu_3x3_reduce"
  type: "ReLU"
  bottom: "inception_4c/3x3_reduce"
  top: "inception_4c/3x3_reduce"
}
layer {
  name: "inception_4c/3x3"
  type: "Convolution"
  bottom: "inception_4c/3x3_reduce"
  top: "inception_4c/3x3"
  param {
    lr_mult: 1
    decay_mult: 1
  }
  param {
    lr_mult: 2
    decay_mult: 0
  }
  convolution_param {
    num_output: 256
    pad: 1
    kernel_size: 3
    weight_filler {
      type: "xavier"
    }
    bias_filler {
      type: "constant"
      value: 0.2
    }
  }
}
layer {
  name: "inception_4c/relu_3x3"
  type: "ReLU"
  bottom: "inception_4c/3x3"
  top: "inception_4c/3x3"
}
layer {
  name: "inception_4c/5x5_reduce"
  type: "Convolution"
  bottom: "inception_4b/output"
  top: "inception_4c/5x5_reduce"
  param {
    lr_mult: 1
    decay_mult: 1
  }
  param {
    lr_mult: 2
    decay_mult: 0
  }
  convolution_param {
    num_output: 24
    kernel_size: 1
    weight_filler {
      type: "xavier"
    }
    bias_filler {
      type: "constant"
      value: 0.2
    }
  }
}
layer {
  name: "inception_4c/relu_5x5_reduce"
  type: "ReLU"
  bottom: "inception_4c/5x5_reduce"
  top: "inception_4c/5x5_reduce"
}
layer {
  name: "inception_4c/5x5"
  type: "Convolution"
  bottom: "inception_4c/5x5_reduce"
  top: "inception_4c/5x5"
  param {
    lr_mult: 1
    decay_mult: 1
  }
  param {
    lr_mult: 2
    decay_mult: 0
  }
  convolution_param {
    num_output: 64
    pad: 2
    kernel_size: 5
    weight_filler {
      type: "xavier"
    }
    bias_filler {
      type: "constant"
      value: 0.2
    }
  }
}
layer {
  name: "inception_4c/relu_5x5"
  type: "ReLU"
  bottom: "inception_4c/5x5"
  top: "inception_4c/5x5"
}
layer {
  name: "inception_4c/pool"
  type: "Pooling"
  bottom: "inception_4b/output"
  top: "inception_4c/pool"
  pooling_param {
    pool: MAX
    kernel_size: 3
    stride: 1
    pad: 1
  }
}
layer {
  name: "inception_4c/pool_proj"
  type: "Convolution"
  bottom: "inception_4c/pool"
  top: "inception_4c/pool_proj"
  param {
    lr_mult: 1
    decay_mult: 1
  }
  param {
    lr_mult: 2
    decay_mult: 0
  }
  convolution_param {
    num_output: 64
    kernel_size: 1
    weight_filler {
      type: "xavier"
    }
    bias_filler {
      type: "constant"
      value: 0.2
    }
  }
}
layer {
  name: "inception_4c/relu_pool_proj"
  type: "ReLU"
  bottom: "inception_4c/pool_proj"
  top: "inception_4c/pool_proj"
}
layer {
  name: "inception_4c/output"
  type: "Concat"
  bottom: "inception_4c/1x1"
  bottom: "inception_4c/3x3"
  bottom: "inception_4c/5x5"
  bottom: "inception_4c/pool_proj"
  top: "inception_4c/output"
}
layer {
  name: "inception_4d/1x1"
  type: "Convolution"
  bottom: "inception_4c/output"
  top: "inception_4d/1x1"
  param {
    lr_mult: 1
    decay_mult: 1
  }
  param {
    lr_mult: 2
    decay_mult: 0
  }
  convolution_param {
    num_output: 112
    kernel_size: 1
    weight_filler {
      type: "xavier"
    }
    bias_filler {
      type: "constant"
      value: 0.2
    }
  }
}
layer {
  name: "inception_4d/relu_1x1"
  type: "ReLU"
  bottom: "inception_4d/1x1"
  top: "inception_4d/1x1"
}
layer {
  name: "inception_4d/3x3_reduce"
  type: "Convolution"
  bottom: "inception_4c/output"
  top: "inception_4d/3x3_reduce"
  param {
    lr_mult: 1
    decay_mult: 1
  }
  param {
    lr_mult: 2
    decay_mult: 0
  }
  convolution_param {
    num_output: 144
    kernel_size: 1
    weight_filler {
      type: "xavier"
    }
    bias_filler {
      type: "constant"
      value: 0.2
    }
  }
}
layer {
  name: "inception_4d/relu_3x3_reduce"
  type: "ReLU"
  bottom: "inception_4d/3x3_reduce"
  top: "inception_4d/3x3_reduce"
}
layer {
  name: "inception_4d/3x3"
  type: "Convolution"
  bottom: "inception_4d/3x3_reduce"
  top: "inception_4d/3x3"
  param {
    lr_mult: 1
    decay_mult: 1
  }
  param {
    lr_mult: 2
    decay_mult: 0
  }
  convolution_param {
    num_output: 288
    pad: 1
    kernel_size: 3
    weight_filler {
      type: "xavier"
    }
    bias_filler {
      type: "constant"
      value: 0.2
    }
  }
}
layer {
  name: "inception_4d/relu_3x3"
  type: "ReLU"
  bottom: "inception_4d/3x3"
  top: "inception_4d/3x3"
}
layer {
  name: "inception_4d/5x5_reduce"
  type: "Convolution"
  bottom: "inception_4c/output"
  top: "inception_4d/5x5_reduce"
  param {
    lr_mult: 1
    decay_mult: 1
  }
  param {
    lr_mult: 2
    decay_mult: 0
  }
  convolution_param {
    num_output: 32
    kernel_size: 1
    weight_filler {
      type: "xavier"
    }
    bias_filler {
      type: "constant"
      value: 0.2
    }
  }
}
layer {
  name: "inception_4d/relu_5x5_reduce"
  type: "ReLU"
  bottom: "inception_4d/5x5_reduce"
  top: "inception_4d/5x5_reduce"
}
layer {
  name: "inception_4d/5x5"
  type: "Convolution"
  bottom: "inception_4d/5x5_reduce"
  top: "inception_4d/5x5"
  param {
    lr_mult: 1
    decay_mult: 1
  }
  param {
    lr_mult: 2
    decay_mult: 0
  }
  convolution_param {
    num_output: 64
    pad: 2
    kernel_size: 5
    weight_filler {
      type: "xavier"
    }
    bias_filler {
      type: "constant"
      value: 0.2
    }
  }
}
layer {
  name: "inception_4d/relu_5x5"
  type: "ReLU"
  bottom: "inception_4d/5x5"
  top: "inception_4d/5x5"
}
layer {
  name: "inception_4d/pool"
  type: "Pooling"
  bottom: "inception_4c/output"
  top: "inception_4d/pool"
  pooling_param {
    pool: MAX
    kernel_size: 3
    stride: 1
    pad: 1
  }
}
layer {
  name: "inception_4d/pool_proj"
  type: "Convolution"
  bottom: "inception_4d/pool"
  top: "inception_4d/pool_proj"
  param {
    lr_mult: 1
    decay_mult: 1
  }
  param {
    lr_mult: 2
    decay_mult: 0
  }
  convolution_param {
    num_output: 64
    kernel_size: 1
    weight_filler {
      type: "xavier"
    }
    bias_filler {
      type: "constant"
      value: 0.2
    }
  }
}
layer {
  name: "inception_4d/relu_pool_proj"
  type: "ReLU"
  bottom: "inception_4d/pool_proj"
  top: "inception_4d/pool_proj"
}
layer {
  name: "inception_4d/output"
  type: "Concat"
  bottom: "inception_4d/1x1"
  bottom: "inception_4d/3x3"
  bottom: "inception_4d/5x5"
  bottom: "inception_4d/pool_proj"
  top: "inception_4d/output"
}
layer {
  name: "inception_4e/1x1"
  type: "Convolution"
  bottom: "inception_4d/output"
  top: "inception_4e/1x1"
  param {
    lr_mult: 1
    decay_mult: 1
  }
  param {
    lr_mult: 2
    decay_mult: 0
  }
  convolution_param {
    num_output: 256
    kernel_size: 1
    weight_filler {
      type: "xavier"
    }
    bias_filler {
      type: "constant"
      value: 0.2
    }
  }
}
layer {
  name: "inception_4e/relu_1x1"
  type: "ReLU"
  bottom: "inception_4e/1x1"
  top: "inception_4e/1x1"
}
layer {
  name: "inception_4e/3x3_reduce"
  type: "Convolution"
  bottom: "inception_4d/output"
  top: "inception_4e/3x3_reduce"
  param {
    lr_mult: 1
    decay_mult: 1
  }
  param {
    lr_mult: 2
    decay_mult: 0
  }
  convolution_param {
    num_output: 160
    kernel_size: 1
    weight_filler {
      type: "xavier"
    }
    bias_filler {
      type: "constant"
      value: 0.2
    }
  }
}
layer {
  name: "inception_4e/relu_3x3_reduce"
  type: "ReLU"
  bottom: "inception_4e/3x3_reduce"
  top: "inception_4e/3x3_reduce"
}
layer {
  name: "inception_4e/3x3"
  type: "Convolution"
  bottom: "inception_4e/3x3_reduce"
  top: "inception_4e/3x3"
  param {
    lr_mult: 1
    decay_mult: 1
  }
  param {
    lr_mult: 2
    decay_mult: 0
  }
  convolution_param {
    num_output: 320
    pad: 1
    kernel_size: 3
    weight_filler {
      type: "xavier"
    }
    bias_filler {
      type: "constant"
      value: 0.2
    }
  }
}
layer {
  name: "inception_4e/relu_3x3"
  type: "ReLU"
  bottom: "inception_4e/3x3"
  top: "inception_4e/3x3"
}
layer {
  name: "inception_4e/5x5_reduce"
  type: "Convolution"
  bottom: "inception_4d/output"
  top: "inception_4e/5x5_reduce"
  param {
    lr_mult: 1
    decay_mult: 1
  }
  param {
    lr_mult: 2
    decay_mult: 0
  }
  convolution_param {
    num_output: 32
    kernel_size: 1
    weight_filler {
      type: "xavier"
    }
    bias_filler {
      type: "constant"
      value: 0.2
    }
  }
}
layer {
  name: "inception_4e/relu_5x5_reduce"
  type: "ReLU"
  bottom: "inception_4e/5x5_reduce"
  top: "inception_4e/5x5_reduce"
}
layer {
  name: "inception_4e/5x5"
  type: "Convolution"
  bottom: "inception_4e/5x5_reduce"
  top: "inception_4e/5x5"
  param {
    lr_mult: 1
    decay_mult: 1
  }
  param {
    lr_mult: 2
    decay_mult: 0
  }
  convolution_param {
    num_output: 128
    pad: 2
    kernel_size: 5
    weight_filler {
      type: "xavier"
    }
    bias_filler {
      type: "constant"
      value: 0.2
    }
  }
}
layer {
  name: "inception_4e/relu_5x5"
  type: "ReLU"
  bottom: "inception_4e/5x5"
  top: "inception_4e/5x5"
}
layer {
  name: "inception_4e/pool"
  type: "Pooling"
  bottom: "inception_4d/output"
  top: "inception_4e/pool"
  pooling_param {
    pool: MAX
    kernel_size: 3
    stride: 1
    pad: 1
  }
}
layer {
  name: "inception_4e/pool_proj"
  type: "Convolution"
  bottom: "inception_4e/pool"
  top: "inception_4e/pool_proj"
  param {
    lr_mult: 1
    decay_mult: 1
  }
  param {
    lr_mult: 2
    decay_mult: 0
  }
  convolution_param {
    num_output: 128
    kernel_size: 1
    weight_filler {
      type: "xavier"
    }
    bias_filler {
      type: "constant"
      value: 0.2
    }
  }
}
layer {
  name: "inception_4e/relu_pool_proj"
  type: "ReLU"
  bottom: "inception_4e/pool_proj"
  top: "inception_4e/pool_proj"
}
layer {
  name: "inception_4e/output"
  type: "Concat"
  bottom: "inception_4e/1x1"
  bottom: "inception_4e/3x3"
  bottom: "inception_4e/5x5"
  bottom: "inception_4e/pool_proj"
  top: "inception_4e/output"
}
layer {
  name: "pool4/3x3_s2"
  type: "Pooling"
  bottom: "inception_4e/output"
  top: "pool4/3x3_s2"
  pooling_param {
    pool: MAX
    kernel_size: 3
    stride: 2
  }
}
layer {
  name: "inception_5a/1x1"
  type: "Convolution"
  bottom: "pool4/3x3_s2"
  top: "inception_5a/1x1"
  param {
    lr_mult: 1
    decay_mult: 1
  }
  param {
    lr_mult: 2
    decay_mult: 0
  }
  convolution_param {
    num_output: 256
    kernel_size: 1
    weight_filler {
      type: "xavier"
    }
    bias_filler {
      type: "constant"
      value: 0.2
    }
  }
}
layer {
  name: "inception_5a/relu_1x1"
  type: "ReLU"
  bottom: "inception_5a/1x1"
  top: "inception_5a/1x1"
}
layer {
  name: "inception_5a/3x3_reduce"
  type: "Convolution"
  bottom: "pool4/3x3_s2"
  top: "inception_5a/3x3_reduce"
  param {
    lr_mult: 1
    decay_mult: 1
  }
  param {
    lr_mult: 2
    decay_mult: 0
  }
  convolution_param {
    num_output: 160
    kernel_size: 1
    weight_filler {
      type: "xavier"
    }
    bias_filler {
      type: "constant"
      value: 0.2
    }
  }
}
layer {
  name: "inception_5a/relu_3x3_reduce"
  type: "ReLU"
  bottom: "inception_5a/3x3_reduce"
  top: "inception_5a/3x3_reduce"
}
layer {
  name: "inception_5a/3x3"
  type: "Convolution"
  bottom: "inception_5a/3x3_reduce"
  top: "inception_5a/3x3"
  param {
    lr_mult: 1
    decay_mult: 1
  }
  param {
    lr_mult: 2
    decay_mult: 0
  }
  convolution_param {
    num_output: 320
    pad: 1
    kernel_size: 3
    weight_filler {
      type: "xavier"
    }
    bias_filler {
      type: "constant"
      value: 0.2
    }
  }
}
layer {
  name: "inception_5a/relu_3x3"
  type: "ReLU"
  bottom: "inception_5a/3x3"
  top: "inception_5a/3x3"
}
layer {
  name: "inception_5a/5x5_reduce"
  type: "Convolution"
  bottom: "pool4/3x3_s2"
  top: "inception_5a/5x5_reduce"
  param {
    lr_mult: 1
    decay_mult: 1
  }
  param {
    lr_mult: 2
    decay_mult: 0
  }
  convolution_param {
    num_output: 32
    kernel_size: 1
    weight_filler {
      type: "xavier"
    }
    bias_filler {
      type: "constant"
      value: 0.2
    }
  }
}
layer {
  name: "inception_5a/relu_5x5_reduce"
  type: "ReLU"
  bottom: "inception_5a/5x5_reduce"
  top: "inception_5a/5x5_reduce"
}
layer {
  name: "inception_5a/5x5"
  type: "Convolution"
  bottom: "inception_5a/5x5_reduce"
  top: "inception_5a/5x5"
  param {
    lr_mult: 1
    decay_mult: 1
  }
  param {
    lr_mult: 2
    decay_mult: 0
  }
  convolution_param {
    num_output: 128
    pad: 2
    kernel_size: 5
    weight_filler {
      type: "xavier"
    }
    bias_filler {
      type: "constant"
      value: 0.2
    }
  }
}
layer {
  name: "inception_5a/relu_5x5"
  type: "ReLU"
  bottom: "inception_5a/5x5"
  top: "inception_5a/5x5"
}
layer {
  name: "inception_5a/
I0322 11:24:37.253902  9371 layer_factory.hpp:77] Creating layer data
I0322 11:24:37.280727  9371 net.cpp:84] Creating Layer data
I0322 11:24:37.280769  9371 net.cpp:380] data -> data
I0322 11:24:37.280778  9371 net.cpp:380] data -> sem
I0322 11:24:38.942028  9371 net.cpp:122] Setting up data
I0322 11:24:38.942062  9371 net.cpp:129] Top shape: 16 3 640 368 (11304960)
I0322 11:24:38.942070  9371 net.cpp:129] Top shape: 16 1 640 368 (3768320)
I0322 11:24:38.942073  9371 net.cpp:137] Memory required for data: 60293120
I0322 11:24:38.942081  9371 layer_factory.hpp:77] Creating layer data_data_0_split
I0322 11:24:38.942101  9371 net.cpp:84] Creating Layer data_data_0_split
I0322 11:24:38.942106  9371 net.cpp:406] data_data_0_split <- data
I0322 11:24:38.942112  9371 net.cpp:380] data_data_0_split -> data_data_0_split_0
I0322 11:24:38.942124  9371 net.cpp:380] data_data_0_split -> data_data_0_split_1
I0322 11:24:38.942167  9371 net.cpp:122] Setting up data_data_0_split
I0322 11:24:38.942176  9371 net.cpp:129] Top shape: 16 3 640 368 (11304960)
I0322 11:24:38.942180  9371 net.cpp:129] Top shape: 16 3 640 368 (11304960)
I0322 11:24:38.942183  9371 net.cpp:137] Memory required for data: 150732800
I0322 11:24:38.942188  9371 layer_factory.hpp:77] Creating layer conv1/7x7_s2
I0322 11:24:38.942203  9371 net.cpp:84] Creating Layer conv1/7x7_s2
I0322 11:24:38.942206  9371 net.cpp:406] conv1/7x7_s2 <- data_data_0_split_0
I0322 11:24:38.942212  9371 net.cpp:380] conv1/7x7_s2 -> conv1/7x7_s2
I0322 11:24:39.128783  9371 net.cpp:122] Setting up conv1/7x7_s2
I0322 11:24:39.128826  9371 net.cpp:129] Top shape: 16 64 326 190 (63426560)
I0322 11:24:39.128829  9371 net.cpp:137] Memory required for data: 404439040
I0322 11:24:39.128841  9371 layer_factory.hpp:77] Creating layer conv1/relu_7x7
I0322 11:24:39.128851  9371 net.cpp:84] Creating Layer conv1/relu_7x7
I0322 11:24:39.128855  9371 net.cpp:406] conv1/relu_7x7 <- conv1/7x7_s2
I0322 11:24:39.128860  9371 net.cpp:367] conv1/relu_7x7 -> conv1/7x7_s2 (in-place)
I0322 11:24:39.129439  9371 net.cpp:122] Setting up conv1/relu_7x7
I0322 11:24:39.129451  9371 net.cpp:129] Top shape: 16 64 326 190 (63426560)
I0322 11:24:39.129454  9371 net.cpp:137] Memory required for data: 658145280
I0322 11:24:39.129457  9371 layer_factory.hpp:77] Creating layer pool1/3x3_s2
I0322 11:24:39.129464  9371 net.cpp:84] Creating Layer pool1/3x3_s2
I0322 11:24:39.129467  9371 net.cpp:406] pool1/3x3_s2 <- conv1/7x7_s2
I0322 11:24:39.129472  9371 net.cpp:380] pool1/3x3_s2 -> pool1/3x3_s2
I0322 11:24:39.129501  9371 net.cpp:122] Setting up pool1/3x3_s2
I0322 11:24:39.129505  9371 net.cpp:129] Top shape: 16 64 163 95 (15856640)
I0322 11:24:39.129508  9371 net.cpp:137] Memory required for data: 721571840
I0322 11:24:39.129510  9371 layer_factory.hpp:77] Creating layer pool1/norm1
I0322 11:24:39.129516  9371 net.cpp:84] Creating Layer pool1/norm1
I0322 11:24:39.129519  9371 net.cpp:406] pool1/norm1 <- pool1/3x3_s2
I0322 11:24:39.129523  9371 net.cpp:380] pool1/norm1 -> pool1/norm1
I0322 11:24:39.129654  9371 net.cpp:122] Setting up pool1/norm1
I0322 11:24:39.129662  9371 net.cpp:129] Top shape: 16 64 163 95 (15856640)
I0322 11:24:39.129665  9371 net.cpp:137] Memory required for data: 784998400
I0322 11:24:39.129667  9371 layer_factory.hpp:77] Creating layer conv2/3x3_reduce
I0322 11:24:39.129678  9371 net.cpp:84] Creating Layer conv2/3x3_reduce
I0322 11:24:39.129680  9371 net.cpp:406] conv2/3x3_reduce <- pool1/norm1
I0322 11:24:39.129684  9371 net.cpp:380] conv2/3x3_reduce -> conv2/3x3_reduce
I0322 11:24:39.131289  9371 net.cpp:122] Setting up conv2/3x3_reduce
I0322 11:24:39.131301  9371 net.cpp:129] Top shape: 16 64 163 95 (15856640)
I0322 11:24:39.131319  9371 net.cpp:137] Memory required for data: 848424960
I0322 11:24:39.131325  9371 layer_factory.hpp:77] Creating layer conv2/relu_3x3_reduce
I0322 11:24:39.131331  9371 net.cpp:84] Creating Layer conv2/relu_3x3_reduce
I0322 11:24:39.131335  9371 net.cpp:406] conv2/relu_3x3_reduce <- conv2/3x3_reduce
I0322 11:24:39.131338  9371 net.cpp:367] conv2/relu_3x3_reduce -> conv2/3x3_reduce (in-place)
I0322 11:24:39.131453  9371 net.cpp:122] Setting up conv2/relu_3x3_reduce
I0322 11:24:39.131459  9371 net.cpp:129] Top shape: 16 64 163 95 (15856640)
I0322 11:24:39.131461  9371 net.cpp:137] Memory required for data: 911851520
I0322 11:24:39.131464  9371 layer_factory.hpp:77] Creating layer conv2/3x3
I0322 11:24:39.131472  9371 net.cpp:84] Creating Layer conv2/3x3
I0322 11:24:39.131475  9371 net.cpp:406] conv2/3x3 <- conv2/3x3_reduce
I0322 11:24:39.131480  9371 net.cpp:380] conv2/3x3 -> conv2/3x3
I0322 11:24:39.133965  9371 net.cpp:122] Setting up conv2/3x3
I0322 11:24:39.133976  9371 net.cpp:129] Top shape: 16 192 163 95 (47569920)
I0322 11:24:39.133994  9371 net.cpp:137] Memory required for data: 1102131200
I0322 11:24:39.134001  9371 layer_factory.hpp:77] Creating layer conv2/relu_3x3
I0322 11:24:39.134007  9371 net.cpp:84] Creating Layer conv2/relu_3x3
I0322 11:24:39.134011  9371 net.cpp:406] conv2/relu_3x3 <- conv2/3x3
I0322 11:24:39.134014  9371 net.cpp:367] conv2/relu_3x3 -> conv2/3x3 (in-place)
I0322 11:24:39.134136  9371 net.cpp:122] Setting up conv2/relu_3x3
I0322 11:24:39.134145  9371 net.cpp:129] Top shape: 16 192 163 95 (47569920)
I0322 11:24:39.134146  9371 net.cpp:137] Memory required for data: 1292410880
I0322 11:24:39.134150  9371 layer_factory.hpp:77] Creating layer conv2/norm2
I0322 11:24:39.134155  9371 net.cpp:84] Creating Layer conv2/norm2
I0322 11:24:39.134157  9371 net.cpp:406] conv2/norm2 <- conv2/3x3
I0322 11:24:39.134161  9371 net.cpp:380] conv2/norm2 -> conv2/norm2
I0322 11:24:39.134294  9371 net.cpp:122] Setting up conv2/norm2
I0322 11:24:39.134300  9371 net.cpp:129] Top shape: 16 192 163 95 (47569920)
I0322 11:24:39.134302  9371 net.cpp:137] Memory required for data: 1482690560
I0322 11:24:39.134305  9371 layer_factory.hpp:77] Creating layer pool2/3x3_s2
I0322 11:24:39.134310  9371 net.cpp:84] Creating Layer pool2/3x3_s2
I0322 11:24:39.134312  9371 net.cpp:406] pool2/3x3_s2 <- conv2/norm2
I0322 11:24:39.134316  9371 net.cpp:380] pool2/3x3_s2 -> pool2/3x3_s2
I0322 11:24:39.134340  9371 net.cpp:122] Setting up pool2/3x3_s2
I0322 11:24:39.134343  9371 net.cpp:129] Top shape: 16 192 81 47 (11695104)
I0322 11:24:39.134346  9371 net.cpp:137] Memory required for data: 1529470976
I0322 11:24:39.134347  9371 layer_factory.hpp:77] Creating layer pool2/3x3_s2_pool2/3x3_s2_0_split
I0322 11:24:39.134353  9371 net.cpp:84] Creating Layer pool2/3x3_s2_pool2/3x3_s2_0_split
I0322 11:24:39.134356  9371 net.cpp:406] pool2/3x3_s2_pool2/3x3_s2_0_split <- pool2/3x3_s2
I0322 11:24:39.134359  9371 net.cpp:380] pool2/3x3_s2_pool2/3x3_s2_0_split -> pool2/3x3_s2_pool2/3x3_s2_0_split_0
I0322 11:24:39.134363  9371 net.cpp:380] pool2/3x3_s2_pool2/3x3_s2_0_split -> pool2/3x3_s2_pool2/3x3_s2_0_split_1
I0322 11:24:39.134367  9371 net.cpp:380] pool2/3x3_s2_pool2/3x3_s2_0_split -> pool2/3x3_s2_pool2/3x3_s2_0_split_2
I0322 11:24:39.134371  9371 net.cpp:380] pool2/3x3_s2_pool2/3x3_s2_0_split -> pool2/3x3_s2_pool2/3x3_s2_0_split_3
I0322 11:24:39.134405  9371 net.cpp:122] Setting up pool2/3x3_s2_pool2/3x3_s2_0_split
I0322 11:24:39.134413  9371 net.cpp:129] Top shape: 16 192 81 47 (11695104)
I0322 11:24:39.134415  9371 net.cpp:129] Top shape: 16 192 81 47 (11695104)
I0322 11:24:39.134418  9371 net.cpp:129] Top shape: 16 192 81 47 (11695104)
I0322 11:24:39.134420  9371 net.cpp:129] Top shape: 16 192 81 47 (11695104)
I0322 11:24:39.134423  9371 net.cpp:137] Memory required for data: 1716592640
I0322 11:24:39.134425  9371 layer_factory.hpp:77] Creating layer inception_3a/1x1
I0322 11:24:39.134431  9371 net.cpp:84] Creating Layer inception_3a/1x1
I0322 11:24:39.134434  9371 net.cpp:406] inception_3a/1x1 <- pool2/3x3_s2_pool2/3x3_s2_0_split_0
I0322 11:24:39.134438  9371 net.cpp:380] inception_3a/1x1 -> inception_3a/1x1
I0322 11:24:39.135938  9371 net.cpp:122] Setting up inception_3a/1x1
I0322 11:24:39.135951  9371 net.cpp:129] Top shape: 16 64 81 47 (3898368)
I0322 11:24:39.135968  9371 net.cpp:137] Memory required for data: 1732186112
I0322 11:24:39.135973  9371 layer_factory.hpp:77] Creating layer inception_3a/relu_1x1
I0322 11:24:39.135978  9371 net.cpp:84] Creating Layer inception_3a/relu_1x1
I0322 11:24:39.135982  9371 net.cpp:406] inception_3a/relu_1x1 <- inception_3a/1x1
I0322 11:24:39.135987  9371 net.cpp:367] inception_3a/relu_1x1 -> inception_3a/1x1 (in-place)
I0322 11:24:39.136575  9371 net.cpp:122] Setting up inception_3a/relu_1x1
I0322 11:24:39.136587  9371 net.cpp:129] Top shape: 16 64 81 47 (3898368)
I0322 11:24:39.136590  9371 net.cpp:137] Memory required for data: 1747779584
I0322 11:24:39.136592  9371 layer_factory.hpp:77] Creating layer inception_3a/3x3_reduce
I0322 11:24:39.136600  9371 net.cpp:84] Creating Layer inception_3a/3x3_reduce
I0322 11:24:39.136603  9371 net.cpp:406] inception_3a/3x3_reduce <- pool2/3x3_s2_pool2/3x3_s2_0_split_1
I0322 11:24:39.136608  9371 net.cpp:380] inception_3a/3x3_reduce -> inception_3a/3x3_reduce
I0322 11:24:39.137214  9371 net.cpp:122] Setting up inception_3a/3x3_reduce
I0322 11:24:39.137224  9371 net.cpp:129] Top shape: 16 96 81 47 (5847552)
I0322 11:24:39.137226  9371 net.cpp:137] Memory required for data: 1771169792
I0322 11:24:39.137233  9371 layer_factory.hpp:77] Creating layer inception_3a/relu_3x3_reduce
I0322 11:24:39.137238  9371 net.cpp:84] Creating Layer inception_3a/relu_3x3_reduce
I0322 11:24:39.137241  9371 net.cpp:406] inception_3a/relu_3x3_reduce <- inception_3a/3x3_reduce
I0322 11:24:39.137245  9371 net.cpp:367] inception_3a/relu_3x3_reduce -> inception_3a/3x3_reduce (in-place)
I0322 11:24:39.137838  9371 net.cpp:122] Setting up inception_3a/relu_3x3_reduce
I0322 11:24:39.137850  9371 net.cpp:129] Top shape: 16 96 81 47 (5847552)
I0322 11:24:39.137852  9371 net.cpp:137] Memory required for data: 1794560000
I0322 11:24:39.137856  9371 layer_factory.hpp:77] Creating layer inception_3a/3x3
I0322 11:24:39.137862  9371 net.cpp:84] Creating Layer inception_3a/3x3
I0322 11:24:39.137866  9371 net.cpp:406] inception_3a/3x3 <- inception_3a/3x3_reduce
I0322 11:24:39.137871  9371 net.cpp:380] inception_3a/3x3 -> inception_3a/3x3
I0322 11:24:39.139751  9371 net.cpp:122] Setting up inception_3a/3x3
I0322 11:24:39.139762  9371 net.cpp:129] Top shape: 16 128 81 47 (7796736)
I0322 11:24:39.139780  9371 net.cpp:137] Memory required for data: 1825746944
I0322 11:24:39.139786  9371 layer_factory.hpp:77] Creating layer inception_3a/relu_3x3
I0322 11:24:39.139791  9371 net.cpp:84] Creating Layer inception_3a/relu_3x3
I0322 11:24:39.139793  9371 net.cpp:406] inception_3a/relu_3x3 <- inception_3a/3x3
I0322 11:24:39.139797  9371 net.cpp:367] inception_3a/relu_3x3 -> inception_3a/3x3 (in-place)
I0322 11:24:39.139921  9371 net.cpp:122] Setting up inception_3a/relu_3x3
I0322 11:24:39.139930  9371 net.cpp:129] Top shape: 16 128 81 47 (7796736)
I0322 11:24:39.139931  9371 net.cpp:137] Memory required for data: 1856933888
I0322 11:24:39.139935  9371 layer_factory.hpp:77] Creating layer inception_3a/5x5_reduce
I0322 11:24:39.139941  9371 net.cpp:84] Creating Layer inception_3a/5x5_reduce
I0322 11:24:39.139945  9371 net.cpp:406] inception_3a/5x5_reduce <- pool2/3x3_s2_pool2/3x3_s2_0_split_2
I0322 11:24:39.139950  9371 net.cpp:380] inception_3a/5x5_reduce -> inception_3a/5x5_reduce
I0322 11:24:39.140974  9371 net.cpp:122] Setting up inception_3a/5x5_reduce
I0322 11:24:39.140985  9371 net.cpp:129] Top shape: 16 16 81 47 (974592)
I0322 11:24:39.140988  9371 net.cpp:137] Memory required for data: 1860832256
I0322 11:24:39.140993  9371 layer_factory.hpp:77] Creating layer inception_3a/relu_5x5_reduce
I0322 11:24:39.140997  9371 net.cpp:84] Creating Layer inception_3a/relu_5x5_reduce
I0322 11:24:39.141000  9371 net.cpp:406] inception_3a/relu_5x5_reduce <- inception_3a/5x5_reduce
I0322 11:24:39.141005  9371 net.cpp:367] inception_3a/relu_5x5_reduce -> inception_3a/5x5_reduce (in-place)
I0322 11:24:39.141124  9371 net.cpp:122] Setting up inception_3a/relu_5x5_reduce
I0322 11:24:39.141130  9371 net.cpp:129] Top shape: 16 16 81 47 (974592)
I0322 11:24:39.141134  9371 net.cpp:137] Memory required for data: 1864730624
I0322 11:24:39.141135  9371 layer_factory.hpp:77] Creating layer inception_3a/5x5
I0322 11:24:39.141142  9371 net.cpp:84] Creating Layer inception_3a/5x5
I0322 11:24:39.141145  9371 net.cpp:406] inception_3a/5x5 <- inception_3a/5x5_reduce
I0322 11:24:39.141149  9371 net.cpp:380] inception_3a/5x5 -> inception_3a/5x5
I0322 11:24:39.142210  9371 net.cpp:122] Setting up inception_3a/5x5
I0322 11:24:39.142221  9371 net.cpp:129] Top shape: 16 32 81 47 (1949184)
I0322 11:24:39.142235  9371 net.cpp:137] Memory required for data: 1872527360
I0322 11:24:39.142240  9371 layer_factory.hpp:77] Creating layer inception_3a/relu_5x5
I0322 11:24:39.142246  9371 net.cpp:84] Creating Layer inception_3a/relu_5x5
I0322 11:24:39.142248  9371 net.cpp:406] inception_3a/relu_5x5 <- inception_3a/5x5
I0322 11:24:39.142252  9371 net.cpp:367] inception_3a/relu_5x5 -> inception_3a/5x5 (in-place)
I0322 11:24:39.142370  9371 net.cpp:122] Setting up inception_3a/relu_5x5
I0322 11:24:39.142377  9371 net.cpp:129] Top shape: 16 32 81 47 (1949184)
I0322 11:24:39.142379  9371 net.cpp:137] Memory required for data: 1880324096
I0322 11:24:39.142382  9371 layer_factory.hpp:77] Creating layer inception_3a/pool
I0322 11:24:39.142387  9371 net.cpp:84] Creating Layer inception_3a/pool
I0322 11:24:39.142390  9371 net.cpp:406] inception_3a/pool <- pool2/3x3_s2_pool2/3x3_s2_0_split_3
I0322 11:24:39.142395  9371 net.cpp:380] inception_3a/pool -> inception_3a/pool
I0322 11:24:39.142422  9371 net.cpp:122] Setting up inception_3a/pool
I0322 11:24:39.142427  9371 net.cpp:129] Top shape: 16 192 81 47 (11695104)
I0322 11:24:39.142429  9371 net.cpp:137] Memory required for data: 1927104512
I0322 11:24:39.142431  9371 layer_factory.hpp:77] Creating layer inception_3a/pool_proj
I0322 11:24:39.142438  9371 net.cpp:84] Creating Layer inception_3a/pool_proj
I0322 11:24:39.142441  9371 net.cpp:406] inception_3a/pool_proj <- inception_3a/pool
I0322 11:24:39.142446  9371 net.cpp:380] inception_3a/pool_proj -> inception_3a/pool_proj
I0322 11:24:39.143470  9371 net.cpp:122] Setting up inception_3a/pool_proj
I0322 11:24:39.143481  9371 net.cpp:129] Top shape: 16 32 81 47 (1949184)
I0322 11:24:39.143493  9371 net.cpp:137] Memory required for data: 1934901248
I0322 11:24:39.143501  9371 layer_factory.hpp:77] Creating layer inception_3a/relu_pool_proj
I0322 11:24:39.143507  9371 net.cpp:84] Creating Layer inception_3a/relu_pool_proj
I0322 11:24:39.143509  9371 net.cpp:406] inception_3a/relu_pool_proj <- inception_3a/pool_proj
I0322 11:24:39.143513  9371 net.cpp:367] inception_3a/relu_pool_proj -> inception_3a/pool_proj (in-place)
I0322 11:24:39.143630  9371 net.cpp:122] Setting up inception_3a/relu_pool_proj
I0322 11:24:39.143637  9371 net.cpp:129] Top shape: 16 32 81 47 (1949184)
I0322 11:24:39.143640  9371 net.cpp:137] Memory required for data: 1942697984
I0322 11:24:39.143642  9371 layer_factory.hpp:77] Creating layer inception_3a/output
I0322 11:24:39.143651  9371 net.cpp:84] Creating Layer inception_3a/output
I0322 11:24:39.143653  9371 net.cpp:406] inception_3a/output <- inception_3a/1x1
I0322 11:24:39.143657  9371 net.cpp:406] inception_3a/output <- inception_3a/3x3
I0322 11:24:39.143661  9371 net.cpp:406] inception_3a/output <- inception_3a/5x5
I0322 11:24:39.143662  9371 net.cpp:406] inception_3a/output <- inception_3a/pool_proj
I0322 11:24:39.143666  9371 net.cpp:380] inception_3a/output -> inception_3a/output
I0322 11:24:39.143687  9371 net.cpp:122] Setting up inception_3a/output
I0322 11:24:39.143690  9371 net.cpp:129] Top shape: 16 256 81 47 (15593472)
I0322 11:24:39.143692  9371 net.cpp:137] Memory required for data: 2005071872
I0322 11:24:39.143694  9371 layer_factory.hpp:77] Creating layer inception_3a/output_inception_3a/output_0_split
I0322 11:24:39.143698  9371 net.cpp:84] Creating Layer inception_3a/output_inception_3a/output_0_split
I0322 11:24:39.143702  9371 net.cpp:406] inception_3a/output_inception_3a/output_0_split <- inception_3a/output
I0322 11:24:39.143704  9371 net.cpp:380] inception_3a/output_inception_3a/output_0_split -> inception_3a/output_inception_3a/output_0_split_0
I0322 11:24:39.143709  9371 net.cpp:380] inception_3a/output_inception_3a/output_0_split -> inception_3a/output_inception_3a/output_0_split_1
I0322 11:24:39.143713  9371 net.cpp:380] inception_3a/output_inception_3a/output_0_split -> inception_3a/output_inception_3a/output_0_split_2
I0322 11:24:39.143718  9371 net.cpp:380] inception_3a/output_inception_3a/output_0_split -> inception_3a/output_inception_3a/output_0_split_3
I0322 11:24:39.143754  9371 net.cpp:122] Setting up inception_3a/output_inception_3a/output_0_split
I0322 11:24:39.143757  9371 net.cpp:129] Top shape: 16 256 81 47 (15593472)
I0322 11:24:39.143760  9371 net.cpp:129] Top shape: 16 256 81 47 (15593472)
I0322 11:24:39.143764  9371 net.cpp:129] Top shape: 16 256 81 47 (15593472)
I0322 11:24:39.143766  9371 net.cpp:129] Top shape: 16 256 81 47 (15593472)
I0322 11:24:39.143769  9371 net.cpp:137] Memory required for data: 2254567424
I0322 11:24:39.143771  9371 layer_factory.hpp:77] Creating layer inception_3b/1x1
I0322 11:24:39.143777  9371 net.cpp:84] Creating Layer inception_3b/1x1
I0322 11:24:39.143779  9371 net.cpp:406] inception_3b/1x1 <- inception_3a/output_inception_3a/output_0_split_0
I0322 11:24:39.143784  9371 net.cpp:380] inception_3b/1x1 -> inception_3b/1x1
I0322 11:24:39.144904  9371 net.cpp:122] Setting up inception_3b/1x1
I0322 11:24:39.144917  9371 net.cpp:129] Top shape: 16 128 81 47 (7796736)
I0322 11:24:39.144919  9371 net.cpp:137] Memory required for data: 2285754368
I0322 11:24:39.144923  9371 layer_factory.hpp:77] Creating layer inception_3b/relu_1x1
I0322 11:24:39.144928  9371 net.cpp:84] Creating Layer inception_3b/relu_1x1
I0322 11:24:39.144932  9371 net.cpp:406] inception_3b/relu_1x1 <- inception_3b/1x1
I0322 11:24:39.144935  9371 net.cpp:367] inception_3b/relu_1x1 -> inception_3b/1x1 (in-place)
I0322 11:24:39.145520  9371 net.cpp:122] Setting up inception_3b/relu_1x1
I0322 11:24:39.145531  9371 net.cpp:129] Top shape: 16 128 81 47 (7796736)
I0322 11:24:39.145534  9371 net.cpp:137] Memory required for data: 2316941312
I0322 11:24:39.145537  9371 layer_factory.hpp:77] Creating layer inception_3b/3x3_reduce
I0322 11:24:39.145545  9371 net.cpp:84] Creating Layer inception_3b/3x3_reduce
I0322 11:24:39.145548  9371 net.cpp:406] inception_3b/3x3_reduce <- inception_3a/output_inception_3a/output_0_split_1
I0322 11:24:39.145552  9371 net.cpp:380] inception_3b/3x3_reduce -> inception_3b/3x3_reduce
I0322 11:24:39.146201  9371 net.cpp:122] Setting up inception_3b/3x3_reduce
I0322 11:24:39.146210  9371 net.cpp:129] Top shape: 16 128 81 47 (7796736)
I0322 11:24:39.146212  9371 net.cpp:137] Memory required for data: 2348128256
I0322 11:24:39.146217  9371 layer_factory.hpp:77] Creating layer inception_3b/relu_3x3_reduce
I0322 11:24:39.146222  9371 net.cpp:84] Creating Layer inception_3b/relu_3x3_reduce
I0322 11:24:39.146225  9371 net.cpp:406] inception_3b/relu_3x3_reduce <- inception_3b/3x3_reduce
I0322 11:24:39.146229  9371 net.cpp:367] inception_3b/relu_3x3_reduce -> inception_3b/3x3_reduce (in-place)
I0322 11:24:39.146811  9371 net.cpp:122] Setting up inception_3b/relu_3x3_reduce
I0322 11:24:39.146821  9371 net.cpp:129] Top shape: 16 128 81 47 (7796736)
I0322 11:24:39.146824  9371 net.cpp:137] Memory required for data: 2379315200
I0322 11:24:39.146827  9371 layer_factory.hpp:77] Creating layer inception_3b/3x3
I0322 11:24:39.146836  9371 net.cpp:84] Creating Layer inception_3b/3x3
I0322 11:24:39.146841  9371 net.cpp:406] inception_3b/3x3 <- inception_3b/3x3_reduce
I0322 11:24:39.146844  9371 net.cpp:380] inception_3b/3x3 -> inception_3b/3x3
I0322 11:24:39.149191  9371 net.cpp:122] Setting up inception_3b/3x3
I0322 11:24:39.149204  9371 net.cpp:129] Top shape: 16 192 81 47 (11695104)
I0322 11:24:39.149221  9371 net.cpp:137] Memory required for data: 2426095616
I0322 11:24:39.149226  9371 layer_factory.hpp:77] Creating layer inception_3b/relu_3x3
I0322 11:24:39.149231  9371 net.cpp:84] Creating Layer inception_3b/relu_3x3
I0322 11:24:39.149235  9371 net.cpp:406] inception_3b/relu_3x3 <- inception_3b/3x3
I0322 11:24:39.149240  9371 net.cpp:367] inception_3b/relu_3x3 -> inception_3b/3x3 (in-place)
I0322 11:24:39.149363  9371 net.cpp:122] Setting up inception_3b/relu_3x3
I0322 11:24:39.149370  9371 net.cpp:129] Top shape: 16 192 81 47 (11695104)
I0322 11:24:39.149372  9371 net.cpp:137] Memory required for data: 2472876032
I0322 11:24:39.149375  9371 layer_factory.hpp:77] Creating layer inception_3b/5x5_reduce
I0322 11:24:39.149381  9371 net.cpp:84] Creating Layer inception_3b/5x5_reduce
I0322 11:24:39.149384  9371 net.cpp:406] inception_3b/5x5_reduce <- inception_3a/output_inception_3a/output_0_split_2
I0322 11:24:39.149389  9371 net.cpp:380] inception_3b/5x5_reduce -> inception_3b/5x5_reduce
I0322 11:24:39.150424  9371 net.cpp:122] Setting up inception_3b/5x5_reduce
I0322 11:24:39.150434  9371 net.cpp:129] Top shape: 16 32 81 47 (1949184)
I0322 11:24:39.150451  9371 net.cpp:137] Memory required for data: 2480672768
I0322 11:24:39.150456  9371 layer_factory.hpp:77] Creating layer inception_3b/relu_5x5_reduce
I0322 11:24:39.150461  9371 net.cpp:84] Creating Layer inception_3b/relu_5x5_reduce
I0322 11:24:39.150465  9371 net.cpp:406] inception_3b/relu_5x5_reduce <- inception_3b/5x5_reduce
I0322 11:24:39.150470  9371 net.cpp:367] inception_3b/relu_5x5_reduce -> inception_3b/5x5_reduce (in-place)
I0322 11:24:39.150583  9371 net.cpp:122] Setting up inception_3b/relu_5x5_reduce
I0322 11:24:39.150591  9371 net.cpp:129] Top shape: 16 32 81 47 (1949184)
I0322 11:24:39.150593  9371 net.cpp:137] Memory required for data: 2488469504
I0322 11:24:39.150596  9371 layer_factory.hpp:77] Creating layer inception_3b/5x5
I0322 11:24:39.150604  9371 net.cpp:84] Creating Layer inception_3b/5x5
I0322 11:24:39.150606  9371 net.cpp:406] inception_3b/5x5 <- inception_3b/5x5_reduce
I0322 11:24:39.150610  9371 net.cpp:380] inception_3b/5x5 -> inception_3b/5x5
I0322 11:24:39.151912  9371 net.cpp:122] Setting up inception_3b/5x5
I0322 11:24:39.151924  9371 net.cpp:129] Top shape: 16 96 81 47 (5847552)
I0322 11:24:39.151942  9371 net.cpp:137] Memory required for data: 2511859712
I0322 11:24:39.151947  9371 layer_factory.hpp:77] Creating layer inception_3b/relu_5x5
I0322 11:24:39.151952  9371 net.cpp:84] Creating Layer inception_3b/relu_5x5
I0322 11:24:39.151954  9371 net.cpp:406] inception_3b/relu_5x5 <- inception_3b/5x5
I0322 11:24:39.151958  9371 net.cpp:367] inception_3b/relu_5x5 -> inception_3b/5x5 (in-place)
I0322 11:24:39.152074  9371 net.cpp:122] Setting up inception_3b/relu_5x5
I0322 11:24:39.152081  9371 net.cpp:129] Top shape: 16 96 81 47 (5847552)
I0322 11:24:39.152084  9371 net.cpp:137] Memory required for data: 2535249920
I0322 11:24:39.152086  9371 layer_factory.hpp:77] Creating layer inception_3b/pool
I0322 11:24:39.152091  9371 net.cpp:84] Creating Layer inception_3b/pool
I0322 11:24:39.152094  9371 net.cpp:406] inception_3b/pool <- inception_3a/output_inception_3a/output_0_split_3
I0322 11:24:39.152098  9371 net.cpp:380] inception_3b/pool -> inception_3b/pool
I0322 11:24:39.152128  9371 net.cpp:122] Setting up inception_3b/pool
I0322 11:24:39.152133  9371 net.cpp:129] Top shape: 16 256 81 47 (15593472)
I0322 11:24:39.152135  9371 net.cpp:137] Memory required for data: 2597623808
I0322 11:24:39.152137  9371 layer_factory.hpp:77] Creating layer inception_3b/pool_proj
I0322 11:24:39.152143  9371 net.cpp:84] Creating Layer inception_3b/pool_proj
I0322 11:24:39.152146  9371 net.cpp:406] inception_3b/pool_proj <- inception_3b/pool
I0322 11:24:39.152150  9371 net.cpp:380] inception_3b/pool_proj -> inception_3b/pool_proj
I0322 11:24:39.153219  9371 net.cpp:122] Setting up inception_3b/pool_proj
I0322 11:24:39.153230  9371 net.cpp:129] Top shape: 16 64 81 47 (3898368)
I0322 11:24:39.153249  9371 net.cpp:137] Memory required for data: 2613217280
I0322 11:24:39.153254  9371 layer_factory.hpp:77] Creating layer inception_3b/relu_pool_proj
I0322 11:24:39.153259  9371 net.cpp:84] Creating Layer inception_3b/relu_pool_proj
I0322 11:24:39.153261  9371 net.cpp:406] inception_3b/relu_pool_proj <- inception_3b/pool_proj
I0322 11:24:39.153265  9371 net.cpp:367] inception_3b/relu_pool_proj -> inception_3b/pool_proj (in-place)
I0322 11:24:39.153379  9371 net.cpp:122] Setting up inception_3b/relu_pool_proj
I0322 11:24:39.153388  9371 net.cpp:129] Top shape: 16 64 81 47 (3898368)
I0322 11:24:39.153389  9371 net.cpp:137] Memory required for data: 2628810752
I0322 11:24:39.153393  9371 layer_factory.hpp:77] Creating layer inception_3b/output
I0322 11:24:39.153396  9371 net.cpp:84] Creating Layer inception_3b/output
I0322 11:24:39.153399  9371 net.cpp:406] inception_3b/output <- inception_3b/1x1
I0322 11:24:39.153403  9371 net.cpp:406] inception_3b/output <- inception_3b/3x3
I0322 11:24:39.153405  9371 net.cpp:406] inception_3b/output <- inception_3b/5x5
I0322 11:24:39.153409  9371 net.cpp:406] inception_3b/output <- inception_3b/pool_proj
I0322 11:24:39.153412  9371 net.cpp:380] inception_3b/output -> inception_3b/output
I0322 11:24:39.153430  9371 net.cpp:122] Setting up inception_3b/output
I0322 11:24:39.153434  9371 net.cpp:129] Top shape: 16 480 81 47 (29237760)
I0322 11:24:39.153436  9371 net.cpp:137] Memory required for data: 2745761792
I0322 11:24:39.153439  9371 layer_factory.hpp:77] Creating layer inception_3b/output_inception_3b/output_0_split
I0322 11:24:39.153442  9371 net.cpp:84] Creating Layer inception_3b/output_inception_3b/output_0_split
I0322 11:24:39.153445  9371 net.cpp:406] inception_3b/output_inception_3b/output_0_split <- inception_3b/output
I0322 11:24:39.153448  9371 net.cpp:380] inception_3b/output_inception_3b/output_0_split -> inception_3b/output_inception_3b/output_0_split_0
I0322 11:24:39.153452  9371 net.cpp:380] inception_3b/output_inception_3b/output_0_split -> inception_3b/output_inception_3b/output_0_split_1
I0322 11:24:39.153475  9371 net.cpp:122] Setting up inception_3b/output_inception_3b/output_0_split
I0322 11:24:39.153478  9371 net.cpp:129] Top shape: 16 480 81 47 (29237760)
I0322 11:24:39.153481  9371 net.cpp:129] Top shape: 16 480 81 47 (29237760)
I0322 11:24:39.153483  9371 net.cpp:137] Memory required for data: 2979663872
I0322 11:24:39.153486  9371 layer_factory.hpp:77] Creating layer pool3/3x3_s2
I0322 11:24:39.153489  9371 net.cpp:84] Creating Layer pool3/3x3_s2
I0322 11:24:39.153491  9371 net.cpp:406] pool3/3x3_s2 <- inception_3b/output_inception_3b/output_0_split_0
I0322 11:24:39.153496  9371 net.cpp:380] pool3/3x3_s2 -> pool3/3x3_s2
I0322 11:24:39.153517  9371 net.cpp:122] Setting up pool3/3x3_s2
I0322 11:24:39.153520  9371 net.cpp:129] Top shape: 16 480 40 23 (7065600)
I0322 11:24:39.153522  9371 net.cpp:137] Memory required for data: 3007926272
I0322 11:24:39.153524  9371 layer_factory.hpp:77] Creating layer pool3/3x3_s2_pool3/3x3_s2_0_split
I0322 11:24:39.153527  9371 net.cpp:84] Creating Layer pool3/3x3_s2_pool3/3x3_s2_0_split
I0322 11:24:39.153530  9371 net.cpp:406] pool3/3x3_s2_pool3/3x3_s2_0_split <- pool3/3x3_s2
I0322 11:24:39.153533  9371 net.cpp:380] pool3/3x3_s2_pool3/3x3_s2_0_split -> pool3/3x3_s2_pool3/3x3_s2_0_split_0
I0322 11:24:39.153537  9371 net.cpp:380] pool3/3x3_s2_pool3/3x3_s2_0_split -> pool3/3x3_s2_pool3/3x3_s2_0_split_1
I0322 11:24:39.153542  9371 net.cpp:380] pool3/3x3_s2_pool3/3x3_s2_0_split -> pool3/3x3_s2_pool3/3x3_s2_0_split_2
I0322 11:24:39.153545  9371 net.cpp:380] pool3/3x3_s2_pool3/3x3_s2_0_split -> pool3/3x3_s2_pool3/3x3_s2_0_split_3
I0322 11:24:39.153578  9371 net.cpp:122] Setting up pool3/3x3_s2_pool3/3x3_s2_0_split
I0322 11:24:39.153583  9371 net.cpp:129] Top shape: 16 480 40 23 (7065600)
I0322 11:24:39.153584  9371 net.cpp:129] Top shape: 16 480 40 23 (7065600)
I0322 11:24:39.153587  9371 net.cpp:129] Top shape: 16 480 40 23 (7065600)
I0322 11:24:39.153590  9371 net.cpp:129] Top shape: 16 480 40 23 (7065600)
I0322 11:24:39.153592  9371 net.cpp:137] Memory required for data: 3120975872
I0322 11:24:39.153594  9371 layer_factory.hpp:77] Creating layer inception_4a/1x1
I0322 11:24:39.153600  9371 net.cpp:84] Creating Layer inception_4a/1x1
I0322 11:24:39.153602  9371 net.cpp:406] inception_4a/1x1 <- pool3/3x3_s2_pool3/3x3_s2_0_split_0
I0322 11:24:39.153606  9371 net.cpp:380] inception_4a/1x1 -> inception_4a/1x1
I0322 11:24:39.156612  9371 net.cpp:122] Setting up inception_4a/1x1
I0322 11:24:39.156639  9371 net.cpp:129] Top shape: 16 192 40 23 (2826240)
I0322 11:24:39.156657  9371 net.cpp:137] Memory required for data: 3132280832
I0322 11:24:39.156662  9371 layer_factory.hpp:77] Creating layer inception_4a/relu_1x1
I0322 11:24:39.156667  9371 net.cpp:84] Creating Layer inception_4a/relu_1x1
I0322 11:24:39.156671  9371 net.cpp:406] inception_4a/relu_1x1 <- inception_4a/1x1
I0322 11:24:39.156675  9371 net.cpp:367] inception_4a/relu_1x1 -> inception_4a/1x1 (in-place)
I0322 11:24:39.157269  9371 net.cpp:122] Setting up inception_4a/relu_1x1
I0322 11:24:39.157281  9371 net.cpp:129] Top shape: 16 192 40 23 (2826240)
I0322 11:24:39.157284  9371 net.cpp:137] Memory required for data: 3143585792
I0322 11:24:39.157287  9371 layer_factory.hpp:77] Creating layer inception_4a/3x3_reduce
I0322 11:24:39.157295  9371 net.cpp:84] Creating Layer inception_4a/3x3_reduce
I0322 11:24:39.157299  9371 net.cpp:406] inception_4a/3x3_reduce <- pool3/3x3_s2_pool3/3x3_s2_0_split_1
I0322 11:24:39.157302  9371 net.cpp:380] inception_4a/3x3_reduce -> inception_4a/3x3_reduce
I0322 11:24:39.158015  9371 net.cpp:122] Setting up inception_4a/3x3_reduce
I0322 11:24:39.158023  9371 net.cpp:129] Top shape: 16 96 40 23 (1413120)
I0322 11:24:39.158025  9371 net.cpp:137] Memory required for data: 3149238272
I0322 11:24:39.158033  9371 layer_factory.hpp:77] Creating layer inception_4a/relu_3x3_reduce
I0322 11:24:39.158038  9371 net.cpp:84] Creating Layer inception_4a/relu_3x3_reduce
I0322 11:24:39.158041  9371 net.cpp:406] inception_4a/relu_3x3_reduce <- inception_4a/3x3_reduce
I0322 11:24:39.158046  9371 net.cpp:367] inception_4a/relu_3x3_reduce -> inception_4a/3x3_reduce (in-place)
I0322 11:24:39.158629  9371 net.cpp:122] Setting up inception_4a/relu_3x3_reduce
I0322 11:24:39.158640  9371 net.cpp:129] Top shape: 16 96 40 23 (1413120)
I0322 11:24:39.158643  9371 net.cpp:137] Memory required for data: 3154890752
I0322 11:24:39.158648  9371 layer_factory.hpp:77] Creating layer inception_4a/3x3
I0322 11:24:39.158654  9371 net.cpp:84] Creating Layer inception_4a/3x3
I0322 11:24:39.158658  9371 net.cpp:406] inception_4a/3x3 <- inception_4a/3x3_reduce
I0322 11:24:39.158663  9371 net.cpp:380] inception_4a/3x3 -> inception_4a/3x3
I0322 11:24:39.160847  9371 net.cpp:122] Setting up inception_4a/3x3
I0322 11:24:39.160858  9371 net.cpp:129] Top shape: 16 208 40 23 (3061760)
I0322 11:24:39.160876  9371 net.cpp:137] Memory required for data: 3167137792
I0322 11:24:39.160881  9371 layer_factory.hpp:77] Creating layer inception_4a/relu_3x3
I0322 11:24:39.160887  9371 net.cpp:84] Creating Layer inception_4a/relu_3x3
I0322 11:24:39.160889  9371 net.cpp:406] inception_4a/relu_3x3 <- inception_4a/3x3
I0322 11:24:39.160894  9371 net.cpp:367] inception_4a/relu_3x3 -> inception_4a/3x3 (in-place)
I0322 11:24:39.161020  9371 net.cpp:122] Setting up inception_4a/relu_3x3
I0322 11:24:39.161027  9371 net.cpp:129] Top shape: 16 208 40 23 (3061760)
I0322 11:24:39.161029  9371 net.cpp:137] Memory required for data: 3179384832
I0322 11:24:39.161032  9371 layer_factory.hpp:77] Creating layer inception_4a/5x5_reduce
I0322 11:24:39.161041  9371 net.cpp:84] Creating Layer inception_4a/5x5_reduce
I0322 11:24:39.161043  9371 net.cpp:406] inception_4a/5x5_reduce <- pool3/3x3_s2_pool3/3x3_s2_0_split_2
I0322 11:24:39.161047  9371 net.cpp:380] inception_4a/5x5_reduce -> inception_4a/5x5_reduce
I0322 11:24:39.162076  9371 net.cpp:122] Setting up inception_4a/5x5_reduce
I0322 11:24:39.162087  9371 net.cpp:129] Top shape: 16 16 40 23 (235520)
I0322 11:24:39.162101  9371 net.cpp:137] Memory required for data: 3180326912
I0322 11:24:39.162106  9371 layer_factory.hpp:77] Creating layer inception_4a/relu_5x5_reduce
I0322 11:24:39.162111  9371 net.cpp:84] Creating Layer inception_4a/relu_5x5_reduce
I0322 11:24:39.162114  9371 net.cpp:406] inception_4a/relu_5x5_reduce <- inception_4a/5x5_reduce
I0322 11:24:39.162117  9371 net.cpp:367] inception_4a/relu_5x5_reduce -> inception_4a/5x5_reduce (in-place)
I0322 11:24:39.162235  9371 net.cpp:122] Setting up inception_4a/relu_5x5_reduce
I0322 11:24:39.162242  9371 net.cpp:129] Top shape: 16 16 40 23 (235520)
I0322 11:24:39.162245  9371 net.cpp:137] Memory required for data: 3181268992
I0322 11:24:39.162247  9371 layer_factory.hpp:77] Creating layer inception_4a/5x5
I0322 11:24:39.162256  9371 net.cpp:84] Creating Layer inception_4a/5x5
I0322 11:24:39.162258  9371 net.cpp:406] inception_4a/5x5 <- inception_4a/5x5_reduce
I0322 11:24:39.162262  9371 net.cpp:380] inception_4a/5x5 -> inception_4a/5x5
I0322 11:24:39.163334  9371 net.cpp:122] Setting up inception_4a/5x5
I0322 11:24:39.163345  9371 net.cpp:129] Top shape: 16 48 40 23 (706560)
I0322 11:24:39.163358  9371 net.cpp:137] Memory required for data: 3184095232
I0322 11:24:39.163363  9371 layer_factory.hpp:77] Creating layer inception_4a/relu_5x5
I0322 11:24:39.163368  9371 net.cpp:84] Creating Layer inception_4a/relu_5x5
I0322 11:24:39.163372  9371 net.cpp:406] inception_4a/relu_5x5 <- inception_4a/5x5
I0322 11:24:39.163377  9371 net.cpp:367] inception_4a/relu_5x5 -> inception_4a/5x5 (in-place)
I0322 11:24:39.163494  9371 net.cpp:122] Setting up inception_4a/relu_5x5
I0322 11:24:39.163502  9371 net.cpp:129] Top shape: 16 48 40 23 (706560)
I0322 11:24:39.163506  9371 net.cpp:137] Memory required for data: 3186921472
I0322 11:24:39.163507  9371 layer_factory.hpp:77] Creating layer inception_4a/pool
I0322 11:24:39.163512  9371 net.cpp:84] Creating Layer inception_4a/pool
I0322 11:24:39.163516  9371 net.cpp:406] inception_4a/pool <- pool3/3x3_s2_pool3/3x3_s2_0_split_3
I0322 11:24:39.163519  9371 net.cpp:380] inception_4a/pool -> inception_4a/pool
I0322 11:24:39.163549  9371 net.cpp:122] Setting up inception_4a/pool
I0322 11:24:39.163553  9371 net.cpp:129] Top shape: 16 480 40 23 (7065600)
I0322 11:24:39.163555  9371 net.cpp:137] Memory required for data: 3215183872
I0322 11:24:39.163558  9371 layer_factory.hpp:77] Creating layer inception_4a/pool_proj
I0322 11:24:39.163565  9371 net.cpp:84] Creating Layer inception_4a/pool_proj
I0322 11:24:39.163568  9371 net.cpp:406] inception_4a/pool_proj <- inception_4a/pool
I0322 11:24:39.163573  9371 net.cpp:380] inception_4a/pool_proj -> inception_4a/pool_proj
I0322 11:24:39.164698  9371 net.cpp:122] Setting up inception_4a/pool_proj
I0322 11:24:39.164710  9371 net.cpp:129] Top shape: 16 64 40 23 (942080)
I0322 11:24:39.164723  9371 net.cpp:137] Memory required for data: 3218952192
I0322 11:24:39.164728  9371 layer_factory.hpp:77] Creating layer inception_4a/relu_pool_proj
I0322 11:24:39.164733  9371 net.cpp:84] Creating Layer inception_4a/relu_pool_proj
I0322 11:24:39.164736  9371 net.cpp:406] inception_4a/relu_pool_proj <- inception_4a/pool_proj
I0322 11:24:39.164741  9371 net.cpp:367] inception_4a/relu_pool_proj -> inception_4a/pool_proj (in-place)
I0322 11:24:39.164856  9371 net.cpp:122] Setting up inception_4a/relu_pool_proj
I0322 11:24:39.164863  9371 net.cpp:129] Top shape: 16 64 40 23 (942080)
I0322 11:24:39.164865  9371 net.cpp:137] Memory required for data: 3222720512
I0322 11:24:39.164868  9371 layer_factory.hpp:77] Creating layer inception_4a/output
I0322 11:24:39.164872  9371 net.cpp:84] Creating Layer inception_4a/output
I0322 11:24:39.164875  9371 net.cpp:406] inception_4a/output <- inception_4a/1x1
I0322 11:24:39.164880  9371 net.cpp:406] inception_4a/output <- inception_4a/3x3
I0322 11:24:39.164882  9371 net.cpp:406] inception_4a/output <- inception_4a/5x5
I0322 11:24:39.164885  9371 net.cpp:406] inception_4a/output <- inception_4a/pool_proj
I0322 11:24:39.164888  9371 net.cpp:380] inception_4a/output -> inception_4a/output
I0322 11:24:39.164907  9371 net.cpp:122] Setting up inception_4a/output
I0322 11:24:39.164911  9371 net.cpp:129] Top shape: 16 512 40 23 (7536640)
I0322 11:24:39.164914  9371 net.cpp:137] Memory required for data: 3252867072
I0322 11:24:39.164916  9371 layer_factory.hpp:77] Creating layer inception_4a/output_inception_4a/output_0_split
I0322 11:24:39.164921  9371 net.cpp:84] Creating Layer inception_4a/output_inception_4a/output_0_split
I0322 11:24:39.164923  9371 net.cpp:406] inception_4a/output_inception_4a/output_0_split <- inception_4a/output
I0322 11:24:39.164927  9371 net.cpp:380] inception_4a/output_inception_4a/output_0_split -> inception_4a/output_inception_4a/output_0_split_0
I0322 11:24:39.164932  9371 net.cpp:380] inception_4a/output_inception_4a/output_0_split -> inception_4a/output_inception_4a/output_0_split_1
I0322 11:24:39.164935  9371 net.cpp:380] inception_4a/output_inception_4a/output_0_split -> inception_4a/output_inception_4a/output_0_split_2
I0322 11:24:39.164939  9371 net.cpp:380] inception_4a/output_inception_4a/output_0_split -> inception_4a/output_inception_4a/output_0_split_3
I0322 11:24:39.164978  9371 net.cpp:122] Setting up inception_4a/output_inception_4a/output_0_split
I0322 11:24:39.164981  9371 net.cpp:129] Top shape: 16 512 40 23 (7536640)
I0322 11:24:39.164984  9371 net.cpp:129] Top shape: 16 512 40 23 (7536640)
I0322 11:24:39.164988  9371 net.cpp:129] Top shape: 16 512 40 23 (7536640)
I0322 11:24:39.164989  9371 net.cpp:129] Top shape: 16 512 40 23 (7536640)
I0322 11:24:39.164991  9371 net.cpp:137] Memory required for data: 3373453312
I0322 11:24:39.164994  9371 layer_factory.hpp:77] Creating layer inception_4b/1x1
I0322 11:24:39.165000  9371 net.cpp:84] Creating Layer inception_4b/1x1
I0322 11:24:39.165004  9371 net.cpp:406] inception_4b/1x1 <- inception_4a/output_inception_4a/output_0_split_0
I0322 11:24:39.165007  9371 net.cpp:380] inception_4b/1x1 -> inception_4b/1x1
I0322 11:24:39.166350  9371 net.cpp:122] Setting up inception_4b/1x1
I0322 11:24:39.166362  9371 net.cpp:129] Top shape: 16 160 40 23 (2355200)
I0322 11:24:39.166374  9371 net.cpp:137] Memory required for data: 3382874112
I0322 11:24:39.166379  9371 layer_factory.hpp:77] Creating layer inception_4b/relu_1x1
I0322 11:24:39.166384  9371 net.cpp:84] Creating Layer inception_4b/relu_1x1
I0322 11:24:39.166388  9371 net.cpp:406] inception_4b/relu_1x1 <- inception_4b/1x1
I0322 11:24:39.166393  9371 net.cpp:367] inception_4b/relu_1x1 -> inception_4b/1x1 (in-place)
I0322 11:24:39.166986  9371 net.cpp:122] Setting up inception_4b/relu_1x1
I0322 11:24:39.166997  9371 net.cpp:129] Top shape: 16 160 40 23 (2355200)
I0322 11:24:39.166999  9371 net.cpp:137] Memory required for data: 3392294912
I0322 11:24:39.167002  9371 layer_factory.hpp:77] Creating layer inception_4b/3x3_reduce
I0322 11:24:39.167011  9371 net.cpp:84] Creating Layer inception_4b/3x3_reduce
I0322 11:24:39.167013  9371 net.cpp:406] inception_4b/3x3_reduce <- inception_4a/output_inception_4a/output_0_split_1
I0322 11:24:39.167019  9371 net.cpp:380] inception_4b/3x3_reduce -> inception_4b/3x3_reduce
I0322 11:24:39.167832  9371 net.cpp:122] Setting up inception_4b/3x3_reduce
I0322 11:24:39.167842  9371 net.cpp:129] Top shape: 16 112 40 23 (1648640)
I0322 11:24:39.167855  9371 net.cpp:137] Memory required for data: 3398889472
I0322 11:24:39.167860  9371 layer_factory.hpp:77] Creating layer inception_4b/relu_3x3_reduce
I0322 11:24:39.167865  9371 net.cpp:84] Creating Layer inception_4b/relu_3x3_reduce
I0322 11:24:39.167870  9371 net.cpp:406] inception_4b/relu_3x3_reduce <- inception_4b/3x3_reduce
I0322 11:24:39.167872  9371 net.cpp:367] inception_4b/relu_3x3_reduce -> inception_4b/3x3_reduce (in-place)
I0322 11:24:39.168472  9371 net.cpp:122] Setting up inception_4b/relu_3x3_reduce
I0322 11:24:39.168483  9371 net.cpp:129] Top shape: 16 112 40 23 (1648640)
I0322 11:24:39.168485  9371 net.cpp:137] Memory required for data: 3405484032
I0322 11:24:39.168488  9371 layer_factory.hpp:77] Creating layer inception_4b/3x3
I0322 11:24:39.168501  9371 net.cpp:84] Creating Layer inception_4b/3x3
I0322 11:24:39.168505  9371 net.cpp:406] inception_4b/3x3 <- inception_4b/3x3_reduce
I0322 11:24:39.168510  9371 net.cpp:380] inception_4b/3x3 -> inception_4b/3x3
I0322 11:24:39.171479  9371 net.cpp:122] Setting up inception_4b/3x3
I0322 11:24:39.171491  9371 net.cpp:129] Top shape: 16 224 40 23 (3297280)
I0322 11:24:39.171504  9371 net.cpp:137] Memory required for data: 3418673152
I0322 11:24:39.171510  9371 layer_factory.hpp:77] Creating layer inception_4b/relu_3x3
I0322 11:24:39.171515  9371 net.cpp:84] Creating Layer inception_4b/relu_3x3
I0322 11:24:39.171519  9371 net.cpp:406] inception_4b/relu_3x3 <- inception_4b/3x3
I0322 11:24:39.171522  9371 net.cpp:367] inception_4b/relu_3x3 -> inception_4b/3x3 (in-place)
I0322 11:24:39.171658  9371 net.cpp:122] Setting up inception_4b/relu_3x3
I0322 11:24:39.171666  9371 net.cpp:129] Top shape: 16 224 40 23 (3297280)
I0322 11:24:39.171669  9371 net.cpp:137] Memory required for data: 3431862272
I0322 11:24:39.171671  9371 layer_factory.hpp:77] Creating layer inception_4b/5x5_reduce
I0322 11:24:39.171679  9371 net.cpp:84] Creating Layer inception_4b/5x5_reduce
I0322 11:24:39.171682  9371 net.cpp:406] inception_4b/5x5_reduce <- inception_4a/output_inception_4a/output_0_split_2
I0322 11:24:39.171687  9371 net.cpp:380] inception_4b/5x5_reduce -> inception_4b/5x5_reduce
I0322 11:24:39.172807  9371 net.cpp:122] Setting up inception_4b/5x5_reduce
I0322 11:24:39.172818  9371 net.cpp:129] Top shape: 16 24 40 23 (353280)
I0322 11:24:39.172835  9371 net.cpp:137] Memory required for data: 3433275392
I0322 11:24:39.172840  9371 layer_factory.hpp:77] Creating layer inception_4b/relu_5x5_reduce
I0322 11:24:39.172847  9371 net.cpp:84] Creating Layer inception_4b/relu_5x5_reduce
I0322 11:24:39.172849  9371 net.cpp:406] inception_4b/relu_5x5_reduce <- inception_4b/5x5_reduce
I0322 11:24:39.172854  9371 net.cpp:367] inception_4b/relu_5x5_reduce -> inception_4b/5x5_reduce (in-place)
I0322 11:24:39.172988  9371 net.cpp:122] Setting up inception_4b/relu_5x5_reduce
I0322 11:24:39.172996  9371 net.cpp:129] Top shape: 16 24 40 23 (353280)
I0322 11:24:39.172998  9371 net.cpp:137] Memory required for data: 3434688512
I0322 11:24:39.173001  9371 layer_factory.hpp:77] Creating layer inception_4b/5x5
I0322 11:24:39.173008  9371 net.cpp:84] Creating Layer inception_4b/5x5
I0322 11:24:39.173012  9371 net.cpp:406] inception_4b/5x5 <- inception_4b/5x5_reduce
I0322 11:24:39.173017  9371 net.cpp:380] inception_4b/5x5 -> inception_4b/5x5
I0322 11:24:39.174242  9371 net.cpp:122] Setting up inception_4b/5x5
I0322 11:24:39.174253  9371 net.cpp:129] Top shape: 16 64 40 23 (942080)
I0322 11:24:39.174266  9371 net.cpp:137] Memory required for data: 3438456832
I0322 11:24:39.174271  9371 layer_factory.hpp:77] Creating layer inception_4b/relu_5x5
I0322 11:24:39.174278  9371 net.cpp:84] Creating Layer inception_4b/relu_5x5
I0322 11:24:39.174281  9371 net.cpp:406] inception_4b/relu_5x5 <- inception_4b/5x5
I0322 11:24:39.174285  9371 net.cpp:367] inception_4b/relu_5x5 -> inception_4b/5x5 (in-place)
I0322 11:24:39.174417  9371 net.cpp:122] Setting up inception_4b/relu_5x5
I0322 11:24:39.174424  9371 net.cpp:129] Top shape: 16 64 40 23 (942080)
I0322 11:24:39.174427  9371 net.cpp:137] Memory required for data: 3442225152
I0322 11:24:39.174429  9371 layer_factory.hpp:77] Creating layer inception_4b/pool
I0322 11:24:39.174435  9371 net.cpp:84] Creating Layer inception_4b/pool
I0322 11:24:39.174438  9371 net.cpp:406] inception_4b/pool <- inception_4a/output_inception_4a/output_0_split_3
I0322 11:24:39.174443  9371 net.cpp:380] inception_4b/pool -> inception_4b/pool
I0322 11:24:39.174475  9371 net.cpp:122] Setting up inception_4b/pool
I0322 11:24:39.174484  9371 net.cpp:129] Top shape: 16 512 40 23 (7536640)
I0322 11:24:39.174486  9371 net.cpp:137] Memory required for data: 3472371712
I0322 11:24:39.174489  9371 layer_factory.hpp:77] Creating layer inception_4b/pool_proj
I0322 11:24:39.174496  9371 net.cpp:84] Creating Layer inception_4b/pool_proj
I0322 11:24:39.174499  9371 net.cpp:406] inception_4b/pool_proj <- inception_4b/pool
I0322 11:24:39.174504  9371 net.cpp:380] inception_4b/pool_proj -> inception_4b/pool_proj
I0322 11:24:39.175684  9371 net.cpp:122] Setting up inception_4b/pool_proj
I0322 11:24:39.175696  9371 net.cpp:129] Top shape: 16 64 40 23 (942080)
I0322 11:24:39.175709  9371 net.cpp:137] Memory required for data: 3476140032
I0322 11:24:39.175714  9371 layer_factory.hpp:77] Creating layer inception_4b/relu_pool_proj
I0322 11:24:39.175720  9371 net.cpp:84] Creating Layer inception_4b/relu_pool_proj
I0322 11:24:39.175724  9371 net.cpp:406] inception_4b/relu_pool_proj <- inception_4b/pool_proj
I0322 11:24:39.175727  9371 net.cpp:367] inception_4b/relu_pool_proj -> inception_4b/pool_proj (in-place)
I0322 11:24:39.175861  9371 net.cpp:122] Setting up inception_4b/relu_pool_proj
I0322 11:24:39.175868  9371 net.cpp:129] Top shape: 16 64 40 23 (942080)
I0322 11:24:39.175871  9371 net.cpp:137] Memory required for data: 3479908352
I0322 11:24:39.175873  9371 layer_factory.hpp:77] Creating layer inception_4b/output
I0322 11:24:39.175879  9371 net.cpp:84] Creating Layer inception_4b/output
I0322 11:24:39.175881  9371 net.cpp:406] inception_4b/output <- inception_4b/1x1
I0322 11:24:39.175884  9371 net.cpp:406] inception_4b/output <- inception_4b/3x3
I0322 11:24:39.175887  9371 net.cpp:406] inception_4b/output <- inception_4b/5x5
I0322 11:24:39.175890  9371 net.cpp:406] inception_4b/output <- inception_4b/pool_proj
I0322 11:24:39.175894  9371 net.cpp:380] inception_4b/output -> inception_4b/output
I0322 11:24:39.175915  9371 net.cpp:122] Setting up inception_4b/output
I0322 11:24:39.175920  9371 net.cpp:129] Top shape: 16 512 40 23 (7536640)
I0322 11:24:39.175921  9371 net.cpp:137] Memory required for data: 3510054912
I0322 11:24:39.175925  9371 layer_factory.hpp:77] Creating layer inception_4b/output_inception_4b/output_0_split
I0322 11:24:39.175930  9371 net.cpp:84] Creating Layer inception_4b/output_inception_4b/output_0_split
I0322 11:24:39.175932  9371 net.cpp:406] inception_4b/output_inception_4b/output_0_split <- inception_4b/output
I0322 11:24:39.175935  9371 net.cpp:380] inception_4b/output_inception_4b/output_0_split -> inception_4b/output_inception_4b/output_0_split_0
I0322 11:24:39.175940  9371 net.cpp:380] inception_4b/output_inception_4b/output_0_split -> inception_4b/output_inception_4b/output_0_split_1
I0322 11:24:39.175943  9371 net.cpp:380] inception_4b/output_inception_4b/output_0_split -> inception_4b/output_inception_4b/output_0_split_2
I0322 11:24:39.175953  9371 net.cpp:380] inception_4b/output_inception_4b/output_0_split -> inception_4b/output_inception_4b/output_0_split_3
I0322 11:24:39.175997  9371 net.cpp:122] Setting up inception_4b/output_inception_4b/output_0_split
I0322 11:24:39.176000  9371 net.cpp:129] Top shape: 16 512 40 23 (7536640)
I0322 11:24:39.176003  9371 net.cpp:129] Top shape: 16 512 40 23 (7536640)
I0322 11:24:39.176007  9371 net.cpp:129] Top shape: 16 512 40 23 (7536640)
I0322 11:24:39.176010  9371 net.cpp:129] Top shape: 16 512 40 23 (7536640)
I0322 11:24:39.176012  9371 net.cpp:137] Memory required for data: 3630641152
I0322 11:24:39.176014  9371 layer_factory.hpp:77] Creating layer inception_4c/1x1
I0322 11:24:39.176023  9371 net.cpp:84] Creating Layer inception_4c/1x1
I0322 11:24:39.176025  9371 net.cpp:406] inception_4c/1x1 <- inception_4b/output_inception_4b/output_0_split_0
I0322 11:24:39.176029  9371 net.cpp:380] inception_4c/1x1 -> inception_4c/1x1
I0322 11:24:39.177350  9371 net.cpp:122] Setting up inception_4c/1x1
I0322 11:24:39.177361  9371 net.cpp:129] Top shape: 16 128 40 23 (1884160)
I0322 11:24:39.177374  9371 net.cpp:137] Memory required for data: 3638177792
I0322 11:24:39.177379  9371 layer_factory.hpp:77] Creating layer inception_4c/relu_1x1
I0322 11:24:39.177386  9371 net.cpp:84] Creating Layer inception_4c/relu_1x1
I0322 11:24:39.177388  9371 net.cpp:406] inception_4c/relu_1x1 <- inception_4c/1x1
I0322 11:24:39.177392  9371 net.cpp:367] inception_4c/relu_1x1 -> inception_4c/1x1 (in-place)
I0322 11:24:39.177990  9371 net.cpp:122] Setting up inception_4c/relu_1x1
I0322 11:24:39.178001  9371 net.cpp:129] Top shape: 16 128 40 23 (1884160)
I0322 11:24:39.178004  9371 net.cpp:137] Memory required for data: 3645714432
I0322 11:24:39.178007  9371 layer_factory.hpp:77] Creating layer inception_4c/3x3_reduce
I0322 11:24:39.178015  9371 net.cpp:84] Creating Layer inception_4c/3x3_reduce
I0322 11:24:39.178019  9371 net.cpp:406] inception_4c/3x3_reduce <- inception_4b/output_inception_4b/output_0_split_1
I0322 11:24:39.178023  9371 net.cpp:380] inception_4c/3x3_reduce -> inception_4c/3x3_reduce
I0322 11:24:39.178902  9371 net.cpp:122] Setting up inception_4c/3x3_reduce
I0322 11:24:39.178911  9371 net.cpp:129] Top shape: 16 128 40 23 (1884160)
I0322 11:24:39.178925  9371 net.cpp:137] Memory required for data: 3653251072
I0322 11:24:39.178930  9371 layer_factory.hpp:77] Creating layer inception_4c/relu_3x3_reduce
I0322 11:24:39.178936  9371 net.cpp:84] Creating Layer inception_4c/relu_3x3_reduce
I0322 11:24:39.178938  9371 net.cpp:406] inception_4c/relu_3x3_reduce <- inception_4c/3x3_reduce
I0322 11:24:39.178942  9371 net.cpp:367] inception_4c/relu_3x3_reduce -> inception_4c/3x3_reduce (in-place)
I0322 11:24:39.179546  9371 net.cpp:122] Setting up inception_4c/relu_3x3_reduce
I0322 11:24:39.179556  9371 net.cpp:129] Top shape: 16 128 40 23 (1884160)
I0322 11:24:39.179559  9371 net.cpp:137] Memory required for data: 3660787712
I0322 11:24:39.179563  9371 layer_factory.hpp:77] Creating layer inception_4c/3x3
I0322 11:24:39.179570  9371 net.cpp:84] Creating Layer inception_4c/3x3
I0322 11:24:39.179574  9371 net.cpp:406] inception_4c/3x3 <- inception_4c/3x3_reduce
I0322 11:24:39.179579  9371 net.cpp:380] inception_4c/3x3 -> inception_4c/3x3
I0322 11:24:39.182765  9371 net.cpp:122] Setting up inception_4c/3x3
I0322 11:24:39.182777  9371 net.cpp:129] Top shape: 16 256 40 23 (3768320)
I0322 11:24:39.182790  9371 net.cpp:137] Memory required for data: 3675860992
I0322 11:24:39.182796  9371 layer_factory.hpp:77] Creating layer inception_4c/relu_3x3
I0322 11:24:39.182801  9371 net.cpp:84] Creating Layer inception_4c/relu_3x3
I0322 11:24:39.182804  9371 net.cpp:406] inception_4c/relu_3x3 <- inception_4c/3x3
I0322 11:24:39.182809  9371 net.cpp:367] inception_4c/relu_3x3 -> inception_4c/3x3 (in-place)
I0322 11:24:39.182942  9371 net.cpp:122] Setting up inception_4c/relu_3x3
I0322 11:24:39.182950  9371 net.cpp:129] Top shape: 16 256 40 23 (3768320)
I0322 11:24:39.182953  9371 net.cpp:137] Memory required for data: 3690934272
I0322 11:24:39.182955  9371 layer_factory.hpp:77] Creating layer inception_4c/5x5_reduce
I0322 11:24:39.182963  9371 net.cpp:84] Creating Layer inception_4c/5x5_reduce
I0322 11:24:39.182966  9371 net.cpp:406] inception_4c/5x5_reduce <- inception_4b/output_inception_4b/output_0_split_2
I0322 11:24:39.182971  9371 net.cpp:380] inception_4c/5x5_reduce -> inception_4c/5x5_reduce
I0322 11:24:39.184079  9371 net.cpp:122] Setting up inception_4c/5x5_reduce
I0322 11:24:39.184090  9371 net.cpp:129] Top shape: 16 24 40 23 (353280)
I0322 11:24:39.184108  9371 net.cpp:137] Memory required for data: 3692347392
I0322 11:24:39.184113  9371 layer_factory.hpp:77] Creating layer inception_4c/relu_5x5_reduce
I0322 11:24:39.184118  9371 net.cpp:84] Creating Layer inception_4c/relu_5x5_reduce
I0322 11:24:39.184120  9371 net.cpp:406] inception_4c/relu_5x5_reduce <- inception_4c/5x5_reduce
I0322 11:24:39.184124  9371 net.cpp:367] inception_4c/relu_5x5_reduce -> inception_4c/5x5_reduce (in-place)
I0322 11:24:39.184257  9371 net.cpp:122] Setting up inception_4c/relu_5x5_reduce
I0322 11:24:39.184264  9371 net.cpp:129] Top shape: 16 24 40 23 (353280)
I0322 11:24:39.184267  9371 net.cpp:137] Memory required for data: 3693760512
I0322 11:24:39.184269  9371 layer_factory.hpp:77] Creating layer inception_4c/5x5
I0322 11:24:39.184276  9371 net.cpp:84] Creating Layer inception_4c/5x5
I0322 11:24:39.184279  9371 net.cpp:406] inception_4c/5x5 <- inception_4c/5x5_reduce
I0322 11:24:39.184284  9371 net.cpp:380] inception_4c/5x5 -> inception_4c/5x5
I0322 11:24:39.186120  9371 net.cpp:122] Setting up inception_4c/5x5
I0322 11:24:39.186132  9371 net.cpp:129] Top shape: 16 64 40 23 (942080)
I0322 11:24:39.186146  9371 net.cpp:137] Memory required for data: 3697528832
I0322 11:24:39.186151  9371 layer_factory.hpp:77] Creating layer inception_4c/relu_5x5
I0322 11:24:39.186156  9371 net.cpp:84] Creating Layer inception_4c/relu_5x5
I0322 11:24:39.186159  9371 net.cpp:406] inception_4c/relu_5x5 <- inception_4c/5x5
I0322 11:24:39.186163  9371 net.cpp:367] inception_4c/relu_5x5 -> inception_4c/5x5 (in-place)
I0322 11:24:39.186300  9371 net.cpp:122] Setting up inception_4c/relu_5x5
I0322 11:24:39.186307  9371 net.cpp:129] Top shape: 16 64 40 23 (942080)
I0322 11:24:39.186309  9371 net.cpp:137] Memory required for data: 3701297152
I0322 11:24:39.186312  9371 layer_factory.hpp:77] Creating layer inception_4c/pool
I0322 11:24:39.186317  9371 net.cpp:84] Creating Layer inception_4c/pool
I0322 11:24:39.186321  9371 net.cpp:406] inception_4c/pool <- inception_4b/output_inception_4b/output_0_split_3
I0322 11:24:39.186326  9371 net.cpp:380] inception_4c/pool -> inception_4c/pool
I0322 11:24:39.186358  9371 net.cpp:122] Setting up inception_4c/pool
I0322 11:24:39.186362  9371 net.cpp:129] Top shape: 16 512 40 23 (7536640)
I0322 11:24:39.186365  9371 net.cpp:137] Memory required for data: 3731443712
I0322 11:24:39.186367  9371 layer_factory.hpp:77] Creating layer inception_4c/pool_proj
I0322 11:24:39.186375  9371 net.cpp:84] Creating Layer inception_4c/pool_proj
I0322 11:24:39.186378  9371 net.cpp:406] inception_4c/pool_proj <- inception_4c/pool
I0322 11:24:39.186383  9371 net.cpp:380] inception_4c/pool_proj -> inception_4c/pool_proj
I0322 11:24:39.187567  9371 net.cpp:122] Setting up inception_4c/pool_proj
I0322 11:24:39.187579  9371 net.cpp:129] Top shape: 16 64 40 23 (942080)
I0322 11:24:39.187592  9371 net.cpp:137] Memory required for data: 3735212032
I0322 11:24:39.187608  9371 layer_factory.hpp:77] Creating layer inception_4c/relu_pool_proj
I0322 11:24:39.187613  9371 net.cpp:84] Creating Layer inception_4c/relu_pool_proj
I0322 11:24:39.187618  9371 net.cpp:406] inception_4c/relu_pool_proj <- inception_4c/pool_proj
I0322 11:24:39.187621  9371 net.cpp:367] inception_4c/relu_pool_proj -> inception_4c/pool_proj (in-place)
I0322 11:24:39.187753  9371 net.cpp:122] Setting up inception_4c/relu_pool_proj
I0322 11:24:39.187762  9371 net.cpp:129] Top shape: 16 64 40 23 (942080)
I0322 11:24:39.187763  9371 net.cpp:137] Memory required for data: 3738980352
I0322 11:24:39.187767  9371 layer_factory.hpp:77] Creating layer inception_4c/output
I0322 11:24:39.187772  9371 net.cpp:84] Creating Layer inception_4c/output
I0322 11:24:39.187774  9371 net.cpp:406] inception_4c/output <- inception_4c/1x1
I0322 11:24:39.187777  9371 net.cpp:406] inception_4c/output <- inception_4c/3x3
I0322 11:24:39.187780  9371 net.cpp:406] inception_4c/output <- inception_4c/5x5
I0322 11:24:39.187783  9371 net.cpp:406] inception_4c/output <- inception_4c/pool_proj
I0322 11:24:39.187786  9371 net.cpp:380] inception_4c/output -> inception_4c/output
I0322 11:24:39.187808  9371 net.cpp:122] Setting up inception_4c/output
I0322 11:24:39.187813  9371 net.cpp:129] Top shape: 16 512 40 23 (7536640)
I0322 11:24:39.187814  9371 net.cpp:137] Memory required for data: 3769126912
I0322 11:24:39.187816  9371 layer_factory.hpp:77] Creating layer inception_4c/output_inception_4c/output_0_split
I0322 11:24:39.187821  9371 net.cpp:84] Creating Layer inception_4c/output_inception_4c/output_0_split
I0322 11:24:39.187824  9371 net.cpp:406] inception_4c/output_inception_4c/output_0_split <- inception_4c/output
I0322 11:24:39.187829  9371 net.cpp:380] inception_4c/output_inception_4c/output_0_split -> inception_4c/output_inception_4c/output_0_split_0
I0322 11:24:39.187832  9371 net.cpp:380] inception_4c/output_inception_4c/output_0_split -> inception_4c/output_inception_4c/output_0_split_1
I0322 11:24:39.187836  9371 net.cpp:380] inception_4c/output_inception_4c/output_0_split -> inception_4c/output_inception_4c/output_0_split_2
I0322 11:24:39.187840  9371 net.cpp:380] inception_4c/output_inception_4c/output_0_split -> inception_4c/output_inception_4c/output_0_split_3
I0322 11:24:39.187883  9371 net.cpp:122] Setting up inception_4c/output_inception_4c/output_0_split
I0322 11:24:39.187887  9371 net.cpp:129] Top shape: 16 512 40 23 (7536640)
I0322 11:24:39.187891  9371 net.cpp:129] Top shape: 16 512 40 23 (7536640)
I0322 11:24:39.187892  9371 net.cpp:129] Top shape: 16 512 40 23 (7536640)
I0322 11:24:39.187896  9371 net.cpp:129] Top shape: 16 512 40 23 (7536640)
I0322 11:24:39.187897  9371 net.cpp:137] Memory required for data: 3889713152
I0322 11:24:39.187899  9371 layer_factory.hpp:77] Creating layer inception_4d/1x1
I0322 11:24:39.187907  9371 net.cpp:84] Creating Layer inception_4d/1x1
I0322 11:24:39.187911  9371 net.cpp:406] inception_4d/1x1 <- inception_4c/output_inception_4c/output_0_split_0
I0322 11:24:39.187914  9371 net.cpp:380] inception_4d/1x1 -> inception_4d/1x1
I0322 11:24:39.189203  9371 net.cpp:122] Setting up inception_4d/1x1
I0322 11:24:39.189214  9371 net.cpp:129] Top shape: 16 112 40 23 (1648640)
I0322 11:24:39.189227  9371 net.cpp:137] Memory required for data: 3896307712
I0322 11:24:39.189232  9371 layer_factory.hpp:77] Creating layer inception_4d/relu_1x1
I0322 11:24:39.189239  9371 net.cpp:84] Creating Layer inception_4d/relu_1x1
I0322 11:24:39.189241  9371 net.cpp:406] inception_4d/relu_1x1 <- inception_4d/1x1
I0322 11:24:39.189246  9371 net.cpp:367] inception_4d/relu_1x1 -> inception_4d/1x1 (in-place)
I0322 11:24:39.189851  9371 net.cpp:122] Setting up inception_4d/relu_1x1
I0322 11:24:39.189862  9371 net.cpp:129] Top shape: 16 112 40 23 (1648640)
I0322 11:24:39.189864  9371 net.cpp:137] Memory required for data: 3902902272
I0322 11:24:39.189867  9371 layer_factory.hpp:77] Creating layer inception_4d/3x3_reduce
I0322 11:24:39.189875  9371 net.cpp:84] Creating Layer inception_4d/3x3_reduce
I0322 11:24:39.189878  9371 net.cpp:406] inception_4d/3x3_reduce <- inception_4c/output_inception_4c/output_0_split_1
I0322 11:24:39.189884  9371 net.cpp:380] inception_4d/3x3_reduce -> inception_4d/3x3_reduce
I0322 11:24:39.190778  9371 net.cpp:122] Setting up inception_4d/3x3_reduce
I0322 11:24:39.190788  9371 net.cpp:129] Top shape: 16 144 40 23 (2119680)
I0322 11:24:39.190790  9371 net.cpp:137] Memory required for data: 3911380992
I0322 11:24:39.190794  9371 layer_factory.hpp:77] Creating layer inception_4d/relu_3x3_reduce
I0322 11:24:39.190800  9371 net.cpp:84] Creating Layer inception_4d/relu_3x3_reduce
I0322 11:24:39.190804  9371 net.cpp:406] inception_4d/relu_3x3_reduce <- inception_4d/3x3_reduce
I0322 11:24:39.190807  9371 net.cpp:367] inception_4d/relu_3x3_reduce -> inception_4d/3x3_reduce (in-place)
I0322 11:24:39.191418  9371 net.cpp:122] Setting up inception_4d/relu_3x3_reduce
I0322 11:24:39.191429  9371 net.cpp:129] Top shape: 16 144 40 23 (2119680)
I0322 11:24:39.191431  9371 net.cpp:137] Memory required for data: 3919859712
I0322 11:24:39.191434  9371 layer_factory.hpp:77] Creating layer inception_4d/3x3
I0322 11:24:39.191443  9371 net.cpp:84] Creating Layer inception_4d/3x3
I0322 11:24:39.191447  9371 net.cpp:406] inception_4d/3x3 <- inception_4d/3x3_reduce
I0322 11:24:39.191452  9371 net.cpp:380] inception_4d/3x3 -> inception_4d/3x3
I0322 11:24:39.195049  9371 net.cpp:122] Setting up inception_4d/3x3
I0322 11:24:39.195061  9371 net.cpp:129] Top shape: 16 288 40 23 (4239360)
I0322 11:24:39.195075  9371 net.cpp:137] Memory required for data: 3936817152
I0322 11:24:39.195080  9371 layer_factory.hpp:77] Creating layer inception_4d/relu_3x3
I0322 11:24:39.195086  9371 net.cpp:84] Creating Layer inception_4d/relu_3x3
I0322 11:24:39.195088  9371 net.cpp:406] inception_4d/relu_3x3 <- inception_4d/3x3
I0322 11:24:39.195093  9371 net.cpp:367] inception_4d/relu_3x3 -> inception_4d/3x3 (in-place)
I0322 11:24:39.195230  9371 net.cpp:122] Setting up inception_4d/relu_3x3
I0322 11:24:39.195238  9371 net.cpp:129] Top shape: 16 288 40 23 (4239360)
I0322 11:24:39.195241  9371 net.cpp:137] Memory required for data: 3953774592
I0322 11:24:39.195243  9371 layer_factory.hpp:77] Creating layer inception_4d/5x5_reduce
I0322 11:24:39.195251  9371 net.cpp:84] Creating Layer inception_4d/5x5_reduce
I0322 11:24:39.195255  9371 net.cpp:406] inception_4d/5x5_reduce <- inception_4c/output_inception_4c/output_0_split_2
I0322 11:24:39.195261  9371 net.cpp:380] inception_4d/5x5_reduce -> inception_4d/5x5_reduce
I0322 11:24:39.196439  9371 net.cpp:122] Setting up inception_4d/5x5_reduce
I0322 11:24:39.196450  9371 net.cpp:129] Top shape: 16 32 40 23 (471040)
I0322 11:24:39.196454  9371 net.cpp:137] Memory required for data: 3955658752
I0322 11:24:39.196460  9371 layer_factory.hpp:77] Creating layer inception_4d/relu_5x5_reduce
I0322 11:24:39.196465  9371 net.cpp:84] Creating Layer inception_4d/relu_5x5_reduce
I0322 11:24:39.196468  9371 net.cpp:406] inception_4d/relu_5x5_reduce <- inception_4d/5x5_reduce
I0322 11:24:39.196472  9371 net.cpp:367] inception_4d/relu_5x5_reduce -> inception_4d/5x5_reduce (in-place)
I0322 11:24:39.196606  9371 net.cpp:122] Setting up inception_4d/relu_5x5_reduce
I0322 11:24:39.196615  9371 net.cpp:129] Top shape: 16 32 40 23 (471040)
I0322 11:24:39.196619  9371 net.cpp:137] Memory required for data: 3957542912
I0322 11:24:39.196620  9371 layer_factory.hpp:77] Creating layer inception_4d/5x5
I0322 11:24:39.196629  9371 net.cpp:84] Creating Layer inception_4d/5x5
I0322 11:24:39.196631  9371 net.cpp:406] inception_4d/5x5 <- inception_4d/5x5_reduce
I0322 11:24:39.196635  9371 net.cpp:380] inception_4d/5x5 -> inception_4d/5x5
I0322 11:24:39.197954  9371 net.cpp:122] Setting up inception_4d/5x5
I0322 11:24:39.197968  9371 net.cpp:129] Top shape: 16 64 40 23 (942080)
I0322 11:24:39.197984  9371 net.cpp:137] Memory required for data: 3961311232
I0322 11:24:39.197989  9371 layer_factory.hpp:77] Creating layer inception_4d/relu_5x5
I0322 11:24:39.197994  9371 net.cpp:84] Creating Layer inception_4d/relu_5x5
I0322 11:24:39.197998  9371 net.cpp:406] inception_4d/relu_5x5 <- inception_4d/5x5
I0322 11:24:39.198002  9371 net.cpp:367] inception_4d/relu_5x5 -> inception_4d/5x5 (in-place)
I0322 11:24:39.198135  9371 net.cpp:122] Setting up inception_4d/relu_5x5
I0322 11:24:39.198143  9371 net.cpp:129] Top shape: 16 64 40 23 (942080)
I0322 11:24:39.198145  9371 net.cpp:137] Memory required for data: 3965079552
I0322 11:24:39.198148  9371 layer_factory.hpp:77] Creating layer inception_4d/pool
I0322 11:24:39.198153  9371 net.cpp:84] Creating Layer inception_4d/pool
I0322 11:24:39.198155  9371 net.cpp:406] inception_4d/pool <- inception_4c/output_inception_4c/output_0_split_3
I0322 11:24:39.198160  9371 net.cpp:380] inception_4d/pool -> inception_4d/pool
I0322 11:24:39.198200  9371 net.cpp:122] Setting up inception_4d/pool
I0322 11:24:39.198204  9371 net.cpp:129] Top shape: 16 512 40 23 (7536640)
I0322 11:24:39.198206  9371 net.cpp:137] Memory required for data: 3995226112
I0322 11:24:39.198209  9371 layer_factory.hpp:77] Creating layer inception_4d/pool_proj
I0322 11:24:39.198216  9371 net.cpp:84] Creating Layer inception_4d/pool_proj
I0322 11:24:39.198220  9371 net.cpp:406] inception_4d/pool_proj <- inception_4d/pool
I0322 11:24:39.198223  9371 net.cpp:380] inception_4d/pool_proj -> inception_4d/pool_proj
I0322 11:24:39.199426  9371 net.cpp:122] Setting up inception_4d/pool_proj
I0322 11:24:39.199437  9371 net.cpp:129] Top shape: 16 64 40 23 (942080)
I0322 11:24:39.199455  9371 net.cpp:137] Memory required for data: 3998994432
I0322 11:24:39.199460  9371 layer_factory.hpp:77] Creating layer inception_4d/relu_pool_proj
I0322 11:24:39.199465  9371 net.cpp:84] Creating Layer inception_4d/relu_pool_proj
I0322 11:24:39.199470  9371 net.cpp:406] inception_4d/relu_pool_proj <- inception_4d/pool_proj
I0322 11:24:39.199473  9371 net.cpp:367] inception_4d/relu_pool_proj -> inception_4d/pool_proj (in-place)
I0322 11:24:39.199604  9371 net.cpp:122] Setting up inception_4d/relu_pool_proj
I0322 11:24:39.199612  9371 net.cpp:129] Top shape: 16 64 40 23 (942080)
I0322 11:24:39.199615  9371 net.cpp:137] Memory required for data: 4002762752
I0322 11:24:39.199617  9371 layer_factory.hpp:77] Creating layer inception_4d/output
I0322 11:24:39.199622  9371 net.cpp:84] Creating Layer inception_4d/output
I0322 11:24:39.199625  9371 net.cpp:406] inception_4d/output <- inception_4d/1x1
I0322 11:24:39.199630  9371 net.cpp:406] inception_4d/output <- inception_4d/3x3
I0322 11:24:39.199631  9371 net.cpp:406] inception_4d/output <- inception_4d/5x5
I0322 11:24:39.199635  9371 net.cpp:406] inception_4d/output <- inception_4d/pool_proj
I0322 11:24:39.199638  9371 net.cpp:380] inception_4d/output -> inception_4d/output
I0322 11:24:39.199659  9371 net.cpp:122] Setting up inception_4d/output
I0322 11:24:39.199664  9371 net.cpp:129] Top shape: 16 528 40 23 (7772160)
I0322 11:24:39.199666  9371 net.cpp:137] Memory required for data: 4033851392
I0322 11:24:39.199668  9371 layer_factory.hpp:77] Creating layer inception_4d/output_inception_4d/output_0_split
I0322 11:24:39.199672  9371 net.cpp:84] Creating Layer inception_4d/output_inception_4d/output_0_split
I0322 11:24:39.199676  9371 net.cpp:406] inception_4d/output_inception_4d/output_0_split <- inception_4d/output
I0322 11:24:39.199679  9371 net.cpp:380] inception_4d/output_inception_4d/output_0_split -> inception_4d/output_inception_4d/output_0_split_0
I0322 11:24:39.199684  9371 net.cpp:380] inception_4d/output_inception_4d/output_0_split -> inception_4d/output_inception_4d/output_0_split_1
I0322 11:24:39.199688  9371 net.cpp:380] inception_4d/output_inception_4d/output_0_split -> inception_4d/output_inception_4d/output_0_split_2
I0322 11:24:39.199693  9371 net.cpp:380] inception_4d/output_inception_4d/output_0_split -> inception_4d/output_inception_4d/output_0_split_3
I0322 11:24:39.199738  9371 net.cpp:122] Setting up inception_4d/output_inception_4d/output_0_split
I0322 11:24:39.199743  9371 net.cpp:129] Top shape: 16 528 40 23 (7772160)
I0322 11:24:39.199745  9371 net.cpp:129] Top shape: 16 528 40 23 (7772160)
I0322 11:24:39.199748  9371 net.cpp:129] Top shape: 16 528 40 23 (7772160)
I0322 11:24:39.199750  9371 net.cpp:129] Top shape: 16 528 40 23 (7772160)
I0322 11:24:39.199753  9371 net.cpp:137] Memory required for data: 4158205952
I0322 11:24:39.199754  9371 layer_factory.hpp:77] Creating layer inception_4e/1x1
I0322 11:24:39.199762  9371 net.cpp:84] Creating Layer inception_4e/1x1
I0322 11:24:39.199765  9371 net.cpp:406] inception_4e/1x1 <- inception_4d/output_inception_4d/output_0_split_0
I0322 11:24:39.199769  9371 net.cpp:380] inception_4e/1x1 -> inception_4e/1x1
I0322 11:24:39.201360  9371 net.cpp:122] Setting up inception_4e/1x1
I0322 11:24:39.201372  9371 net.cpp:129] Top shape: 16 256 40 23 (3768320)
I0322 11:24:39.201385  9371 net.cpp:137] Memory required for data: 4173279232
I0322 11:24:39.201390  9371 layer_factory.hpp:77] Creating layer inception_4e/relu_1x1
I0322 11:24:39.201396  9371 net.cpp:84] Creating Layer inception_4e/relu_1x1
I0322 11:24:39.201400  9371 net.cpp:406] inception_4e/relu_1x1 <- inception_4e/1x1
I0322 11:24:39.201405  9371 net.cpp:367] inception_4e/relu_1x1 -> inception_4e/1x1 (in-place)
I0322 11:24:39.202011  9371 net.cpp:122] Setting up inception_4e/relu_1x1
I0322 11:24:39.202021  9371 net.cpp:129] Top shape: 16 256 40 23 (3768320)
I0322 11:24:39.202024  9371 net.cpp:137] Memory required for data: 4188352512
I0322 11:24:39.202026  9371 layer_factory.hpp:77] Creating layer inception_4e/3x3_reduce
I0322 11:24:39.202034  9371 net.cpp:84] Creating Layer inception_4e/3x3_reduce
I0322 11:24:39.202039  9371 net.cpp:406] inception_4e/3x3_reduce <- inception_4d/output_inception_4d/output_0_split_1
I0322 11:24:39.202044  9371 net.cpp:380] inception_4e/3x3_reduce -> inception_4e/3x3_reduce
I0322 11:24:39.202994  9371 net.cpp:122] Setting up inception_4e/3x3_reduce
I0322 11:24:39.203004  9371 net.cpp:129] Top shape: 16 160 40 23 (2355200)
I0322 11:24:39.203017  9371 net.cpp:137] Memory required for data: 4197773312
I0322 11:24:39.203022  9371 layer_factory.hpp:77] Creating layer inception_4e/relu_3x3_reduce
I0322 11:24:39.203027  9371 net.cpp:84] Creating Layer inception_4e/relu_3x3_reduce
I0322 11:24:39.203029  9371 net.cpp:406] inception_4e/relu_3x3_reduce <- inception_4e/3x3_reduce
I0322 11:24:39.203034  9371 net.cpp:367] inception_4e/relu_3x3_reduce -> inception_4e/3x3_reduce (in-place)
I0322 11:24:39.203644  9371 net.cpp:122] Setting up inception_4e/relu_3x3_reduce
I0322 11:24:39.203655  9371 net.cpp:129] Top shape: 16 160 40 23 (2355200)
I0322 11:24:39.203656  9371 net.cpp:137] Memory required for data: 4207194112
I0322 11:24:39.203660  9371 layer_factory.hpp:77] Creating layer inception_4e/3x3
I0322 11:24:39.203667  9371 net.cpp:84] Creating Layer inception_4e/3x3
I0322 11:24:39.203671  9371 net.cpp:406] inception_4e/3x3 <- inception_4e/3x3_reduce
I0322 11:24:39.203676  9371 net.cpp:380] inception_4e/3x3 -> inception_4e/3x3
I0322 11:24:39.207615  9371 net.cpp:122] Setting up inception_4e/3x3
I0322 11:24:39.207628  9371 net.cpp:129] Top shape: 16 320 40 23 (4710400)
I0322 11:24:39.207645  9371 net.cpp:137] Memory required for data: 4226035712
I0322 11:24:39.207650  9371 layer_factory.hpp:77] Creating layer inception_4e/relu_3x3
I0322 11:24:39.207655  9371 net.cpp:84] Creating Layer inception_4e/relu_3x3
I0322 11:24:39.207659  9371 net.cpp:406] inception_4e/relu_3x3 <- inception_4e/3x3
I0322 11:24:39.207664  9371 net.cpp:367] inception_4e/relu_3x3 -> inception_4e/3x3 (in-place)
I0322 11:24:39.207808  9371 net.cpp:122] Setting up inception_4e/relu_3x3
I0322 11:24:39.207818  9371 net.cpp:129] Top shape: 16 320 40 23 (4710400)
I0322 11:24:39.207819  9371 net.cpp:137] Memory required for data: 4244877312
I0322 11:24:39.207823  9371 layer_factory.hpp:77] Creating layer inception_4e/5x5_reduce
I0322 11:24:39.207829  9371 net.cpp:84] Creating Layer inception_4e/5x5_reduce
I0322 11:24:39.207833  9371 net.cpp:406] inception_4e/5x5_reduce <- inception_4d/output_inception_4d/output_0_split_2
I0322 11:24:39.207839  9371 net.cpp:380] inception_4e/5x5_reduce -> inception_4e/5x5_reduce
I0322 11:24:39.209009  9371 net.cpp:122] Setting up inception_4e/5x5_reduce
I0322 11:24:39.209022  9371 net.cpp:129] Top shape: 16 32 40 23 (471040)
I0322 11:24:39.209038  9371 net.cpp:137] Memory required for data: 4246761472
I0322 11:24:39.209043  9371 layer_factory.hpp:77] Creating layer inception_4e/relu_5x5_reduce
I0322 11:24:39.209049  9371 net.cpp:84] Creating Layer inception_4e/relu_5x5_reduce
I0322 11:24:39.209053  9371 net.cpp:406] inception_4e/relu_5x5_reduce <- inception_4e/5x5_reduce
I0322 11:24:39.209058  9371 net.cpp:367] inception_4e/relu_5x5_reduce -> inception_4e/5x5_reduce (in-place)
I0322 11:24:39.209657  9371 net.cpp:122] Setting up inception_4e/relu_5x5_reduce
I0322 11:24:39.209678  9371 net.cpp:129] Top shape: 16 32 40 23 (471040)
I0322 11:24:39.209681  9371 net.cpp:137] Memory required for data: 4248645632
I0322 11:24:39.209683  9371 layer_factory.hpp:77] Creating layer inception_4e/5x5
I0322 11:24:39.209707  9371 net.cpp:84] Creating Layer inception_4e/5x5
I0322 11:24:39.209712  9371 net.cpp:406] inception_4e/5x5 <- inception_4e/5x5_reduce
I0322 11:24:39.209715  9371 net.cpp:380] inception_4e/5x5 -> inception_4e/5x5
I0322 11:24:39.211807  9371 net.cpp:122] Setting up inception_4e/5x5
I0322 11:24:39.211819  9371 net.cpp:129] Top shape: 16 128 40 23 (1884160)
I0322 11:24:39.211836  9371 net.cpp:137] Memory required for data: 4256182272
I0322 11:24:39.211841  9371 layer_factory.hpp:77] Creating layer inception_4e/relu_5x5
I0322 11:24:39.211848  9371 net.cpp:84] Creating Layer inception_4e/relu_5x5
I0322 11:24:39.211850  9371 net.cpp:406] inception_4e/relu_5x5 <- inception_4e/5x5
I0322 11:24:39.211854  9371 net.cpp:367] inception_4e/relu_5x5 -> inception_4e/5x5 (in-place)
I0322 11:24:39.211990  9371 net.cpp:122] Setting up inception_4e/relu_5x5
I0322 11:24:39.211997  9371 net.cpp:129] Top shape: 16 128 40 23 (1884160)
I0322 11:24:39.212000  9371 net.cpp:137] Memory required for data: 4263718912
I0322 11:24:39.212002  9371 layer_factory.hpp:77] Creating layer inception_4e/pool
I0322 11:24:39.212007  9371 net.cpp:84] Creating Layer inception_4e/pool
I0322 11:24:39.212009  9371 net.cpp:406] inception_4e/pool <- inception_4d/output_inception_4d/output_0_split_3
I0322 11:24:39.212013  9371 net.cpp:380] inception_4e/pool -> inception_4e/pool
I0322 11:24:39.212049  9371 net.cpp:122] Setting up inception_4e/pool
I0322 11:24:39.212054  9371 net.cpp:129] Top shape: 16 528 40 23 (7772160)
I0322 11:24:39.212055  9371 net.cpp:137] Memory required for data: 4294807552
I0322 11:24:39.212057  9371 layer_factory.hpp:77] Creating layer inception_4e/pool_proj
I0322 11:24:39.212064  9371 net.cpp:84] Creating Layer inception_4e/pool_proj
I0322 11:24:39.212067  9371 net.cpp:406] inception_4e/pool_proj <- inception_4e/pool
I0322 11:24:39.212072  9371 net.cpp:380] inception_4e/pool_proj -> inception_4e/pool_proj
I0322 11:24:39.213430  9371 net.cpp:122] Setting up inception_4e/pool_proj
I0322 11:24:39.213443  9371 net.cpp:129] Top shape: 16 128 40 23 (1884160)
I0322 11:24:39.213460  9371 net.cpp:137] Memory required for data: 4302344192
I0322 11:24:39.213465  9371 layer_factory.hpp:77] Creating layer inception_4e/relu_pool_proj
I0322 11:24:39.213469  9371 net.cpp:84] Creating Layer inception_4e/relu_pool_proj
I0322 11:24:39.213474  9371 net.cpp:406] inception_4e/relu_pool_proj <- inception_4e/pool_proj
I0322 11:24:39.213479  9371 net.cpp:367] inception_4e/relu_pool_proj -> inception_4e/pool_proj (in-place)
I0322 11:24:39.213613  9371 net.cpp:122] Setting up inception_4e/relu_pool_proj
I0322 11:24:39.213621  9371 net.cpp:129] Top shape: 16 128 40 23 (1884160)
I0322 11:24:39.213624  9371 net.cpp:137] Memory required for data: 4309880832
I0322 11:24:39.213625  9371 layer_factory.hpp:77] Creating layer inception_4e/output
I0322 11:24:39.213631  9371 net.cpp:84] Creating Layer inception_4e/output
I0322 11:24:39.213634  9371 net.cpp:406] inception_4e/output <- inception_4e/1x1
I0322 11:24:39.213637  9371 net.cpp:406] inception_4e/output <- inception_4e/3x3
I0322 11:24:39.213640  9371 net.cpp:406] inception_4e/output <- inception_4e/5x5
I0322 11:24:39.213644  9371 net.cpp:406] inception_4e/output <- inception_4e/pool_proj
I0322 11:24:39.213646  9371 net.cpp:380] inception_4e/output -> inception_4e/output
I0322 11:24:39.213671  9371 net.cpp:122] Setting up inception_4e/output
I0322 11:24:39.213675  9371 net.cpp:129] Top shape: 16 832 40 23 (12247040)
I0322 11:24:39.213677  9371 net.cpp:137] Memory required for data: 4358868992
I0322 11:24:39.213680  9371 layer_factory.hpp:77] Creating layer inception_4e/output_inception_4e/output_0_split
I0322 11:24:39.213685  9371 net.cpp:84] Creating Layer inception_4e/output_inception_4e/output_0_split
I0322 11:24:39.213686  9371 net.cpp:406] inception_4e/output_inception_4e/output_0_split <- inception_4e/output
I0322 11:24:39.213690  9371 net.cpp:380] inception_4e/output_inception_4e/output_0_split -> inception_4e/output_inception_4e/output_0_split_0
I0322 11:24:39.213696  9371 net.cpp:380] inception_4e/output_inception_4e/output_0_split -> inception_4e/output_inception_4e/output_0_split_1
I0322 11:24:39.213723  9371 net.cpp:122] Setting up inception_4e/output_inception_4e/output_0_split
I0322 11:24:39.213727  9371 net.cpp:129] Top shape: 16 832 40 23 (12247040)
I0322 11:24:39.213729  9371 net.cpp:129] Top shape: 16 832 40 23 (12247040)
I0322 11:24:39.213732  9371 net.cpp:137] Memory required for data: 4456845312
I0322 11:24:39.213734  9371 layer_factory.hpp:77] Creating layer pool4/3x3_s2
I0322 11:24:39.213739  9371 net.cpp:84] Creating Layer pool4/3x3_s2
I0322 11:24:39.213742  9371 net.cpp:406] pool4/3x3_s2 <- inception_4e/output_inception_4e/output_0_split_0
I0322 11:24:39.213745  9371 net.cpp:380] pool4/3x3_s2 -> pool4/3x3_s2
I0322 11:24:39.213773  9371 net.cpp:122] Setting up pool4/3x3_s2
I0322 11:24:39.213776  9371 net.cpp:129] Top shape: 16 832 20 11 (2928640)
I0322 11:24:39.213778  9371 net.cpp:137] Memory required for data: 4468559872
I0322 11:24:39.213781  9371 layer_factory.hpp:77] Creating layer pool4/3x3_s2_pool4/3x3_s2_0_split
I0322 11:24:39.213784  9371 net.cpp:84] Creating Layer pool4/3x3_s2_pool4/3x3_s2_0_split
I0322 11:24:39.213788  9371 net.cpp:406] pool4/3x3_s2_pool4/3x3_s2_0_split <- pool4/3x3_s2
I0322 11:24:39.213791  9371 net.cpp:380] pool4/3x3_s2_pool4/3x3_s2_0_split -> pool4/3x3_s2_pool4/3x3_s2_0_split_0
I0322 11:24:39.213795  9371 net.cpp:380] pool4/3x3_s2_pool4/3x3_s2_0_split -> pool4/3x3_s2_pool4/3x3_s2_0_split_1
I0322 11:24:39.213799  9371 net.cpp:380] pool4/3x3_s2_pool4/3x3_s2_0_split -> pool4/3x3_s2_pool4/3x3_s2_0_split_2
I0322 11:24:39.213804  9371 net.cpp:380] pool4/3x3_s2_pool4/3x3_s2_0_split -> pool4/3x3_s2_pool4/3x3_s2_0_split_3
I0322 11:24:39.213846  9371 net.cpp:122] Setting up pool4/3x3_s2_pool4/3x3_s2_0_split
I0322 11:24:39.213850  9371 net.cpp:129] Top shape: 16 832 20 11 (2928640)
I0322 11:24:39.213853  9371 net.cpp:129] Top shape: 16 832 20 11 (2928640)
I0322 11:24:39.213855  9371 net.cpp:129] Top shape: 16 832 20 11 (2928640)
I0322 11:24:39.213858  9371 net.cpp:129] Top shape: 16 832 20 11 (2928640)
I0322 11:24:39.213860  9371 net.cpp:137] Memory required for data: 4515418112
I0322 11:24:39.213862  9371 layer_factory.hpp:77] Creating layer inception_5a/1x1
I0322 11:24:39.213870  9371 net.cpp:84] Creating Layer inception_5a/1x1
I0322 11:24:39.213872  9371 net.cpp:406] inception_5a/1x1 <- pool4/3x3_s2_pool4/3x3_s2_0_split_0
I0322 11:24:39.213876  9371 net.cpp:380] inception_5a/1x1 -> inception_5a/1x1
I0322 11:24:39.216238  9371 net.cpp:122] Setting up inception_5a/1x1
I0322 11:24:39.216249  9371 net.cpp:129] Top shape: 16 256 20 11 (901120)
I0322 11:24:39.216261  9371 net.cpp:137] Memory required for data: 4519022592
I0322 11:24:39.216269  9371 layer_factory.hpp:77] Creating layer inception_5a/relu_1x1
I0322 11:24:39.216274  9371 net.cpp:84] Creating Layer inception_5a/relu_1x1
I0322 11:24:39.216276  9371 net.cpp:406] inception_5a/relu_1x1 <- inception_5a/1x1
I0322 11:24:39.216281  9371 net.cpp:367] inception_5a/relu_1x1 -> inception_5a/1x1 (in-place)
I0322 11:24:39.216898  9371 net.cpp:122] Setting up inception_5a/relu_1x1
I0322 11:24:39.216909  9371 net.cpp:129] Top shape: 16 256 20 11 (901120)
I0322 11:24:39.216912  9371 net.cpp:137] Memory required for data: 4522627072
I0322 11:24:39.216914  9371 layer_factory.hpp:77] Creating layer inception_5a/3x3_reduce
I0322 11:24:39.216923  9371 net.cpp:84] Creating Layer inception_5a/3x3_reduce
I0322 11:24:39.216927  9371 net.cpp:406] inception_5a/3x3_reduce <- pool4/3x3_s2_pool4/3x3_s2_0_split_1
I0322 11:24:39.216933  9371 net.cpp:380] inception_5a/3x3_reduce -> inception_5a/3x3_reduce
I0322 11:24:39.218082  9371 net.cpp:122] Setting up inception_5a/3x3_reduce
I0322 11:24:39.218092  9371 net.cpp:129] Top shape: 16 160 20 11 (563200)
I0322 11:24:39.218094  9371 net.cpp:137] Memory required for data: 4524879872
I0322 11:24:39.218114  9371 layer_factory.hpp:77] Creating layer inception_5a/relu_3x3_reduce
I0322 11:24:39.218118  9371 net.cpp:84] Creating Layer inception_5a/relu_3x3_reduce
I0322 11:24:39.218122  9371 net.cpp:406] inception_5a/relu_3x3_reduce <- inception_5a/3x3_reduce
I0322 11:24:39.218127  9371 net.cpp:367] inception_5a/relu_3x3_reduce -> inception_5a/3x3_reduce (in-place)
I0322 11:24:39.218739  9371 net.cpp:122] Setting up inception_5a/relu_3x3_reduce
I0322 11:24:39.218750  9371 net.cpp:129] Top shape: 16 160 20 11 (563200)
I0322 11:24:39.218753  9371 net.cpp:137] Memory required for data: 4527132672
I0322 11:24:39.218756  9371 layer_factory.hpp:77] Creating layer inception_5a/3x3
I0322 11:24:39.218765  9371 net.cpp:84] Creating Layer inception_5a/3x3
I0322 11:24:39.218768  9371 net.cpp:406] inception_5a/3x3 <- inception_5a/3x3_reduce
I0322 11:24:39.218775  9371 net.cpp:380] inception_5a/3x3 -> inception_5a/3x3
I0322 11:24:39.222753  9371 net.cpp:122] Setting up inception_5a/3x3
I0322 11:24:39.222764  9371 net.cpp:129] Top shape: 16 320 20 11 (1126400)
I0322 11:24:39.222777  9371 net.cpp:137] Memory required for data: 4531638272
I0322 11:24:39.222784  9371 layer_factory.hpp:77] Creating layer inception_5a/relu_3x3
I0322 11:24:39.222790  9371 net.cpp:84] Creating Layer inception_5a/relu_3x3
I0322 11:24:39.222792  9371 net.cpp:406] inception_5a/relu_3x3 <- inception_5a/3x3
I0322 11:24:39.222797  9371 net.cpp:367] inception_5a/relu_3x3 -> inception_5a/3x3 (in-place)
I0322 11:24:39.222940  9371 net.cpp:122] Setting up inception_5a/relu_3x3
I0322 11:24:39.222949  9371 net.cpp:129] Top shape: 16 320 20 11 (1126400)
I0322 11:24:39.222950  9371 net.cpp:137] Memory required for data: 4536143872
I0322 11:24:39.222954  9371 layer_factory.hpp:77] Creating layer inception_5a/5x5_reduce
I0322 11:24:39.222972  9371 net.cpp:84] Creating Layer inception_5a/5x5_reduce
I0322 11:24:39.222976  9371 net.cpp:406] inception_5a/5x5_reduce <- pool4/3x3_s2_pool4/3x3_s2_0_split_2
I0322 11:24:39.222980  9371 net.cpp:380] inception_5a/5x5_reduce -> inception_5a/5x5_reduce
I0322 11:24:39.224233  9371 net.cpp:122] Setting up inception_5a/5x5_reduce
I0322 11:24:39.224244  9371 net.cpp:129] Top shape: 16 32 20 11 (112640)
I0322 11:24:39.224247  9371 net.cpp:137] Memory required for data: 4536594432
I0322 11:24:39.224252  9371 layer_factory.hpp:77] Creating layer inception_5a/relu_5x5_reduce
I0322 11:24:39.224259  9371 net.cpp:84] Creating Layer inception_5a/relu_5x5_reduce
I0322 11:24:39.224262  9371 net.cpp:406] inception_5a/relu_5x5_reduce <- inception_5a/5x5_reduce
I0322 11:24:39.224267  9371 net.cpp:367] inception_5a/relu_5x5_reduce -> inception_5a/5x5_reduce (in-place)
I0322 11:24:39.224408  9371 net.cpp:122] Setting up inception_5a/relu_5x5_reduce
I0322 11:24:39.224416  9371 net.cpp:129] Top shape: 16 32 20 11 (112640)
I0322 11:24:39.224418  9371 net.cpp:137] Memory required for data: 4537044992
I0322 11:24:39.224421  9371 layer_factory.hpp:77] Creating layer inception_5a/5x5
I0322 11:24:39.224431  9371 net.cpp:84] Creating Layer inception_5a/5x5
I0322 11:24:39.224433  9371 net.cpp:406] inception_5a/5x5 <- inception_5a/5x5_reduce
I0322 11:24:39.224437  9371 net.cpp:380] inception_5a/5x5 -> inception_5a/5x5
I0322 11:24:39.226579  9371 net.cpp:122] Setting up inception_5a/5x5
I0322 11:24:39.226593  9371 net.cpp:129] Top shape: 16 128 20 11 (450560)
I0322 11:24:39.226610  9371 net.cpp:137] Memory required for data: 4538847232
I0322 11:24:39.226615  9371 layer_factory.hpp:77] Creating layer inception_5a/relu_5x5
I0322 11:24:39.226620  9371 net.cpp:84] Creating Layer inception_5a/relu_5x5
I0322 11:24:39.226624  9371 net.cpp:406] inception_5a/relu_5x5 <- inception_5a/5x5
I0322 11:24:39.226629  9371 net.cpp:367] inception_5a/relu_5x5 -> inception_5a/5x5 (in-place)
I0322 11:24:39.226765  9371 net.cpp:122] Setting up inception_5a/relu_5x5
I0322 11:24:39.226773  9371 net.cpp:129] Top shape: 16 128 20 11 (450560)
I0322 11:24:39.226775  9371 net.cpp:137] Memory required for data: 4540649472
I0322 11:24:39.226778  9371 layer_factory.hpp:77] Creating layer inception_5a/pool
I0322 11:24:39.226783  9371 net.cpp:84] Creating Layer inception_5a/pool
I0322 11:24:39.226786  9371 net.cpp:406] inception_5a/pool <- pool4/3x3_s2_pool4/3x3_s2_0_split_3
I0322 11:24:39.226791  9371 net.cpp:380] inception_5a/pool -> inception_5a/pool
I0322 11:24:39.226827  9371 net.cpp:122] Setting up inception_5a/pool
I0322 11:24:39.226831  9371 net.cpp:129] Top shape: 16 832 20 11 (2928640)
I0322 11:24:39.226833  9371 net.cpp:137] Memory required for data: 4552364032
I0322 11:24:39.226836  9371 layer_factory.hpp:77] Creating layer inception_5a/pool_proj
I0322 11:24:39.226843  9371 net.cpp:84] Creating Layer inception_5a/pool_proj
I0322 11:24:39.226846  9371 net.cpp:406] inception_5a/pool_proj <- inception_5a/pool
I0322 11:24:39.226850  9371 net.cpp:380] inception_5a/pool_proj -> inception_5a/pool_proj
I0322 11:24:39.228401  9371 net.cpp:122] Setting up inception_5a/pool_proj
I0322 11:24:39.228413  9371 net.cpp:129] Top shape: 16 128 20 11 (450560)
I0322 11:24:39.228416  9371 net.cpp:137] Memory required for data: 4554166272
I0322 11:24:39.228421  9371 layer_factory.hpp:77] Creating layer inception_5a/relu_pool_proj
I0322 11:24:39.228427  9371 net.cpp:84] Creating Layer inception_5a/relu_pool_proj
I0322 11:24:39.228430  9371 net.cpp:406] inception_5a/relu_pool_proj <- inception_5a/pool_proj
I0322 11:24:39.228435  9371 net.cpp:367] inception_5a/relu_pool_proj -> inception_5a/pool_proj (in-place)
I0322 11:24:39.228567  9371 net.cpp:122] Setting up inception_5a/relu_pool_proj
I0322 11:24:39.228575  9371 net.cpp:129] Top shape: 16 128 20 11 (450560)
I0322 11:24:39.228579  9371 net.cpp:137] Memory required for data: 4555968512
I0322 11:24:39.228580  9371 layer_factory.hpp:77] Creating layer inception_5a/output
I0322 11:24:39.228585  9371 net.cpp:84] Creating Layer inception_5a/output
I0322 11:24:39.228587  9371 net.cpp:406] inception_5a/output <- inception_5a/1x1
I0322 11:24:39.228591  9371 net.cpp:406] inception_5a/output <- inception_5a/3x3
I0322 11:24:39.228595  9371 net.cpp:406] inception_5a/output <- inception_5a/5x5
I0322 11:24:39.228597  9371 net.cpp:406] inception_5a/output <- inception_5a/pool_proj
I0322 11:24:39.228601  9371 net.cpp:380] inception_5a/output -> inception_5a/output
I0322 11:24:39.228626  9371 net.cpp:122] Setting up inception_5a/output
I0322 11:24:39.228629  9371 net.cpp:129] Top shape: 16 832 20 11 (2928640)
I0322 11:24:39.228631  9371 net.cpp:137] Memory required for data: 4567683072
I0322 11:24:39.228633  9371 layer_factory.hpp:77] Creating layer inception_5a/output_inception_5a/output_0_split
I0322 11:24:39.228639  9371 net.cpp:84] Creating Layer inception_5a/output_inception_5a/output_0_split
I0322 11:24:39.228641  9371 net.cpp:406] inception_5a/output_inception_5a/output_0_split <- inception_5a/output
I0322 11:24:39.228646  9371 net.cpp:380] inception_5a/output_inception_5a/output_0_split -> inception_5a/output_inception_5a/output_0_split_0
I0322 11:24:39.228651  9371 net.cpp:380] inception_5a/output_inception_5a/output_0_split -> inception_5a/output_inception_5a/output_0_split_1
I0322 11:24:39.228654  9371 net.cpp:380] inception_5a/output_inception_5a/output_0_split -> inception_5a/output_inception_5a/output_0_split_2
I0322 11:24:39.228658  9371 net.cpp:380] inception_5a/output_inception_5a/output_0_split -> inception_5a/output_inception_5a/output_0_split_3
I0322 11:24:39.228706  9371 net.cpp:122] Setting up inception_5a/output_inception_5a/output_0_split
I0322 11:24:39.228713  9371 net.cpp:129] Top shape: 16 832 20 11 (2928640)
I0322 11:24:39.228716  9371 net.cpp:129] Top shape: 16 832 20 11 (2928640)
I0322 11:24:39.228719  9371 net.cpp:129] Top shape: 16 832 20 11 (2928640)
I0322 11:24:39.228721  9371 net.cpp:129] Top shape: 16 832 20 11 (2928640)
I0322 11:24:39.228724  9371 net.cpp:137] Memory required for data: 4614541312
I0322 11:24:39.228725  9371 layer_factory.hpp:77] Creating layer inception_5b/1x1
I0322 11:24:39.228734  9371 net.cpp:84] Creating Layer inception_5b/1x1
I0322 11:24:39.228736  9371 net.cpp:406] inception_5b/1x1 <- inception_5a/output_inception_5a/output_0_split_0
I0322 11:24:39.228741  9371 net.cpp:380] inception_5b/1x1 -> inception_5b/1x1
I0322 11:24:39.231767  9371 net.cpp:122] Setting up inception_5b/1x1
I0322 11:24:39.231801  9371 net.cpp:129] Top shape: 16 384 20 11 (1351680)
I0322 11:24:39.231803  9371 net.cpp:137] Memory required for data: 4619948032
I0322 11:24:39.231808  9371 layer_factory.hpp:77] Creating layer inception_5b/relu_1x1
I0322 11:24:39.231815  9371 net.cpp:84] Creating Layer inception_5b/relu_1x1
I0322 11:24:39.231819  9371 net.cpp:406] inception_5b/relu_1x1 <- inception_5b/1x1
I0322 11:24:39.231823  9371 net.cpp:367] inception_5b/relu_1x1 -> inception_5b/1x1 (in-place)
I0322 11:24:39.232455  9371 net.cpp:122] Setting up inception_5b/relu_1x1
I0322 11:24:39.232466  9371 net.cpp:129] Top shape: 16 384 20 11 (1351680)
I0322 11:24:39.232468  9371 net.cpp:137] Memory required for data: 4625354752
I0322 11:24:39.232472  9371 layer_factory.hpp:77] Creating layer inception_5b/3x3_reduce
I0322 11:24:39.232481  9371 net.cpp:84] Creating Layer inception_5b/3x3_reduce
I0322 11:24:39.232484  9371 net.cpp:406] inception_5b/3x3_reduce <- inception_5a/output_inception_5a/output_0_split_1
I0322 11:24:39.232491  9371 net.cpp:380] inception_5b/3x3_reduce -> inception_5b/3x3_reduce
I0322 11:24:39.233779  9371 net.cpp:122] Setting up inception_5b/3x3_reduce
I0322 11:24:39.233789  9371 net.cpp:129] Top shape: 16 192 20 11 (675840)
I0322 11:24:39.233806  9371 net.cpp:137] Memory required for data: 4628058112
I0322 11:24:39.233811  9371 layer_factory.hpp:77] Creating layer inception_5b/relu_3x3_reduce
I0322 11:24:39.233816  9371 net.cpp:84] Creating Layer inception_5b/relu_3x3_reduce
I0322 11:24:39.233819  9371 net.cpp:406] inception_5b/relu_3x3_reduce <- inception_5b/3x3_reduce
I0322 11:24:39.233825  9371 net.cpp:367] inception_5b/relu_3x3_reduce -> inception_5b/3x3_reduce (in-place)
I0322 11:24:39.234446  9371 net.cpp:122] Setting up inception_5b/relu_3x3_reduce
I0322 11:24:39.234457  9371 net.cpp:129] Top shape: 16 192 20 11 (675840)
I0322 11:24:39.234458  9371 net.cpp:137] Memory required for data: 4630761472
I0322 11:24:39.234460  9371 layer_factory.hpp:77] Creating layer inception_5b/3x3
I0322 11:24:39.234469  9371 net.cpp:84] Creating Layer inception_5b/3x3
I0322 11:24:39.234472  9371 net.cpp:406] inception_5b/3x3 <- inception_5b/3x3_reduce
I0322 11:24:39.234478  9371 net.cpp:380] inception_5b/3x3 -> inception_5b/3x3
I0322 11:24:39.239408  9371 net.cpp:122] Setting up inception_5b/3x3
I0322 11:24:39.239420  9371 net.cpp:129] Top shape: 16 384 20 11 (1351680)
I0322 11:24:39.239437  9371 net.cpp:137] Memory required for data: 4636168192
I0322 11:24:39.239442  9371 layer_factory.hpp:77] Creating layer inception_5b/relu_3x3
I0322 11:24:39.239447  9371 net.cpp:84] Creating Layer inception_5b/relu_3x3
I0322 11:24:39.239451  9371 net.cpp:406] inception_5b/relu_3x3 <- inception_5b/3x3
I0322 11:24:39.239456  9371 net.cpp:367] inception_5b/relu_3x3 -> inception_5b/3x3 (in-place)
I0322 11:24:39.239603  9371 net.cpp:122] Setting up inception_5b/relu_3x3
I0322 11:24:39.239610  9371 net.cpp:129] Top shape: 16 384 20 11 (1351680)
I0322 11:24:39.239612  9371 net.cpp:137] Memory required for data: 4641574912
I0322 11:24:39.239615  9371 layer_factory.hpp:77] Creating layer inception_5b/5x5_reduce
I0322 11:24:39.239622  9371 net.cpp:84] Creating Layer inception_5b/5x5_reduce
I0322 11:24:39.239627  9371 net.cpp:406] inception_5b/5x5_reduce <- inception_5a/output_inception_5a/output_0_split_2
I0322 11:24:39.239632  9371 net.cpp:380] inception_5b/5x5_reduce -> inception_5b/5x5_reduce
I0322 11:24:39.240952  9371 net.cpp:122] Setting up inception_5b/5x5_reduce
I0322 11:24:39.240963  9371 net.cpp:129] Top shape: 16 48 20 11 (168960)
I0322 11:24:39.240980  9371 net.cpp:137] Memory required for data: 4642250752
I0322 11:24:39.240985  9371 layer_factory.hpp:77] Creating layer inception_5b/relu_5x5_reduce
I0322 11:24:39.240993  9371 net.cpp:84] Creating Layer inception_5b/relu_5x5_reduce
I0322 11:24:39.240998  9371 net.cpp:406] inception_5b/relu_5x5_reduce <- inception_5b/5x5_reduce
I0322 11:24:39.241001  9371 net.cpp:367] inception_5b/relu_5x5_reduce -> inception_5b/5x5_reduce (in-place)
I0322 11:24:39.241138  9371 net.cpp:122] Setting up inception_5b/relu_5x5_reduce
I0322 11:24:39.241147  9371 net.cpp:129] Top shape: 16 48 20 11 (168960)
I0322 11:24:39.241148  9371 net.cpp:137] Memory required for data: 4642926592
I0322 11:24:39.241150  9371 layer_factory.hpp:77] Creating layer inception_5b/5x5
I0322 11:24:39.241159  9371 net.cpp:84] Creating Layer inception_5b/5x5
I0322 11:24:39.241163  9371 net.cpp:406] inception_5b/5x5 <- inception_5b/5x5_reduce
I0322 11:24:39.241166  9371 net.cpp:380] inception_5b/5x5 -> inception_5b/5x5
I0322 11:24:39.242926  9371 net.cpp:122] Setting up inception_5b/5x5
I0322 11:24:39.242938  9371 net.cpp:129] Top shape: 16 128 20 11 (450560)
I0322 11:24:39.242954  9371 net.cpp:137] Memory required for data: 4644728832
I0322 11:24:39.242959  9371 layer_factory.hpp:77] Creating layer inception_5b/relu_5x5
I0322 11:24:39.242965  9371 net.cpp:84] Creating Layer inception_5b/relu_5x5
I0322 11:24:39.242969  9371 net.cpp:406] inception_5b/relu_5x5 <- inception_5b/5x5
I0322 11:24:39.242972  9371 net.cpp:367] inception_5b/relu_5x5 -> inception_5b/5x5 (in-place)
I0322 11:24:39.243108  9371 net.cpp:122] Setting up inception_5b/relu_5x5
I0322 11:24:39.243115  9371 net.cpp:129] Top shape: 16 128 20 11 (450560)
I0322 11:24:39.243118  9371 net.cpp:137] Memory required for data: 4646531072
I0322 11:24:39.243119  9371 layer_factory.hpp:77] Creating layer inception_5b/pool
I0322 11:24:39.243126  9371 net.cpp:84] Creating Layer inception_5b/pool
I0322 11:24:39.243129  9371 net.cpp:406] inception_5b/pool <- inception_5a/output_inception_5a/output_0_split_3
I0322 11:24:39.243134  9371 net.cpp:380] inception_5b/pool -> inception_5b/pool
I0322 11:24:39.243171  9371 net.cpp:122] Setting up inception_5b/pool
I0322 11:24:39.243177  9371 net.cpp:129] Top shape: 16 832 20 11 (2928640)
I0322 11:24:39.243180  9371 net.cpp:137] Memory required for data: 4658245632
I0322 11:24:39.243182  9371 layer_factory.hpp:77] Creating layer inception_5b/pool_proj
I0322 11:24:39.243190  9371 net.cpp:84] Creating Layer inception_5b/pool_proj
I0322 11:24:39.243192  9371 net.cpp:406] inception_5b/pool_proj <- inception_5b/pool
I0322 11:24:39.243197  9371 net.cpp:380] inception_5b/pool_proj -> inception_5b/pool_proj
I0322 11:24:39.244797  9371 net.cpp:122] Setting up inception_5b/pool_proj
I0322 11:24:39.244809  9371 net.cpp:129] Top shape: 16 128 20 11 (450560)
I0322 11:24:39.244827  9371 net.cpp:137] Memory required for data: 4660047872
I0322 11:24:39.244832  9371 layer_factory.hpp:77] Creating layer inception_5b/relu_pool_proj
I0322 11:24:39.244837  9371 net.cpp:84] Creating Layer inception_5b/relu_pool_proj
I0322 11:24:39.244840  9371 net.cpp:406] inception_5b/relu_pool_proj <- inception_5b/pool_proj
I0322 11:24:39.244844  9371 net.cpp:367] inception_5b/relu_pool_proj -> inception_5b/pool_proj (in-place)
I0322 11:24:39.244981  9371 net.cpp:122] Setting up inception_5b/relu_pool_proj
I0322 11:24:39.244988  9371 net.cpp:129] Top shape: 16 128 20 11 (450560)
I0322 11:24:39.244990  9371 net.cpp:137] Memory required for data: 4661850112
I0322 11:24:39.244993  9371 layer_factory.hpp:77] Creating layer inception_5b/output
I0322 11:24:39.244998  9371 net.cpp:84] Creating Layer inception_5b/output
I0322 11:24:39.245002  9371 net.cpp:406] inception_5b/output <- inception_5b/1x1
I0322 11:24:39.245004  9371 net.cpp:406] inception_5b/output <- inception_5b/3x3
I0322 11:24:39.245007  9371 net.cpp:406] inception_5b/output <- inception_5b/5x5
I0322 11:24:39.245010  9371 net.cpp:406] inception_5b/output <- inception_5b/pool_proj
I0322 11:24:39.245014  9371 net.cpp:380] inception_5b/output -> inception_5b/output
I0322 11:24:39.245041  9371 net.cpp:122] Setting up inception_5b/output
I0322 11:24:39.245046  9371 net.cpp:129] Top shape: 16 1024 20 11 (3604480)
I0322 11:24:39.245048  9371 net.cpp:137] Memory required for data: 4676268032
I0322 11:24:39.245050  9371 layer_factory.hpp:77] Creating layer pool5/drop_7x7_s1
I0322 11:24:39.245056  9371 net.cpp:84] Creating Layer pool5/drop_7x7_s1
I0322 11:24:39.245059  9371 net.cpp:406] pool5/drop_7x7_s1 <- inception_5b/output
I0322 11:24:39.245062  9371 net.cpp:367] pool5/drop_7x7_s1 -> inception_5b/output (in-place)
I0322 11:24:39.245081  9371 net.cpp:122] Setting up pool5/drop_7x7_s1
I0322 11:24:39.245085  9371 net.cpp:129] Top shape: 16 1024 20 11 (3604480)
I0322 11:24:39.245087  9371 net.cpp:137] Memory required for data: 4690685952
I0322 11:24:39.245090  9371 layer_factory.hpp:77] Creating layer score2
I0322 11:24:39.245096  9371 net.cpp:84] Creating Layer score2
I0322 11:24:39.245098  9371 net.cpp:406] score2 <- inception_5b/output
I0322 11:24:39.245103  9371 net.cpp:380] score2 -> score2
I0322 11:24:39.245976  9371 net.cpp:122] Setting up score2
I0322 11:24:39.245988  9371 net.cpp:129] Top shape: 16 2 22 13 (9152)
I0322 11:24:39.246006  9371 net.cpp:137] Memory required for data: 4690722560
I0322 11:24:39.246011  9371 layer_factory.hpp:77] Creating layer upscore2
I0322 11:24:39.246019  9371 net.cpp:84] Creating Layer upscore2
I0322 11:24:39.246022  9371 net.cpp:406] upscore2 <- score2
I0322 11:24:39.246027  9371 net.cpp:380] upscore2 -> upscore2
I0322 11:24:39.246192  9371 net.cpp:122] Setting up upscore2
I0322 11:24:39.246199  9371 net.cpp:129] Top shape: 16 2 46 28 (41216)
I0322 11:24:39.246202  9371 net.cpp:137] Memory required for data: 4690887424
I0322 11:24:39.246206  9371 layer_factory.hpp:77] Creating layer score-inception_4e/output
I0322 11:24:39.246212  9371 net.cpp:84] Creating Layer score-inception_4e/output
I0322 11:24:39.246215  9371 net.cpp:406] score-inception_4e/output <- inception_4e/output_inception_4e/output_0_split_1
I0322 11:24:39.246219  9371 net.cpp:380] score-inception_4e/output -> score-inception_4e/output
I0322 11:24:39.246462  9371 net.cpp:122] Setting up score-inception_4e/output
I0322 11:24:39.246469  9371 net.cpp:129] Top shape: 16 2 42 25 (33600)
I0322 11:24:39.246471  9371 net.cpp:137] Memory required for data: 4691021824
I0322 11:24:39.246475  9371 layer_factory.hpp:77] Creating layer score-inception_4e/output_score-inception_4e/output_0_split
I0322 11:24:39.246480  9371 net.cpp:84] Creating Layer score-inception_4e/output_score-inception_4e/output_0_split
I0322 11:24:39.246484  9371 net.cpp:406] score-inception_4e/output_score-inception_4e/output_0_split <- score-inception_4e/output
I0322 11:24:39.246487  9371 net.cpp:380] score-inception_4e/output_score-inception_4e/output_0_split -> score-inception_4e/output_score-inception_4e/output_0_split_0
I0322 11:24:39.246503  9371 net.cpp:380] score-inception_4e/output_score-inception_4e/output_0_split -> score-inception_4e/output_score-inception_4e/output_0_split_1
I0322 11:24:39.246536  9371 net.cpp:122] Setting up score-inception_4e/output_score-inception_4e/output_0_split
I0322 11:24:39.246542  9371 net.cpp:129] Top shape: 16 2 42 25 (33600)
I0322 11:24:39.246546  9371 net.cpp:129] Top shape: 16 2 42 25 (33600)
I0322 11:24:39.246547  9371 net.cpp:137] Memory required for data: 4691290624
I0322 11:24:39.246549  9371 layer_factory.hpp:77] Creating layer upscore2c
I0322 11:24:39.246556  9371 net.cpp:84] Creating Layer upscore2c
I0322 11:24:39.246558  9371 net.cpp:406] upscore2c <- upscore2
I0322 11:24:39.246562  9371 net.cpp:406] upscore2c <- score-inception_4e/output_score-inception_4e/output_0_split_0
I0322 11:24:39.246564  9371 net.cpp:380] upscore2c -> upscore2c
I0322 11:24:39.246588  9371 net.cpp:122] Setting up upscore2c
I0322 11:24:39.246592  9371 net.cpp:129] Top shape: 16 2 42 25 (33600)
I0322 11:24:39.246594  9371 net.cpp:137] Memory required for data: 4691425024
I0322 11:24:39.246597  9371 layer_factory.hpp:77] Creating layer score-fused
I0322 11:24:39.246601  9371 net.cpp:84] Creating Layer score-fused
I0322 11:24:39.246604  9371 net.cpp:406] score-fused <- upscore2c
I0322 11:24:39.246608  9371 net.cpp:406] score-fused <- score-inception_4e/output_score-inception_4e/output_0_split_1
I0322 11:24:39.246611  9371 net.cpp:380] score-fused -> score-fused
I0322 11:24:39.246630  9371 net.cpp:122] Setting up score-fused
I0322 11:24:39.246634  9371 net.cpp:129] Top shape: 16 2 42 25 (33600)
I0322 11:24:39.246636  9371 net.cpp:137] Memory required for data: 4691559424
I0322 11:24:39.246639  9371 layer_factory.hpp:77] Creating layer upsample-fused-16
I0322 11:24:39.246644  9371 net.cpp:84] Creating Layer upsample-fused-16
I0322 11:24:39.246646  9371 net.cpp:406] upsample-fused-16 <- score-fused
I0322 11:24:39.246650  9371 net.cpp:380] upsample-fused-16 -> score4
I0322 11:24:39.246798  9371 net.cpp:122] Setting up upsample-fused-16
I0322 11:24:39.246805  9371 net.cpp:129] Top shape: 16 2 86 52 (143104)
I0322 11:24:39.246807  9371 net.cpp:137] Memory required for data: 4692131840
I0322 11:24:39.246810  9371 layer_factory.hpp:77] Creating layer score-inception_3b/output
I0322 11:24:39.246815  9371 net.cpp:84] Creating Layer score-inception_3b/output
I0322 11:24:39.246819  9371 net.cpp:406] score-inception_3b/output <- inception_3b/output_inception_3b/output_0_split_1
I0322 11:24:39.246824  9371 net.cpp:380] score-inception_3b/output -> score-inception_3b/output
I0322 11:24:39.247058  9371 net.cpp:122] Setting up score-inception_3b/output
I0322 11:24:39.247066  9371 net.cpp:129] Top shape: 16 2 83 49 (130144)
I0322 11:24:39.247068  9371 net.cpp:137] Memory required for data: 4692652416
I0322 11:24:39.247072  9371 layer_factory.hpp:77] Creating layer score-inception_3b/output_score-inception_3b/output_0_split
I0322 11:24:39.247076  9371 net.cpp:84] Creating Layer score-inception_3b/output_score-inception_3b/output_0_split
I0322 11:24:39.247079  9371 net.cpp:406] score-inception_3b/output_score-inception_3b/output_0_split <- score-inception_3b/output
I0322 11:24:39.247083  9371 net.cpp:380] score-inception_3b/output_score-inception_3b/output_0_split -> score-inception_3b/output_score-inception_3b/output_0_split_0
I0322 11:24:39.247088  9371 net.cpp:380] score-inception_3b/output_score-inception_3b/output_0_split -> score-inception_3b/output_score-inception_3b/output_0_split_1
I0322 11:24:39.247119  9371 net.cpp:122] Setting up score-inception_3b/output_score-inception_3b/output_0_split
I0322 11:24:39.247123  9371 net.cpp:129] Top shape: 16 2 83 49 (130144)
I0322 11:24:39.247126  9371 net.cpp:129] Top shape: 16 2 83 49 (130144)
I0322 11:24:39.247128  9371 net.cpp:137] Memory required for data: 4693693568
I0322 11:24:39.247131  9371 layer_factory.hpp:77] Creating layer score4c
I0322 11:24:39.247135  9371 net.cpp:84] Creating Layer score4c
I0322 11:24:39.247138  9371 net.cpp:406] score4c <- score4
I0322 11:24:39.247141  9371 net.cpp:406] score4c <- score-inception_3b/output_score-inception_3b/output_0_split_0
I0322 11:24:39.247144  9371 net.cpp:380] score4c -> score4c
I0322 11:24:39.247164  9371 net.cpp:122] Setting up score4c
I0322 11:24:39.247169  9371 net.cpp:129] Top shape: 16 2 83 49 (130144)
I0322 11:24:39.247170  9371 net.cpp:137] Memory required for data: 4694214144
I0322 11:24:39.247174  9371 layer_factory.hpp:77] Creating layer fuse
I0322 11:24:39.247177  9371 net.cpp:84] Creating Layer fuse
I0322 11:24:39.247179  9371 net.cpp:406] fuse <- score4c
I0322 11:24:39.247182  9371 net.cpp:406] fuse <- score-inception_3b/output_score-inception_3b/output_0_split_1
I0322 11:24:39.247186  9371 net.cpp:380] fuse -> score-final
I0322 11:24:39.247205  9371 net.cpp:122] Setting up fuse
I0322 11:24:39.247208  9371 net.cpp:129] Top shape: 16 2 83 49 (130144)
I0322 11:24:39.247210  9371 net.cpp:137] Memory required for data: 4694734720
I0322 11:24:39.247213  9371 layer_factory.hpp:77] Creating layer upsample
I0322 11:24:39.247217  9371 net.cpp:84] Creating Layer upsample
I0322 11:24:39.247220  9371 net.cpp:406] upsample <- score-final
I0322 11:24:39.247225  9371 net.cpp:380] upsample -> bigscore
I0322 11:24:39.247375  9371 net.cpp:122] Setting up upsample
I0322 11:24:39.247381  9371 net.cpp:129] Top shape: 16 2 672 400 (8601600)
I0322 11:24:39.247383  9371 net.cpp:137] Memory required for data: 4729141120
I0322 11:24:39.247386  9371 layer_factory.hpp:77] Creating layer score
I0322 11:24:39.247391  9371 net.cpp:84] Creating Layer score
I0322 11:24:39.247395  9371 net.cpp:406] score <- bigscore
I0322 11:24:39.247397  9371 net.cpp:406] score <- data_data_0_split_1
I0322 11:24:39.247400  9371 net.cpp:380] score -> score
I0322 11:24:39.247419  9371 net.cpp:122] Setting up score
I0322 11:24:39.247423  9371 net.cpp:129] Top shape: 16 2 640 368 (7536640)
I0322 11:24:39.247426  9371 net.cpp:137] Memory required for data: 4759287680
I0322 11:24:39.247427  9371 layer_factory.hpp:77] Creating layer loss
I0322 11:24:39.247437  9371 net.cpp:84] Creating Layer loss
I0322 11:24:39.247438  9371 net.cpp:406] loss <- score
I0322 11:24:39.247442  9371 net.cpp:406] loss <- sem
I0322 11:24:39.247445  9371 net.cpp:380] loss -> loss
I0322 11:24:39.247452  9371 layer_factory.hpp:77] Creating layer loss
…
W0322 11:24:40.471443  9371 _caffe.cpp:135] DEPRECATION WARNING - deprecated use of Python interface
W0322 11:24:40.471451  9371 _caffe.cpp:136] Use this instead (with the named "weights" parameter):
W0322 11:24:40.471453  9371 _caffe.cpp:138] Net('../../ilsvrc-nets/deploy.prototxt', 1, weights='../../ilsvrc-nets/bvlc_googlenet.caffemodel')
I0322 11:24:40.474010  9371 net.cpp:51] Initializing net from parameters: 
name: "GoogleNet"
state {
  phase: TEST
  level: 0
}
layer {
  name: "data"
  type: "Input"
  top: "data"
  input_param {
    shape {
      dim: 10
      dim: 3
      dim: 224
      dim: 224
    }
  }
}
layer {
  name: "conv1/7x7_s2"
  type: "Convolution"
  bottom: "data"
  top: "conv1/7x7_s2"
  param {
    lr_mult: 1
    decay_mult: 1
  }
  param {
    lr_mult: 2
    decay_mult: 0
  }
  convolution_param {
    num_output: 64
    pad: 3
    kernel_size: 7
    stride: 2
    weight_filler {
      type: "xavier"
      std: 0.1
    }
    bias_filler {
      type: "constant"
      value: 0.2
    }
  }
}
layer {
  name: "conv1/relu_7x7"
  type: "ReLU"
  bottom: "conv1/7x7_s2"
  top: "conv1/7x7_s2"
}
layer {
  name: "pool1/3x3_s2"
  type: "Pooling"
  bottom: "conv1/7x7_s2"
  top: "pool1/3x3_s2"
  pooling_param {
    pool: MAX
    kernel_size: 3
    stride: 2
  }
}
layer {
  name: "pool1/norm1"
  type: "LRN"
  bottom: "pool1/3x3_s2"
  top: "pool1/norm1"
  lrn_param {
    local_size: 5
    alpha: 0.0001
    beta: 0.75
  }
}
layer {
  name: "conv2/3x3_reduce"
  type: "Convolution"
  bottom: "pool1/norm1"
  top: "conv2/3x3_reduce"
  param {
    lr_mult: 1
    decay_mult: 1
  }
  param {
    lr_mult: 2
    decay_mult: 0
  }
  convolution_param {
    num_output: 64
    kernel_size: 1
    weight_filler {
      type: "xavier"
      std: 0.1
    }
    bias_filler {
      type: "constant"
      value: 0.2
    }
  }
}
layer {
  name: "conv2/relu_3x3_reduce"
  type: "ReLU"
  bottom: "conv2/3x3_reduce"
  top: "conv2/3x3_reduce"
}
layer {
  name: "conv2/3x3"
  type: "Convolution"
  bottom: "conv2/3x3_reduce"
  top: "conv2/3x3"
  param {
    lr_mult: 1
    decay_mult: 1
  }
  param {
    lr_mult: 2
    decay_mult: 0
  }
  convolution_param {
    num_output: 192
    pad: 1
    kernel_size: 3
    weight_filler {
      type: "xavier"
      std: 0.03
    }
    bias_filler {
      type: "constant"
      value: 0.2
    }
  }
}
layer {
  name: "conv2/relu_3x3"
  type: "ReLU"
  bottom: "conv2/3x3"
  top: "conv2/3x3"
}
layer {
  name: "conv2/norm2"
  type: "LRN"
  bottom: "conv2/3x3"
  top: "conv2/norm2"
  lrn_param {
    local_size: 5
    alpha: 0.0001
    beta: 0.75
  }
}
layer {
  name: "pool2/3x3_s2"
  type: "Pooling"
  bottom: "conv2/norm2"
  top: "pool2/3x3_s2"
  pooling_param {
    pool: MAX
    kernel_size: 3
    stride: 2
  }
}
layer {
  name: "inception_3a/1x1"
  type: "Convolution"
  bottom: "pool2/3x3_s2"
  top: "inception_3a/1x1"
  param {
    lr_mult: 1
    decay_mult: 1
  }
  param {
    lr_mult: 2
    decay_mult: 0
  }
  convolution_param {
    num_output: 64
    kernel_size: 1
    weight_filler {
      type: "xavier"
      std: 0.03
    }
    bias_filler {
      type: "constant"
      value: 0.2
    }
  }
}
layer {
  name: "inception_3a/relu_1x1"
  type: "ReLU"
  bottom: "inception_3a/1x1"
  top: "inception_3a/1x1"
}
layer {
  name: "inception_3a/3x3_reduce"
  type: "Convolution"
  bottom: "pool2/3x3_s2"
  top: "inception_3a/3x3_reduce"
  param {
    lr_mult: 1
    decay_mult: 1
  }
  param {
    lr_mult: 2
    decay_mult: 0
  }
  convolution_param {
    num_output: 96
    kernel_size: 1
    weight_filler {
      type: "xavier"
      std: 0.09
    }
    bias_filler {
      type: "constant"
      value: 0.2
    }
  }
}
layer {
  name: "inception_3a/relu_3x3_reduce"
  type: "ReLU"
  bottom: "inception_3a/3x3_reduce"
  top: "inception_3a/3x3_reduce"
}
layer {
  name: "inception_3a/3x3"
  type: "Convolution"
  bottom: "inception_3a/3x3_reduce"
  top: "inception_3a/3x3"
  param {
    lr_mult: 1
    decay_mult: 1
  }
  param {
    lr_mult: 2
    decay_mult: 0
  }
  convolution_param {
    num_output: 128
    pad: 1
    kernel_size: 3
    weight_filler {
      type: "xavier"
      std: 0.03
    }
    bias_filler {
      type: "constant"
      value: 0.2
    }
  }
}
layer {
  name: "inception_3a/relu_3x3"
  type: "ReLU"
  bottom: "inception_3a/3x3"
  top: "inception_3a/3x3"
}
layer {
  name: "inception_3a/5x5_reduce"
  type: "Convolution"
  bottom: "pool2/3x3_s2"
  top: "inception_3a/5x5_reduce"
  param {
    lr_mult: 1
    decay_mult: 1
  }
  param {
    lr_mult: 2
    decay_mult: 0
  }
  convolution_param {
    num_output: 16
    kernel_size: 1
    weight_filler {
      type: "xavier"
      std: 0.2
    }
    bias_filler {
      type: "constant"
      value: 0.2
    }
  }
}
layer {
  name: "inception_3a/relu_5x5_reduce"
  type: "ReLU"
  bottom: "inception_3a/5x5_reduce"
  top: "inception_3a/5x5_reduce"
}
layer {
  name: "inception_3a/5x5"
  type: "Convolution"
  bottom: "inception_3a/5x5_reduce"
  top: "inception_3a/5x5"
  param {
    lr_mult: 1
    decay_mult: 1
  }
  param {
    lr_mult: 2
    decay_mult: 0
  }
  convolution_param {
    num_output: 32
    pad: 2
    kernel_size: 5
    weight_filler {
      type: "xavier"
      std: 0.03
    }
    bias_filler {
      type: "constant"
      value: 0.2
    }
  }
}
layer {
  name: "inception_3a/relu_5x5"
  type: "ReLU"
  bottom: "inception_3a/5x5"
  top: "inception_3a/5x5"
}
layer {
  name: "inception_3a/pool"
  type: "Pooling"
  bottom: "pool2/3x3_s2"
  top: "inception_3a/pool"
  pooling_param {
    pool: MAX
    kernel_size: 3
    stride: 1
    pad: 1
  }
}
layer {
  name: "inception_3a/pool_proj"
  type: "Convolution"
  bottom: "inception_3a/pool"
  top: "inception_3a/pool_proj"
  param {
    lr_mult: 1
    decay_mult: 1
  }
  param {
    lr_mult: 2
    decay_mult: 0
  }
  convolution_param {
    num_output: 32
    kernel_size: 1
    weight_filler {
      type: "xavier"
      std: 0.1
    }
    bias_filler {
      type: "constant"
      value: 0.2
    }
  }
}
layer {
  name: "inception_3a/relu_pool_proj"
  type: "ReLU"
  bottom: "inception_3a/pool_proj"
  top: "inception_3a/pool_proj"
}
layer {
  name: "inception_3a/output"
  type: "Concat"
  bottom: "inception_3a/1x1"
  bottom: "inception_3a/3x3"
  bottom: "inception_3a/5x5"
  bottom: "inception_3a/pool_proj"
  top: "inception_3a/output"
}
layer {
  name: "inception_3b/1x1"
  type: "Convolution"
  bottom: "inception_3a/output"
  top: "inception_3b/1x1"
  param {
    lr_mult: 1
    decay_mult: 1
  }
  param {
    lr_mult: 2
    decay_mult: 0
  }
  convolution_param {
    num_output: 128
    kernel_size: 1
    weight_filler {
      type: "xavier"
      std: 0.03
    }
    bias_filler {
      type: "constant"
      value: 0.2
    }
  }
}
layer {
  name: "inception_3b/relu_1x1"
  type: "ReLU"
  bottom: "inception_3b/1x1"
  top: "inception_3b/1x1"
}
layer {
  name: "inception_3b/3x3_reduce"
  type: "Convolution"
  bottom: "inception_3a/output"
  top: "inception_3b/3x3_reduce"
  param {
    lr_mult: 1
    decay_mult: 1
  }
  param {
    lr_mult: 2
    decay_mult: 0
  }
  convolution_param {
    num_output: 128
    kernel_size: 1
    weight_filler {
      type: "xavier"
      std: 0.09
    }
    bias_filler {
      type: "constant"
      value: 0.2
    }
  }
}
layer {
  name: "inception_3b/relu_3x3_reduce"
  type: "ReLU"
  bottom: "inception_3b/3x3_reduce"
  top: "inception_3b/3x3_reduce"
}
layer {
  name: "inception_3b/3x3"
  type: "Convolution"
  bottom: "inception_3b/3x3_reduce"
  top: "inception_3b/3x3"
  param {
    lr_mult: 1
    decay_mult: 1
  }
  param {
    lr_mult: 2
    decay_mult: 0
  }
  convolution_param {
    num_output: 192
    pad: 1
    kernel_size: 3
    weight_filler {
      type: "xavier"
      std: 0.03
    }
    bias_filler {
      type: "constant"
      value: 0.2
    }
  }
}
layer {
  name: "inception_3b/relu_3x3"
  type: "ReLU"
  bottom: "inception_3b/3x3"
  top: "inception_3b/3x3"
}
layer {
  name: "inception_3b/5x5_reduce"
  type: "Convolution"
  bottom: "inception_3a/output"
  top: "inception_3b/5x5_reduce"
  param {
    lr_mult: 1
    decay_mult: 1
  }
  param {
    lr_mult: 2
    decay_mult: 0
  }
  convolution_param {
    num_output: 32
    kernel_size: 1
    weight_filler {
      type: "xavier"
      std: 0.2
    }
    bias_filler {
      type: "constant"
      value: 0.2
    }
  }
}
layer {
  name: "inception_3b/relu_5x5_reduce"
  type: "ReLU"
  bottom: "inception_3b/5x5_reduce"
  top: "inception_3b/5x5_reduce"
}
layer {
  name: "inception_3b/5x5"
  type: "Convolution"
  bottom: "inception_3b/5x5_reduce"
  top: "inception_3b/5x5"
  param {
    lr_mult: 1
    decay_mult: 1
  }
  param {
    lr_mult: 2
    decay_mult: 0
  }
  convolution_param {
    num_output: 96
    pad: 2
    kernel_size: 5
    weight_filler {
      type: "xavier"
      std: 0.03
    }
    bias_filler {
      type: "constant"
      value: 0.2
    }
  }
}
layer {
  name: "inception_3b/relu_5x5"
  type: "ReLU"
  bottom: "inception_3b/5x5"
  top: "inception_3b/5x5"
}
layer {
  name: "inception_3b/pool"
  type: "Pooling"
  bottom: "inception_3a/output"
  top: "inception_3b/pool"
  pooling_param {
    pool: MAX
    kernel_size: 3
    stride: 1
    pad: 1
  }
}
layer {
  name: "inception_3b/pool_proj"
  type: "Convolution"
  bottom: "inception_3b/pool"
  top: "inception_3b/pool_proj"
  param {
    lr_mult: 1
    decay_mult: 1
  }
  param {
    lr_mult: 2
    decay_mult: 0
  }
  convolution_param {
    num_output: 64
    kernel_size: 1
    weight_filler {
      type: "xavier"
      std: 0.1
    }
    bias_filler {
      type: "constant"
      value: 0.2
    }
  }
}
layer {
  name: "inception_3b/relu_pool_proj"
  type: "ReLU"
  bottom: "inception_3b/pool_proj"
  top: "inception_3b/pool_proj"
}
layer {
  name: "inception_3b/output"
  type: "Concat"
  bottom: "inception_3b/1x1"
  bottom: "inception_3b/3x3"
  bottom: "inception_3b/5x5"
  bottom: "inception_3b/pool_proj"
  top: "inception_3b/output"
}
layer {
  name: "pool3/3x3_s2"
  type: "Pooling"
  bottom: "inception_3b/output"
  top: "pool3/3x3_s2"
  pooling_param {
    pool: MAX
    kernel_size: 3
    stride: 2
  }
}
layer {
  name: "inception_4a/1x1"
  type: "Convolution"
  bottom: "pool3/3x3_s2"
  top: "inception_4a/1x1"
  param {
    lr_mult: 1
    decay_mult: 1
  }
  param {
    lr_mult: 2
    decay_mult: 0
  }
  convolution_param {
    num_output: 192
    kernel_size: 1
    weight_filler {
      type: "xavier"
      std: 0.03
    }
    bias_filler {
      type: "constant"
      value: 0.2
    }
  }
}
layer {
  name: "inception_4a/relu_1x1"
  type: "ReLU"
  bottom: "inception_4a/1x1"
  top: "inception_4a/1x1"
}
layer {
  name: "inception_4a/3x3_reduce"
  type: "Convolution"
  bottom: "pool3/3x3_s2"
  top: "inception_4a/3x3_reduce"
  param {
    lr_mult: 1
    decay_mult: 1
  }
  param {
    lr_mult: 2
    decay_mult: 0
  }
  convolution_param {
    num_output: 96
    kernel_size: 1
    weight_filler {
      type: "xavier"
      std: 0.09
    }
    bias_filler {
      type: "constant"
      value: 0.2
    }
  }
}
layer {
  name: "inception_4a/relu_3x3_reduce"
  type: "ReLU"
  bottom: "inception_4a/3x3_reduce"
  top: "inception_4a/3x3_reduce"
}
layer {
  name: "inception_4a/3x3"
  type: "Convolution"
  bottom: "inception_4a/3x3_reduce"
  top: "inception_4a/3x3"
  param {
    lr_mult: 1
    decay_mult: 1
  }
  param {
    lr_mult: 2
    decay_mult: 0
  }
  convolution_param {
    num_output: 208
    pad: 1
    kernel_size: 3
    weight_filler {
      type: "xavier"
      std: 0.03
    }
    bias_filler {
      type: "constant"
      value: 0.2
    }
  }
}
layer {
  name: "inception_4a/relu_3x3"
  type: "ReLU"
  bottom: "inception_4a/3x3"
  top: "inception_4a/3x3"
}
layer {
  name: "inception_4a/5x5_reduce"
  type: "Convolution"
  bottom: "pool3/3x3_s2"
  top: "inception_4a/5x5_reduce"
  param {
    lr_mult: 1
    decay_mult: 1
  }
  param {
    lr_mult: 2
    decay_mult: 0
  }
  convolution_param {
    num_output: 16
    kernel_size: 1
    weight_filler {
      type: "xavier"
      std: 0.2
    }
    bias_filler {
      type: "constant"
      value: 0.2
    }
  }
}
layer {
  name: "inception_4a/relu_5x5_reduce"
  type: "ReLU"
  bottom: "inception_4a/5x5_reduce"
  top: "inception_4a/5x5_reduce"
}
layer {
  name: "inception_4a/5x5"
  type: "Convolution"
  bottom: "inception_4a/5x5_reduce"
  top: "inception_4a/5x5"
  param {
    lr_mult: 1
    decay_mult: 1
  }
  param {
    lr_mult: 2
    decay_mult: 0
  }
  convolution_param {
    num_output: 48
    pad: 2
    kernel_size: 5
    weight_filler {
      type: "xavier"
      std: 0.03
    }
    bias_filler {
      type: "constant"
      value: 0.2
    }
  }
}
layer {
  name: "inception_4a/relu_5x5"
  type: "ReLU"
  bottom: "inception_4a/5x5"
  top: "inception_4a/5x5"
}
layer {
  name: "inception_4a/pool"
  type: "Pooling"
  bottom: "pool3/3x3_s2"
  top: "inception_4a/pool"
  pooling_param {
    pool: MAX
    kernel_size: 3
    stride: 1
    pad: 1
  }
}
layer {
  name: "inception_4a/pool_proj"
  type: "Convolution"
  bottom: "inception_4a/pool"
  top: "inception_4a/pool_proj"
  param {
    lr_mult: 1
    decay_mult: 1
  }
  param {
    lr_mult: 2
    decay_mult: 0
  }
  convolution_param {
    num_output: 64
    kernel_size: 1
    weight_filler {
      type: "xavier"
      std: 0.1
    }
    bias_filler {
      type: "constant"
      value: 0.2
    }
  }
}
layer {
  name: "inception_4a/relu_pool_proj"
  type: "ReLU"
  bottom: "inception_4a/pool_proj"
  top: "inception_4a/pool_proj"
}
layer {
  name: "inception_4a/output"
  type: "Concat"
  bottom: "inception_4a/1x1"
  bottom: "inception_4a/3x3"
  bottom: "inception_4a/5x5"
  bottom: "inception_4a/pool_proj"
  top: "inception_4a/output"
}
layer {
  name: "inception_4b/1x1"
  type: "Convolution"
  bottom: "inception_4a/output"
  top: "inception_4b/1x1"
  param {
    lr_mult: 1
    decay_mult: 1
  }
  param {
    lr_mult: 2
    decay_mult: 0
  }
  convolution_param {
    num_output: 160
    kernel_size: 1
    weight_filler {
      type: "xavier"
      std: 0.03
    }
    bias_filler {
      type: "constant"
      value: 0.2
    }
  }
}
layer {
  name: "inception_4b/relu_1x1"
  type: "ReLU"
  bottom: "inception_4b/1x1"
  top: "inception_4b/1x1"
}
layer {
  name: "inception_4b/3x3_reduce"
  type: "Convolution"
  bottom: "inception_4a/output"
  top: "inception_4b/3x3_reduce"
  param {
    lr_mult: 1
    decay_mult: 1
  }
  param {
    lr_mult: 2
    decay_mult: 0
  }
  convolution_param {
    num_output: 112
    kernel_size: 1
    weight_filler {
      type: "xavier"
      std: 0.09
    }
    bias_filler {
      type: "constant"
      value: 0.2
    }
  }
}
layer {
  name: "inception_4b/relu_3x3_reduce"
  type: "ReLU"
…
I0322 11:24:40.531177  9371 net.cpp:122] Setting up inception_4b/output_inception_4b/output_0_split
I0322 11:24:40.531183  9371 net.cpp:129] Top shape: 10 512 14 14 (1003520)
I0322 11:24:40.531186  9371 net.cpp:129] Top shape: 10 512 14 14 (1003520)
I0322 11:24:40.531189  9371 net.cpp:129] Top shape: 10 512 14 14 (1003520)
I0322 11:24:40.531193  9371 net.cpp:129] Top shape: 10 512 14 14 (1003520)
I0322 11:24:40.531194  9371 net.cpp:137] Memory required for data: 423861760
I0322 11:24:40.531196  9371 layer_factory.hpp:77] Creating layer inception_4c/1x1
I0322 11:24:40.531205  9371 net.cpp:84] Creating Layer inception_4c/1x1
I0322 11:24:40.531208  9371 net.cpp:406] inception_4c/1x1 <- inception_4b/output_inception_4b/output_0_split_0
I0322 11:24:40.531211  9371 net.cpp:380] inception_4c/1x1 -> inception_4c/1x1
I0322 11:24:40.533448  9371 net.cpp:122] Setting up inception_4c/1x1
I0322 11:24:40.533460  9371 net.cpp:129] Top shape: 10 128 14 14 (250880)
I0322 11:24:40.533478  9371 net.cpp:137] Memory required for data: 424865280
I0322 11:24:40.533483  9371 layer_factory.hpp:77] Creating layer inception_4c/relu_1x1
I0322 11:24:40.533488  9371 net.cpp:84] Creating Layer inception_4c/relu_1x1
I0322 11:24:40.533490  9371 net.cpp:406] inception_4c/relu_1x1 <- inception_4c/1x1
I0322 11:24:40.533496  9371 net.cpp:367] inception_4c/relu_1x1 -> inception_4c/1x1 (in-place)
I0322 11:24:40.533649  9371 net.cpp:122] Setting up inception_4c/relu_1x1
I0322 11:24:40.533658  9371 net.cpp:129] Top shape: 10 128 14 14 (250880)
I0322 11:24:40.533659  9371 net.cpp:137] Memory required for data: 425868800
I0322 11:24:40.533663  9371 layer_factory.hpp:77] Creating layer inception_4c/3x3_reduce
I0322 11:24:40.533670  9371 net.cpp:84] Creating Layer inception_4c/3x3_reduce
I0322 11:24:40.533674  9371 net.cpp:406] inception_4c/3x3_reduce <- inception_4b/output_inception_4b/output_0_split_1
I0322 11:24:40.533679  9371 net.cpp:380] inception_4c/3x3_reduce -> inception_4c/3x3_reduce
I0322 11:24:40.535220  9371 net.cpp:122] Setting up inception_4c/3x3_reduce
I0322 11:24:40.535233  9371 net.cpp:129] Top shape: 10 128 14 14 (250880)
I0322 11:24:40.535249  9371 net.cpp:137] Memory required for data: 426872320
I0322 11:24:40.535254  9371 layer_factory.hpp:77] Creating layer inception_4c/relu_3x3_reduce
I0322 11:24:40.535259  9371 net.cpp:84] Creating Layer inception_4c/relu_3x3_reduce
I0322 11:24:40.535262  9371 net.cpp:406] inception_4c/relu_3x3_reduce <- inception_4c/3x3_reduce
I0322 11:24:40.535265  9371 net.cpp:367] inception_4c/relu_3x3_reduce -> inception_4c/3x3_reduce (in-place)
I0322 11:24:40.535424  9371 net.cpp:122] Setting up inception_4c/relu_3x3_reduce
I0322 11:24:40.535432  9371 net.cpp:129] Top shape: 10 128 14 14 (250880)
I0322 11:24:40.535434  9371 net.cpp:137] Memory required for data: 427875840
I0322 11:24:40.535437  9371 layer_factory.hpp:77] Creating layer inception_4c/3x3
I0322 11:24:40.535446  9371 net.cpp:84] Creating Layer inception_4c/3x3
I0322 11:24:40.535449  9371 net.cpp:406] inception_4c/3x3 <- inception_4c/3x3_reduce
I0322 11:24:40.535454  9371 net.cpp:380] inception_4c/3x3 -> inception_4c/3x3
I0322 11:24:40.538379  9371 net.cpp:122] Setting up inception_4c/3x3
I0322 11:24:40.538391  9371 net.cpp:129] Top shape: 10 256 14 14 (501760)
I0322 11:24:40.538408  9371 net.cpp:137] Memory required for data: 429882880
I0322 11:24:40.538414  9371 layer_factory.hpp:77] Creating layer inception_4c/relu_3x3
I0322 11:24:40.538419  9371 net.cpp:84] Creating Layer inception_4c/relu_3x3
I0322 11:24:40.538421  9371 net.cpp:406] inception_4c/relu_3x3 <- inception_4c/3x3
I0322 11:24:40.538426  9371 net.cpp:367] inception_4c/relu_3x3 -> inception_4c/3x3 (in-place)
I0322 11:24:40.538594  9371 net.cpp:122] Setting up inception_4c/relu_3x3
I0322 11:24:40.538601  9371 net.cpp:129] Top shape: 10 256 14 14 (501760)
I0322 11:24:40.538604  9371 net.cpp:137] Memory required for data: 431889920
I0322 11:24:40.538607  9371 layer_factory.hpp:77] Creating layer inception_4c/5x5_reduce
I0322 11:24:40.538614  9371 net.cpp:84] Creating Layer inception_4c/5x5_reduce
I0322 11:24:40.538617  9371 net.cpp:406] inception_4c/5x5_reduce <- inception_4b/output_inception_4b/output_0_split_2
I0322 11:24:40.538624  9371 net.cpp:380] inception_4c/5x5_reduce -> inception_4c/5x5_reduce
I0322 11:24:40.539964  9371 net.cpp:122] Setting up inception_4c/5x5_reduce
I0322 11:24:40.539978  9371 net.cpp:129] Top shape: 10 24 14 14 (47040)
I0322 11:24:40.539994  9371 net.cpp:137] Memory required for data: 432078080
I0322 11:24:40.539999  9371 layer_factory.hpp:77] Creating layer inception_4c/relu_5x5_reduce
I0322 11:24:40.540004  9371 net.cpp:84] Creating Layer inception_4c/relu_5x5_reduce
I0322 11:24:40.540006  9371 net.cpp:406] inception_4c/relu_5x5_reduce <- inception_4c/5x5_reduce
I0322 11:24:40.540010  9371 net.cpp:367] inception_4c/relu_5x5_reduce -> inception_4c/5x5_reduce (in-place)
I0322 11:24:40.540694  9371 net.cpp:122] Setting up inception_4c/relu_5x5_reduce
I0322 11:24:40.540705  9371 net.cpp:129] Top shape: 10 24 14 14 (47040)
I0322 11:24:40.540709  9371 net.cpp:137] Memory required for data: 432266240
I0322 11:24:40.540711  9371 layer_factory.hpp:77] Creating layer inception_4c/5x5
I0322 11:24:40.540719  9371 net.cpp:84] Creating Layer inception_4c/5x5
I0322 11:24:40.540724  9371 net.cpp:406] inception_4c/5x5 <- inception_4c/5x5_reduce
I0322 11:24:40.540727  9371 net.cpp:380] inception_4c/5x5 -> inception_4c/5x5
I0322 11:24:40.542690  9371 net.cpp:122] Setting up inception_4c/5x5
I0322 11:24:40.542702  9371 net.cpp:129] Top shape: 10 64 14 14 (125440)
I0322 11:24:40.542721  9371 net.cpp:137] Memory required for data: 432768000
I0322 11:24:40.542726  9371 layer_factory.hpp:77] Creating layer inception_4c/relu_5x5
I0322 11:24:40.542729  9371 net.cpp:84] Creating Layer inception_4c/relu_5x5
I0322 11:24:40.542732  9371 net.cpp:406] inception_4c/relu_5x5 <- inception_4c/5x5
I0322 11:24:40.542737  9371 net.cpp:367] inception_4c/relu_5x5 -> inception_4c/5x5 (in-place)
I0322 11:24:40.542896  9371 net.cpp:122] Setting up inception_4c/relu_5x5
I0322 11:24:40.542904  9371 net.cpp:129] Top shape: 10 64 14 14 (125440)
I0322 11:24:40.542906  9371 net.cpp:137] Memory required for data: 433269760
I0322 11:24:40.542909  9371 layer_factory.hpp:77] Creating layer inception_4c/pool
I0322 11:24:40.542915  9371 net.cpp:84] Creating Layer inception_4c/pool
I0322 11:24:40.542918  9371 net.cpp:406] inception_4c/pool <- inception_4b/output_inception_4b/output_0_split_3
I0322 11:24:40.542923  9371 net.cpp:380] inception_4c/pool -> inception_4c/pool
I0322 11:24:40.542973  9371 net.cpp:122] Setting up inception_4c/pool
I0322 11:24:40.542980  9371 net.cpp:129] Top shape: 10 512 14 14 (1003520)
I0322 11:24:40.542982  9371 net.cpp:137] Memory required for data: 437283840
I0322 11:24:40.542984  9371 layer_factory.hpp:77] Creating layer inception_4c/pool_proj
I0322 11:24:40.542991  9371 net.cpp:84] Creating Layer inception_4c/pool_proj
I0322 11:24:40.542994  9371 net.cpp:406] inception_4c/pool_proj <- inception_4c/pool
I0322 11:24:40.542999  9371 net.cpp:380] inception_4c/pool_proj -> inception_4c/pool_proj
I0322 11:24:40.544455  9371 net.cpp:122] Setting up inception_4c/pool_proj
I0322 11:24:40.544468  9371 net.cpp:129] Top shape: 10 64 14 14 (125440)
I0322 11:24:40.544472  9371 net.cpp:137] Memory required for data: 437785600
I0322 11:24:40.544486  9371 layer_factory.hpp:77] Creating layer inception_4c/relu_pool_proj
I0322 11:24:40.544492  9371 net.cpp:84] Creating Layer inception_4c/relu_pool_proj
I0322 11:24:40.544495  9371 net.cpp:406] inception_4c/relu_pool_proj <- inception_4c/pool_proj
I0322 11:24:40.544498  9371 net.cpp:367] inception_4c/relu_pool_proj -> inception_4c/pool_proj (in-place)
I0322 11:24:40.544654  9371 net.cpp:122] Setting up inception_4c/relu_pool_proj
I0322 11:24:40.544662  9371 net.cpp:129] Top shape: 10 64 14 14 (125440)
I0322 11:24:40.544668  9371 net.cpp:137] Memory required for data: 438287360
I0322 11:24:40.544672  9371 layer_factory.hpp:77] Creating layer inception_4c/output
I0322 11:24:40.544677  9371 net.cpp:84] Creating Layer inception_4c/output
I0322 11:24:40.544679  9371 net.cpp:406] inception_4c/output <- inception_4c/1x1
I0322 11:24:40.544683  9371 net.cpp:406] inception_4c/output <- inception_4c/3x3
I0322 11:24:40.544685  9371 net.cpp:406] inception_4c/output <- inception_4c/5x5
I0322 11:24:40.544688  9371 net.cpp:406] inception_4c/output <- inception_4c/pool_proj
I0322 11:24:40.544692  9371 net.cpp:380] inception_4c/output -> inception_4c/output
I0322 11:24:40.544724  9371 net.cpp:122] Setting up inception_4c/output
I0322 11:24:40.544729  9371 net.cpp:129] Top shape: 10 512 14 14 (1003520)
I0322 11:24:40.544731  9371 net.cpp:137] Memory required for data: 442301440
I0322 11:24:40.544734  9371 layer_factory.hpp:77] Creating layer inception_4c/output_inception_4c/output_0_split
I0322 11:24:40.544737  9371 net.cpp:84] Creating Layer inception_4c/output_inception_4c/output_0_split
I0322 11:24:40.544740  9371 net.cpp:406] inception_4c/output_inception_4c/output_0_split <- inception_4c/output
I0322 11:24:40.544744  9371 net.cpp:380] inception_4c/output_inception_4c/output_0_split -> inception_4c/output_inception_4c/output_0_split_0
I0322 11:24:40.544749  9371 net.cpp:380] inception_4c/output_inception_4c/output_0_split -> inception_4c/output_inception_4c/output_0_split_1
I0322 11:24:40.544752  9371 net.cpp:380] inception_4c/output_inception_4c/output_0_split -> inception_4c/output_inception_4c/output_0_split_2
I0322 11:24:40.544756  9371 net.cpp:380] inception_4c/output_inception_4c/output_0_split -> inception_4c/output_inception_4c/output_0_split_3
I0322 11:24:40.544826  9371 net.cpp:122] Setting up inception_4c/output_inception_4c/output_0_split
I0322 11:24:40.544833  9371 net.cpp:129] Top shape: 10 512 14 14 (1003520)
I0322 11:24:40.544836  9371 net.cpp:129] Top shape: 10 512 14 14 (1003520)
I0322 11:24:40.544839  9371 net.cpp:129] Top shape: 10 512 14 14 (1003520)
I0322 11:24:40.544842  9371 net.cpp:129] Top shape: 10 512 14 14 (1003520)
I0322 11:24:40.544843  9371 net.cpp:137] Memory required for data: 458357760
I0322 11:24:40.544847  9371 layer_factory.hpp:77] Creating layer inception_4d/1x1
I0322 11:24:40.544853  9371 net.cpp:84] Creating Layer inception_4d/1x1
I0322 11:24:40.544857  9371 net.cpp:406] inception_4d/1x1 <- inception_4c/output_inception_4c/output_0_split_0
I0322 11:24:40.544860  9371 net.cpp:380] inception_4d/1x1 -> inception_4d/1x1
I0322 11:24:40.546802  9371 net.cpp:122] Setting up inception_4d/1x1
I0322 11:24:40.546820  9371 net.cpp:129] Top shape: 10 112 14 14 (219520)
I0322 11:24:40.546823  9371 net.cpp:137] Memory required for data: 459235840
I0322 11:24:40.546829  9371 layer_factory.hpp:77] Creating layer inception_4d/relu_1x1
I0322 11:24:40.546834  9371 net.cpp:84] Creating Layer inception_4d/relu_1x1
I0322 11:24:40.546838  9371 net.cpp:406] inception_4d/relu_1x1 <- inception_4d/1x1
I0322 11:24:40.546841  9371 net.cpp:367] inception_4d/relu_1x1 -> inception_4d/1x1 (in-place)
I0322 11:24:40.547003  9371 net.cpp:122] Setting up inception_4d/relu_1x1
I0322 11:24:40.547011  9371 net.cpp:129] Top shape: 10 112 14 14 (219520)
I0322 11:24:40.547013  9371 net.cpp:137] Memory required for data: 460113920
I0322 11:24:40.547015  9371 layer_factory.hpp:77] Creating layer inception_4d/3x3_reduce
I0322 11:24:40.547024  9371 net.cpp:84] Creating Layer inception_4d/3x3_reduce
I0322 11:24:40.547027  9371 net.cpp:406] inception_4d/3x3_reduce <- inception_4c/output_inception_4c/output_0_split_1
I0322 11:24:40.547031  9371 net.cpp:380] inception_4d/3x3_reduce -> inception_4d/3x3_reduce
I0322 11:24:40.548653  9371 net.cpp:122] Setting up inception_4d/3x3_reduce
I0322 11:24:40.548666  9371 net.cpp:129] Top shape: 10 144 14 14 (282240)
I0322 11:24:40.548668  9371 net.cpp:137] Memory required for data: 461242880
I0322 11:24:40.548673  9371 layer_factory.hpp:77] Creating layer inception_4d/relu_3x3_reduce
I0322 11:24:40.548677  9371 net.cpp:84] Creating Layer inception_4d/relu_3x3_reduce
I0322 11:24:40.548681  9371 net.cpp:406] inception_4d/relu_3x3_reduce <- inception_4d/3x3_reduce
I0322 11:24:40.548686  9371 net.cpp:367] inception_4d/relu_3x3_reduce -> inception_4d/3x3_reduce (in-place)
I0322 11:24:40.548841  9371 net.cpp:122] Setting up inception_4d/relu_3x3_reduce
I0322 11:24:40.548848  9371 net.cpp:129] Top shape: 10 144 14 14 (282240)
I0322 11:24:40.548851  9371 net.cpp:137] Memory required for data: 462371840
I0322 11:24:40.548853  9371 layer_factory.hpp:77] Creating layer inception_4d/3x3
I0322 11:24:40.548861  9371 net.cpp:84] Creating Layer inception_4d/3x3
I0322 11:24:40.548864  9371 net.cpp:406] inception_4d/3x3 <- inception_4d/3x3_reduce
I0322 11:24:40.548869  9371 net.cpp:380] inception_4d/3x3 -> inception_4d/3x3
I0322 11:24:40.552776  9371 net.cpp:122] Setting up inception_4d/3x3
I0322 11:24:40.552788  9371 net.cpp:129] Top shape: 10 288 14 14 (564480)
I0322 11:24:40.552805  9371 net.cpp:137] Memory required for data: 464629760
I0322 11:24:40.552812  9371 layer_factory.hpp:77] Creating layer inception_4d/relu_3x3
I0322 11:24:40.552817  9371 net.cpp:84] Creating Layer inception_4d/relu_3x3
I0322 11:24:40.552820  9371 net.cpp:406] inception_4d/relu_3x3 <- inception_4d/3x3
I0322 11:24:40.552826  9371 net.cpp:367] inception_4d/relu_3x3 -> inception_4d/3x3 (in-place)
I0322 11:24:40.552994  9371 net.cpp:122] Setting up inception_4d/relu_3x3
I0322 11:24:40.553001  9371 net.cpp:129] Top shape: 10 288 14 14 (564480)
I0322 11:24:40.553004  9371 net.cpp:137] Memory required for data: 466887680
I0322 11:24:40.553006  9371 layer_factory.hpp:77] Creating layer inception_4d/5x5_reduce
I0322 11:24:40.553014  9371 net.cpp:84] Creating Layer inception_4d/5x5_reduce
I0322 11:24:40.553017  9371 net.cpp:406] inception_4d/5x5_reduce <- inception_4c/output_inception_4c/output_0_split_2
I0322 11:24:40.553022  9371 net.cpp:380] inception_4d/5x5_reduce -> inception_4d/5x5_reduce
I0322 11:24:40.554394  9371 net.cpp:122] Setting up inception_4d/5x5_reduce
I0322 11:24:40.554405  9371 net.cpp:129] Top shape: 10 32 14 14 (62720)
I0322 11:24:40.554407  9371 net.cpp:137] Memory required for data: 467138560
I0322 11:24:40.554412  9371 layer_factory.hpp:77] Creating layer inception_4d/relu_5x5_reduce
I0322 11:24:40.554417  9371 net.cpp:84] Creating Layer inception_4d/relu_5x5_reduce
I0322 11:24:40.554421  9371 net.cpp:406] inception_4d/relu_5x5_reduce <- inception_4d/5x5_reduce
I0322 11:24:40.554425  9371 net.cpp:367] inception_4d/relu_5x5_reduce -> inception_4d/5x5_reduce (in-place)
I0322 11:24:40.555102  9371 net.cpp:122] Setting up inception_4d/relu_5x5_reduce
I0322 11:24:40.555114  9371 net.cpp:129] Top shape: 10 32 14 14 (62720)
I0322 11:24:40.555115  9371 net.cpp:137] Memory required for data: 467389440
I0322 11:24:40.555119  9371 layer_factory.hpp:77] Creating layer inception_4d/5x5
I0322 11:24:40.555126  9371 net.cpp:84] Creating Layer inception_4d/5x5
I0322 11:24:40.555130  9371 net.cpp:406] inception_4d/5x5 <- inception_4d/5x5_reduce
I0322 11:24:40.555136  9371 net.cpp:380] inception_4d/5x5 -> inception_4d/5x5
I0322 11:24:40.556690  9371 net.cpp:122] Setting up inception_4d/5x5
I0322 11:24:40.556702  9371 net.cpp:129] Top shape: 10 64 14 14 (125440)
I0322 11:24:40.556720  9371 net.cpp:137] Memory required for data: 467891200
I0322 11:24:40.556725  9371 layer_factory.hpp:77] Creating layer inception_4d/relu_5x5
I0322 11:24:40.556731  9371 net.cpp:84] Creating Layer inception_4d/relu_5x5
I0322 11:24:40.556735  9371 net.cpp:406] inception_4d/relu_5x5 <- inception_4d/5x5
I0322 11:24:40.556740  9371 net.cpp:367] inception_4d/relu_5x5 -> inception_4d/5x5 (in-place)
I0322 11:24:40.556900  9371 net.cpp:122] Setting up inception_4d/relu_5x5
I0322 11:24:40.556908  9371 net.cpp:129] Top shape: 10 64 14 14 (125440)
I0322 11:24:40.556910  9371 net.cpp:137] Memory required for data: 468392960
I0322 11:24:40.556913  9371 layer_factory.hpp:77] Creating layer inception_4d/pool
I0322 11:24:40.556918  9371 net.cpp:84] Creating Layer inception_4d/pool
I0322 11:24:40.556921  9371 net.cpp:406] inception_4d/pool <- inception_4c/output_inception_4c/output_0_split_3
I0322 11:24:40.556926  9371 net.cpp:380] inception_4d/pool -> inception_4d/pool
I0322 11:24:40.556977  9371 net.cpp:122] Setting up inception_4d/pool
I0322 11:24:40.556983  9371 net.cpp:129] Top shape: 10 512 14 14 (1003520)
I0322 11:24:40.556985  9371 net.cpp:137] Memory required for data: 472407040
I0322 11:24:40.556988  9371 layer_factory.hpp:77] Creating layer inception_4d/pool_proj
I0322 11:24:40.556994  9371 net.cpp:84] Creating Layer inception_4d/pool_proj
I0322 11:24:40.556998  9371 net.cpp:406] inception_4d/pool_proj <- inception_4d/pool
I0322 11:24:40.557003  9371 net.cpp:380] inception_4d/pool_proj -> inception_4d/pool_proj
I0322 11:24:40.558444  9371 net.cpp:122] Setting up inception_4d/pool_proj
I0322 11:24:40.558455  9371 net.cpp:129] Top shape: 10 64 14 14 (125440)
I0322 11:24:40.558473  9371 net.cpp:137] Memory required for data: 472908800
I0322 11:24:40.558478  9371 layer_factory.hpp:77] Creating layer inception_4d/relu_pool_proj
I0322 11:24:40.558485  9371 net.cpp:84] Creating Layer inception_4d/relu_pool_proj
I0322 11:24:40.558487  9371 net.cpp:406] inception_4d/relu_pool_proj <- inception_4d/pool_proj
I0322 11:24:40.558491  9371 net.cpp:367] inception_4d/relu_pool_proj -> inception_4d/pool_proj (in-place)
I0322 11:24:40.558646  9371 net.cpp:122] Setting up inception_4d/relu_pool_proj
I0322 11:24:40.558655  9371 net.cpp:129] Top shape: 10 64 14 14 (125440)
I0322 11:24:40.558656  9371 net.cpp:137] Memory required for data: 473410560
I0322 11:24:40.558660  9371 layer_factory.hpp:77] Creating layer inception_4d/output
I0322 11:24:40.558665  9371 net.cpp:84] Creating Layer inception_4d/output
I0322 11:24:40.558667  9371 net.cpp:406] inception_4d/output <- inception_4d/1x1
I0322 11:24:40.558671  9371 net.cpp:406] inception_4d/output <- inception_4d/3x3
I0322 11:24:40.558673  9371 net.cpp:406] inception_4d/output <- inception_4d/5x5
I0322 11:24:40.558676  9371 net.cpp:406] inception_4d/output <- inception_4d/pool_proj
I0322 11:24:40.558679  9371 net.cpp:380] inception_4d/output -> inception_4d/output
I0322 11:24:40.558712  9371 net.cpp:122] Setting up inception_4d/output
I0322 11:24:40.558717  9371 net.cpp:129] Top shape: 10 528 14 14 (1034880)
I0322 11:24:40.558719  9371 net.cpp:137] Memory required for data: 477550080
I0322 11:24:40.558722  9371 layer_factory.hpp:77] Creating layer inception_4d/output_inception_4d/output_0_split
I0322 11:24:40.558725  9371 net.cpp:84] Creating Layer inception_4d/output_inception_4d/output_0_split
I0322 11:24:40.558728  9371 net.cpp:406] inception_4d/output_inception_4d/output_0_split <- inception_4d/output
I0322 11:24:40.558732  9371 net.cpp:380] inception_4d/output_inception_4d/output_0_split -> inception_4d/output_inception_4d/output_0_split_0
I0322 11:24:40.558737  9371 net.cpp:380] inception_4d/output_inception_4d/output_0_split -> inception_4d/output_inception_4d/output_0_split_1
I0322 11:24:40.558742  9371 net.cpp:380] inception_4d/output_inception_4d/output_0_split -> inception_4d/output_inception_4d/output_0_split_2
I0322 11:24:40.558745  9371 net.cpp:380] inception_4d/output_inception_4d/output_0_split -> inception_4d/output_inception_4d/output_0_split_3
I0322 11:24:40.558817  9371 net.cpp:122] Setting up inception_4d/output_inception_4d/output_0_split
I0322 11:24:40.558825  9371 net.cpp:129] Top shape: 10 528 14 14 (1034880)
I0322 11:24:40.558828  9371 net.cpp:129] Top shape: 10 528 14 14 (1034880)
I0322 11:24:40.558831  9371 net.cpp:129] Top shape: 10 528 14 14 (1034880)
I0322 11:24:40.558833  9371 net.cpp:129] Top shape: 10 528 14 14 (1034880)
I0322 11:24:40.558835  9371 net.cpp:137] Memory required for data: 494108160
I0322 11:24:40.558838  9371 layer_factory.hpp:77] Creating layer inception_4e/1x1
I0322 11:24:40.558845  9371 net.cpp:84] Creating Layer inception_4e/1x1
I0322 11:24:40.558847  9371 net.cpp:406] inception_4e/1x1 <- inception_4d/output_inception_4d/output_0_split_0
I0322 11:24:40.558851  9371 net.cpp:380] inception_4e/1x1 -> inception_4e/1x1
I0322 11:24:40.560735  9371 net.cpp:122] Setting up inception_4e/1x1
I0322 11:24:40.560747  9371 net.cpp:129] Top shape: 10 256 14 14 (501760)
I0322 11:24:40.560765  9371 net.cpp:137] Memory required for data: 496115200
I0322 11:24:40.560770  9371 layer_factory.hpp:77] Creating layer inception_4e/relu_1x1
I0322 11:24:40.560775  9371 net.cpp:84] Creating Layer inception_4e/relu_1x1
I0322 11:24:40.560777  9371 net.cpp:406] inception_4e/relu_1x1 <- inception_4e/1x1
I0322 11:24:40.560782  9371 net.cpp:367] inception_4e/relu_1x1 -> inception_4e/1x1 (in-place)
I0322 11:24:40.560940  9371 net.cpp:122] Setting up inception_4e/relu_1x1
I0322 11:24:40.560948  9371 net.cpp:129] Top shape: 10 256 14 14 (501760)
I0322 11:24:40.560951  9371 net.cpp:137] Memory required for data: 498122240
I0322 11:24:40.560953  9371 layer_factory.hpp:77] Creating layer inception_4e/3x3_reduce
I0322 11:24:40.560962  9371 net.cpp:84] Creating Layer inception_4e/3x3_reduce
I0322 11:24:40.560966  9371 net.cpp:406] inception_4e/3x3_reduce <- inception_4d/output_inception_4d/output_0_split_1
I0322 11:24:40.560969  9371 net.cpp:380] inception_4e/3x3_reduce -> inception_4e/3x3_reduce
I0322 11:24:40.562644  9371 net.cpp:122] Setting up inception_4e/3x3_reduce
I0322 11:24:40.562655  9371 net.cpp:129] Top shape: 10 160 14 14 (313600)
I0322 11:24:40.562672  9371 net.cpp:137] Memory required for data: 499376640
I0322 11:24:40.562677  9371 layer_factory.hpp:77] Creating layer inception_4e/relu_3x3_reduce
I0322 11:24:40.562682  9371 net.cpp:84] Creating Layer inception_4e/relu_3x3_reduce
I0322 11:24:40.562685  9371 net.cpp:406] inception_4e/relu_3x3_reduce <- inception_4e/3x3_reduce
I0322 11:24:40.562690  9371 net.cpp:367] inception_4e/relu_3x3_reduce -> inception_4e/3x3_reduce (in-place)
I0322 11:24:40.562845  9371 net.cpp:122] Setting up inception_4e/relu_3x3_reduce
I0322 11:24:40.562854  9371 net.cpp:129] Top shape: 10 160 14 14 (313600)
I0322 11:24:40.562856  9371 net.cpp:137] Memory required for data: 500631040
I0322 11:24:40.562858  9371 layer_factory.hpp:77] Creating layer inception_4e/3x3
I0322 11:24:40.562866  9371 net.cpp:84] Creating Layer inception_4e/3x3
I0322 11:24:40.562870  9371 net.cpp:406] inception_4e/3x3 <- inception_4e/3x3_reduce
I0322 11:24:40.562875  9371 net.cpp:380] inception_4e/3x3 -> inception_4e/3x3
I0322 11:24:40.567154  9371 net.cpp:122] Setting up inception_4e/3x3
I0322 11:24:40.567167  9371 net.cpp:129] Top shape: 10 320 14 14 (627200)
I0322 11:24:40.567183  9371 net.cpp:137] Memory required for data: 503139840
I0322 11:24:40.567189  9371 layer_factory.hpp:77] Creating layer inception_4e/relu_3x3
I0322 11:24:40.567195  9371 net.cpp:84] Creating Layer inception_4e/relu_3x3
I0322 11:24:40.567198  9371 net.cpp:406] inception_4e/relu_3x3 <- inception_4e/3x3
I0322 11:24:40.567203  9371 net.cpp:367] inception_4e/relu_3x3 -> inception_4e/3x3 (in-place)
I0322 11:24:40.567373  9371 net.cpp:122] Setting up inception_4e/relu_3x3
I0322 11:24:40.567383  9371 net.cpp:129] Top shape: 10 320 14 14 (627200)
I0322 11:24:40.567384  9371 net.cpp:137] Memory required for data: 505648640
I0322 11:24:40.567387  9371 layer_factory.hpp:77] Creating layer inception_4e/5x5_reduce
I0322 11:24:40.567395  9371 net.cpp:84] Creating Layer inception_4e/5x5_reduce
I0322 11:24:40.567399  9371 net.cpp:406] inception_4e/5x5_reduce <- inception_4d/output_inception_4d/output_0_split_2
I0322 11:24:40.567404  9371 net.cpp:380] inception_4e/5x5_reduce -> inception_4e/5x5_reduce
I0322 11:24:40.568831  9371 net.cpp:122] Setting up inception_4e/5x5_reduce
I0322 11:24:40.568843  9371 net.cpp:129] Top shape: 10 32 14 14 (62720)
I0322 11:24:40.568861  9371 net.cpp:137] Memory required for data: 505899520
I0322 11:24:40.568866  9371 layer_factory.hpp:77] Creating layer inception_4e/relu_5x5_reduce
I0322 11:24:40.568871  9371 net.cpp:84] Creating Layer inception_4e/relu_5x5_reduce
I0322 11:24:40.568874  9371 net.cpp:406] inception_4e/relu_5x5_reduce <- inception_4e/5x5_reduce
I0322 11:24:40.568881  9371 net.cpp:367] inception_4e/relu_5x5_reduce -> inception_4e/5x5_reduce (in-place)
I0322 11:24:40.569556  9371 net.cpp:122] Setting up inception_4e/relu_5x5_reduce
I0322 11:24:40.569568  9371 net.cpp:129] Top shape: 10 32 14 14 (62720)
I0322 11:24:40.569571  9371 net.cpp:137] Memory required for data: 506150400
I0322 11:24:40.569573  9371 layer_factory.hpp:77] Creating layer inception_4e/5x5
I0322 11:24:40.569581  9371 net.cpp:84] Creating Layer inception_4e/5x5
I0322 11:24:40.569586  9371 net.cpp:406] inception_4e/5x5 <- inception_4e/5x5_reduce
I0322 11:24:40.569591  9371 net.cpp:380] inception_4e/5x5 -> inception_4e/5x5
I0322 11:24:40.571971  9371 net.cpp:122] Setting up inception_4e/5x5
I0322 11:24:40.571983  9371 net.cpp:129] Top shape: 10 128 14 14 (250880)
I0322 11:24:40.571986  9371 net.cpp:137] Memory required for data: 507153920
I0322 11:24:40.571990  9371 layer_factory.hpp:77] Creating layer inception_4e/relu_5x5
I0322 11:24:40.571996  9371 net.cpp:84] Creating Layer inception_4e/relu_5x5
I0322 11:24:40.572000  9371 net.cpp:406] inception_4e/relu_5x5 <- inception_4e/5x5
I0322 11:24:40.572005  9371 net.cpp:367] inception_4e/relu_5x5 -> inception_4e/5x5 (in-place)
I0322 11:24:40.572170  9371 net.cpp:122] Setting up inception_4e/relu_5x5
I0322 11:24:40.572177  9371 net.cpp:129] Top shape: 10 128 14 14 (250880)
I0322 11:24:40.572180  9371 net.cpp:137] Memory required for data: 508157440
I0322 11:24:40.572182  9371 layer_factory.hpp:77] Creating layer inception_4e/pool
I0322 11:24:40.572187  9371 net.cpp:84] Creating Layer inception_4e/pool
I0322 11:24:40.572190  9371 net.cpp:406] inception_4e/pool <- inception_4d/output_inception_4d/output_0_split_3
I0322 11:24:40.572196  9371 net.cpp:380] inception_4e/pool -> inception_4e/pool
I0322 11:24:40.572248  9371 net.cpp:122] Setting up inception_4e/pool
I0322 11:24:40.572254  9371 net.cpp:129] Top shape: 10 528 14 14 (1034880)
I0322 11:24:40.572257  9371 net.cpp:137] Memory required for data: 512296960
I0322 11:24:40.572259  9371 layer_factory.hpp:77] Creating layer inception_4e/pool_proj
I0322 11:24:40.572268  9371 net.cpp:84] Creating Layer inception_4e/pool_proj
I0322 11:24:40.572270  9371 net.cpp:406] inception_4e/pool_proj <- inception_4e/pool
I0322 11:24:40.572275  9371 net.cpp:380] inception_4e/pool_proj -> inception_4e/pool_proj
I0322 11:24:40.573880  9371 net.cpp:122] Setting up inception_4e/pool_proj
I0322 11:24:40.573892  9371 net.cpp:129] Top shape: 10 128 14 14 (250880)
I0322 11:24:40.573895  9371 net.cpp:137] Memory required for data: 513300480
I0322 11:24:40.573900  9371 layer_factory.hpp:77] Creating layer inception_4e/relu_pool_proj
I0322 11:24:40.573905  9371 net.cpp:84] Creating Layer inception_4e/relu_pool_proj
I0322 11:24:40.573909  9371 net.cpp:406] inception_4e/relu_pool_proj <- inception_4e/pool_proj
I0322 11:24:40.573914  9371 net.cpp:367] inception_4e/relu_pool_proj -> inception_4e/pool_proj (in-place)
I0322 11:24:40.574070  9371 net.cpp:122] Setting up inception_4e/relu_pool_proj
I0322 11:24:40.574079  9371 net.cpp:129] Top shape: 10 128 14 14 (250880)
I0322 11:24:40.574081  9371 net.cpp:137] Memory required for data: 514304000
I0322 11:24:40.574084  9371 layer_factory.hpp:77] Creating layer inception_4e/output
I0322 11:24:40.574089  9371 net.cpp:84] Creating Layer inception_4e/output
I0322 11:24:40.574090  9371 net.cpp:406] inception_4e/output <- inception_4e/1x1
I0322 11:24:40.574095  9371 net.cpp:406] inception_4e/output <- inception_4e/3x3
I0322 11:24:40.574097  9371 net.cpp:406] inception_4e/output <- inception_4e/5x5
I0322 11:24:40.574100  9371 net.cpp:406] inception_4e/output <- inception_4e/pool_proj
I0322 11:24:40.574105  9371 net.cpp:380] inception_4e/output -> inception_4e/output
I0322 11:24:40.574138  9371 net.cpp:122] Setting up inception_4e/output
I0322 11:24:40.574144  9371 net.cpp:129] Top shape: 10 832 14 14 (1630720)
I0322 11:24:40.574146  9371 net.cpp:137] Memory required for data: 520826880
I0322 11:24:40.574148  9371 layer_factory.hpp:77] Creating layer pool4/3x3_s2
I0322 11:24:40.574152  9371 net.cpp:84] Creating Layer pool4/3x3_s2
I0322 11:24:40.574156  9371 net.cpp:406] pool4/3x3_s2 <- inception_4e/output
I0322 11:24:40.574158  9371 net.cpp:380] pool4/3x3_s2 -> pool4/3x3_s2
I0322 11:24:40.574205  9371 net.cpp:122] Setting up pool4/3x3_s2
I0322 11:24:40.574211  9371 net.cpp:129] Top shape: 10 832 7 7 (407680)
I0322 11:24:40.574213  9371 net.cpp:137] Memory required for data: 522457600
I0322 11:24:40.574216  9371 layer_factory.hpp:77] Creating layer pool4/3x3_s2_pool4/3x3_s2_0_split
I0322 11:24:40.574220  9371 net.cpp:84] Creating Layer pool4/3x3_s2_pool4/3x3_s2_0_split
I0322 11:24:40.574223  9371 net.cpp:406] pool4/3x3_s2_pool4/3x3_s2_0_split <- pool4/3x3_s2
I0322 11:24:40.574228  9371 net.cpp:380] pool4/3x3_s2_pool4/3x3_s2_0_split -> pool4/3x3_s2_pool4/3x3_s2_0_split_0
I0322 11:24:40.574231  9371 net.cpp:380] pool4/3x3_s2_pool4/3x3_s2_0_split -> pool4/3x3_s2_pool4/3x3_s2_0_split_1
I0322 11:24:40.574235  9371 net.cpp:380] pool4/3x3_s2_pool4/3x3_s2_0_split -> pool4/3x3_s2_pool4/3x3_s2_0_split_2
I0322 11:24:40.574239  9371 net.cpp:380] pool4/3x3_s2_pool4/3x3_s2_0_split -> pool4/3x3_s2_pool4/3x3_s2_0_split_3
I0322 11:24:40.574311  9371 net.cpp:122] Setting up pool4/3x3_s2_pool4/3x3_s2_0_split
I0322 11:24:40.574317  9371 net.cpp:129] Top shape: 10 832 7 7 (407680)
I0322 11:24:40.574321  9371 net.cpp:129] Top shape: 10 832 7 7 (407680)
I0322 11:24:40.574322  9371 net.cpp:129] Top shape: 10 832 7 7 (407680)
I0322 11:24:40.574326  9371 net.cpp:129] Top shape: 10 832 7 7 (407680)
I0322 11:24:40.574327  9371 net.cpp:137] Memory required for data: 528980480
I0322 11:24:40.574329  9371 layer_factory.hpp:77] Creating layer inception_5a/1x1
I0322 11:24:40.574338  9371 net.cpp:84] Creating Layer inception_5a/1x1
I0322 11:24:40.574342  9371 net.cpp:406] inception_5a/1x1 <- pool4/3x3_s2_pool4/3x3_s2_0_split_0
I0322 11:24:40.574345  9371 net.cpp:380] inception_5a/1x1 -> inception_5a/1x1
I0322 11:24:40.576545  9371 net.cpp:122] Setting up inception_5a/1x1
I0322 11:24:40.576558  9371 net.cpp:129] Top shape: 10 256 7 7 (125440)
I0322 11:24:40.576560  9371 net.cpp:137] Memory required for data: 529482240
I0322 11:24:40.576566  9371 layer_factory.hpp:77] Creating layer inception_5a/relu_1x1
I0322 11:24:40.576571  9371 net.cpp:84] Creating Layer inception_5a/relu_1x1
I0322 11:24:40.576575  9371 net.cpp:406] inception_5a/relu_1x1 <- inception_5a/1x1
I0322 11:24:40.576581  9371 net.cpp:367] inception_5a/relu_1x1 -> inception_5a/1x1 (in-place)
I0322 11:24:40.576740  9371 net.cpp:122] Setting up inception_5a/relu_1x1
I0322 11:24:40.576747  9371 net.cpp:129] Top shape: 10 256 7 7 (125440)
I0322 11:24:40.576750  9371 net.cpp:137] Memory required for data: 529984000
I0322 11:24:40.576752  9371 layer_factory.hpp:77] Creating layer inception_5a/3x3_reduce
I0322 11:24:40.576761  9371 net.cpp:84] Creating Layer inception_5a/3x3_reduce
I0322 11:24:40.576764  9371 net.cpp:406] inception_5a/3x3_reduce <- pool4/3x3_s2_pool4/3x3_s2_0_split_1
I0322 11:24:40.576771  9371 net.cpp:380] inception_5a/3x3_reduce -> inception_5a/3x3_reduce
I0322 11:24:40.579177  9371 net.cpp:122] Setting up inception_5a/3x3_reduce
I0322 11:24:40.579190  9371 net.cpp:129] Top shape: 10 160 7 7 (78400)
I0322 11:24:40.579206  9371 net.cpp:137] Memory required for data: 530297600
I0322 11:24:40.579211  9371 layer_factory.hpp:77] Creating layer inception_5a/relu_3x3_reduce
I0322 11:24:40.579217  9371 net.cpp:84] Creating Layer inception_5a/relu_3x3_reduce
I0322 11:24:40.579221  9371 net.cpp:406] inception_5a/relu_3x3_reduce <- inception_5a/3x3_reduce
I0322 11:24:40.579226  9371 net.cpp:367] inception_5a/relu_3x3_reduce -> inception_5a/3x3_reduce (in-place)
I0322 11:24:40.579391  9371 net.cpp:122] Setting up inception_5a/relu_3x3_reduce
I0322 11:24:40.579399  9371 net.cpp:129] Top shape: 10 160 7 7 (78400)
I0322 11:24:40.579402  9371 net.cpp:137] Memory required for data: 530611200
I0322 11:24:40.579404  9371 layer_factory.hpp:77] Creating layer inception_5a/3x3
I0322 11:24:40.579414  9371 net.cpp:84] Creating Layer inception_5a/3x3
I0322 11:24:40.579418  9371 net.cpp:406] inception_5a/3x3 <- inception_5a/3x3_reduce
I0322 11:24:40.579422  9371 net.cpp:380] inception_5a/3x3 -> inception_5a/3x3
I0322 11:24:40.583744  9371 net.cpp:122] Setting up inception_5a/3x3
I0322 11:24:40.583756  9371 net.cpp:129] Top shape: 10 320 7 7 (156800)
I0322 11:24:40.583773  9371 net.cpp:137] Memory required for data: 531238400
I0322 11:24:40.583778  9371 layer_factory.hpp:77] Creating layer inception_5a/relu_3x3
I0322 11:24:40.583783  9371 net.cpp:84] Creating Layer inception_5a/relu_3x3
I0322 11:24:40.583787  9371 net.cpp:406] inception_5a/relu_3x3 <- inception_5a/3x3
I0322 11:24:40.583792  9371 net.cpp:367] inception_5a/relu_3x3 -> inception_5a/3x3 (in-place)
I0322 11:24:40.583964  9371 net.cpp:122] Setting up inception_5a/relu_3x3
I0322 11:24:40.583972  9371 net.cpp:129] Top shape: 10 320 7 7 (156800)
I0322 11:24:40.583976  9371 net.cpp:137] Memory required for data: 531865600
I0322 11:24:40.583977  9371 layer_factory.hpp:77] Creating layer inception_5a/5x5_reduce
I0322 11:24:40.583986  9371 net.cpp:84] Creating Layer inception_5a/5x5_reduce
I0322 11:24:40.583988  9371 net.cpp:406] inception_5a/5x5_reduce <- pool4/3x3_s2_pool4/3x3_s2_0_split_2
I0322 11:24:40.583994  9371 net.cpp:380] inception_5a/5x5_reduce -> inception_5a/5x5_reduce
I0322 11:24:40.585472  9371 net.cpp:122] Setting up inception_5a/5x5_reduce
I0322 11:24:40.585485  9371 net.cpp:129] Top shape: 10 32 7 7 (15680)
I0322 11:24:40.585489  9371 net.cpp:137] Memory required for data: 531928320
I0322 11:24:40.585494  9371 layer_factory.hpp:77] Creating layer inception_5a/relu_5x5_reduce
I0322 11:24:40.585499  9371 net.cpp:84] Creating Layer inception_5a/relu_5x5_reduce
I0322 11:24:40.585501  9371 net.cpp:406] inception_5a/relu_5x5_reduce <- inception_5a/5x5_reduce
I0322 11:24:40.585505  9371 net.cpp:367] inception_5a/relu_5x5_reduce -> inception_5a/5x5_reduce (in-place)
I0322 11:24:40.586194  9371 net.cpp:122] Setting up inception_5a/relu_5x5_reduce
I0322 11:24:40.586205  9371 net.cpp:129] Top shape: 10 32 7 7 (15680)
I0322 11:24:40.586207  9371 net.cpp:137] Memory required for data: 531991040
I0322 11:24:40.586210  9371 layer_factory.hpp:77] Creating layer inception_5a/5x5
I0322 11:24:40.586220  9371 net.cpp:84] Creating Layer inception_5a/5x5
I0322 11:24:40.586223  9371 net.cpp:406] inception_5a/5x5 <- inception_5a/5x5_reduce
I0322 11:24:40.586227  9371 net.cpp:380] inception_5a/5x5 -> inception_5a/5x5
I0322 11:24:40.588685  9371 net.cpp:122] Setting up inception_5a/5x5
I0322 11:24:40.588697  9371 net.cpp:129] Top shape: 10 128 7 7 (62720)
I0322 11:24:40.588714  9371 net.cpp:137] Memory required for data: 532241920
I0322 11:24:40.588719  9371 layer_factory.hpp:77] Creating layer inception_5a/relu_5x5
I0322 11:24:40.588737  9371 net.cpp:84] Creating Layer inception_5a/relu_5x5
I0322 11:24:40.588740  9371 net.cpp:406] inception_5a/relu_5x5 <- inception_5a/5x5
I0322 11:24:40.588744  9371 net.cpp:367] inception_5a/relu_5x5 -> inception_5a/5x5 (in-place)
I0322 11:24:40.588906  9371 net.cpp:122] Setting up inception_5a/relu_5x5
I0322 11:24:40.588914  9371 net.cpp:129] Top shape: 10 128 7 7 (62720)
I0322 11:24:40.588917  9371 net.cpp:137] Memory required for data: 532492800
I0322 11:24:40.588919  9371 layer_factory.hpp:77] Creating layer inception_5a/pool
I0322 11:24:40.588925  9371 net.cpp:84] Creating Layer inception_5a/pool
I0322 11:24:40.588928  9371 net.cpp:406] inception_5a/pool <- pool4/3x3_s2_pool4/3x3_s2_0_split_3
I0322 11:24:40.588932  9371 net.cpp:380] inception_5a/pool -> inception_5a/pool
I0322 11:24:40.588987  9371 net.cpp:122] Setting up inception_5a/pool
I0322 11:24:40.588994  9371 net.cpp:129] Top shape: 10 832 7 7 (407680)
I0322 11:24:40.588995  9371 net.cpp:137] Memory required for data: 534123520
I0322 11:24:40.588999  9371 layer_factory.hpp:77] Creating layer inception_5a/pool_proj
I0322 11:24:40.589005  9371 net.cpp:84] Creating Layer inception_5a/pool_proj
I0322 11:24:40.589009  9371 net.cpp:406] inception_5a/pool_proj <- inception_5a/pool
I0322 11:24:40.589012  9371 net.cpp:380] inception_5a/pool_proj -> inception_5a/pool_proj
I0322 11:24:40.590765  9371 net.cpp:122] Setting up inception_5a/pool_proj
I0322 11:24:40.590777  9371 net.cpp:129] Top shape: 10 128 7 7 (62720)
I0322 11:24:40.590795  9371 net.cpp:137] Memory required for data: 534374400
I0322 11:24:40.590800  9371 layer_factory.hpp:77] Creating layer inception_5a/relu_pool_proj
I0322 11:24:40.590804  9371 net.cpp:84] Creating Layer inception_5a/relu_pool_proj
I0322 11:24:40.590807  9371 net.cpp:406] inception_5a/relu_pool_proj <- inception_5a/pool_proj
I0322 11:24:40.590812  9371 net.cpp:367] inception_5a/relu_pool_proj -> inception_5a/pool_proj (in-place)
I0322 11:24:40.590971  9371 net.cpp:122] Setting up inception_5a/relu_pool_proj
I0322 11:24:40.590978  9371 net.cpp:129] Top shape: 10 128 7 7 (62720)
I0322 11:24:40.590981  9371 net.cpp:137] Memory required for data: 534625280
I0322 11:24:40.590983  9371 layer_factory.hpp:77] Creating layer inception_5a/output
I0322 11:24:40.590988  9371 net.cpp:84] Creating Layer inception_5a/output
I0322 11:24:40.590991  9371 net.cpp:406] inception_5a/output <- inception_5a/1x1
I0322 11:24:40.590996  9371 net.cpp:406] inception_5a/output <- inception_5a/3x3
I0322 11:24:40.591003  9371 net.cpp:406] inception_5a/output <- inception_5a/5x5
I0322 11:24:40.591006  9371 net.cpp:406] inception_5a/output <- inception_5a/pool_proj
I0322 11:24:40.591012  9371 net.cpp:380] inception_5a/output -> inception_5a/output
I0322 11:24:40.591044  9371 net.cpp:122] Setting up inception_5a/output
I0322 11:24:40.591050  9371 net.cpp:129] Top shape: 10 832 7 7 (407680)
I0322 11:24:40.591053  9371 net.cpp:137] Memory required for data: 536256000
I0322 11:24:40.591054  9371 layer_factory.hpp:77] Creating layer inception_5a/output_inception_5a/output_0_split
I0322 11:24:40.591059  9371 net.cpp:84] Creating Layer inception_5a/output_inception_5a/output_0_split
I0322 11:24:40.591061  9371 net.cpp:406] inception_5a/output_inception_5a/output_0_split <- inception_5a/output
I0322 11:24:40.591065  9371 net.cpp:380] inception_5a/output_inception_5a/output_0_split -> inception_5a/output_inception_5a/output_0_split_0
I0322 11:24:40.591069  9371 net.cpp:380] inception_5a/output_inception_5a/output_0_split -> inception_5a/output_inception_5a/output_0_split_1
I0322 11:24:40.591074  9371 net.cpp:380] inception_5a/output_inception_5a/output_0_split -> inception_5a/output_inception_5a/output_0_split_2
I0322 11:24:40.591078  9371 net.cpp:380] inception_5a/output_inception_5a/output_0_split -> inception_5a/output_inception_5a/output_0_split_3
I0322 11:24:40.591156  9371 net.cpp:122] Setting up inception_5a/output_inception_5a/output_0_split
I0322 11:24:40.591161  9371 net.cpp:129] Top shape: 10 832 7 7 (407680)
I0322 11:24:40.591166  9371 net.cpp:129] Top shape: 10 832 7 7 (407680)
I0322 11:24:40.591167  9371 net.cpp:129] Top shape: 10 832 7 7 (407680)
I0322 11:24:40.591171  9371 net.cpp:129] Top shape: 10 832 7 7 (407680)
I0322 11:24:40.591172  9371 net.cpp:137] Memory required for data: 542778880
I0322 11:24:40.591174  9371 layer_factory.hpp:77] Creating layer inception_5b/1x1
I0322 11:24:40.591182  9371 net.cpp:84] Creating Layer inception_5b/1x1
I0322 11:24:40.591184  9371 net.cpp:406] inception_5b/1x1 <- inception_5a/output_inception_5a/output_0_split_0
I0322 11:24:40.591189  9371 net.cpp:380] inception_5b/1x1 -> inception_5b/1x1
I0322 11:24:40.594491  9371 net.cpp:122] Setting up inception_5b/1x1
I0322 11:24:40.594504  9371 net.cpp:129] Top shape: 10 384 7 7 (188160)
I0322 11:24:40.594521  9371 net.cpp:137] Memory required for data: 543531520
I0322 11:24:40.594527  9371 layer_factory.hpp:77] Creating layer inception_5b/relu_1x1
I0322 11:24:40.594532  9371 net.cpp:84] Creating Layer inception_5b/relu_1x1
I0322 11:24:40.594535  9371 net.cpp:406] inception_5b/relu_1x1 <- inception_5b/1x1
I0322 11:24:40.594540  9371 net.cpp:367] inception_5b/relu_1x1 -> inception_5b/1x1 (in-place)
I0322 11:24:40.594701  9371 net.cpp:122] Setting up inception_5b/relu_1x1
I0322 11:24:40.594708  9371 net.cpp:129] Top shape: 10 384 7 7 (188160)
I0322 11:24:40.594710  9371 net.cpp:137] Memory required for data: 544284160
I0322 11:24:40.594713  9371 layer_factory.hpp:77] Creating layer inception_5b/3x3_reduce
I0322 11:24:40.594722  9371 net.cpp:84] Creating Layer inception_5b/3x3_reduce
I0322 11:24:40.594724  9371 net.cpp:406] inception_5b/3x3_reduce <- inception_5a/output_inception_5a/output_0_split_1
I0322 11:24:40.594729  9371 net.cpp:380] inception_5b/3x3_reduce -> inception_5b/3x3_reduce
I0322 11:24:40.596752  9371 net.cpp:122] Setting up inception_5b/3x3_reduce
I0322 11:24:40.596765  9371 net.cpp:129] Top shape: 10 192 7 7 (94080)
I0322 11:24:40.596781  9371 net.cpp:137] Memory required for data: 544660480
I0322 11:24:40.596786  9371 layer_factory.hpp:77] Creating layer inception_5b/relu_3x3_reduce
I0322 11:24:40.596791  9371 net.cpp:84] Creating Layer inception_5b/relu_3x3_reduce
I0322 11:24:40.596794  9371 net.cpp:406] inception_5b/relu_3x3_reduce <- inception_5b/3x3_reduce
I0322 11:24:40.596799  9371 net.cpp:367] inception_5b/relu_3x3_reduce -> inception_5b/3x3_reduce (in-place)
I0322 11:24:40.596962  9371 net.cpp:122] Setting up inception_5b/relu_3x3_reduce
I0322 11:24:40.596971  9371 net.cpp:129] Top shape: 10 192 7 7 (94080)
I0322 11:24:40.596973  9371 net.cpp:137] Memory required for data: 545036800
I0322 11:24:40.596976  9371 layer_factory.hpp:77] Creating layer inception_5b/3x3
I0322 11:24:40.596983  9371 net.cpp:84] Creating Layer inception_5b/3x3
I0322 11:24:40.596992  9371 net.cpp:406] inception_5b/3x3 <- inception_5b/3x3_reduce
I0322 11:24:40.596997  9371 net.cpp:380] inception_5b/3x3 -> inception_5b/3x3
I0322 11:24:40.602210  9371 net.cpp:122] Setting up inception_5b/3x3
I0322 11:24:40.602222  9371 net.cpp:129] Top shape: 10 384 7 7 (188160)
I0322 11:24:40.602239  9371 net.cpp:137] Memory required for data: 545789440
I0322 11:24:40.602244  9371 layer_factory.hpp:77] Creating layer inception_5b/relu_3x3
I0322 11:24:40.602250  9371 net.cpp:84] Creating Layer inception_5b/relu_3x3
I0322 11:24:40.602255  9371 net.cpp:406] inception_5b/relu_3x3 <- inception_5b/3x3
I0322 11:24:40.602259  9371 net.cpp:367] inception_5b/relu_3x3 -> inception_5b/3x3 (in-place)
I0322 11:24:40.602434  9371 net.cpp:122] Setting up inception_5b/relu_3x3
I0322 11:24:40.602443  9371 net.cpp:129] Top shape: 10 384 7 7 (188160)
I0322 11:24:40.602447  9371 net.cpp:137] Memory required for data: 546542080
I0322 11:24:40.602448  9371 layer_factory.hpp:77] Creating layer inception_5b/5x5_reduce
I0322 11:24:40.602458  9371 net.cpp:84] Creating Layer inception_5b/5x5_reduce
I0322 11:24:40.602460  9371 net.cpp:406] inception_5b/5x5_reduce <- inception_5a/output_inception_5a/output_0_split_2
I0322 11:24:40.602464  9371 net.cpp:380] inception_5b/5x5_reduce -> inception_5b/5x5_reduce
I0322 11:24:40.603994  9371 net.cpp:122] Setting up inception_5b/5x5_reduce
I0322 11:24:40.604007  9371 net.cpp:129] Top shape: 10 48 7 7 (23520)
I0322 11:24:40.604008  9371 net.cpp:137] Memory required for data: 546636160
I0322 11:24:40.604028  9371 layer_factory.hpp:77] Creating layer inception_5b/relu_5x5_reduce
I0322 11:24:40.604034  9371 net.cpp:84] Creating Layer inception_5b/relu_5x5_reduce
I0322 11:24:40.604038  9371 net.cpp:406] inception_5b/relu_5x5_reduce <- inception_5b/5x5_reduce
I0322 11:24:40.604043  9371 net.cpp:367] inception_5b/relu_5x5_reduce -> inception_5b/5x5_reduce (in-place)
I0322 11:24:40.604742  9371 net.cpp:122] Setting up inception_5b/relu_5x5_reduce
I0322 11:24:40.604753  9371 net.cpp:129] Top shape: 10 48 7 7 (23520)
I0322 11:24:40.604755  9371 net.cpp:137] Memory required for data: 546730240
I0322 11:24:40.604758  9371 layer_factory.hpp:77] Creating layer inception_5b/5x5
I0322 11:24:40.604766  9371 net.cpp:84] Creating Layer inception_5b/5x5
I0322 11:24:40.604770  9371 net.cpp:406] inception_5b/5x5 <- inception_5b/5x5_reduce
I0322 11:24:40.604775  9371 net.cpp:380] inception_5b/5x5 -> inception_5b/5x5
I0322 11:24:40.606737  9371 net.cpp:122] Setting up inception_5b/5x5
I0322 11:24:40.606750  9371 net.cpp:129] Top shape: 10 128 7 7 (62720)
I0322 11:24:40.606766  9371 net.cpp:137] Memory required for data: 546981120
I0322 11:24:40.606771  9371 layer_factory.hpp:77] Creating layer inception_5b/relu_5x5
I0322 11:24:40.606776  9371 net.cpp:84] Creating Layer inception_5b/relu_5x5
I0322 11:24:40.606781  9371 net.cpp:406] inception_5b/relu_5x5 <- inception_5b/5x5
I0322 11:24:40.606786  9371 net.cpp:367] inception_5b/relu_5x5 -> inception_5b/5x5 (in-place)
I0322 11:24:40.606947  9371 net.cpp:122] Setting up inception_5b/relu_5x5
I0322 11:24:40.606955  9371 net.cpp:129] Top shape: 10 128 7 7 (62720)
I0322 11:24:40.606957  9371 net.cpp:137] Memory required for data: 547232000
I0322 11:24:40.606959  9371 layer_factory.hpp:77] Creating layer inception_5b/pool
I0322 11:24:40.606964  9371 net.cpp:84] Creating Layer inception_5b/pool
I0322 11:24:40.606967  9371 net.cpp:406] inception_5b/pool <- inception_5a/output_inception_5a/output_0_split_3
I0322 11:24:40.606972  9371 net.cpp:380] inception_5b/pool -> inception_5b/pool
I0322 11:24:40.607028  9371 net.cpp:122] Setting up inception_5b/pool
I0322 11:24:40.607033  9371 net.cpp:129] Top shape: 10 832 7 7 (407680)
I0322 11:24:40.607036  9371 net.cpp:137] Memory required for data: 548862720
I0322 11:24:40.607038  9371 layer_factory.hpp:77] Creating layer inception_5b/pool_proj
I0322 11:24:40.607046  9371 net.cpp:84] Creating Layer inception_5b/pool_proj
I0322 11:24:40.607049  9371 net.cpp:406] inception_5b/pool_proj <- inception_5b/pool
I0322 11:24:40.607053  9371 net.cpp:380] inception_5b/pool_proj -> inception_5b/pool_proj
I0322 11:24:40.608857  9371 net.cpp:122] Setting up inception_5b/pool_proj
I0322 11:24:40.608870  9371 net.cpp:129] Top shape: 10 128 7 7 (62720)
I0322 11:24:40.608886  9371 net.cpp:137] Memory required for data: 549113600
I0322 11:24:40.608891  9371 layer_factory.hpp:77] Creating layer inception_5b/relu_pool_proj
I0322 11:24:40.608897  9371 net.cpp:84] Creating Layer inception_5b/relu_pool_proj
I0322 11:24:40.608901  9371 net.cpp:406] inception_5b/relu_pool_proj <- inception_5b/pool_proj
I0322 11:24:40.608904  9371 net.cpp:367] inception_5b/relu_pool_proj -> inception_5b/pool_proj (in-place)
I0322 11:24:40.609063  9371 net.cpp:122] Setting up inception_5b/relu_pool_proj
I0322 11:24:40.609071  9371 net.cpp:129] Top shape: 10 128 7 7 (62720)
I0322 11:24:40.609073  9371 net.cpp:137] Memory required for data: 549364480
I0322 11:24:40.609076  9371 layer_factory.hpp:77] Creating layer inception_5b/output
I0322 11:24:40.609087  9371 net.cpp:84] Creating Layer inception_5b/output
I0322 11:24:40.609091  9371 net.cpp:406] inception_5b/output <- inception_5b/1x1
I0322 11:24:40.609093  9371 net.cpp:406] inception_5b/output <- inception_5b/3x3
I0322 11:24:40.609097  9371 net.cpp:406] inception_5b/output <- inception_5b/5x5
I0322 11:24:40.609099  9371 net.cpp:406] inception_5b/output <- inception_5b/pool_proj
I0322 11:24:40.609103  9371 net.cpp:380] inception_5b/output -> inception_5b/output
I0322 11:24:40.609138  9371 net.cpp:122] Setting up inception_5b/output
I0322 11:24:40.609141  9371 net.cpp:129] Top shape: 10 1024 7 7 (501760)
I0322 11:24:40.609143  9371 net.cpp:137] Memory required for data: 551371520
I0322 11:24:40.609145  9371 layer_factory.hpp:77] Creating layer pool5/7x7_s1
I0322 11:24:40.609151  9371 net.cpp:84] Creating Layer pool5/7x7_s1
I0322 11:24:40.609153  9371 net.cpp:406] pool5/7x7_s1 <- inception_5b/output
I0322 11:24:40.609158  9371 net.cpp:380] pool5/7x7_s1 -> pool5/7x7_s1
I0322 11:24:40.609341  9371 net.cpp:122] Setting up pool5/7x7_s1
I0322 11:24:40.609349  9371 net.cpp:129] Top shape: 10 1024 1 1 (10240)
I0322 11:24:40.609352  9371 net.cpp:137] Memory required for data: 551412480
I0322 11:24:40.609354  9371 layer_factory.hpp:77] Creating layer pool5/drop_7x7_s1
I0322 11:24:40.609359  9371 net.cpp:84] Creating Layer pool5/drop_7x7_s1
I0322 11:24:40.609362  9371 net.cpp:406] pool5/drop_7x7_s1 <- pool5/7x7_s1
I0322 11:24:40.609365  9371 net.cpp:367] pool5/drop_7x7_s1 -> pool5/7x7_s1 (in-place)
I0322 11:24:40.609397  9371 net.cpp:122] Setting up pool5/drop_7x7_s1
I0322 11:24:40.609401  9371 net.cpp:129] Top shape: 10 1024 1 1 (10240)
I0322 11:24:40.609403  9371 net.cpp:137] Memory required for data: 551453440
I0322 11:24:40.609406  9371 layer_factory.hpp:77] Creating layer loss3/classifier
I0322 11:24:40.609413  9371 net.cpp:84] Creating Layer loss3/classifier
I0322 11:24:40.609416  9371 net.cpp:406] loss3/classifier <- pool5/7x7_s1
I0322 11:24:40.609419  9371 net.cpp:380] loss3/classifier -> loss3/classifier
I0322 11:24:40.614599  9371 net.cpp:122] Setting up loss3/classifier
I0322 11:24:40.614610  9371 net.cpp:129] Top shape: 10 1000 (10000)
I0322 11:24:40.614627  9371 net.cpp:137] Memory required for data: 551493440
I0322 11:24:40.614632  9371 layer_factory.hpp:77] Creating layer prob
I0322 11:24:40.614639  9371 net.cpp:84] Creating Layer prob
I0322 11:24:40.614641  9371 net.cpp:406] prob <- loss3/classifier
I0322 11:24:40.614646  9371 net.cpp:380] prob -> prob
I0322 11:24:40.615443  9371 net.cpp:122] Setting up prob
I0322 11:24:40.615455  9371 net.cpp:129] Top shape: 10 1000 (10000)
I0322 11:24:40.615473  9371 net.cpp:137] Memory required for data: 551533440
I0322 11:24:40.615475  9371 net.cpp:200] prob does not need backward computation.
I0322 11:24:40.615478  9371 net.cpp:200] loss3/classifier does not need backward computation.
I0322 11:24:40.615480  9371 net.cpp:200] pool5/drop_7x7_s1 does not need backward computation.
I0322 11:24:40.615483  9371 net.cpp:200] pool5/7x7_s1 does not need backward computation.
…
