…
snapshot_prefix: "./snapshot/douyu_2700_train"
test_initialization: false
average_loss: 20
iter_size: 1
I0322 23:15:52.823748 11574 solver.cpp:77] Creating training net from train_net file: trainval.prototxt
I0322 23:15:52.826316 11574 net.cpp:51] Initializing net from parameters: 
state {
  phase: TRAIN
}
layer {
  name: "data"
  type: "Python"
  top: "data"
  top: "sem"
  python_param {
    module: "data_layers"
    layer: "Douyu1000SegDataLayer"
    param_str: "{\'data_dir\': \'../../data/douyu_2700\', \'seed\': 1337, \'split\': \'trainval\'}"
  }
}
layer {
  name: "conv1/7x7_s2"
  type: "Convolution"
  bottom: "data"
  top: "conv1/7x7_s2"
  param {
    lr_mult: 1
    decay_mult: 1
  }
  param {
    lr_mult: 2
    decay_mult: 0
  }
  convolution_param {
    num_output: 64
    pad: 9
    kernel_size: 7
    stride: 2
    weight_filler {
      type: "xavier"
    }
    bias_filler {
      type: "constant"
      value: 0.2
    }
  }
}
layer {
  name: "conv1/relu_7x7"
  type: "ReLU"
  bottom: "conv1/7x7_s2"
  top: "conv1/7x7_s2"
}
layer {
  name: "pool1/3x3_s2"
  type: "Pooling"
  bottom: "conv1/7x7_s2"
  top: "pool1/3x3_s2"
  pooling_param {
    pool: MAX
    kernel_size: 3
    stride: 2
  }
}
layer {
  name: "pool1/norm1"
  type: "LRN"
  bottom: "pool1/3x3_s2"
  top: "pool1/norm1"
  lrn_param {
    local_size: 5
    alpha: 0.0001
    beta: 0.75
  }
}
layer {
  name: "conv2/3x3_reduce"
  type: "Convolution"
  bottom: "pool1/norm1"
  top: "conv2/3x3_reduce"
  param {
    lr_mult: 1
    decay_mult: 1
  }
  param {
    lr_mult: 2
    decay_mult: 0
  }
  convolution_param {
    num_output: 64
    kernel_size: 1
    weight_filler {
      type: "xavier"
    }
    bias_filler {
      type: "constant"
      value: 0.2
    }
  }
}
layer {
  name: "conv2/relu_3x3_reduce"
  type: "ReLU"
  bottom: "conv2/3x3_reduce"
  top: "conv2/3x3_reduce"
}
layer {
  name: "conv2/3x3"
  type: "Convolution"
  bottom: "conv2/3x3_reduce"
  top: "conv2/3x3"
  param {
    lr_mult: 1
    decay_mult: 1
  }
  param {
    lr_mult: 2
    decay_mult: 0
  }
  convolution_param {
    num_output: 192
    pad: 1
    kernel_size: 3
    weight_filler {
      type: "xavier"
    }
    bias_filler {
      type: "constant"
      value: 0.2
    }
  }
}
layer {
  name: "conv2/relu_3x3"
  type: "ReLU"
  bottom: "conv2/3x3"
  top: "conv2/3x3"
}
layer {
  name: "conv2/norm2"
  type: "LRN"
  bottom: "conv2/3x3"
  top: "conv2/norm2"
  lrn_param {
    local_size: 5
    alpha: 0.0001
    beta: 0.75
  }
}
layer {
  name: "pool2/3x3_s2"
  type: "Pooling"
  bottom: "conv2/norm2"
  top: "pool2/3x3_s2"
  pooling_param {
    pool: MAX
    kernel_size: 3
    stride: 2
  }
}
layer {
  name: "inception_3a/1x1"
  type: "Convolution"
  bottom: "pool2/3x3_s2"
  top: "inception_3a/1x1"
  param {
    lr_mult: 1
    decay_mult: 1
  }
  param {
    lr_mult: 2
    decay_mult: 0
  }
  convolution_param {
    num_output: 64
    kernel_size: 1
    weight_filler {
      type: "xavier"
    }
    bias_filler {
      type: "constant"
      value: 0.2
    }
  }
}
layer {
  name: "inception_3a/relu_1x1"
  type: "ReLU"
  bottom: "inception_3a/1x1"
  top: "inception_3a/1x1"
}
layer {
  name: "inception_3a/3x3_reduce"
  type: "Convolution"
  bottom: "pool2/3x3_s2"
  top: "inception_3a/3x3_reduce"
  param {
    lr_mult: 1
    decay_mult: 1
  }
  param {
    lr_mult: 2
    decay_mult: 0
  }
  convolution_param {
    num_output: 96
    kernel_size: 1
    weight_filler {
      type: "xavier"
    }
    bias_filler {
      type: "constant"
      value: 0.2
    }
  }
}
layer {
  name: "inception_3a/relu_3x3_reduce"
  type: "ReLU"
  bottom: "inception_3a/3x3_reduce"
  top: "inception_3a/3x3_reduce"
}
layer {
  name: "inception_3a/3x3"
  type: "Convolution"
  bottom: "inception_3a/3x3_reduce"
  top: "inception_3a/3x3"
  param {
    lr_mult: 1
    decay_mult: 1
  }
  param {
    lr_mult: 2
    decay_mult: 0
  }
  convolution_param {
    num_output: 128
    pad: 1
    kernel_size: 3
    weight_filler {
      type: "xavier"
    }
    bias_filler {
      type: "constant"
      value: 0.2
    }
  }
}
layer {
  name: "inception_3a/relu_3x3"
  type: "ReLU"
  bottom: "inception_3a/3x3"
  top: "inception_3a/3x3"
}
layer {
  name: "inception_3a/5x5_reduce"
  type: "Convolution"
  bottom: "pool2/3x3_s2"
  top: "inception_3a/5x5_reduce"
  param {
    lr_mult: 1
    decay_mult: 1
  }
  param {
    lr_mult: 2
    decay_mult: 0
  }
  convolution_param {
    num_output: 16
    kernel_size: 1
    weight_filler {
      type: "xavier"
    }
    bias_filler {
      type: "constant"
      value: 0.2
    }
  }
}
layer {
  name: "inception_3a/relu_5x5_reduce"
  type: "ReLU"
  bottom: "inception_3a/5x5_reduce"
  top: "inception_3a/5x5_reduce"
}
layer {
  name: "inception_3a/5x5"
  type: "Convolution"
  bottom: "inception_3a/5x5_reduce"
  top: "inception_3a/5x5"
  param {
    lr_mult: 1
    decay_mult: 1
  }
  param {
    lr_mult: 2
    decay_mult: 0
  }
  convolution_param {
    num_output: 32
    pad: 2
    kernel_size: 5
    weight_filler {
      type: "xavier"
    }
    bias_filler {
      type: "constant"
      value: 0.2
    }
  }
}
layer {
  name: "inception_3a/relu_5x5"
  type: "ReLU"
  bottom: "inception_3a/5x5"
  top: "inception_3a/5x5"
}
layer {
  name: "inception_3a/pool"
  type: "Pooling"
  bottom: "pool2/3x3_s2"
  top: "inception_3a/pool"
  pooling_param {
    pool: MAX
    kernel_size: 3
    stride: 1
    pad: 1
  }
}
layer {
  name: "inception_3a/pool_proj"
  type: "Convolution"
  bottom: "inception_3a/pool"
  top: "inception_3a/pool_proj"
  param {
    lr_mult: 1
    decay_mult: 1
  }
  param {
    lr_mult: 2
    decay_mult: 0
  }
  convolution_param {
    num_output: 32
    kernel_size: 1
    weight_filler {
      type: "xavier"
    }
    bias_filler {
      type: "constant"
      value: 0.2
    }
  }
}
layer {
  name: "inception_3a/relu_pool_proj"
  type: "ReLU"
  bottom: "inception_3a/pool_proj"
  top: "inception_3a/pool_proj"
}
layer {
  name: "inception_3a/output"
  type: "Concat"
  bottom: "inception_3a/1x1"
  bottom: "inception_3a/3x3"
  bottom: "inception_3a/5x5"
  bottom: "inception_3a/pool_proj"
  top: "inception_3a/output"
}
layer {
  name: "inception_3b/1x1"
  type: "Convolution"
  bottom: "inception_3a/output"
  top: "inception_3b/1x1"
  param {
    lr_mult: 1
    decay_mult: 1
  }
  param {
    lr_mult: 2
    decay_mult: 0
  }
  convolution_param {
    num_output: 128
    kernel_size: 1
    weight_filler {
      type: "xavier"
    }
    bias_filler {
      type: "constant"
      value: 0.2
    }
  }
}
layer {
  name: "inception_3b/relu_1x1"
  type: "ReLU"
  bottom: "inception_3b/1x1"
  top: "inception_3b/1x1"
}
layer {
  name: "inception_3b/3x3_reduce"
  type: "Convolution"
  bottom: "inception_3a/output"
  top: "inception_3b/3x3_reduce"
  param {
    lr_mult: 1
    decay_mult: 1
  }
  param {
    lr_mult: 2
    decay_mult: 0
  }
  convolution_param {
    num_output: 128
    kernel_size: 1
    weight_filler {
      type: "xavier"
    }
    bias_filler {
      type: "constant"
      value: 0.2
    }
  }
}
layer {
  name: "inception_3b/relu_3x3_reduce"
  type: "ReLU"
  bottom: "inception_3b/3x3_reduce"
  top: "inception_3b/3x3_reduce"
}
layer {
  name: "inception_3b/3x3"
  type: "Convolution"
  bottom: "inception_3b/3x3_reduce"
  top: "inception_3b/3x3"
  param {
    lr_mult: 1
    decay_mult: 1
  }
  param {
    lr_mult: 2
    decay_mult: 0
  }
  convolution_param {
    num_output: 192
    pad: 1
    kernel_size: 3
    weight_filler {
      type: "xavier"
    }
    bias_filler {
      type: "constant"
      value: 0.2
    }
  }
}
layer {
  name: "inception_3b/relu_3x3"
  type: "ReLU"
  bottom: "inception_3b/3x3"
  top: "inception_3b/3x3"
}
layer {
  name: "inception_3b/5x5_reduce"
  type: "Convolution"
  bottom: "inception_3a/output"
  top: "inception_3b/5x5_reduce"
  param {
    lr_mult: 1
    decay_mult: 1
  }
  param {
    lr_mult: 2
    decay_mult: 0
  }
  convolution_param {
    num_output: 32
    kernel_size: 1
    weight_filler {
      type: "xavier"
    }
    bias_filler {
      type: "constant"
      value: 0.2
    }
  }
}
layer {
  name: "inception_3b/relu_5x5_reduce"
  type: "ReLU"
  bottom: "inception_3b/5x5_reduce"
  top: "inception_3b/5x5_reduce"
}
layer {
  name: "inception_3b/5x5"
  type: "Convolution"
  bottom: "inception_3b/5x5_reduce"
  top: "inception_3b/5x5"
  param {
    lr_mult: 1
    decay_mult: 1
  }
  param {
    lr_mult: 2
    decay_mult: 0
  }
  convolution_param {
    num_output: 96
    pad: 2
    kernel_size: 5
    weight_filler {
      type: "xavier"
    }
    bias_filler {
      type: "constant"
      value: 0.2
    }
  }
}
layer {
  name: "inception_3b/relu_5x5"
  type: "ReLU"
  bottom: "inception_3b/5x5"
  top: "inception_3b/5x5"
}
layer {
  name: "inception_3b/pool"
  type: "Pooling"
  bottom: "inception_3a/output"
  top: "inception_3b/pool"
  pooling_param {
    pool: MAX
    kernel_size: 3
    stride: 1
    pad: 1
  }
}
layer {
  name: "inception_3b/pool_proj"
  type: "Convolution"
  bottom: "inception_3b/pool"
  top: "inception_3b/pool_proj"
  param {
    lr_mult: 1
    decay_mult: 1
  }
  param {
    lr_mult: 2
    decay_mult: 0
  }
  convolution_param {
    num_output: 64
    kernel_size: 1
    weight_filler {
      type: "xavier"
    }
    bias_filler {
      type: "constant"
      value: 0.2
    }
  }
}
layer {
  name: "inception_3b/relu_pool_proj"
  type: "ReLU"
  bottom: "inception_3b/pool_proj"
  top: "inception_3b/pool_proj"
}
layer {
  name: "inception_3b/output"
  type: "Concat"
  bottom: "inception_3b/1x1"
  bottom: "inception_3b/3x3"
  bottom: "inception_3b/5x5"
  bottom: "inception_3b/pool_proj"
  top: "inception_3b/output"
}
layer {
  name: "pool3/3x3_s2"
  type: "Pooling"
  bottom: "inception_3b/output"
  top: "pool3/3x3_s2"
  pooling_param {
    pool: MAX
    kernel_size: 3
    stride: 2
  }
}
layer {
  name: "inception_4a/1x1"
  type: "Convolution"
  bottom: "pool3/3x3_s2"
  top: "inception_4a/1x1"
  param {
    lr_mult: 1
    decay_mult: 1
  }
  param {
    lr_mult: 2
    decay_mult: 0
  }
  convolution_param {
    num_output: 192
    kernel_size: 1
    weight_filler {
      type: "xavier"
    }
    bias_filler {
      type: "constant"
      value: 0.2
    }
  }
}
layer {
  name: "inception_4a/relu_1x1"
  type: "ReLU"
  bottom: "inception_4a/1x1"
  top: "inception_4a/1x1"
}
layer {
  name: "inception_4a/3x3_reduce"
  type: "Convolution"
  bottom: "pool3/3x3_s2"
  top: "inception_4a/3x3_reduce"
  param {
    lr_mult: 1
    decay_mult: 1
  }
  param {
    lr_mult: 2
    decay_mult: 0
  }
  convolution_param {
    num_output: 96
    kernel_size: 1
    weight_filler {
      type: "xavier"
    }
    bias_filler {
      type: "constant"
      value: 0.2
    }
  }
}
layer {
  name: "inception_4a/relu_3x3_reduce"
  type: "ReLU"
  bottom: "inception_4a/3x3_reduce"
  top: "inception_4a/3x3_reduce"
}
layer {
  name: "inception_4a/3x3"
  type: "Convolution"
  bottom: "inception_4a/3x3_reduce"
  top: "inception_4a/3x3"
  param {
    lr_mult: 1
    decay_mult: 1
  }
  param {
    lr_mult: 2
    decay_mult: 0
  }
  convolution_param {
    num_output: 208
    pad: 1
    kernel_size: 3
    weight_filler {
      type: "xavier"
    }
    bias_filler {
      type: "constant"
      value: 0.2
    }
  }
}
layer {
  name: "inception_4a/relu_3x3"
  type: "ReLU"
  bottom: "inception_4a/3x3"
  top: "inception_4a/3x3"
}
layer {
  name: "inception_4a/5x5_reduce"
  type: "Convolution"
  bottom: "pool3/3x3_s2"
  top: "inception_4a/5x5_reduce"
  param {
    lr_mult: 1
    decay_mult: 1
  }
  param {
    lr_mult: 2
    decay_mult: 0
  }
  convolution_param {
    num_output: 16
    kernel_size: 1
    weight_filler {
      type: "xavier"
    }
    bias_filler {
      type: "constant"
      value: 0.2
    }
  }
}
layer {
  name: "inception_4a/relu_5x5_reduce"
  type: "ReLU"
  bottom: "inception_4a/5x5_reduce"
  top: "inception_4a/5x5_reduce"
}
layer {
  name: "inception_4a/5x5"
  type: "Convolution"
  bottom: "inception_4a/5x5_reduce"
  top: "inception_4a/5x5"
  param {
    lr_mult: 1
    decay_mult: 1
  }
  param {
    lr_mult: 2
    decay_mult: 0
  }
  convolution_param {
    num_output: 48
    pad: 2
    kernel_size: 5
    weight_filler {
      type: "xavier"
    }
    bias_filler {
      type: "constant"
      value: 0.2
    }
  }
}
layer {
  name: "inception_4a/relu_5x5"
  type: "ReLU"
  bottom: "inception_4a/5x5"
  top: "inception_4a/5x5"
}
layer {
  name: "inception_4a/pool"
  type: "Pooling"
  bottom: "pool3/3x3_s2"
  top: "inception_4a/pool"
  pooling_param {
    pool: MAX
    kernel_size: 3
    stride: 1
    pad: 1
  }
}
layer {
  name: "inception_4a/pool_proj"
  type: "Convolution"
  bottom: "inception_4a/pool"
  top: "inception_4a/pool_proj"
  param {
    lr_mult: 1
    decay_mult: 1
  }
  param {
    lr_mult: 2
    decay_mult: 0
  }
  convolution_param {
    num_output: 64
    kernel_size: 1
    weight_filler {
      type: "xavier"
    }
    bias_filler {
      type: "constant"
      value: 0.2
    }
  }
}
layer {
  name: "inception_4a/relu_pool_proj"
  type: "ReLU"
  bottom: "inception_4a/pool_proj"
  top: "inception_4a/pool_proj"
}
layer {
  name: "inception_4a/output"
  type: "Concat"
  bottom: "inception_4a/1x1"
  bottom: "inception_4a/3x3"
  bottom: "inception_4a/5x5"
  bottom: "inception_4a/pool_proj"
  top: "inception_4a/output"
}
layer {
  name: "inception_4b/1x1"
  type: "Convolution"
  bottom: "inception_4a/output"
  top: "inception_4b/1x1"
  param {
    lr_mult: 1
    decay_mult: 1
  }
  param {
    lr_mult: 2
    decay_mult: 0
  }
  convolution_param {
    num_output: 160
    kernel_size: 1
    weight_filler {
      type: "xavier"
    }
    bias_filler {
      type: "constant"
      value: 0.2
    }
  }
}
layer {
  name: "inception_4b/relu_1x1"
  type: "ReLU"
  bottom: "inception_4b/1x1"
  top: "inception_4b/1x1"
}
layer {
  name: "inception_4b/3x3_reduce"
  type: "Convolution"
  bottom: "inception_4a/output"
  top: "inception_4b/3x3_reduce"
  param {
    lr_mult: 1
    decay_mult: 1
  }
  param {
    lr_mult: 2
    decay_mult: 0
  }
  convolution_param {
    num_output: 112
    kernel_size: 1
    weight_filler {
      type: "xavier"
    }
    bias_filler {
      type: "constant"
      value: 0.2
    }
  }
}
layer {
  name: "inception_4b/relu_3x3_reduce"
  type: "ReLU"
  bottom: "inception_4b/3x3_reduce"
  top: "inception_4b/3x3_reduce"
}
layer {
  name: "inception_4b/3x3"
  type: "Convolution"
  bottom: "inception_4b/3x3_reduce"
  top: "inception_4b/3x3"
  param {
    lr_mult: 1
    decay_mult: 1
  }
  param {
    lr_mult: 2
    decay_mult: 0
  }
  convolution_param {
    num_output: 224
    pad: 1
    kernel_size: 3
    weight_filler {
      type: "xavier"
    }
    bias_filler {
      type: "constant"
      value: 0.2
    }
  }
}
layer {
  name: "inception_4b/relu_3x3"
  type: "ReLU"
  bottom: "inception_4b/3x3"
  top: "inception_4b/3x3"
}
layer {
  name: "inception_4b/5x5_reduce"
  type: "Convolution"
  bottom: "inception_4a/output"
  top: "inception_4b/5x5_reduce"
  param {
    lr_mult: 1
    decay_mult: 1
  }
  param {
    lr_mult: 2
    decay_mult: 0
  }
  convolution_param {
    num_output: 24
    kernel_size: 1
    weight_filler {
      type: "xavier"
    }
    bias_filler {
      type: "constant"
      value: 0.2
    }
  }
}
layer {
  name: "inception_4b/relu_5x5_reduce"
  type: "ReLU"
  bottom: "inception_4b/5x5_reduce"
  top: "inception_4b/5x5_reduce"
}
layer {
  name: "inception_4b/5x5"
  type: "Convolution"
  bottom: "inception_4b/5x5_reduce"
  top: "inception_4b/5x5"
  param {
    lr_mult: 1
    decay_mult: 1
  }
  param {
    lr_mult: 2
    decay_mult: 0
  }
  convolution_param {
    num_output: 64
    pad: 2
    kernel_size: 5
    weight_filler {
      type: "xavier"
    }
    bias_filler {
      type: "constant"
      value: 0.2
    }
  }
}
layer {
  name: "inception_4b/relu_5x5"
  type: "ReLU"
  bottom: "inception_4b/5x5"
  top: "inception_4b/5x5"
}
layer {
  name: "inception_4b/pool"
  type: "Pooling"
  bottom: "inception_4a/output"
  top: "inception_4b/pool"
  pooling_param {
    pool: MAX
    kernel_size: 3
    stride: 1
    pad: 1
  }
}
layer {
  name: "inception_4b/pool_proj"
  type: "Convolution"
  bottom: "inception_4b/pool"
  top: "inception_4b/pool_proj"
  param {
    lr_mult: 1
    decay_mult: 1
  }
  param {
    lr_mult: 2
    decay_mult: 0
  }
  convolution_param {
    num_output: 64
    kernel_size: 1
    weight_filler {
      type: "xavier"
    }
    bias_filler {
      type: "constant"
      value: 0.2
    }
  }
}
layer {
  name: "inception_4b/relu_pool_proj"
  type: "ReLU"
  bottom: "inception_4b/pool_proj"
  top: "inception_4b/pool_proj"
}
layer {
  name: "inception_4b/output"
  type: "Concat"
  bottom: "inception_4b/1x1"
  bottom: "inception_4b/3x3"
  bottom: "inception_4b/5x5"
  bottom: "inception_4b/pool_proj"
  top: "inception_4b/output"
}
layer {
  name: "inception_4c/1x1"
  type: "Convolution"
  bottom: "inception_4b/output"
  top: "inception_4c/1x1"
  param {
    lr_mult: 1
    decay_mult: 1
  }
  param {
    lr_mult: 2
    decay_mult: 0
  }
  convolution_param {
    num_output: 128
    kernel_size: 1
    weight_filler {
      type: "xavier"
    }
    bias_filler {
      type: "constant"
      value: 0.2
    }
  }
}
layer {
  name: "inception_4c/relu_1x1"
  type: "ReLU"
  bottom: "inception_4c/1x1"
  top: "inception_4c/1x1"
}
layer {
  name: "inception_4c/3x3_reduce"
  type: "Convolution"
  bottom: "inception_4b/output"
  top: "inception_4c/3x3_reduce"
  param {
    lr_mult: 1
    decay_mult: 1
  }
  param {
    lr_mult: 2
    decay_mult: 0
  }
  convolution_param {
    num_output: 128
    kernel_size: 1
    weight_filler {
      type: "xavier"
    }
    bias_filler {
      type: "constant"
      value: 0.2
    }
  }
}
layer {
  name: "inception_4c/relu_3x3_reduce"
  type: "ReLU"
  bottom: "inception_4c/3x3_reduce"
  top: "inception_4c/3x3_reduce"
}
layer {
  name: "inception_4c/3x3"
  type: "Convolution"
  bottom: "inception_4c/3x3_reduce"
  top: "inception_4c/3x3"
  param {
    lr_mult: 1
    decay_mult: 1
  }
  param {
    lr_mult: 2
    decay_mult: 0
  }
  convolution_param {
    num_output: 256
    pad: 1
    kernel_size: 3
    weight_filler {
      type: "xavier"
    }
    bias_filler {
      type: "constant"
      value: 0.2
    }
  }
}
layer {
  name: "inception_4c/relu_3x3"
  type: "ReLU"
  bottom: "inception_4c/3x3"
  top: "inception_4c/3x3"
}
layer {
  name: "inception_4c/5x5_reduce"
  type: "Convolution"
  bottom: "inception_4b/output"
  top: "inception_4c/5x5_reduce"
  param {
    lr_mult: 1
    decay_mult: 1
  }
  param {
    lr_mult: 2
    decay_mult: 0
  }
  convolution_param {
    num_output: 24
    kernel_size: 1
    weight_filler {
      type: "xavier"
    }
    bias_filler {
      type: "constant"
      value: 0.2
    }
  }
}
layer {
  name: "inception_4c/relu_5x5_reduce"
  type: "ReLU"
  bottom: "inception_4c/5x5_reduce"
  top: "inception_4c/5x5_reduce"
}
layer {
  name: "inception_4c/5x5"
  type: "Convolution"
  bottom: "inception_4c/5x5_reduce"
  top: "inception_4c/5x5"
  param {
    lr_mult: 1
    decay_mult: 1
  }
  param {
    lr_mult: 2
    decay_mult: 0
  }
  convolution_param {
    num_output: 64
    pad: 2
    kernel_size: 5
    weight_filler {
      type: "xavier"
    }
    bias_filler {
      type: "constant"
      value: 0.2
    }
  }
}
layer {
  name: "inception_4c/relu_5x5"
  type: "ReLU"
  bottom: "inception_4c/5x5"
  top: "inception_4c/5x5"
}
layer {
  name: "inception_4c/pool"
  type: "Pooling"
  bottom: "inception_4b/output"
  top: "inception_4c/pool"
  pooling_param {
    pool: MAX
    kernel_size: 3
    stride: 1
    pad: 1
  }
}
layer {
  name: "inception_4c/pool_proj"
  type: "Convolution"
  bottom: "inception_4c/pool"
  top: "inception_4c/pool_proj"
  param {
    lr_mult: 1
    decay_mult: 1
  }
  param {
    lr_mult: 2
    decay_mult: 0
  }
  convolution_param {
    num_output: 64
    kernel_size: 1
    weight_filler {
      type: "xavier"
    }
    bias_filler {
      type: "constant"
      value: 0.2
    }
  }
}
layer {
  name: "inception_4c/relu_pool_proj"
  type: "ReLU"
  bottom: "inception_4c/pool_proj"
  top: "inception_4c/pool_proj"
}
layer {
  name: "inception_4c/output"
  type: "Concat"
  bottom: "inception_4c/1x1"
  bottom: "inception_4c/3x3"
  bottom: "inception_4c/5x5"
  bottom: "inception_4c/pool_proj"
  top: "inception_4c/output"
}
layer {
  name: "inception_4d/1x1"
  type: "Convolution"
  bottom: "inception_4c/output"
  top: "inception_4d/1x1"
  param {
    lr_mult: 1
    decay_mult: 1
  }
  param {
    lr_mult: 2
    decay_mult: 0
  }
  convolution_param {
    num_output: 112
    kernel_size: 1
    weight_filler {
      type: "xavier"
    }
    bias_filler {
      type: "constant"
      value: 0.2
    }
  }
}
layer {
  name: "inception_4d/relu_1x1"
  type: "ReLU"
  bottom: "inception_4d/1x1"
  top: "inception_4d/1x1"
}
layer {
  name: "inception_4d/3x3_reduce"
  type: "Convolution"
  bottom: "inception_4c/output"
  top: "inception_4d/3x3_reduce"
  param {
    lr_mult: 1
    decay_mult: 1
  }
  param {
    lr_mult: 2
    decay_mult: 0
  }
  convolution_param {
    num_output: 144
    kernel_size: 1
    weight_filler {
      type: "xavier"
    }
    bias_filler {
      type: "constant"
      value: 0.2
    }
  }
}
layer {
  name: "inception_4d/relu_3x3_reduce"
  type: "ReLU"
  bottom: "inception_4d/3x3_reduce"
  top: "inception_4d/3x3_reduce"
}
layer {
  name: "inception_4d/3x3"
  type: "Convolution"
  bottom: "inception_4d/3x3_reduce"
  top: "inception_4d/3x3"
  param {
    lr_mult: 1
    decay_mult: 1
  }
  param {
    lr_mult: 2
    decay_mult: 0
  }
  convolution_param {
    num_output: 288
    pad: 1
    kernel_size: 3
    weight_filler {
      type: "xavier"
    }
    bias_filler {
      type: "constant"
      value: 0.2
    }
  }
}
layer {
  name: "inception_4d/relu_3x3"
  type: "ReLU"
  bottom: "inception_4d/3x3"
  top: "inception_4d/3x3"
}
layer {
  name: "inception_4d/5x5_reduce"
  type: "Convolution"
  bottom: "inception_4c/output"
  top: "inception_4d/5x5_reduce"
  param {
    lr_mult: 1
    decay_mult: 1
  }
  param {
    lr_mult: 2
    decay_mult: 0
  }
  convolution_param {
    num_output: 32
    kernel_size: 1
    weight_filler {
      type: "xavier"
    }
    bias_filler {
      type: "constant"
      value: 0.2
    }
  }
}
layer {
  name: "inception_4d/relu_5x5_reduce"
  type: "ReLU"
  bottom: "inception_4d/5x5_reduce"
  top: "inception_4d/5x5_reduce"
}
layer {
  name: "inception_4d/5x5"
  type: "Convolution"
  bottom: "inception_4d/5x5_reduce"
  top: "inception_4d/5x5"
  param {
    lr_mult: 1
    decay_mult: 1
  }
  param {
    lr_mult: 2
    decay_mult: 0
  }
  convolution_param {
    num_output: 64
    pad: 2
    kernel_size: 5
    weight_filler {
      type: "xavier"
    }
    bias_filler {
      type: "constant"
      value: 0.2
    }
  }
}
layer {
  name: "inception_4d/relu_5x5"
  type: "ReLU"
  bottom: "inception_4d/5x5"
  top: "inception_4d/5x5"
}
layer {
  name: "inception_4d/pool"
  type: "Pooling"
  bottom: "inception_4c/output"
  top: "inception_4d/pool"
  pooling_param {
    pool: MAX
    kernel_size: 3
    stride: 1
    pad: 1
  }
}
layer {
  name: "inception_4d/pool_proj"
  type: "Convolution"
  bottom: "inception_4d/pool"
  top: "inception_4d/pool_proj"
  param {
    lr_mult: 1
    decay_mult: 1
  }
  param {
    lr_mult: 2
    decay_mult: 0
  }
  convolution_param {
    num_output: 64
    kernel_size: 1
    weight_filler {
      type: "xavier"
    }
    bias_filler {
      type: "constant"
      value: 0.2
    }
  }
}
layer {
  name: "inception_4d/relu_pool_proj"
  type: "ReLU"
  bottom: "inception_4d/pool_proj"
  top: "inception_4d/pool_proj"
}
layer {
  name: "inception_4d/output"
  type: "Concat"
  bottom: "inception_4d/1x1"
  bottom: "inception_4d/3x3"
  bottom: "inception_4d/5x5"
  bottom: "inception_4d/pool_proj"
  top: "inception_4d/output"
}
layer {
  name: "inception_4e/1x1"
  type: "Convolution"
  bottom: "inception_4d/output"
  top: "inception_4e/1x1"
  param {
    lr_mult: 1
    decay_mult: 1
  }
  param {
    lr_mult: 2
    decay_mult: 0
  }
  convolution_param {
    num_output: 256
    kernel_size: 1
    weight_filler {
      type: "xavier"
    }
    bias_filler {
      type: "constant"
      value: 0.2
    }
  }
}
layer {
  name: "inception_4e/relu_1x1"
  type: "ReLU"
  bottom: "inception_4e/1x1"
  top: "inception_4e/1x1"
}
layer {
  name: "inception_4e/3x3_reduce"
  type: "Convolution"
  bottom: "inception_4d/output"
  top: "inception_4e/3x3_reduce"
  param {
    lr_mult: 1
    decay_mult: 1
  }
  param {
    lr_mult: 2
    decay_mult: 0
  }
  convolution_param {
    num_output: 160
    kernel_size: 1
    weight_filler {
      type: "xavier"
    }
    bias_filler {
      type: "constant"
      value: 0.2
    }
  }
}
layer {
  name: "inception_4e/relu_3x3_reduce"
  type: "ReLU"
  bottom: "inception_4e/3x3_reduce"
  top: "inception_4e/3x3_reduce"
}
layer {
  name: "inception_4e/3x3"
  type: "Convolution"
  bottom: "inception_4e/3x3_reduce"
  top: "inception_4e/3x3"
  param {
    lr_mult: 1
    decay_mult: 1
  }
  param {
    lr_mult: 2
    decay_mult: 0
  }
  convolution_param {
    num_output: 320
    pad: 1
    kernel_size: 3
    weight_filler {
      type: "xavier"
    }
    bias_filler {
      type: "constant"
      value: 0.2
    }
  }
}
layer {
  name: "inception_4e/relu_3x3"
  type: "ReLU"
  bottom: "inception_4e/3x3"
  top: "inception_4e/3x3"
}
layer {
  name: "inception_4e/5x5_reduce"
  type: "Convolution"
  bottom: "inception_4d/output"
  top: "inception_4e/5x5_reduce"
  param {
    lr_mult: 1
    decay_mult: 1
  }
  param {
    lr_mult: 2
    decay_mult: 0
  }
  convolution_param {
    num_output: 32
    kernel_size: 1
    weight_filler {
      type: "xavier"
    }
    bias_filler {
      type: "constant"
      value: 0.2
    }
  }
}
layer {
  name: "inception_4e/relu_5x5_reduce"
  type: "ReLU"
  bottom: "inception_4e/5x5_reduce"
  top: "inception_4e/5x5_reduce"
}
layer {
  name: "inception_4e/5x5"
  type: "Convolution"
  bottom: "inception_4e/5x5_reduce"
  top: "inception_4e/5x5"
  param {
    lr_mult: 1
    decay_mult: 1
  }
  param {
    lr_mult: 2
    decay_mult: 0
  }
  convolution_param {
    num_output: 128
    pad: 2
    kernel_size: 5
    weight_filler {
      type: "xavier"
    }
    bias_filler {
      type: "constant"
      value: 0.2
    }
  }
}
layer {
  name: "inception_4e/relu_5x5"
  type: "ReLU"
  bottom: "inception_4e/5x5"
  top: "inception_4e/5x5"
}
layer {
  name: "inception_4e/pool"
  type: "Pooling"
  bottom: "inception_4d/output"
  top: "inception_4e/pool"
  pooling_param {
    pool: MAX
    kernel_size: 3
    stride: 1
    pad: 1
  }
}
layer {
  name: "inception_4e/pool_proj"
  type: "Convolution"
  bottom: "inception_4e/pool"
  top: "inception_4e/pool_proj"
  param {
    lr_mult: 1
    decay_mult: 1
  }
  param {
    lr_mult: 2
    decay_mult: 0
  }
  convolution_param {
    num_output: 128
    kernel_size: 1
    weight_filler {
      type: "xavier"
    }
    bias_filler {
      type: "constant"
      value: 0.2
    }
  }
}
layer {
  name: "inception_4e/relu_pool_proj"
  type: "ReLU"
  bottom: "inception_4e/pool_proj"
  top: "inception_4e/pool_proj"
}
layer {
  name: "inception_4e/output"
  type: "Concat"
  bottom: "inception_4e/1x1"
  bottom: "inception_4e/3x3"
  bottom: "inception_4e/5x5"
  bottom: "inception_4e/pool_proj"
  top: "inception_4e/output"
}
layer {
  name: "pool4/3x3_s2"
  type: "Pooling"
  bottom: "inception_4e/output"
  top: "pool4/3x3_s2"
  pooling_param {
    pool: MAX
    kernel_size: 3
    stride: 2
  }
}
layer {
  name: "inception_5a/1x1"
  type: "Convolution"
  bottom: "pool4/3x3_s2"
  top: "inception_5a/1x1"
  param {
    lr_mult: 1
    decay_mult: 1
  }
  param {
    lr_mult: 2
    decay_mult: 0
  }
  convolution_param {
    num_output: 256
    kernel_size: 1
    weight_filler {
      type: "xavier"
    }
    bias_filler {
      type: "constant"
      value: 0.2
    }
  }
}
layer {
  name: "inception_5a/relu_1x1"
  type: "ReLU"
  bottom: "inception_5a/1x1"
  top: "inception_5a/1x1"
}
layer {
  name: "inception_5a/3x3_reduce"
  type: "Convolution"
  bottom: "pool4/3x3_s2"
  top: "inception_5a/3x3_reduce"
  param {
    lr_mult: 1
    decay_mult: 1
  }
  param {
    lr_mult: 2
    decay_mult: 0
  }
  convolution_param {
    num_output: 160
    kernel_size: 1
    weight_filler {
      type: "xavier"
    }
    bias_filler {
      type: "constant"
      value: 0.2
    }
  }
}
layer {
  name: "inception_5a/relu_3x3_reduce"
  type: "ReLU"
  bottom: "inception_5a/3x3_reduce"
  top: "inception_5a/3x3_reduce"
}
layer {
  name: "inception_5a/3x3"
  type: "Convolution"
  bottom: "inception_5a/3x3_reduce"
  top: "inception_5a/3x3"
  param {
    lr_mult: 1
    decay_mult: 1
  }
  param {
    lr_mult: 2
    decay_mult: 0
  }
  convolution_param {
    num_output: 320
    pad: 1
    kernel_size: 3
    weight_filler {
      type: "xavier"
    }
    bias_filler {
      type: "constant"
      value: 0.2
    }
  }
}
layer {
  name: "inception_5a/relu_3x3"
  type: "ReLU"
  bottom: "inception_5a/3x3"
  top: "inception_5a/3x3"
}
layer {
  name: "inception_5a/5x5_reduce"
  type: "Convolution"
  bottom: "pool4/3x3_s2"
  top: "inception_5a/5x5_reduce"
  param {
    lr_mult: 1
    decay_mult: 1
  }
  param {
    lr_mult: 2
    decay_mult: 0
  }
  convolution_param {
    num_output: 32
    kernel_size: 1
    weight_filler {
      type: "xavier"
    }
    bias_filler {
      type: "constant"
      value: 0.2
    }
  }
}
layer {
  name: "inception_5a/relu_5x5_reduce"
  type: "ReLU"
  bottom: "inception_5a/5x5_reduce"
  top: "inception_5a/5x5_reduce"
}
layer {
  name: "inception_5a/5x5"
  type: "Convolution"
  bottom: "inception_5a/5x5_reduce"
  top: "inception_5a/5x5"
  param {
    lr_mult: 1
    decay_mult: 1
  }
  param {
    lr_mult: 2
    decay_mult: 0
  }
  convolution_param {
    num_output: 128
    pad: 2
    kernel_size: 5
    weight_filler {
      type: "xavier"
    }
    bias_filler {
      type: "constant"
      value: 0.2
    }
  }
}
layer {
  name: "inception_5a/relu_5x5"
  type: "ReLU"
  bottom: "inception_5a/5x5"
  top: "inception_5a/5x5"
}
layer {
  name: "inception_5a/
I0322 23:15:52.826807 11574 layer_factory.hpp:77] Creating layer data
I0322 23:15:52.853353 11574 net.cpp:84] Creating Layer data
I0322 23:15:52.853376 11574 net.cpp:380] data -> data
I0322 23:15:52.853386 11574 net.cpp:380] data -> sem
I0322 23:15:53.753562 11574 net.cpp:122] Setting up data
I0322 23:15:53.753592 11574 net.cpp:129] Top shape: 16 3 640 368 (11304960)
I0322 23:15:53.753595 11574 net.cpp:129] Top shape: 16 1 640 368 (3768320)
I0322 23:15:53.753597 11574 net.cpp:137] Memory required for data: 60293120
I0322 23:15:53.753603 11574 layer_factory.hpp:77] Creating layer data_data_0_split
I0322 23:15:53.753618 11574 net.cpp:84] Creating Layer data_data_0_split
I0322 23:15:53.753623 11574 net.cpp:406] data_data_0_split <- data
I0322 23:15:53.753628 11574 net.cpp:380] data_data_0_split -> data_data_0_split_0
I0322 23:15:53.753636 11574 net.cpp:380] data_data_0_split -> data_data_0_split_1
I0322 23:15:53.753675 11574 net.cpp:122] Setting up data_data_0_split
I0322 23:15:53.753679 11574 net.cpp:129] Top shape: 16 3 640 368 (11304960)
I0322 23:15:53.753682 11574 net.cpp:129] Top shape: 16 3 640 368 (11304960)
I0322 23:15:53.753684 11574 net.cpp:137] Memory required for data: 150732800
I0322 23:15:53.753687 11574 layer_factory.hpp:77] Creating layer conv1/7x7_s2
I0322 23:15:53.753697 11574 net.cpp:84] Creating Layer conv1/7x7_s2
I0322 23:15:53.753700 11574 net.cpp:406] conv1/7x7_s2 <- data_data_0_split_0
I0322 23:15:53.753703 11574 net.cpp:380] conv1/7x7_s2 -> conv1/7x7_s2
I0322 23:15:53.939463 11574 net.cpp:122] Setting up conv1/7x7_s2
I0322 23:15:53.939491 11574 net.cpp:129] Top shape: 16 64 326 190 (63426560)
I0322 23:15:53.939494 11574 net.cpp:137] Memory required for data: 404439040
I0322 23:15:53.939507 11574 layer_factory.hpp:77] Creating layer conv1/relu_7x7
I0322 23:15:53.939517 11574 net.cpp:84] Creating Layer conv1/relu_7x7
I0322 23:15:53.939520 11574 net.cpp:406] conv1/relu_7x7 <- conv1/7x7_s2
I0322 23:15:53.939524 11574 net.cpp:367] conv1/relu_7x7 -> conv1/7x7_s2 (in-place)
I0322 23:15:53.940150 11574 net.cpp:122] Setting up conv1/relu_7x7
I0322 23:15:53.940160 11574 net.cpp:129] Top shape: 16 64 326 190 (63426560)
I0322 23:15:53.940163 11574 net.cpp:137] Memory required for data: 658145280
I0322 23:15:53.940166 11574 layer_factory.hpp:77] Creating layer pool1/3x3_s2
I0322 23:15:53.940173 11574 net.cpp:84] Creating Layer pool1/3x3_s2
I0322 23:15:53.940176 11574 net.cpp:406] pool1/3x3_s2 <- conv1/7x7_s2
I0322 23:15:53.940181 11574 net.cpp:380] pool1/3x3_s2 -> pool1/3x3_s2
I0322 23:15:53.940210 11574 net.cpp:122] Setting up pool1/3x3_s2
I0322 23:15:53.940215 11574 net.cpp:129] Top shape: 16 64 163 95 (15856640)
I0322 23:15:53.940217 11574 net.cpp:137] Memory required for data: 721571840
I0322 23:15:53.940219 11574 layer_factory.hpp:77] Creating layer pool1/norm1
I0322 23:15:53.940225 11574 net.cpp:84] Creating Layer pool1/norm1
I0322 23:15:53.940227 11574 net.cpp:406] pool1/norm1 <- pool1/3x3_s2
I0322 23:15:53.940232 11574 net.cpp:380] pool1/norm1 -> pool1/norm1
I0322 23:15:53.940373 11574 net.cpp:122] Setting up pool1/norm1
I0322 23:15:53.940382 11574 net.cpp:129] Top shape: 16 64 163 95 (15856640)
I0322 23:15:53.940385 11574 net.cpp:137] Memory required for data: 784998400
I0322 23:15:53.940388 11574 layer_factory.hpp:77] Creating layer conv2/3x3_reduce
I0322 23:15:53.940398 11574 net.cpp:84] Creating Layer conv2/3x3_reduce
I0322 23:15:53.940402 11574 net.cpp:406] conv2/3x3_reduce <- pool1/norm1
I0322 23:15:53.940405 11574 net.cpp:380] conv2/3x3_reduce -> conv2/3x3_reduce
I0322 23:15:53.942021 11574 net.cpp:122] Setting up conv2/3x3_reduce
I0322 23:15:53.942034 11574 net.cpp:129] Top shape: 16 64 163 95 (15856640)
I0322 23:15:53.942036 11574 net.cpp:137] Memory required for data: 848424960
I0322 23:15:53.942042 11574 layer_factory.hpp:77] Creating layer conv2/relu_3x3_reduce
I0322 23:15:53.942047 11574 net.cpp:84] Creating Layer conv2/relu_3x3_reduce
I0322 23:15:53.942050 11574 net.cpp:406] conv2/relu_3x3_reduce <- conv2/3x3_reduce
I0322 23:15:53.942054 11574 net.cpp:367] conv2/relu_3x3_reduce -> conv2/3x3_reduce (in-place)
I0322 23:15:53.942179 11574 net.cpp:122] Setting up conv2/relu_3x3_reduce
I0322 23:15:53.942188 11574 net.cpp:129] Top shape: 16 64 163 95 (15856640)
I0322 23:15:53.942190 11574 net.cpp:137] Memory required for data: 911851520
I0322 23:15:53.942193 11574 layer_factory.hpp:77] Creating layer conv2/3x3
I0322 23:15:53.942200 11574 net.cpp:84] Creating Layer conv2/3x3
I0322 23:15:53.942203 11574 net.cpp:406] conv2/3x3 <- conv2/3x3_reduce
I0322 23:15:53.942209 11574 net.cpp:380] conv2/3x3 -> conv2/3x3
I0322 23:15:53.944700 11574 net.cpp:122] Setting up conv2/3x3
I0322 23:15:53.944712 11574 net.cpp:129] Top shape: 16 192 163 95 (47569920)
I0322 23:15:53.944715 11574 net.cpp:137] Memory required for data: 1102131200
I0322 23:15:53.944721 11574 layer_factory.hpp:77] Creating layer conv2/relu_3x3
I0322 23:15:53.944726 11574 net.cpp:84] Creating Layer conv2/relu_3x3
I0322 23:15:53.944730 11574 net.cpp:406] conv2/relu_3x3 <- conv2/3x3
I0322 23:15:53.944733 11574 net.cpp:367] conv2/relu_3x3 -> conv2/3x3 (in-place)
I0322 23:15:53.944866 11574 net.cpp:122] Setting up conv2/relu_3x3
I0322 23:15:53.944875 11574 net.cpp:129] Top shape: 16 192 163 95 (47569920)
I0322 23:15:53.944877 11574 net.cpp:137] Memory required for data: 1292410880
I0322 23:15:53.944880 11574 layer_factory.hpp:77] Creating layer conv2/norm2
I0322 23:15:53.944885 11574 net.cpp:84] Creating Layer conv2/norm2
I0322 23:15:53.944887 11574 net.cpp:406] conv2/norm2 <- conv2/3x3
I0322 23:15:53.944891 11574 net.cpp:380] conv2/norm2 -> conv2/norm2
I0322 23:15:53.945021 11574 net.cpp:122] Setting up conv2/norm2
I0322 23:15:53.945029 11574 net.cpp:129] Top shape: 16 192 163 95 (47569920)
I0322 23:15:53.945031 11574 net.cpp:137] Memory required for data: 1482690560
I0322 23:15:53.945034 11574 layer_factory.hpp:77] Creating layer pool2/3x3_s2
I0322 23:15:53.945039 11574 net.cpp:84] Creating Layer pool2/3x3_s2
I0322 23:15:53.945041 11574 net.cpp:406] pool2/3x3_s2 <- conv2/norm2
I0322 23:15:53.945045 11574 net.cpp:380] pool2/3x3_s2 -> pool2/3x3_s2
I0322 23:15:53.945067 11574 net.cpp:122] Setting up pool2/3x3_s2
I0322 23:15:53.945071 11574 net.cpp:129] Top shape: 16 192 81 47 (11695104)
I0322 23:15:53.945073 11574 net.cpp:137] Memory required for data: 1529470976
I0322 23:15:53.945076 11574 layer_factory.hpp:77] Creating layer pool2/3x3_s2_pool2/3x3_s2_0_split
I0322 23:15:53.945080 11574 net.cpp:84] Creating Layer pool2/3x3_s2_pool2/3x3_s2_0_split
I0322 23:15:53.945082 11574 net.cpp:406] pool2/3x3_s2_pool2/3x3_s2_0_split <- pool2/3x3_s2
I0322 23:15:53.945086 11574 net.cpp:380] pool2/3x3_s2_pool2/3x3_s2_0_split -> pool2/3x3_s2_pool2/3x3_s2_0_split_0
I0322 23:15:53.945091 11574 net.cpp:380] pool2/3x3_s2_pool2/3x3_s2_0_split -> pool2/3x3_s2_pool2/3x3_s2_0_split_1
I0322 23:15:53.945096 11574 net.cpp:380] pool2/3x3_s2_pool2/3x3_s2_0_split -> pool2/3x3_s2_pool2/3x3_s2_0_split_2
I0322 23:15:53.945099 11574 net.cpp:380] pool2/3x3_s2_pool2/3x3_s2_0_split -> pool2/3x3_s2_pool2/3x3_s2_0_split_3
I0322 23:15:53.945133 11574 net.cpp:122] Setting up pool2/3x3_s2_pool2/3x3_s2_0_split
I0322 23:15:53.945137 11574 net.cpp:129] Top shape: 16 192 81 47 (11695104)
I0322 23:15:53.945139 11574 net.cpp:129] Top shape: 16 192 81 47 (11695104)
I0322 23:15:53.945143 11574 net.cpp:129] Top shape: 16 192 81 47 (11695104)
I0322 23:15:53.945145 11574 net.cpp:129] Top shape: 16 192 81 47 (11695104)
I0322 23:15:53.945147 11574 net.cpp:137] Memory required for data: 1716592640
I0322 23:15:53.945150 11574 layer_factory.hpp:77] Creating layer inception_3a/1x1
I0322 23:15:53.945157 11574 net.cpp:84] Creating Layer inception_3a/1x1
I0322 23:15:53.945158 11574 net.cpp:406] inception_3a/1x1 <- pool2/3x3_s2_pool2/3x3_s2_0_split_0
I0322 23:15:53.945163 11574 net.cpp:380] inception_3a/1x1 -> inception_3a/1x1
I0322 23:15:53.946643 11574 net.cpp:122] Setting up inception_3a/1x1
I0322 23:15:53.946655 11574 net.cpp:129] Top shape: 16 64 81 47 (3898368)
I0322 23:15:53.946657 11574 net.cpp:137] Memory required for data: 1732186112
I0322 23:15:53.946662 11574 layer_factory.hpp:77] Creating layer inception_3a/relu_1x1
I0322 23:15:53.946667 11574 net.cpp:84] Creating Layer inception_3a/relu_1x1
I0322 23:15:53.946669 11574 net.cpp:406] inception_3a/relu_1x1 <- inception_3a/1x1
I0322 23:15:53.946673 11574 net.cpp:367] inception_3a/relu_1x1 -> inception_3a/1x1 (in-place)
I0322 23:15:53.947278 11574 net.cpp:122] Setting up inception_3a/relu_1x1
I0322 23:15:53.947288 11574 net.cpp:129] Top shape: 16 64 81 47 (3898368)
I0322 23:15:53.947306 11574 net.cpp:137] Memory required for data: 1747779584
I0322 23:15:53.947309 11574 layer_factory.hpp:77] Creating layer inception_3a/3x3_reduce
I0322 23:15:53.947317 11574 net.cpp:84] Creating Layer inception_3a/3x3_reduce
I0322 23:15:53.947320 11574 net.cpp:406] inception_3a/3x3_reduce <- pool2/3x3_s2_pool2/3x3_s2_0_split_1
I0322 23:15:53.947325 11574 net.cpp:380] inception_3a/3x3_reduce -> inception_3a/3x3_reduce
I0322 23:15:53.947957 11574 net.cpp:122] Setting up inception_3a/3x3_reduce
I0322 23:15:53.947965 11574 net.cpp:129] Top shape: 16 96 81 47 (5847552)
I0322 23:15:53.947983 11574 net.cpp:137] Memory required for data: 1771169792
I0322 23:15:53.947990 11574 layer_factory.hpp:77] Creating layer inception_3a/relu_3x3_reduce
I0322 23:15:53.947996 11574 net.cpp:84] Creating Layer inception_3a/relu_3x3_reduce
I0322 23:15:53.948000 11574 net.cpp:406] inception_3a/relu_3x3_reduce <- inception_3a/3x3_reduce
I0322 23:15:53.948004 11574 net.cpp:367] inception_3a/relu_3x3_reduce -> inception_3a/3x3_reduce (in-place)
I0322 23:15:53.948592 11574 net.cpp:122] Setting up inception_3a/relu_3x3_reduce
I0322 23:15:53.948602 11574 net.cpp:129] Top shape: 16 96 81 47 (5847552)
I0322 23:15:53.948606 11574 net.cpp:137] Memory required for data: 1794560000
I0322 23:15:53.948608 11574 layer_factory.hpp:77] Creating layer inception_3a/3x3
I0322 23:15:53.948616 11574 net.cpp:84] Creating Layer inception_3a/3x3
I0322 23:15:53.948619 11574 net.cpp:406] inception_3a/3x3 <- inception_3a/3x3_reduce
I0322 23:15:53.948623 11574 net.cpp:380] inception_3a/3x3 -> inception_3a/3x3
I0322 23:15:53.950465 11574 net.cpp:122] Setting up inception_3a/3x3
I0322 23:15:53.950476 11574 net.cpp:129] Top shape: 16 128 81 47 (7796736)
I0322 23:15:53.950479 11574 net.cpp:137] Memory required for data: 1825746944
I0322 23:15:53.950484 11574 layer_factory.hpp:77] Creating layer inception_3a/relu_3x3
I0322 23:15:53.950489 11574 net.cpp:84] Creating Layer inception_3a/relu_3x3
I0322 23:15:53.950491 11574 net.cpp:406] inception_3a/relu_3x3 <- inception_3a/3x3
I0322 23:15:53.950495 11574 net.cpp:367] inception_3a/relu_3x3 -> inception_3a/3x3 (in-place)
I0322 23:15:53.950628 11574 net.cpp:122] Setting up inception_3a/relu_3x3
I0322 23:15:53.950636 11574 net.cpp:129] Top shape: 16 128 81 47 (7796736)
I0322 23:15:53.950639 11574 net.cpp:137] Memory required for data: 1856933888
I0322 23:15:53.950641 11574 layer_factory.hpp:77] Creating layer inception_3a/5x5_reduce
I0322 23:15:53.950649 11574 net.cpp:84] Creating Layer inception_3a/5x5_reduce
I0322 23:15:53.950651 11574 net.cpp:406] inception_3a/5x5_reduce <- pool2/3x3_s2_pool2/3x3_s2_0_split_2
I0322 23:15:53.950656 11574 net.cpp:380] inception_3a/5x5_reduce -> inception_3a/5x5_reduce
I0322 23:15:53.951704 11574 net.cpp:122] Setting up inception_3a/5x5_reduce
I0322 23:15:53.951714 11574 net.cpp:129] Top shape: 16 16 81 47 (974592)
I0322 23:15:53.951716 11574 net.cpp:137] Memory required for data: 1860832256
I0322 23:15:53.951721 11574 layer_factory.hpp:77] Creating layer inception_3a/relu_5x5_reduce
I0322 23:15:53.951726 11574 net.cpp:84] Creating Layer inception_3a/relu_5x5_reduce
I0322 23:15:53.951730 11574 net.cpp:406] inception_3a/relu_5x5_reduce <- inception_3a/5x5_reduce
I0322 23:15:53.951732 11574 net.cpp:367] inception_3a/relu_5x5_reduce -> inception_3a/5x5_reduce (in-place)
I0322 23:15:53.951860 11574 net.cpp:122] Setting up inception_3a/relu_5x5_reduce
I0322 23:15:53.951869 11574 net.cpp:129] Top shape: 16 16 81 47 (974592)
I0322 23:15:53.951870 11574 net.cpp:137] Memory required for data: 1864730624
I0322 23:15:53.951872 11574 layer_factory.hpp:77] Creating layer inception_3a/5x5
I0322 23:15:53.951880 11574 net.cpp:84] Creating Layer inception_3a/5x5
I0322 23:15:53.951882 11574 net.cpp:406] inception_3a/5x5 <- inception_3a/5x5_reduce
I0322 23:15:53.951887 11574 net.cpp:380] inception_3a/5x5 -> inception_3a/5x5
I0322 23:15:53.952965 11574 net.cpp:122] Setting up inception_3a/5x5
I0322 23:15:53.952975 11574 net.cpp:129] Top shape: 16 32 81 47 (1949184)
I0322 23:15:53.952978 11574 net.cpp:137] Memory required for data: 1872527360
I0322 23:15:53.952983 11574 layer_factory.hpp:77] Creating layer inception_3a/relu_5x5
I0322 23:15:53.952987 11574 net.cpp:84] Creating Layer inception_3a/relu_5x5
I0322 23:15:53.952991 11574 net.cpp:406] inception_3a/relu_5x5 <- inception_3a/5x5
I0322 23:15:53.952994 11574 net.cpp:367] inception_3a/relu_5x5 -> inception_3a/5x5 (in-place)
I0322 23:15:53.953121 11574 net.cpp:122] Setting up inception_3a/relu_5x5
I0322 23:15:53.953130 11574 net.cpp:129] Top shape: 16 32 81 47 (1949184)
I0322 23:15:53.953131 11574 net.cpp:137] Memory required for data: 1880324096
I0322 23:15:53.953135 11574 layer_factory.hpp:77] Creating layer inception_3a/pool
I0322 23:15:53.953138 11574 net.cpp:84] Creating Layer inception_3a/pool
I0322 23:15:53.953141 11574 net.cpp:406] inception_3a/pool <- pool2/3x3_s2_pool2/3x3_s2_0_split_3
I0322 23:15:53.953145 11574 net.cpp:380] inception_3a/pool -> inception_3a/pool
I0322 23:15:53.953174 11574 net.cpp:122] Setting up inception_3a/pool
I0322 23:15:53.953178 11574 net.cpp:129] Top shape: 16 192 81 47 (11695104)
I0322 23:15:53.953181 11574 net.cpp:137] Memory required for data: 1927104512
I0322 23:15:53.953182 11574 layer_factory.hpp:77] Creating layer inception_3a/pool_proj
I0322 23:15:53.953189 11574 net.cpp:84] Creating Layer inception_3a/pool_proj
I0322 23:15:53.953191 11574 net.cpp:406] inception_3a/pool_proj <- inception_3a/pool
I0322 23:15:53.953197 11574 net.cpp:380] inception_3a/pool_proj -> inception_3a/pool_proj
I0322 23:15:53.954229 11574 net.cpp:122] Setting up inception_3a/pool_proj
I0322 23:15:53.954241 11574 net.cpp:129] Top shape: 16 32 81 47 (1949184)
I0322 23:15:53.954258 11574 net.cpp:137] Memory required for data: 1934901248
I0322 23:15:53.954267 11574 layer_factory.hpp:77] Creating layer inception_3a/relu_pool_proj
I0322 23:15:53.954270 11574 net.cpp:84] Creating Layer inception_3a/relu_pool_proj
I0322 23:15:53.954273 11574 net.cpp:406] inception_3a/relu_pool_proj <- inception_3a/pool_proj
I0322 23:15:53.954277 11574 net.cpp:367] inception_3a/relu_pool_proj -> inception_3a/pool_proj (in-place)
I0322 23:15:53.954391 11574 net.cpp:122] Setting up inception_3a/relu_pool_proj
I0322 23:15:53.954397 11574 net.cpp:129] Top shape: 16 32 81 47 (1949184)
I0322 23:15:53.954401 11574 net.cpp:137] Memory required for data: 1942697984
I0322 23:15:53.954403 11574 layer_factory.hpp:77] Creating layer inception_3a/output
I0322 23:15:53.954407 11574 net.cpp:84] Creating Layer inception_3a/output
I0322 23:15:53.954411 11574 net.cpp:406] inception_3a/output <- inception_3a/1x1
I0322 23:15:53.954413 11574 net.cpp:406] inception_3a/output <- inception_3a/3x3
I0322 23:15:53.954416 11574 net.cpp:406] inception_3a/output <- inception_3a/5x5
I0322 23:15:53.954419 11574 net.cpp:406] inception_3a/output <- inception_3a/pool_proj
I0322 23:15:53.954422 11574 net.cpp:380] inception_3a/output -> inception_3a/output
I0322 23:15:53.954447 11574 net.cpp:122] Setting up inception_3a/output
I0322 23:15:53.954450 11574 net.cpp:129] Top shape: 16 256 81 47 (15593472)
I0322 23:15:53.954452 11574 net.cpp:137] Memory required for data: 2005071872
I0322 23:15:53.954455 11574 layer_factory.hpp:77] Creating layer inception_3a/output_inception_3a/output_0_split
I0322 23:15:53.954459 11574 net.cpp:84] Creating Layer inception_3a/output_inception_3a/output_0_split
I0322 23:15:53.954463 11574 net.cpp:406] inception_3a/output_inception_3a/output_0_split <- inception_3a/output
I0322 23:15:53.954465 11574 net.cpp:380] inception_3a/output_inception_3a/output_0_split -> inception_3a/output_inception_3a/output_0_split_0
I0322 23:15:53.954470 11574 net.cpp:380] inception_3a/output_inception_3a/output_0_split -> inception_3a/output_inception_3a/output_0_split_1
I0322 23:15:53.954474 11574 net.cpp:380] inception_3a/output_inception_3a/output_0_split -> inception_3a/output_inception_3a/output_0_split_2
I0322 23:15:53.954478 11574 net.cpp:380] inception_3a/output_inception_3a/output_0_split -> inception_3a/output_inception_3a/output_0_split_3
I0322 23:15:53.954515 11574 net.cpp:122] Setting up inception_3a/output_inception_3a/output_0_split
I0322 23:15:53.954519 11574 net.cpp:129] Top shape: 16 256 81 47 (15593472)
I0322 23:15:53.954521 11574 net.cpp:129] Top shape: 16 256 81 47 (15593472)
I0322 23:15:53.954524 11574 net.cpp:129] Top shape: 16 256 81 47 (15593472)
I0322 23:15:53.954526 11574 net.cpp:129] Top shape: 16 256 81 47 (15593472)
I0322 23:15:53.954530 11574 net.cpp:137] Memory required for data: 2254567424
I0322 23:15:53.954531 11574 layer_factory.hpp:77] Creating layer inception_3b/1x1
I0322 23:15:53.954537 11574 net.cpp:84] Creating Layer inception_3b/1x1
I0322 23:15:53.954540 11574 net.cpp:406] inception_3b/1x1 <- inception_3a/output_inception_3a/output_0_split_0
I0322 23:15:53.954545 11574 net.cpp:380] inception_3b/1x1 -> inception_3b/1x1
I0322 23:15:53.955653 11574 net.cpp:122] Setting up inception_3b/1x1
I0322 23:15:53.955664 11574 net.cpp:129] Top shape: 16 128 81 47 (7796736)
I0322 23:15:53.955667 11574 net.cpp:137] Memory required for data: 2285754368
I0322 23:15:53.955672 11574 layer_factory.hpp:77] Creating layer inception_3b/relu_1x1
I0322 23:15:53.955677 11574 net.cpp:84] Creating Layer inception_3b/relu_1x1
I0322 23:15:53.955679 11574 net.cpp:406] inception_3b/relu_1x1 <- inception_3b/1x1
I0322 23:15:53.955683 11574 net.cpp:367] inception_3b/relu_1x1 -> inception_3b/1x1 (in-place)
I0322 23:15:53.956282 11574 net.cpp:122] Setting up inception_3b/relu_1x1
I0322 23:15:53.956293 11574 net.cpp:129] Top shape: 16 128 81 47 (7796736)
I0322 23:15:53.956316 11574 net.cpp:137] Memory required for data: 2316941312
I0322 23:15:53.956320 11574 layer_factory.hpp:77] Creating layer inception_3b/3x3_reduce
I0322 23:15:53.956326 11574 net.cpp:84] Creating Layer inception_3b/3x3_reduce
I0322 23:15:53.956331 11574 net.cpp:406] inception_3b/3x3_reduce <- inception_3a/output_inception_3a/output_0_split_1
I0322 23:15:53.956334 11574 net.cpp:380] inception_3b/3x3_reduce -> inception_3b/3x3_reduce
I0322 23:15:53.957010 11574 net.cpp:122] Setting up inception_3b/3x3_reduce
I0322 23:15:53.957018 11574 net.cpp:129] Top shape: 16 128 81 47 (7796736)
I0322 23:15:53.957036 11574 net.cpp:137] Memory required for data: 2348128256
I0322 23:15:53.957041 11574 layer_factory.hpp:77] Creating layer inception_3b/relu_3x3_reduce
I0322 23:15:53.957046 11574 net.cpp:84] Creating Layer inception_3b/relu_3x3_reduce
I0322 23:15:53.957048 11574 net.cpp:406] inception_3b/relu_3x3_reduce <- inception_3b/3x3_reduce
I0322 23:15:53.957052 11574 net.cpp:367] inception_3b/relu_3x3_reduce -> inception_3b/3x3_reduce (in-place)
I0322 23:15:53.957661 11574 net.cpp:122] Setting up inception_3b/relu_3x3_reduce
I0322 23:15:53.957685 11574 net.cpp:129] Top shape: 16 128 81 47 (7796736)
I0322 23:15:53.957703 11574 net.cpp:137] Memory required for data: 2379315200
I0322 23:15:53.957706 11574 layer_factory.hpp:77] Creating layer inception_3b/3x3
I0322 23:15:53.957715 11574 net.cpp:84] Creating Layer inception_3b/3x3
I0322 23:15:53.957718 11574 net.cpp:406] inception_3b/3x3 <- inception_3b/3x3_reduce
I0322 23:15:53.957723 11574 net.cpp:380] inception_3b/3x3 -> inception_3b/3x3
I0322 23:15:53.960032 11574 net.cpp:122] Setting up inception_3b/3x3
I0322 23:15:53.960043 11574 net.cpp:129] Top shape: 16 192 81 47 (11695104)
I0322 23:15:53.960047 11574 net.cpp:137] Memory required for data: 2426095616
I0322 23:15:53.960052 11574 layer_factory.hpp:77] Creating layer inception_3b/relu_3x3
I0322 23:15:53.960057 11574 net.cpp:84] Creating Layer inception_3b/relu_3x3
I0322 23:15:53.960059 11574 net.cpp:406] inception_3b/relu_3x3 <- inception_3b/3x3
I0322 23:15:53.960063 11574 net.cpp:367] inception_3b/relu_3x3 -> inception_3b/3x3 (in-place)
I0322 23:15:53.960193 11574 net.cpp:122] Setting up inception_3b/relu_3x3
I0322 23:15:53.960201 11574 net.cpp:129] Top shape: 16 192 81 47 (11695104)
I0322 23:15:53.960203 11574 net.cpp:137] Memory required for data: 2472876032
I0322 23:15:53.960206 11574 layer_factory.hpp:77] Creating layer inception_3b/5x5_reduce
I0322 23:15:53.960213 11574 net.cpp:84] Creating Layer inception_3b/5x5_reduce
I0322 23:15:53.960216 11574 net.cpp:406] inception_3b/5x5_reduce <- inception_3a/output_inception_3a/output_0_split_2
I0322 23:15:53.960222 11574 net.cpp:380] inception_3b/5x5_reduce -> inception_3b/5x5_reduce
I0322 23:15:53.961297 11574 net.cpp:122] Setting up inception_3b/5x5_reduce
I0322 23:15:53.961308 11574 net.cpp:129] Top shape: 16 32 81 47 (1949184)
I0322 23:15:53.961311 11574 net.cpp:137] Memory required for data: 2480672768
I0322 23:15:53.961316 11574 layer_factory.hpp:77] Creating layer inception_3b/relu_5x5_reduce
I0322 23:15:53.961320 11574 net.cpp:84] Creating Layer inception_3b/relu_5x5_reduce
I0322 23:15:53.961323 11574 net.cpp:406] inception_3b/relu_5x5_reduce <- inception_3b/5x5_reduce
I0322 23:15:53.961328 11574 net.cpp:367] inception_3b/relu_5x5_reduce -> inception_3b/5x5_reduce (in-place)
I0322 23:15:53.961457 11574 net.cpp:122] Setting up inception_3b/relu_5x5_reduce
I0322 23:15:53.961463 11574 net.cpp:129] Top shape: 16 32 81 47 (1949184)
I0322 23:15:53.961467 11574 net.cpp:137] Memory required for data: 2488469504
I0322 23:15:53.961468 11574 layer_factory.hpp:77] Creating layer inception_3b/5x5
I0322 23:15:53.961475 11574 net.cpp:84] Creating Layer inception_3b/5x5
I0322 23:15:53.961478 11574 net.cpp:406] inception_3b/5x5 <- inception_3b/5x5_reduce
I0322 23:15:53.961483 11574 net.cpp:380] inception_3b/5x5 -> inception_3b/5x5
I0322 23:15:53.962803 11574 net.cpp:122] Setting up inception_3b/5x5
I0322 23:15:53.962815 11574 net.cpp:129] Top shape: 16 96 81 47 (5847552)
I0322 23:15:53.962816 11574 net.cpp:137] Memory required for data: 2511859712
I0322 23:15:53.962821 11574 layer_factory.hpp:77] Creating layer inception_3b/relu_5x5
I0322 23:15:53.962826 11574 net.cpp:84] Creating Layer inception_3b/relu_5x5
I0322 23:15:53.962828 11574 net.cpp:406] inception_3b/relu_5x5 <- inception_3b/5x5
I0322 23:15:53.962832 11574 net.cpp:367] inception_3b/relu_5x5 -> inception_3b/5x5 (in-place)
I0322 23:15:53.962960 11574 net.cpp:122] Setting up inception_3b/relu_5x5
I0322 23:15:53.962967 11574 net.cpp:129] Top shape: 16 96 81 47 (5847552)
I0322 23:15:53.962970 11574 net.cpp:137] Memory required for data: 2535249920
I0322 23:15:53.962972 11574 layer_factory.hpp:77] Creating layer inception_3b/pool
I0322 23:15:53.962977 11574 net.cpp:84] Creating Layer inception_3b/pool
I0322 23:15:53.962980 11574 net.cpp:406] inception_3b/pool <- inception_3a/output_inception_3a/output_0_split_3
I0322 23:15:53.962985 11574 net.cpp:380] inception_3b/pool -> inception_3b/pool
I0322 23:15:53.963014 11574 net.cpp:122] Setting up inception_3b/pool
I0322 23:15:53.963018 11574 net.cpp:129] Top shape: 16 256 81 47 (15593472)
I0322 23:15:53.963021 11574 net.cpp:137] Memory required for data: 2597623808
I0322 23:15:53.963023 11574 layer_factory.hpp:77] Creating layer inception_3b/pool_proj
I0322 23:15:53.963029 11574 net.cpp:84] Creating Layer inception_3b/pool_proj
I0322 23:15:53.963032 11574 net.cpp:406] inception_3b/pool_proj <- inception_3b/pool
I0322 23:15:53.963037 11574 net.cpp:380] inception_3b/pool_proj -> inception_3b/pool_proj
I0322 23:15:53.964120 11574 net.cpp:122] Setting up inception_3b/pool_proj
I0322 23:15:53.964131 11574 net.cpp:129] Top shape: 16 64 81 47 (3898368)
I0322 23:15:53.964134 11574 net.cpp:137] Memory required for data: 2613217280
I0322 23:15:53.964139 11574 layer_factory.hpp:77] Creating layer inception_3b/relu_pool_proj
I0322 23:15:53.964143 11574 net.cpp:84] Creating Layer inception_3b/relu_pool_proj
I0322 23:15:53.964146 11574 net.cpp:406] inception_3b/relu_pool_proj <- inception_3b/pool_proj
I0322 23:15:53.964150 11574 net.cpp:367] inception_3b/relu_pool_proj -> inception_3b/pool_proj (in-place)
I0322 23:15:53.964285 11574 net.cpp:122] Setting up inception_3b/relu_pool_proj
I0322 23:15:53.964293 11574 net.cpp:129] Top shape: 16 64 81 47 (3898368)
I0322 23:15:53.964296 11574 net.cpp:137] Memory required for data: 2628810752
I0322 23:15:53.964298 11574 layer_factory.hpp:77] Creating layer inception_3b/output
I0322 23:15:53.964303 11574 net.cpp:84] Creating Layer inception_3b/output
I0322 23:15:53.964309 11574 net.cpp:406] inception_3b/output <- inception_3b/1x1
I0322 23:15:53.964313 11574 net.cpp:406] inception_3b/output <- inception_3b/3x3
I0322 23:15:53.964316 11574 net.cpp:406] inception_3b/output <- inception_3b/5x5
I0322 23:15:53.964319 11574 net.cpp:406] inception_3b/output <- inception_3b/pool_proj
I0322 23:15:53.964323 11574 net.cpp:380] inception_3b/output -> inception_3b/output
I0322 23:15:53.964344 11574 net.cpp:122] Setting up inception_3b/output
I0322 23:15:53.964347 11574 net.cpp:129] Top shape: 16 480 81 47 (29237760)
I0322 23:15:53.964349 11574 net.cpp:137] Memory required for data: 2745761792
I0322 23:15:53.964352 11574 layer_factory.hpp:77] Creating layer inception_3b/output_inception_3b/output_0_split
I0322 23:15:53.964356 11574 net.cpp:84] Creating Layer inception_3b/output_inception_3b/output_0_split
I0322 23:15:53.964359 11574 net.cpp:406] inception_3b/output_inception_3b/output_0_split <- inception_3b/output
I0322 23:15:53.964362 11574 net.cpp:380] inception_3b/output_inception_3b/output_0_split -> inception_3b/output_inception_3b/output_0_split_0
I0322 23:15:53.964366 11574 net.cpp:380] inception_3b/output_inception_3b/output_0_split -> inception_3b/output_inception_3b/output_0_split_1
I0322 23:15:53.964390 11574 net.cpp:122] Setting up inception_3b/output_inception_3b/output_0_split
I0322 23:15:53.964393 11574 net.cpp:129] Top shape: 16 480 81 47 (29237760)
I0322 23:15:53.964395 11574 net.cpp:129] Top shape: 16 480 81 47 (29237760)
I0322 23:15:53.964397 11574 net.cpp:137] Memory required for data: 2979663872
I0322 23:15:53.964401 11574 layer_factory.hpp:77] Creating layer pool3/3x3_s2
I0322 23:15:53.964403 11574 net.cpp:84] Creating Layer pool3/3x3_s2
I0322 23:15:53.964406 11574 net.cpp:406] pool3/3x3_s2 <- inception_3b/output_inception_3b/output_0_split_0
I0322 23:15:53.964409 11574 net.cpp:380] pool3/3x3_s2 -> pool3/3x3_s2
I0322 23:15:53.964432 11574 net.cpp:122] Setting up pool3/3x3_s2
I0322 23:15:53.964434 11574 net.cpp:129] Top shape: 16 480 40 23 (7065600)
I0322 23:15:53.964437 11574 net.cpp:137] Memory required for data: 3007926272
I0322 23:15:53.964439 11574 layer_factory.hpp:77] Creating layer pool3/3x3_s2_pool3/3x3_s2_0_split
I0322 23:15:53.964442 11574 net.cpp:84] Creating Layer pool3/3x3_s2_pool3/3x3_s2_0_split
I0322 23:15:53.964445 11574 net.cpp:406] pool3/3x3_s2_pool3/3x3_s2_0_split <- pool3/3x3_s2
I0322 23:15:53.964448 11574 net.cpp:380] pool3/3x3_s2_pool3/3x3_s2_0_split -> pool3/3x3_s2_pool3/3x3_s2_0_split_0
I0322 23:15:53.964452 11574 net.cpp:380] pool3/3x3_s2_pool3/3x3_s2_0_split -> pool3/3x3_s2_pool3/3x3_s2_0_split_1
I0322 23:15:53.964457 11574 net.cpp:380] pool3/3x3_s2_pool3/3x3_s2_0_split -> pool3/3x3_s2_pool3/3x3_s2_0_split_2
I0322 23:15:53.964460 11574 net.cpp:380] pool3/3x3_s2_pool3/3x3_s2_0_split -> pool3/3x3_s2_pool3/3x3_s2_0_split_3
I0322 23:15:53.964493 11574 net.cpp:122] Setting up pool3/3x3_s2_pool3/3x3_s2_0_split
I0322 23:15:53.964496 11574 net.cpp:129] Top shape: 16 480 40 23 (7065600)
I0322 23:15:53.964499 11574 net.cpp:129] Top shape: 16 480 40 23 (7065600)
I0322 23:15:53.964501 11574 net.cpp:129] Top shape: 16 480 40 23 (7065600)
I0322 23:15:53.964504 11574 net.cpp:129] Top shape: 16 480 40 23 (7065600)
I0322 23:15:53.964506 11574 net.cpp:137] Memory required for data: 3120975872
I0322 23:15:53.964509 11574 layer_factory.hpp:77] Creating layer inception_4a/1x1
I0322 23:15:53.964514 11574 net.cpp:84] Creating Layer inception_4a/1x1
I0322 23:15:53.964517 11574 net.cpp:406] inception_4a/1x1 <- pool3/3x3_s2_pool3/3x3_s2_0_split_0
I0322 23:15:53.964521 11574 net.cpp:380] inception_4a/1x1 -> inception_4a/1x1
I0322 23:15:53.967504 11574 net.cpp:122] Setting up inception_4a/1x1
I0322 23:15:53.967516 11574 net.cpp:129] Top shape: 16 192 40 23 (2826240)
I0322 23:15:53.967519 11574 net.cpp:137] Memory required for data: 3132280832
I0322 23:15:53.967524 11574 layer_factory.hpp:77] Creating layer inception_4a/relu_1x1
I0322 23:15:53.967528 11574 net.cpp:84] Creating Layer inception_4a/relu_1x1
I0322 23:15:53.967531 11574 net.cpp:406] inception_4a/relu_1x1 <- inception_4a/1x1
I0322 23:15:53.967535 11574 net.cpp:367] inception_4a/relu_1x1 -> inception_4a/1x1 (in-place)
I0322 23:15:53.968158 11574 net.cpp:122] Setting up inception_4a/relu_1x1
I0322 23:15:53.968168 11574 net.cpp:129] Top shape: 16 192 40 23 (2826240)
I0322 23:15:53.968185 11574 net.cpp:137] Memory required for data: 3143585792
I0322 23:15:53.968189 11574 layer_factory.hpp:77] Creating layer inception_4a/3x3_reduce
I0322 23:15:53.968209 11574 net.cpp:84] Creating Layer inception_4a/3x3_reduce
I0322 23:15:53.968214 11574 net.cpp:406] inception_4a/3x3_reduce <- pool3/3x3_s2_pool3/3x3_s2_0_split_1
I0322 23:15:53.968217 11574 net.cpp:380] inception_4a/3x3_reduce -> inception_4a/3x3_reduce
I0322 23:15:53.968983 11574 net.cpp:122] Setting up inception_4a/3x3_reduce
I0322 23:15:53.968993 11574 net.cpp:129] Top shape: 16 96 40 23 (1413120)
I0322 23:15:53.968997 11574 net.cpp:137] Memory required for data: 3149238272
I0322 23:15:53.969004 11574 layer_factory.hpp:77] Creating layer inception_4a/relu_3x3_reduce
I0322 23:15:53.969009 11574 net.cpp:84] Creating Layer inception_4a/relu_3x3_reduce
I0322 23:15:53.969012 11574 net.cpp:406] inception_4a/relu_3x3_reduce <- inception_4a/3x3_reduce
I0322 23:15:53.969017 11574 net.cpp:367] inception_4a/relu_3x3_reduce -> inception_4a/3x3_reduce (in-place)
I0322 23:15:53.969640 11574 net.cpp:122] Setting up inception_4a/relu_3x3_reduce
I0322 23:15:53.969651 11574 net.cpp:129] Top shape: 16 96 40 23 (1413120)
I0322 23:15:53.969653 11574 net.cpp:137] Memory required for data: 3154890752
I0322 23:15:53.969656 11574 layer_factory.hpp:77] Creating layer inception_4a/3x3
I0322 23:15:53.969663 11574 net.cpp:84] Creating Layer inception_4a/3x3
I0322 23:15:53.969666 11574 net.cpp:406] inception_4a/3x3 <- inception_4a/3x3_reduce
I0322 23:15:53.969672 11574 net.cpp:380] inception_4a/3x3 -> inception_4a/3x3
I0322 23:15:53.971856 11574 net.cpp:122] Setting up inception_4a/3x3
I0322 23:15:53.971868 11574 net.cpp:129] Top shape: 16 208 40 23 (3061760)
I0322 23:15:53.971870 11574 net.cpp:137] Memory required for data: 3167137792
I0322 23:15:53.971875 11574 layer_factory.hpp:77] Creating layer inception_4a/relu_3x3
I0322 23:15:53.971879 11574 net.cpp:84] Creating Layer inception_4a/relu_3x3
I0322 23:15:53.971882 11574 net.cpp:406] inception_4a/relu_3x3 <- inception_4a/3x3
I0322 23:15:53.971886 11574 net.cpp:367] inception_4a/relu_3x3 -> inception_4a/3x3 (in-place)
I0322 23:15:53.972026 11574 net.cpp:122] Setting up inception_4a/relu_3x3
I0322 23:15:53.972034 11574 net.cpp:129] Top shape: 16 208 40 23 (3061760)
I0322 23:15:53.972038 11574 net.cpp:137] Memory required for data: 3179384832
I0322 23:15:53.972040 11574 layer_factory.hpp:77] Creating layer inception_4a/5x5_reduce
I0322 23:15:53.972048 11574 net.cpp:84] Creating Layer inception_4a/5x5_reduce
I0322 23:15:53.972051 11574 net.cpp:406] inception_4a/5x5_reduce <- pool3/3x3_s2_pool3/3x3_s2_0_split_2
I0322 23:15:53.972055 11574 net.cpp:380] inception_4a/5x5_reduce -> inception_4a/5x5_reduce
I0322 23:15:53.973121 11574 net.cpp:122] Setting up inception_4a/5x5_reduce
I0322 23:15:53.973132 11574 net.cpp:129] Top shape: 16 16 40 23 (235520)
I0322 23:15:53.973135 11574 net.cpp:137] Memory required for data: 3180326912
I0322 23:15:53.973140 11574 layer_factory.hpp:77] Creating layer inception_4a/relu_5x5_reduce
I0322 23:15:53.973146 11574 net.cpp:84] Creating Layer inception_4a/relu_5x5_reduce
I0322 23:15:53.973150 11574 net.cpp:406] inception_4a/relu_5x5_reduce <- inception_4a/5x5_reduce
I0322 23:15:53.973153 11574 net.cpp:367] inception_4a/relu_5x5_reduce -> inception_4a/5x5_reduce (in-place)
I0322 23:15:53.973294 11574 net.cpp:122] Setting up inception_4a/relu_5x5_reduce
I0322 23:15:53.973302 11574 net.cpp:129] Top shape: 16 16 40 23 (235520)
I0322 23:15:53.973304 11574 net.cpp:137] Memory required for data: 3181268992
I0322 23:15:53.973307 11574 layer_factory.hpp:77] Creating layer inception_4a/5x5
I0322 23:15:53.973315 11574 net.cpp:84] Creating Layer inception_4a/5x5
I0322 23:15:53.973318 11574 net.cpp:406] inception_4a/5x5 <- inception_4a/5x5_reduce
I0322 23:15:53.973323 11574 net.cpp:380] inception_4a/5x5 -> inception_4a/5x5
I0322 23:15:53.974472 11574 net.cpp:122] Setting up inception_4a/5x5
I0322 23:15:53.974483 11574 net.cpp:129] Top shape: 16 48 40 23 (706560)
I0322 23:15:53.974485 11574 net.cpp:137] Memory required for data: 3184095232
I0322 23:15:53.974490 11574 layer_factory.hpp:77] Creating layer inception_4a/relu_5x5
I0322 23:15:53.974496 11574 net.cpp:84] Creating Layer inception_4a/relu_5x5
I0322 23:15:53.974499 11574 net.cpp:406] inception_4a/relu_5x5 <- inception_4a/5x5
I0322 23:15:53.974503 11574 net.cpp:367] inception_4a/relu_5x5 -> inception_4a/5x5 (in-place)
I0322 23:15:53.974647 11574 net.cpp:122] Setting up inception_4a/relu_5x5
I0322 23:15:53.974655 11574 net.cpp:129] Top shape: 16 48 40 23 (706560)
I0322 23:15:53.974658 11574 net.cpp:137] Memory required for data: 3186921472
I0322 23:15:53.974660 11574 layer_factory.hpp:77] Creating layer inception_4a/pool
I0322 23:15:53.974665 11574 net.cpp:84] Creating Layer inception_4a/pool
I0322 23:15:53.974668 11574 net.cpp:406] inception_4a/pool <- pool3/3x3_s2_pool3/3x3_s2_0_split_3
I0322 23:15:53.974673 11574 net.cpp:380] inception_4a/pool -> inception_4a/pool
I0322 23:15:53.974704 11574 net.cpp:122] Setting up inception_4a/pool
I0322 23:15:53.974709 11574 net.cpp:129] Top shape: 16 480 40 23 (7065600)
I0322 23:15:53.974711 11574 net.cpp:137] Memory required for data: 3215183872
I0322 23:15:53.974714 11574 layer_factory.hpp:77] Creating layer inception_4a/pool_proj
I0322 23:15:53.974720 11574 net.cpp:84] Creating Layer inception_4a/pool_proj
I0322 23:15:53.974722 11574 net.cpp:406] inception_4a/pool_proj <- inception_4a/pool
I0322 23:15:53.974727 11574 net.cpp:380] inception_4a/pool_proj -> inception_4a/pool_proj
I0322 23:15:53.975885 11574 net.cpp:122] Setting up inception_4a/pool_proj
I0322 23:15:53.975898 11574 net.cpp:129] Top shape: 16 64 40 23 (942080)
I0322 23:15:53.975900 11574 net.cpp:137] Memory required for data: 3218952192
I0322 23:15:53.975904 11574 layer_factory.hpp:77] Creating layer inception_4a/relu_pool_proj
I0322 23:15:53.975909 11574 net.cpp:84] Creating Layer inception_4a/relu_pool_proj
I0322 23:15:53.975913 11574 net.cpp:406] inception_4a/relu_pool_proj <- inception_4a/pool_proj
I0322 23:15:53.975915 11574 net.cpp:367] inception_4a/relu_pool_proj -> inception_4a/pool_proj (in-place)
I0322 23:15:53.976058 11574 net.cpp:122] Setting up inception_4a/relu_pool_proj
I0322 23:15:53.976066 11574 net.cpp:129] Top shape: 16 64 40 23 (942080)
I0322 23:15:53.976068 11574 net.cpp:137] Memory required for data: 3222720512
I0322 23:15:53.976071 11574 layer_factory.hpp:77] Creating layer inception_4a/output
I0322 23:15:53.976075 11574 net.cpp:84] Creating Layer inception_4a/output
I0322 23:15:53.976078 11574 net.cpp:406] inception_4a/output <- inception_4a/1x1
I0322 23:15:53.976081 11574 net.cpp:406] inception_4a/output <- inception_4a/3x3
I0322 23:15:53.976084 11574 net.cpp:406] inception_4a/output <- inception_4a/5x5
I0322 23:15:53.976088 11574 net.cpp:406] inception_4a/output <- inception_4a/pool_proj
I0322 23:15:53.976091 11574 net.cpp:380] inception_4a/output -> inception_4a/output
I0322 23:15:53.976111 11574 net.cpp:122] Setting up inception_4a/output
I0322 23:15:53.976116 11574 net.cpp:129] Top shape: 16 512 40 23 (7536640)
I0322 23:15:53.976119 11574 net.cpp:137] Memory required for data: 3252867072
I0322 23:15:53.976120 11574 layer_factory.hpp:77] Creating layer inception_4a/output_inception_4a/output_0_split
I0322 23:15:53.976125 11574 net.cpp:84] Creating Layer inception_4a/output_inception_4a/output_0_split
I0322 23:15:53.976127 11574 net.cpp:406] inception_4a/output_inception_4a/output_0_split <- inception_4a/output
I0322 23:15:53.976130 11574 net.cpp:380] inception_4a/output_inception_4a/output_0_split -> inception_4a/output_inception_4a/output_0_split_0
I0322 23:15:53.976135 11574 net.cpp:380] inception_4a/output_inception_4a/output_0_split -> inception_4a/output_inception_4a/output_0_split_1
I0322 23:15:53.976138 11574 net.cpp:380] inception_4a/output_inception_4a/output_0_split -> inception_4a/output_inception_4a/output_0_split_2
I0322 23:15:53.976143 11574 net.cpp:380] inception_4a/output_inception_4a/output_0_split -> inception_4a/output_inception_4a/output_0_split_3
I0322 23:15:53.976186 11574 net.cpp:122] Setting up inception_4a/output_inception_4a/output_0_split
I0322 23:15:53.976189 11574 net.cpp:129] Top shape: 16 512 40 23 (7536640)
I0322 23:15:53.976192 11574 net.cpp:129] Top shape: 16 512 40 23 (7536640)
I0322 23:15:53.976194 11574 net.cpp:129] Top shape: 16 512 40 23 (7536640)
I0322 23:15:53.976197 11574 net.cpp:129] Top shape: 16 512 40 23 (7536640)
I0322 23:15:53.976199 11574 net.cpp:137] Memory required for data: 3373453312
I0322 23:15:53.976202 11574 layer_factory.hpp:77] Creating layer inception_4b/1x1
I0322 23:15:53.976208 11574 net.cpp:84] Creating Layer inception_4b/1x1
I0322 23:15:53.976212 11574 net.cpp:406] inception_4b/1x1 <- inception_4a/output_inception_4a/output_0_split_0
I0322 23:15:53.976217 11574 net.cpp:380] inception_4b/1x1 -> inception_4b/1x1
I0322 23:15:53.977587 11574 net.cpp:122] Setting up inception_4b/1x1
I0322 23:15:53.977598 11574 net.cpp:129] Top shape: 16 160 40 23 (2355200)
I0322 23:15:53.977602 11574 net.cpp:137] Memory required for data: 3382874112
I0322 23:15:53.977605 11574 layer_factory.hpp:77] Creating layer inception_4b/relu_1x1
I0322 23:15:53.977612 11574 net.cpp:84] Creating Layer inception_4b/relu_1x1
I0322 23:15:53.977614 11574 net.cpp:406] inception_4b/relu_1x1 <- inception_4b/1x1
I0322 23:15:53.977618 11574 net.cpp:367] inception_4b/relu_1x1 -> inception_4b/1x1 (in-place)
I0322 23:15:53.978261 11574 net.cpp:122] Setting up inception_4b/relu_1x1
I0322 23:15:53.978272 11574 net.cpp:129] Top shape: 16 160 40 23 (2355200)
I0322 23:15:53.978291 11574 net.cpp:137] Memory required for data: 3392294912
I0322 23:15:53.978294 11574 layer_factory.hpp:77] Creating layer inception_4b/3x3_reduce
I0322 23:15:53.978302 11574 net.cpp:84] Creating Layer inception_4b/3x3_reduce
I0322 23:15:53.978307 11574 net.cpp:406] inception_4b/3x3_reduce <- inception_4a/output_inception_4a/output_0_split_1
I0322 23:15:53.978310 11574 net.cpp:380] inception_4b/3x3_reduce -> inception_4b/3x3_reduce
I0322 23:15:53.979156 11574 net.cpp:122] Setting up inception_4b/3x3_reduce
I0322 23:15:53.979166 11574 net.cpp:129] Top shape: 16 112 40 23 (1648640)
I0322 23:15:53.979167 11574 net.cpp:137] Memory required for data: 3398889472
I0322 23:15:53.979172 11574 layer_factory.hpp:77] Creating layer inception_4b/relu_3x3_reduce
I0322 23:15:53.979177 11574 net.cpp:84] Creating Layer inception_4b/relu_3x3_reduce
I0322 23:15:53.979181 11574 net.cpp:406] inception_4b/relu_3x3_reduce <- inception_4b/3x3_reduce
I0322 23:15:53.979184 11574 net.cpp:367] inception_4b/relu_3x3_reduce -> inception_4b/3x3_reduce (in-place)
I0322 23:15:53.979837 11574 net.cpp:122] Setting up inception_4b/relu_3x3_reduce
I0322 23:15:53.979847 11574 net.cpp:129] Top shape: 16 112 40 23 (1648640)
I0322 23:15:53.979866 11574 net.cpp:137] Memory required for data: 3405484032
I0322 23:15:53.979868 11574 layer_factory.hpp:77] Creating layer inception_4b/3x3
I0322 23:15:53.979882 11574 net.cpp:84] Creating Layer inception_4b/3x3
I0322 23:15:53.979885 11574 net.cpp:406] inception_4b/3x3 <- inception_4b/3x3_reduce
I0322 23:15:53.979889 11574 net.cpp:380] inception_4b/3x3 -> inception_4b/3x3
I0322 23:15:53.982894 11574 net.cpp:122] Setting up inception_4b/3x3
I0322 23:15:53.982906 11574 net.cpp:129] Top shape: 16 224 40 23 (3297280)
I0322 23:15:53.982909 11574 net.cpp:137] Memory required for data: 3418673152
I0322 23:15:53.982914 11574 layer_factory.hpp:77] Creating layer inception_4b/relu_3x3
I0322 23:15:53.982920 11574 net.cpp:84] Creating Layer inception_4b/relu_3x3
I0322 23:15:53.982923 11574 net.cpp:406] inception_4b/relu_3x3 <- inception_4b/3x3
I0322 23:15:53.982928 11574 net.cpp:367] inception_4b/relu_3x3 -> inception_4b/3x3 (in-place)
I0322 23:15:53.983072 11574 net.cpp:122] Setting up inception_4b/relu_3x3
I0322 23:15:53.983080 11574 net.cpp:129] Top shape: 16 224 40 23 (3297280)
I0322 23:15:53.983083 11574 net.cpp:137] Memory required for data: 3431862272
I0322 23:15:53.983085 11574 layer_factory.hpp:77] Creating layer inception_4b/5x5_reduce
I0322 23:15:53.983093 11574 net.cpp:84] Creating Layer inception_4b/5x5_reduce
I0322 23:15:53.983096 11574 net.cpp:406] inception_4b/5x5_reduce <- inception_4a/output_inception_4a/output_0_split_2
I0322 23:15:53.983103 11574 net.cpp:380] inception_4b/5x5_reduce -> inception_4b/5x5_reduce
I0322 23:15:53.984249 11574 net.cpp:122] Setting up inception_4b/5x5_reduce
I0322 23:15:53.984261 11574 net.cpp:129] Top shape: 16 24 40 23 (353280)
I0322 23:15:53.984262 11574 net.cpp:137] Memory required for data: 3433275392
I0322 23:15:53.984267 11574 layer_factory.hpp:77] Creating layer inception_4b/relu_5x5_reduce
I0322 23:15:53.984273 11574 net.cpp:84] Creating Layer inception_4b/relu_5x5_reduce
I0322 23:15:53.984277 11574 net.cpp:406] inception_4b/relu_5x5_reduce <- inception_4b/5x5_reduce
I0322 23:15:53.984279 11574 net.cpp:367] inception_4b/relu_5x5_reduce -> inception_4b/5x5_reduce (in-place)
I0322 23:15:53.984436 11574 net.cpp:122] Setting up inception_4b/relu_5x5_reduce
I0322 23:15:53.984446 11574 net.cpp:129] Top shape: 16 24 40 23 (353280)
I0322 23:15:53.984447 11574 net.cpp:137] Memory required for data: 3434688512
I0322 23:15:53.984450 11574 layer_factory.hpp:77] Creating layer inception_4b/5x5
I0322 23:15:53.984458 11574 net.cpp:84] Creating Layer inception_4b/5x5
I0322 23:15:53.984462 11574 net.cpp:406] inception_4b/5x5 <- inception_4b/5x5_reduce
I0322 23:15:53.984465 11574 net.cpp:380] inception_4b/5x5 -> inception_4b/5x5
I0322 23:15:53.985705 11574 net.cpp:122] Setting up inception_4b/5x5
I0322 23:15:53.985718 11574 net.cpp:129] Top shape: 16 64 40 23 (942080)
I0322 23:15:53.985720 11574 net.cpp:137] Memory required for data: 3438456832
I0322 23:15:53.985724 11574 layer_factory.hpp:77] Creating layer inception_4b/relu_5x5
I0322 23:15:53.985729 11574 net.cpp:84] Creating Layer inception_4b/relu_5x5
I0322 23:15:53.985733 11574 net.cpp:406] inception_4b/relu_5x5 <- inception_4b/5x5
I0322 23:15:53.985736 11574 net.cpp:367] inception_4b/relu_5x5 -> inception_4b/5x5 (in-place)
I0322 23:15:53.985883 11574 net.cpp:122] Setting up inception_4b/relu_5x5
I0322 23:15:53.985891 11574 net.cpp:129] Top shape: 16 64 40 23 (942080)
I0322 23:15:53.985893 11574 net.cpp:137] Memory required for data: 3442225152
I0322 23:15:53.985896 11574 layer_factory.hpp:77] Creating layer inception_4b/pool
I0322 23:15:53.985901 11574 net.cpp:84] Creating Layer inception_4b/pool
I0322 23:15:53.985903 11574 net.cpp:406] inception_4b/pool <- inception_4a/output_inception_4a/output_0_split_3
I0322 23:15:53.985908 11574 net.cpp:380] inception_4b/pool -> inception_4b/pool
I0322 23:15:53.985940 11574 net.cpp:122] Setting up inception_4b/pool
I0322 23:15:53.985945 11574 net.cpp:129] Top shape: 16 512 40 23 (7536640)
I0322 23:15:53.985947 11574 net.cpp:137] Memory required for data: 3472371712
I0322 23:15:53.985949 11574 layer_factory.hpp:77] Creating layer inception_4b/pool_proj
I0322 23:15:53.985958 11574 net.cpp:84] Creating Layer inception_4b/pool_proj
I0322 23:15:53.985960 11574 net.cpp:406] inception_4b/pool_proj <- inception_4b/pool
I0322 23:15:53.985965 11574 net.cpp:380] inception_4b/pool_proj -> inception_4b/pool_proj
I0322 23:15:53.987145 11574 net.cpp:122] Setting up inception_4b/pool_proj
I0322 23:15:53.987156 11574 net.cpp:129] Top shape: 16 64 40 23 (942080)
I0322 23:15:53.987159 11574 net.cpp:137] Memory required for data: 3476140032
I0322 23:15:53.987164 11574 layer_factory.hpp:77] Creating layer inception_4b/relu_pool_proj
I0322 23:15:53.987169 11574 net.cpp:84] Creating Layer inception_4b/relu_pool_proj
I0322 23:15:53.987172 11574 net.cpp:406] inception_4b/relu_pool_proj <- inception_4b/pool_proj
I0322 23:15:53.987177 11574 net.cpp:367] inception_4b/relu_pool_proj -> inception_4b/pool_proj (in-place)
I0322 23:15:53.987321 11574 net.cpp:122] Setting up inception_4b/relu_pool_proj
I0322 23:15:53.987329 11574 net.cpp:129] Top shape: 16 64 40 23 (942080)
I0322 23:15:53.987332 11574 net.cpp:137] Memory required for data: 3479908352
I0322 23:15:53.987334 11574 layer_factory.hpp:77] Creating layer inception_4b/output
I0322 23:15:53.987339 11574 net.cpp:84] Creating Layer inception_4b/output
I0322 23:15:53.987341 11574 net.cpp:406] inception_4b/output <- inception_4b/1x1
I0322 23:15:53.987345 11574 net.cpp:406] inception_4b/output <- inception_4b/3x3
I0322 23:15:53.987350 11574 net.cpp:406] inception_4b/output <- inception_4b/5x5
I0322 23:15:53.987354 11574 net.cpp:406] inception_4b/output <- inception_4b/pool_proj
I0322 23:15:53.987357 11574 net.cpp:380] inception_4b/output -> inception_4b/output
I0322 23:15:53.987377 11574 net.cpp:122] Setting up inception_4b/output
I0322 23:15:53.987382 11574 net.cpp:129] Top shape: 16 512 40 23 (7536640)
I0322 23:15:53.987385 11574 net.cpp:137] Memory required for data: 3510054912
I0322 23:15:53.987386 11574 layer_factory.hpp:77] Creating layer inception_4b/output_inception_4b/output_0_split
I0322 23:15:53.987392 11574 net.cpp:84] Creating Layer inception_4b/output_inception_4b/output_0_split
I0322 23:15:53.987395 11574 net.cpp:406] inception_4b/output_inception_4b/output_0_split <- inception_4b/output
I0322 23:15:53.987398 11574 net.cpp:380] inception_4b/output_inception_4b/output_0_split -> inception_4b/output_inception_4b/output_0_split_0
I0322 23:15:53.987403 11574 net.cpp:380] inception_4b/output_inception_4b/output_0_split -> inception_4b/output_inception_4b/output_0_split_1
I0322 23:15:53.987407 11574 net.cpp:380] inception_4b/output_inception_4b/output_0_split -> inception_4b/output_inception_4b/output_0_split_2
I0322 23:15:53.987414 11574 net.cpp:380] inception_4b/output_inception_4b/output_0_split -> inception_4b/output_inception_4b/output_0_split_3
I0322 23:15:53.987457 11574 net.cpp:122] Setting up inception_4b/output_inception_4b/output_0_split
I0322 23:15:53.987462 11574 net.cpp:129] Top shape: 16 512 40 23 (7536640)
I0322 23:15:53.987465 11574 net.cpp:129] Top shape: 16 512 40 23 (7536640)
I0322 23:15:53.987468 11574 net.cpp:129] Top shape: 16 512 40 23 (7536640)
I0322 23:15:53.987470 11574 net.cpp:129] Top shape: 16 512 40 23 (7536640)
I0322 23:15:53.987473 11574 net.cpp:137] Memory required for data: 3630641152
I0322 23:15:53.987475 11574 layer_factory.hpp:77] Creating layer inception_4c/1x1
I0322 23:15:53.987483 11574 net.cpp:84] Creating Layer inception_4c/1x1
I0322 23:15:53.987485 11574 net.cpp:406] inception_4c/1x1 <- inception_4b/output_inception_4b/output_0_split_0
I0322 23:15:53.987490 11574 net.cpp:380] inception_4c/1x1 -> inception_4c/1x1
I0322 23:15:53.988842 11574 net.cpp:122] Setting up inception_4c/1x1
I0322 23:15:53.988870 11574 net.cpp:129] Top shape: 16 128 40 23 (1884160)
I0322 23:15:53.988873 11574 net.cpp:137] Memory required for data: 3638177792
I0322 23:15:53.988878 11574 layer_factory.hpp:77] Creating layer inception_4c/relu_1x1
I0322 23:15:53.988883 11574 net.cpp:84] Creating Layer inception_4c/relu_1x1
I0322 23:15:53.988885 11574 net.cpp:406] inception_4c/relu_1x1 <- inception_4c/1x1
I0322 23:15:53.988889 11574 net.cpp:367] inception_4c/relu_1x1 -> inception_4c/1x1 (in-place)
I0322 23:15:53.989514 11574 net.cpp:122] Setting up inception_4c/relu_1x1
I0322 23:15:53.989526 11574 net.cpp:129] Top shape: 16 128 40 23 (1884160)
I0322 23:15:53.989527 11574 net.cpp:137] Memory required for data: 3645714432
I0322 23:15:53.989531 11574 layer_factory.hpp:77] Creating layer inception_4c/3x3_reduce
I0322 23:15:53.989538 11574 net.cpp:84] Creating Layer inception_4c/3x3_reduce
I0322 23:15:53.989542 11574 net.cpp:406] inception_4c/3x3_reduce <- inception_4b/output_inception_4b/output_0_split_1
I0322 23:15:53.989547 11574 net.cpp:380] inception_4c/3x3_reduce -> inception_4c/3x3_reduce
I0322 23:15:53.990448 11574 net.cpp:122] Setting up inception_4c/3x3_reduce
I0322 23:15:53.990458 11574 net.cpp:129] Top shape: 16 128 40 23 (1884160)
I0322 23:15:53.990476 11574 net.cpp:137] Memory required for data: 3653251072
I0322 23:15:53.990481 11574 layer_factory.hpp:77] Creating layer inception_4c/relu_3x3_reduce
I0322 23:15:53.990485 11574 net.cpp:84] Creating Layer inception_4c/relu_3x3_reduce
I0322 23:15:53.990489 11574 net.cpp:406] inception_4c/relu_3x3_reduce <- inception_4c/3x3_reduce
I0322 23:15:53.990494 11574 net.cpp:367] inception_4c/relu_3x3_reduce -> inception_4c/3x3_reduce (in-place)
I0322 23:15:53.991102 11574 net.cpp:122] Setting up inception_4c/relu_3x3_reduce
I0322 23:15:53.991112 11574 net.cpp:129] Top shape: 16 128 40 23 (1884160)
I0322 23:15:53.991116 11574 net.cpp:137] Memory required for data: 3660787712
I0322 23:15:53.991117 11574 layer_factory.hpp:77] Creating layer inception_4c/3x3
I0322 23:15:53.991125 11574 net.cpp:84] Creating Layer inception_4c/3x3
I0322 23:15:53.991129 11574 net.cpp:406] inception_4c/3x3 <- inception_4c/3x3_reduce
I0322 23:15:53.991134 11574 net.cpp:380] inception_4c/3x3 -> inception_4c/3x3
I0322 23:15:53.994422 11574 net.cpp:122] Setting up inception_4c/3x3
I0322 23:15:53.994434 11574 net.cpp:129] Top shape: 16 256 40 23 (3768320)
I0322 23:15:53.994437 11574 net.cpp:137] Memory required for data: 3675860992
I0322 23:15:53.994443 11574 layer_factory.hpp:77] Creating layer inception_4c/relu_3x3
I0322 23:15:53.994448 11574 net.cpp:84] Creating Layer inception_4c/relu_3x3
I0322 23:15:53.994451 11574 net.cpp:406] inception_4c/relu_3x3 <- inception_4c/3x3
I0322 23:15:53.994455 11574 net.cpp:367] inception_4c/relu_3x3 -> inception_4c/3x3 (in-place)
I0322 23:15:53.994590 11574 net.cpp:122] Setting up inception_4c/relu_3x3
I0322 23:15:53.994598 11574 net.cpp:129] Top shape: 16 256 40 23 (3768320)
I0322 23:15:53.994601 11574 net.cpp:137] Memory required for data: 3690934272
I0322 23:15:53.994603 11574 layer_factory.hpp:77] Creating layer inception_4c/5x5_reduce
I0322 23:15:53.994611 11574 net.cpp:84] Creating Layer inception_4c/5x5_reduce
I0322 23:15:53.994613 11574 net.cpp:406] inception_4c/5x5_reduce <- inception_4b/output_inception_4b/output_0_split_2
I0322 23:15:53.994621 11574 net.cpp:380] inception_4c/5x5_reduce -> inception_4c/5x5_reduce
I0322 23:15:53.995762 11574 net.cpp:122] Setting up inception_4c/5x5_reduce
I0322 23:15:53.995774 11574 net.cpp:129] Top shape: 16 24 40 23 (353280)
I0322 23:15:53.995775 11574 net.cpp:137] Memory required for data: 3692347392
I0322 23:15:53.995780 11574 layer_factory.hpp:77] Creating layer inception_4c/relu_5x5_reduce
I0322 23:15:53.995786 11574 net.cpp:84] Creating Layer inception_4c/relu_5x5_reduce
I0322 23:15:53.995790 11574 net.cpp:406] inception_4c/relu_5x5_reduce <- inception_4c/5x5_reduce
I0322 23:15:53.995792 11574 net.cpp:367] inception_4c/relu_5x5_reduce -> inception_4c/5x5_reduce (in-place)
I0322 23:15:53.995939 11574 net.cpp:122] Setting up inception_4c/relu_5x5_reduce
I0322 23:15:53.995947 11574 net.cpp:129] Top shape: 16 24 40 23 (353280)
I0322 23:15:53.995950 11574 net.cpp:137] Memory required for data: 3693760512
I0322 23:15:53.995952 11574 layer_factory.hpp:77] Creating layer inception_4c/5x5
I0322 23:15:53.995959 11574 net.cpp:84] Creating Layer inception_4c/5x5
I0322 23:15:53.995962 11574 net.cpp:406] inception_4c/5x5 <- inception_4c/5x5_reduce
I0322 23:15:53.995968 11574 net.cpp:380] inception_4c/5x5 -> inception_4c/5x5
I0322 23:15:53.997813 11574 net.cpp:122] Setting up inception_4c/5x5
I0322 23:15:53.997825 11574 net.cpp:129] Top shape: 16 64 40 23 (942080)
I0322 23:15:53.997828 11574 net.cpp:137] Memory required for data: 3697528832
I0322 23:15:53.997833 11574 layer_factory.hpp:77] Creating layer inception_4c/relu_5x5
I0322 23:15:53.997838 11574 net.cpp:84] Creating Layer inception_4c/relu_5x5
I0322 23:15:53.997840 11574 net.cpp:406] inception_4c/relu_5x5 <- inception_4c/5x5
I0322 23:15:53.997845 11574 net.cpp:367] inception_4c/relu_5x5 -> inception_4c/5x5 (in-place)
I0322 23:15:53.997989 11574 net.cpp:122] Setting up inception_4c/relu_5x5
I0322 23:15:53.997997 11574 net.cpp:129] Top shape: 16 64 40 23 (942080)
I0322 23:15:53.997999 11574 net.cpp:137] Memory required for data: 3701297152
I0322 23:15:53.998003 11574 layer_factory.hpp:77] Creating layer inception_4c/pool
I0322 23:15:53.998009 11574 net.cpp:84] Creating Layer inception_4c/pool
I0322 23:15:53.998013 11574 net.cpp:406] inception_4c/pool <- inception_4b/output_inception_4b/output_0_split_3
I0322 23:15:53.998016 11574 net.cpp:380] inception_4c/pool -> inception_4c/pool
I0322 23:15:53.998049 11574 net.cpp:122] Setting up inception_4c/pool
I0322 23:15:53.998054 11574 net.cpp:129] Top shape: 16 512 40 23 (7536640)
I0322 23:15:53.998056 11574 net.cpp:137] Memory required for data: 3731443712
I0322 23:15:53.998059 11574 layer_factory.hpp:77] Creating layer inception_4c/pool_proj
I0322 23:15:53.998065 11574 net.cpp:84] Creating Layer inception_4c/pool_proj
I0322 23:15:53.998069 11574 net.cpp:406] inception_4c/pool_proj <- inception_4c/pool
I0322 23:15:53.998073 11574 net.cpp:380] inception_4c/pool_proj -> inception_4c/pool_proj
I0322 23:15:53.999299 11574 net.cpp:122] Setting up inception_4c/pool_proj
I0322 23:15:53.999310 11574 net.cpp:129] Top shape: 16 64 40 23 (942080)
I0322 23:15:53.999312 11574 net.cpp:137] Memory required for data: 3735212032
I0322 23:15:53.999326 11574 layer_factory.hpp:77] Creating layer inception_4c/relu_pool_proj
I0322 23:15:53.999331 11574 net.cpp:84] Creating Layer inception_4c/relu_pool_proj
I0322 23:15:53.999335 11574 net.cpp:406] inception_4c/relu_pool_proj <- inception_4c/pool_proj
I0322 23:15:53.999338 11574 net.cpp:367] inception_4c/relu_pool_proj -> inception_4c/pool_proj (in-place)
I0322 23:15:53.999485 11574 net.cpp:122] Setting up inception_4c/relu_pool_proj
I0322 23:15:53.999493 11574 net.cpp:129] Top shape: 16 64 40 23 (942080)
I0322 23:15:53.999495 11574 net.cpp:137] Memory required for data: 3738980352
I0322 23:15:53.999498 11574 layer_factory.hpp:77] Creating layer inception_4c/output
I0322 23:15:53.999502 11574 net.cpp:84] Creating Layer inception_4c/output
I0322 23:15:53.999505 11574 net.cpp:406] inception_4c/output <- inception_4c/1x1
I0322 23:15:53.999510 11574 net.cpp:406] inception_4c/output <- inception_4c/3x3
I0322 23:15:53.999511 11574 net.cpp:406] inception_4c/output <- inception_4c/5x5
I0322 23:15:53.999516 11574 net.cpp:406] inception_4c/output <- inception_4c/pool_proj
I0322 23:15:53.999518 11574 net.cpp:380] inception_4c/output -> inception_4c/output
I0322 23:15:53.999541 11574 net.cpp:122] Setting up inception_4c/output
I0322 23:15:53.999546 11574 net.cpp:129] Top shape: 16 512 40 23 (7536640)
I0322 23:15:53.999547 11574 net.cpp:137] Memory required for data: 3769126912
I0322 23:15:53.999550 11574 layer_factory.hpp:77] Creating layer inception_4c/output_inception_4c/output_0_split
I0322 23:15:53.999555 11574 net.cpp:84] Creating Layer inception_4c/output_inception_4c/output_0_split
I0322 23:15:53.999557 11574 net.cpp:406] inception_4c/output_inception_4c/output_0_split <- inception_4c/output
I0322 23:15:53.999562 11574 net.cpp:380] inception_4c/output_inception_4c/output_0_split -> inception_4c/output_inception_4c/output_0_split_0
I0322 23:15:53.999565 11574 net.cpp:380] inception_4c/output_inception_4c/output_0_split -> inception_4c/output_inception_4c/output_0_split_1
I0322 23:15:53.999569 11574 net.cpp:380] inception_4c/output_inception_4c/output_0_split -> inception_4c/output_inception_4c/output_0_split_2
I0322 23:15:53.999573 11574 net.cpp:380] inception_4c/output_inception_4c/output_0_split -> inception_4c/output_inception_4c/output_0_split_3
I0322 23:15:53.999617 11574 net.cpp:122] Setting up inception_4c/output_inception_4c/output_0_split
I0322 23:15:53.999621 11574 net.cpp:129] Top shape: 16 512 40 23 (7536640)
I0322 23:15:53.999624 11574 net.cpp:129] Top shape: 16 512 40 23 (7536640)
I0322 23:15:53.999626 11574 net.cpp:129] Top shape: 16 512 40 23 (7536640)
I0322 23:15:53.999629 11574 net.cpp:129] Top shape: 16 512 40 23 (7536640)
I0322 23:15:53.999631 11574 net.cpp:137] Memory required for data: 3889713152
I0322 23:15:53.999634 11574 layer_factory.hpp:77] Creating layer inception_4d/1x1
I0322 23:15:53.999640 11574 net.cpp:84] Creating Layer inception_4d/1x1
I0322 23:15:53.999644 11574 net.cpp:406] inception_4d/1x1 <- inception_4c/output_inception_4c/output_0_split_0
I0322 23:15:53.999647 11574 net.cpp:380] inception_4d/1x1 -> inception_4d/1x1
I0322 23:15:54.000944 11574 net.cpp:122] Setting up inception_4d/1x1
I0322 23:15:54.000955 11574 net.cpp:129] Top shape: 16 112 40 23 (1648640)
I0322 23:15:54.000958 11574 net.cpp:137] Memory required for data: 3896307712
I0322 23:15:54.000963 11574 layer_factory.hpp:77] Creating layer inception_4d/relu_1x1
I0322 23:15:54.000967 11574 net.cpp:84] Creating Layer inception_4d/relu_1x1
I0322 23:15:54.000972 11574 net.cpp:406] inception_4d/relu_1x1 <- inception_4d/1x1
I0322 23:15:54.000975 11574 net.cpp:367] inception_4d/relu_1x1 -> inception_4d/1x1 (in-place)
I0322 23:15:54.001608 11574 net.cpp:122] Setting up inception_4d/relu_1x1
I0322 23:15:54.001619 11574 net.cpp:129] Top shape: 16 112 40 23 (1648640)
I0322 23:15:54.001621 11574 net.cpp:137] Memory required for data: 3902902272
I0322 23:15:54.001624 11574 layer_factory.hpp:77] Creating layer inception_4d/3x3_reduce
I0322 23:15:54.001632 11574 net.cpp:84] Creating Layer inception_4d/3x3_reduce
I0322 23:15:54.001636 11574 net.cpp:406] inception_4d/3x3_reduce <- inception_4c/output_inception_4c/output_0_split_1
I0322 23:15:54.001641 11574 net.cpp:380] inception_4d/3x3_reduce -> inception_4d/3x3_reduce
I0322 23:15:54.002544 11574 net.cpp:122] Setting up inception_4d/3x3_reduce
I0322 23:15:54.002553 11574 net.cpp:129] Top shape: 16 144 40 23 (2119680)
I0322 23:15:54.002557 11574 net.cpp:137] Memory required for data: 3911380992
I0322 23:15:54.002560 11574 layer_factory.hpp:77] Creating layer inception_4d/relu_3x3_reduce
I0322 23:15:54.002566 11574 net.cpp:84] Creating Layer inception_4d/relu_3x3_reduce
I0322 23:15:54.002569 11574 net.cpp:406] inception_4d/relu_3x3_reduce <- inception_4d/3x3_reduce
I0322 23:15:54.002573 11574 net.cpp:367] inception_4d/relu_3x3_reduce -> inception_4d/3x3_reduce (in-place)
I0322 23:15:54.003209 11574 net.cpp:122] Setting up inception_4d/relu_3x3_reduce
I0322 23:15:54.003219 11574 net.cpp:129] Top shape: 16 144 40 23 (2119680)
I0322 23:15:54.003221 11574 net.cpp:137] Memory required for data: 3919859712
I0322 23:15:54.003224 11574 layer_factory.hpp:77] Creating layer inception_4d/3x3
I0322 23:15:54.003233 11574 net.cpp:84] Creating Layer inception_4d/3x3
I0322 23:15:54.003237 11574 net.cpp:406] inception_4d/3x3 <- inception_4d/3x3_reduce
I0322 23:15:54.003242 11574 net.cpp:380] inception_4d/3x3 -> inception_4d/3x3
I0322 23:15:54.006888 11574 net.cpp:122] Setting up inception_4d/3x3
I0322 23:15:54.006901 11574 net.cpp:129] Top shape: 16 288 40 23 (4239360)
I0322 23:15:54.006902 11574 net.cpp:137] Memory required for data: 3936817152
I0322 23:15:54.006908 11574 layer_factory.hpp:77] Creating layer inception_4d/relu_3x3
I0322 23:15:54.006912 11574 net.cpp:84] Creating Layer inception_4d/relu_3x3
I0322 23:15:54.006916 11574 net.cpp:406] inception_4d/relu_3x3 <- inception_4d/3x3
I0322 23:15:54.006920 11574 net.cpp:367] inception_4d/relu_3x3 -> inception_4d/3x3 (in-place)
I0322 23:15:54.007071 11574 net.cpp:122] Setting up inception_4d/relu_3x3
I0322 23:15:54.007079 11574 net.cpp:129] Top shape: 16 288 40 23 (4239360)
I0322 23:15:54.007082 11574 net.cpp:137] Memory required for data: 3953774592
I0322 23:15:54.007084 11574 layer_factory.hpp:77] Creating layer inception_4d/5x5_reduce
I0322 23:15:54.007092 11574 net.cpp:84] Creating Layer inception_4d/5x5_reduce
I0322 23:15:54.007097 11574 net.cpp:406] inception_4d/5x5_reduce <- inception_4c/output_inception_4c/output_0_split_2
I0322 23:15:54.007102 11574 net.cpp:380] inception_4d/5x5_reduce -> inception_4d/5x5_reduce
I0322 23:15:54.008241 11574 net.cpp:122] Setting up inception_4d/5x5_reduce
I0322 23:15:54.008252 11574 net.cpp:129] Top shape: 16 32 40 23 (471040)
I0322 23:15:54.008255 11574 net.cpp:137] Memory required for data: 3955658752
I0322 23:15:54.008260 11574 layer_factory.hpp:77] Creating layer inception_4d/relu_5x5_reduce
I0322 23:15:54.008265 11574 net.cpp:84] Creating Layer inception_4d/relu_5x5_reduce
I0322 23:15:54.008268 11574 net.cpp:406] inception_4d/relu_5x5_reduce <- inception_4d/5x5_reduce
I0322 23:15:54.008272 11574 net.cpp:367] inception_4d/relu_5x5_reduce -> inception_4d/5x5_reduce (in-place)
I0322 23:15:54.008431 11574 net.cpp:122] Setting up inception_4d/relu_5x5_reduce
I0322 23:15:54.008441 11574 net.cpp:129] Top shape: 16 32 40 23 (471040)
I0322 23:15:54.008445 11574 net.cpp:137] Memory required for data: 3957542912
I0322 23:15:54.008446 11574 layer_factory.hpp:77] Creating layer inception_4d/5x5
I0322 23:15:54.008455 11574 net.cpp:84] Creating Layer inception_4d/5x5
I0322 23:15:54.008457 11574 net.cpp:406] inception_4d/5x5 <- inception_4d/5x5_reduce
I0322 23:15:54.008462 11574 net.cpp:380] inception_4d/5x5 -> inception_4d/5x5
I0322 23:15:54.009729 11574 net.cpp:122] Setting up inception_4d/5x5
I0322 23:15:54.009740 11574 net.cpp:129] Top shape: 16 64 40 23 (942080)
I0322 23:15:54.009743 11574 net.cpp:137] Memory required for data: 3961311232
I0322 23:15:54.009747 11574 layer_factory.hpp:77] Creating layer inception_4d/relu_5x5
I0322 23:15:54.009752 11574 net.cpp:84] Creating Layer inception_4d/relu_5x5
I0322 23:15:54.009755 11574 net.cpp:406] inception_4d/relu_5x5 <- inception_4d/5x5
I0322 23:15:54.009760 11574 net.cpp:367] inception_4d/relu_5x5 -> inception_4d/5x5 (in-place)
I0322 23:15:54.009907 11574 net.cpp:122] Setting up inception_4d/relu_5x5
I0322 23:15:54.009915 11574 net.cpp:129] Top shape: 16 64 40 23 (942080)
I0322 23:15:54.009917 11574 net.cpp:137] Memory required for data: 3965079552
I0322 23:15:54.009920 11574 layer_factory.hpp:77] Creating layer inception_4d/pool
I0322 23:15:54.009927 11574 net.cpp:84] Creating Layer inception_4d/pool
I0322 23:15:54.009929 11574 net.cpp:406] inception_4d/pool <- inception_4c/output_inception_4c/output_0_split_3
I0322 23:15:54.009934 11574 net.cpp:380] inception_4d/pool -> inception_4d/pool
I0322 23:15:54.009968 11574 net.cpp:122] Setting up inception_4d/pool
I0322 23:15:54.009974 11574 net.cpp:129] Top shape: 16 512 40 23 (7536640)
I0322 23:15:54.009975 11574 net.cpp:137] Memory required for data: 3995226112
I0322 23:15:54.009979 11574 layer_factory.hpp:77] Creating layer inception_4d/pool_proj
I0322 23:15:54.009985 11574 net.cpp:84] Creating Layer inception_4d/pool_proj
I0322 23:15:54.009989 11574 net.cpp:406] inception_4d/pool_proj <- inception_4d/pool
I0322 23:15:54.009994 11574 net.cpp:380] inception_4d/pool_proj -> inception_4d/pool_proj
I0322 23:15:54.011191 11574 net.cpp:122] Setting up inception_4d/pool_proj
I0322 23:15:54.011204 11574 net.cpp:129] Top shape: 16 64 40 23 (942080)
I0322 23:15:54.011205 11574 net.cpp:137] Memory required for data: 3998994432
I0322 23:15:54.011210 11574 layer_factory.hpp:77] Creating layer inception_4d/relu_pool_proj
I0322 23:15:54.011215 11574 net.cpp:84] Creating Layer inception_4d/relu_pool_proj
I0322 23:15:54.011219 11574 net.cpp:406] inception_4d/relu_pool_proj <- inception_4d/pool_proj
I0322 23:15:54.011222 11574 net.cpp:367] inception_4d/relu_pool_proj -> inception_4d/pool_proj (in-place)
I0322 23:15:54.011368 11574 net.cpp:122] Setting up inception_4d/relu_pool_proj
I0322 23:15:54.011376 11574 net.cpp:129] Top shape: 16 64 40 23 (942080)
I0322 23:15:54.011379 11574 net.cpp:137] Memory required for data: 4002762752
I0322 23:15:54.011381 11574 layer_factory.hpp:77] Creating layer inception_4d/output
I0322 23:15:54.011385 11574 net.cpp:84] Creating Layer inception_4d/output
I0322 23:15:54.011389 11574 net.cpp:406] inception_4d/output <- inception_4d/1x1
I0322 23:15:54.011391 11574 net.cpp:406] inception_4d/output <- inception_4d/3x3
I0322 23:15:54.011394 11574 net.cpp:406] inception_4d/output <- inception_4d/5x5
I0322 23:15:54.011397 11574 net.cpp:406] inception_4d/output <- inception_4d/pool_proj
I0322 23:15:54.011402 11574 net.cpp:380] inception_4d/output -> inception_4d/output
I0322 23:15:54.011423 11574 net.cpp:122] Setting up inception_4d/output
I0322 23:15:54.011430 11574 net.cpp:129] Top shape: 16 528 40 23 (7772160)
I0322 23:15:54.011431 11574 net.cpp:137] Memory required for data: 4033851392
I0322 23:15:54.011433 11574 layer_factory.hpp:77] Creating layer inception_4d/output_inception_4d/output_0_split
I0322 23:15:54.011437 11574 net.cpp:84] Creating Layer inception_4d/output_inception_4d/output_0_split
I0322 23:15:54.011440 11574 net.cpp:406] inception_4d/output_inception_4d/output_0_split <- inception_4d/output
I0322 23:15:54.011443 11574 net.cpp:380] inception_4d/output_inception_4d/output_0_split -> inception_4d/output_inception_4d/output_0_split_0
I0322 23:15:54.011448 11574 net.cpp:380] inception_4d/output_inception_4d/output_0_split -> inception_4d/output_inception_4d/output_0_split_1
I0322 23:15:54.011453 11574 net.cpp:380] inception_4d/output_inception_4d/output_0_split -> inception_4d/output_inception_4d/output_0_split_2
I0322 23:15:54.011457 11574 net.cpp:380] inception_4d/output_inception_4d/output_0_split -> inception_4d/output_inception_4d/output_0_split_3
I0322 23:15:54.011502 11574 net.cpp:122] Setting up inception_4d/output_inception_4d/output_0_split
I0322 23:15:54.011504 11574 net.cpp:129] Top shape: 16 528 40 23 (7772160)
I0322 23:15:54.011507 11574 net.cpp:129] Top shape: 16 528 40 23 (7772160)
I0322 23:15:54.011510 11574 net.cpp:129] Top shape: 16 528 40 23 (7772160)
I0322 23:15:54.011512 11574 net.cpp:129] Top shape: 16 528 40 23 (7772160)
I0322 23:15:54.011514 11574 net.cpp:137] Memory required for data: 4158205952
I0322 23:15:54.011518 11574 layer_factory.hpp:77] Creating layer inception_4e/1x1
I0322 23:15:54.011524 11574 net.cpp:84] Creating Layer inception_4e/1x1
I0322 23:15:54.011528 11574 net.cpp:406] inception_4e/1x1 <- inception_4d/output_inception_4d/output_0_split_0
I0322 23:15:54.011533 11574 net.cpp:380] inception_4e/1x1 -> inception_4e/1x1
I0322 23:15:54.013113 11574 net.cpp:122] Setting up inception_4e/1x1
I0322 23:15:54.013124 11574 net.cpp:129] Top shape: 16 256 40 23 (3768320)
I0322 23:15:54.013128 11574 net.cpp:137] Memory required for data: 4173279232
I0322 23:15:54.013133 11574 layer_factory.hpp:77] Creating layer inception_4e/relu_1x1
I0322 23:15:54.013136 11574 net.cpp:84] Creating Layer inception_4e/relu_1x1
I0322 23:15:54.013139 11574 net.cpp:406] inception_4e/relu_1x1 <- inception_4e/1x1
I0322 23:15:54.013144 11574 net.cpp:367] inception_4e/relu_1x1 -> inception_4e/1x1 (in-place)
I0322 23:15:54.013780 11574 net.cpp:122] Setting up inception_4e/relu_1x1
I0322 23:15:54.013792 11574 net.cpp:129] Top shape: 16 256 40 23 (3768320)
I0322 23:15:54.013793 11574 net.cpp:137] Memory required for data: 4188352512
I0322 23:15:54.013797 11574 layer_factory.hpp:77] Creating layer inception_4e/3x3_reduce
I0322 23:15:54.013804 11574 net.cpp:84] Creating Layer inception_4e/3x3_reduce
I0322 23:15:54.013808 11574 net.cpp:406] inception_4e/3x3_reduce <- inception_4d/output_inception_4d/output_0_split_1
I0322 23:15:54.013813 11574 net.cpp:380] inception_4e/3x3_reduce -> inception_4e/3x3_reduce
I0322 23:15:54.014766 11574 net.cpp:122] Setting up inception_4e/3x3_reduce
I0322 23:15:54.014775 11574 net.cpp:129] Top shape: 16 160 40 23 (2355200)
I0322 23:15:54.014778 11574 net.cpp:137] Memory required for data: 4197773312
I0322 23:15:54.014782 11574 layer_factory.hpp:77] Creating layer inception_4e/relu_3x3_reduce
I0322 23:15:54.014788 11574 net.cpp:84] Creating Layer inception_4e/relu_3x3_reduce
I0322 23:15:54.014791 11574 net.cpp:406] inception_4e/relu_3x3_reduce <- inception_4e/3x3_reduce
I0322 23:15:54.014794 11574 net.cpp:367] inception_4e/relu_3x3_reduce -> inception_4e/3x3_reduce (in-place)
I0322 23:15:54.015434 11574 net.cpp:122] Setting up inception_4e/relu_3x3_reduce
I0322 23:15:54.015445 11574 net.cpp:129] Top shape: 16 160 40 23 (2355200)
I0322 23:15:54.015449 11574 net.cpp:137] Memory required for data: 4207194112
I0322 23:15:54.015450 11574 layer_factory.hpp:77] Creating layer inception_4e/3x3
I0322 23:15:54.015458 11574 net.cpp:84] Creating Layer inception_4e/3x3
I0322 23:15:54.015462 11574 net.cpp:406] inception_4e/3x3 <- inception_4e/3x3_reduce
I0322 23:15:54.015466 11574 net.cpp:380] inception_4e/3x3 -> inception_4e/3x3
I0322 23:15:54.019454 11574 net.cpp:122] Setting up inception_4e/3x3
I0322 23:15:54.019465 11574 net.cpp:129] Top shape: 16 320 40 23 (4710400)
I0322 23:15:54.019469 11574 net.cpp:137] Memory required for data: 4226035712
I0322 23:15:54.019474 11574 layer_factory.hpp:77] Creating layer inception_4e/relu_3x3
I0322 23:15:54.019479 11574 net.cpp:84] Creating Layer inception_4e/relu_3x3
I0322 23:15:54.019481 11574 net.cpp:406] inception_4e/relu_3x3 <- inception_4e/3x3
I0322 23:15:54.019486 11574 net.cpp:367] inception_4e/relu_3x3 -> inception_4e/3x3 (in-place)
I0322 23:15:54.019640 11574 net.cpp:122] Setting up inception_4e/relu_3x3
I0322 23:15:54.019649 11574 net.cpp:129] Top shape: 16 320 40 23 (4710400)
I0322 23:15:54.019651 11574 net.cpp:137] Memory required for data: 4244877312
I0322 23:15:54.019654 11574 layer_factory.hpp:77] Creating layer inception_4e/5x5_reduce
I0322 23:15:54.019662 11574 net.cpp:84] Creating Layer inception_4e/5x5_reduce
I0322 23:15:54.019666 11574 net.cpp:406] inception_4e/5x5_reduce <- inception_4d/output_inception_4d/output_0_split_2
I0322 23:15:54.019670 11574 net.cpp:380] inception_4e/5x5_reduce -> inception_4e/5x5_reduce
I0322 23:15:54.020825 11574 net.cpp:122] Setting up inception_4e/5x5_reduce
I0322 23:15:54.020836 11574 net.cpp:129] Top shape: 16 32 40 23 (471040)
I0322 23:15:54.020839 11574 net.cpp:137] Memory required for data: 4246761472
I0322 23:15:54.020844 11574 layer_factory.hpp:77] Creating layer inception_4e/relu_5x5_reduce
I0322 23:15:54.020850 11574 net.cpp:84] Creating Layer inception_4e/relu_5x5_reduce
I0322 23:15:54.020853 11574 net.cpp:406] inception_4e/relu_5x5_reduce <- inception_4e/5x5_reduce
I0322 23:15:54.020858 11574 net.cpp:367] inception_4e/relu_5x5_reduce -> inception_4e/5x5_reduce (in-place)
I0322 23:15:54.021486 11574 net.cpp:122] Setting up inception_4e/relu_5x5_reduce
I0322 23:15:54.021497 11574 net.cpp:129] Top shape: 16 32 40 23 (471040)
I0322 23:15:54.021498 11574 net.cpp:137] Memory required for data: 4248645632
I0322 23:15:54.021502 11574 layer_factory.hpp:77] Creating layer inception_4e/5x5
I0322 23:15:54.021509 11574 net.cpp:84] Creating Layer inception_4e/5x5
I0322 23:15:54.021512 11574 net.cpp:406] inception_4e/5x5 <- inception_4e/5x5_reduce
I0322 23:15:54.021518 11574 net.cpp:380] inception_4e/5x5 -> inception_4e/5x5
I0322 23:15:54.023613 11574 net.cpp:122] Setting up inception_4e/5x5
I0322 23:15:54.023625 11574 net.cpp:129] Top shape: 16 128 40 23 (1884160)
I0322 23:15:54.023628 11574 net.cpp:137] Memory required for data: 4256182272
I0322 23:15:54.023633 11574 layer_factory.hpp:77] Creating layer inception_4e/relu_5x5
I0322 23:15:54.023638 11574 net.cpp:84] Creating Layer inception_4e/relu_5x5
I0322 23:15:54.023643 11574 net.cpp:406] inception_4e/relu_5x5 <- inception_4e/5x5
I0322 23:15:54.023645 11574 net.cpp:367] inception_4e/relu_5x5 -> inception_4e/5x5 (in-place)
I0322 23:15:54.023792 11574 net.cpp:122] Setting up inception_4e/relu_5x5
I0322 23:15:54.023800 11574 net.cpp:129] Top shape: 16 128 40 23 (1884160)
I0322 23:15:54.023803 11574 net.cpp:137] Memory required for data: 4263718912
I0322 23:15:54.023805 11574 layer_factory.hpp:77] Creating layer inception_4e/pool
I0322 23:15:54.023810 11574 net.cpp:84] Creating Layer inception_4e/pool
I0322 23:15:54.023813 11574 net.cpp:406] inception_4e/pool <- inception_4d/output_inception_4d/output_0_split_3
I0322 23:15:54.023818 11574 net.cpp:380] inception_4e/pool -> inception_4e/pool
I0322 23:15:54.023852 11574 net.cpp:122] Setting up inception_4e/pool
I0322 23:15:54.023857 11574 net.cpp:129] Top shape: 16 528 40 23 (7772160)
I0322 23:15:54.023859 11574 net.cpp:137] Memory required for data: 4294807552
I0322 23:15:54.023861 11574 layer_factory.hpp:77] Creating layer inception_4e/pool_proj
I0322 23:15:54.023870 11574 net.cpp:84] Creating Layer inception_4e/pool_proj
I0322 23:15:54.023874 11574 net.cpp:406] inception_4e/pool_proj <- inception_4e/pool
I0322 23:15:54.023877 11574 net.cpp:380] inception_4e/pool_proj -> inception_4e/pool_proj
I0322 23:15:54.025254 11574 net.cpp:122] Setting up inception_4e/pool_proj
I0322 23:15:54.025264 11574 net.cpp:129] Top shape: 16 128 40 23 (1884160)
I0322 23:15:54.025269 11574 net.cpp:137] Memory required for data: 4302344192
I0322 23:15:54.025274 11574 layer_factory.hpp:77] Creating layer inception_4e/relu_pool_proj
I0322 23:15:54.025279 11574 net.cpp:84] Creating Layer inception_4e/relu_pool_proj
I0322 23:15:54.025281 11574 net.cpp:406] inception_4e/relu_pool_proj <- inception_4e/pool_proj
I0322 23:15:54.025285 11574 net.cpp:367] inception_4e/relu_pool_proj -> inception_4e/pool_proj (in-place)
I0322 23:15:54.025435 11574 net.cpp:122] Setting up inception_4e/relu_pool_proj
I0322 23:15:54.025444 11574 net.cpp:129] Top shape: 16 128 40 23 (1884160)
I0322 23:15:54.025446 11574 net.cpp:137] Memory required for data: 4309880832
I0322 23:15:54.025449 11574 layer_factory.hpp:77] Creating layer inception_4e/output
I0322 23:15:54.025452 11574 net.cpp:84] Creating Layer inception_4e/output
I0322 23:15:54.025455 11574 net.cpp:406] inception_4e/output <- inception_4e/1x1
I0322 23:15:54.025459 11574 net.cpp:406] inception_4e/output <- inception_4e/3x3
I0322 23:15:54.025461 11574 net.cpp:406] inception_4e/output <- inception_4e/5x5
I0322 23:15:54.025465 11574 net.cpp:406] inception_4e/output <- inception_4e/pool_proj
I0322 23:15:54.025467 11574 net.cpp:380] inception_4e/output -> inception_4e/output
I0322 23:15:54.025491 11574 net.cpp:122] Setting up inception_4e/output
I0322 23:15:54.025496 11574 net.cpp:129] Top shape: 16 832 40 23 (12247040)
I0322 23:15:54.025497 11574 net.cpp:137] Memory required for data: 4358868992
I0322 23:15:54.025499 11574 layer_factory.hpp:77] Creating layer inception_4e/output_inception_4e/output_0_split
I0322 23:15:54.025504 11574 net.cpp:84] Creating Layer inception_4e/output_inception_4e/output_0_split
I0322 23:15:54.025507 11574 net.cpp:406] inception_4e/output_inception_4e/output_0_split <- inception_4e/output
I0322 23:15:54.025511 11574 net.cpp:380] inception_4e/output_inception_4e/output_0_split -> inception_4e/output_inception_4e/output_0_split_0
I0322 23:15:54.025516 11574 net.cpp:380] inception_4e/output_inception_4e/output_0_split -> inception_4e/output_inception_4e/output_0_split_1
I0322 23:15:54.025544 11574 net.cpp:122] Setting up inception_4e/output_inception_4e/output_0_split
I0322 23:15:54.025548 11574 net.cpp:129] Top shape: 16 832 40 23 (12247040)
I0322 23:15:54.025552 11574 net.cpp:129] Top shape: 16 832 40 23 (12247040)
I0322 23:15:54.025553 11574 net.cpp:137] Memory required for data: 4456845312
I0322 23:15:54.025555 11574 layer_factory.hpp:77] Creating layer pool4/3x3_s2
I0322 23:15:54.025560 11574 net.cpp:84] Creating Layer pool4/3x3_s2
I0322 23:15:54.025563 11574 net.cpp:406] pool4/3x3_s2 <- inception_4e/output_inception_4e/output_0_split_0
I0322 23:15:54.025568 11574 net.cpp:380] pool4/3x3_s2 -> pool4/3x3_s2
I0322 23:15:54.025594 11574 net.cpp:122] Setting up pool4/3x3_s2
I0322 23:15:54.025599 11574 net.cpp:129] Top shape: 16 832 20 11 (2928640)
I0322 23:15:54.025600 11574 net.cpp:137] Memory required for data: 4468559872
I0322 23:15:54.025602 11574 layer_factory.hpp:77] Creating layer pool4/3x3_s2_pool4/3x3_s2_0_split
I0322 23:15:54.025607 11574 net.cpp:84] Creating Layer pool4/3x3_s2_pool4/3x3_s2_0_split
I0322 23:15:54.025610 11574 net.cpp:406] pool4/3x3_s2_pool4/3x3_s2_0_split <- pool4/3x3_s2
I0322 23:15:54.025614 11574 net.cpp:380] pool4/3x3_s2_pool4/3x3_s2_0_split -> pool4/3x3_s2_pool4/3x3_s2_0_split_0
I0322 23:15:54.025617 11574 net.cpp:380] pool4/3x3_s2_pool4/3x3_s2_0_split -> pool4/3x3_s2_pool4/3x3_s2_0_split_1
I0322 23:15:54.025622 11574 net.cpp:380] pool4/3x3_s2_pool4/3x3_s2_0_split -> pool4/3x3_s2_pool4/3x3_s2_0_split_2
I0322 23:15:54.025626 11574 net.cpp:380] pool4/3x3_s2_pool4/3x3_s2_0_split -> pool4/3x3_s2_pool4/3x3_s2_0_split_3
I0322 23:15:54.025668 11574 net.cpp:122] Setting up pool4/3x3_s2_pool4/3x3_s2_0_split
I0322 23:15:54.025672 11574 net.cpp:129] Top shape: 16 832 20 11 (2928640)
I0322 23:15:54.025676 11574 net.cpp:129] Top shape: 16 832 20 11 (2928640)
I0322 23:15:54.025677 11574 net.cpp:129] Top shape: 16 832 20 11 (2928640)
I0322 23:15:54.025681 11574 net.cpp:129] Top shape: 16 832 20 11 (2928640)
I0322 23:15:54.025682 11574 net.cpp:137] Memory required for data: 4515418112
I0322 23:15:54.025686 11574 layer_factory.hpp:77] Creating layer inception_5a/1x1
I0322 23:15:54.025691 11574 net.cpp:84] Creating Layer inception_5a/1x1
I0322 23:15:54.025694 11574 net.cpp:406] inception_5a/1x1 <- pool4/3x3_s2_pool4/3x3_s2_0_split_0
I0322 23:15:54.025699 11574 net.cpp:380] inception_5a/1x1 -> inception_5a/1x1
I0322 23:15:54.028051 11574 net.cpp:122] Setting up inception_5a/1x1
I0322 23:15:54.028064 11574 net.cpp:129] Top shape: 16 256 20 11 (901120)
I0322 23:15:54.028065 11574 net.cpp:137] Memory required for data: 4519022592
I0322 23:15:54.028070 11574 layer_factory.hpp:77] Creating layer inception_5a/relu_1x1
I0322 23:15:54.028075 11574 net.cpp:84] Creating Layer inception_5a/relu_1x1
I0322 23:15:54.028079 11574 net.cpp:406] inception_5a/relu_1x1 <- inception_5a/1x1
I0322 23:15:54.028084 11574 net.cpp:367] inception_5a/relu_1x1 -> inception_5a/1x1 (in-place)
I0322 23:15:54.028728 11574 net.cpp:122] Setting up inception_5a/relu_1x1
I0322 23:15:54.028738 11574 net.cpp:129] Top shape: 16 256 20 11 (901120)
I0322 23:15:54.028740 11574 net.cpp:137] Memory required for data: 4522627072
I0322 23:15:54.028743 11574 layer_factory.hpp:77] Creating layer inception_5a/3x3_reduce
I0322 23:15:54.028751 11574 net.cpp:84] Creating Layer inception_5a/3x3_reduce
I0322 23:15:54.028754 11574 net.cpp:406] inception_5a/3x3_reduce <- pool4/3x3_s2_pool4/3x3_s2_0_split_1
I0322 23:15:54.028760 11574 net.cpp:380] inception_5a/3x3_reduce -> inception_5a/3x3_reduce
I0322 23:15:54.029913 11574 net.cpp:122] Setting up inception_5a/3x3_reduce
I0322 23:15:54.029923 11574 net.cpp:129] Top shape: 16 160 20 11 (563200)
I0322 23:15:54.029925 11574 net.cpp:137] Memory required for data: 4524879872
I0322 23:15:54.029930 11574 layer_factory.hpp:77] Creating layer inception_5a/relu_3x3_reduce
I0322 23:15:54.029935 11574 net.cpp:84] Creating Layer inception_5a/relu_3x3_reduce
I0322 23:15:54.029938 11574 net.cpp:406] inception_5a/relu_3x3_reduce <- inception_5a/3x3_reduce
I0322 23:15:54.029942 11574 net.cpp:367] inception_5a/relu_3x3_reduce -> inception_5a/3x3_reduce (in-place)
I0322 23:15:54.030583 11574 net.cpp:122] Setting up inception_5a/relu_3x3_reduce
I0322 23:15:54.030594 11574 net.cpp:129] Top shape: 16 160 20 11 (563200)
I0322 23:15:54.030596 11574 net.cpp:137] Memory required for data: 4527132672
I0322 23:15:54.030599 11574 layer_factory.hpp:77] Creating layer inception_5a/3x3
I0322 23:15:54.030607 11574 net.cpp:84] Creating Layer inception_5a/3x3
I0322 23:15:54.030611 11574 net.cpp:406] inception_5a/3x3 <- inception_5a/3x3_reduce
I0322 23:15:54.030616 11574 net.cpp:380] inception_5a/3x3 -> inception_5a/3x3
I0322 23:15:54.034667 11574 net.cpp:122] Setting up inception_5a/3x3
I0322 23:15:54.034679 11574 net.cpp:129] Top shape: 16 320 20 11 (1126400)
I0322 23:15:54.034682 11574 net.cpp:137] Memory required for data: 4531638272
I0322 23:15:54.034687 11574 layer_factory.hpp:77] Creating layer inception_5a/relu_3x3
I0322 23:15:54.034693 11574 net.cpp:84] Creating Layer inception_5a/relu_3x3
I0322 23:15:54.034695 11574 net.cpp:406] inception_5a/relu_3x3 <- inception_5a/3x3
I0322 23:15:54.034699 11574 net.cpp:367] inception_5a/relu_3x3 -> inception_5a/3x3 (in-place)
I0322 23:15:54.034855 11574 net.cpp:122] Setting up inception_5a/relu_3x3
I0322 23:15:54.034863 11574 net.cpp:129] Top shape: 16 320 20 11 (1126400)
I0322 23:15:54.034867 11574 net.cpp:137] Memory required for data: 4536143872
I0322 23:15:54.034868 11574 layer_factory.hpp:77] Creating layer inception_5a/5x5_reduce
I0322 23:15:54.034885 11574 net.cpp:84] Creating Layer inception_5a/5x5_reduce
I0322 23:15:54.034889 11574 net.cpp:406] inception_5a/5x5_reduce <- pool4/3x3_s2_pool4/3x3_s2_0_split_2
I0322 23:15:54.034894 11574 net.cpp:380] inception_5a/5x5_reduce -> inception_5a/5x5_reduce
I0322 23:15:54.036149 11574 net.cpp:122] Setting up inception_5a/5x5_reduce
I0322 23:15:54.036159 11574 net.cpp:129] Top shape: 16 32 20 11 (112640)
I0322 23:15:54.036162 11574 net.cpp:137] Memory required for data: 4536594432
I0322 23:15:54.036167 11574 layer_factory.hpp:77] Creating layer inception_5a/relu_5x5_reduce
I0322 23:15:54.036171 11574 net.cpp:84] Creating Layer inception_5a/relu_5x5_reduce
I0322 23:15:54.036175 11574 net.cpp:406] inception_5a/relu_5x5_reduce <- inception_5a/5x5_reduce
I0322 23:15:54.036178 11574 net.cpp:367] inception_5a/relu_5x5_reduce -> inception_5a/5x5_reduce (in-place)
I0322 23:15:54.036335 11574 net.cpp:122] Setting up inception_5a/relu_5x5_reduce
I0322 23:15:54.036344 11574 net.cpp:129] Top shape: 16 32 20 11 (112640)
I0322 23:15:54.036346 11574 net.cpp:137] Memory required for data: 4537044992
I0322 23:15:54.036350 11574 layer_factory.hpp:77] Creating layer inception_5a/5x5
I0322 23:15:54.036357 11574 net.cpp:84] Creating Layer inception_5a/5x5
I0322 23:15:54.036360 11574 net.cpp:406] inception_5a/5x5 <- inception_5a/5x5_reduce
I0322 23:15:54.036366 11574 net.cpp:380] inception_5a/5x5 -> inception_5a/5x5
I0322 23:15:54.038453 11574 net.cpp:122] Setting up inception_5a/5x5
I0322 23:15:54.038465 11574 net.cpp:129] Top shape: 16 128 20 11 (450560)
I0322 23:15:54.038468 11574 net.cpp:137] Memory required for data: 4538847232
I0322 23:15:54.038472 11574 layer_factory.hpp:77] Creating layer inception_5a/relu_5x5
I0322 23:15:54.038478 11574 net.cpp:84] Creating Layer inception_5a/relu_5x5
I0322 23:15:54.038481 11574 net.cpp:406] inception_5a/relu_5x5 <- inception_5a/5x5
I0322 23:15:54.038486 11574 net.cpp:367] inception_5a/relu_5x5 -> inception_5a/5x5 (in-place)
I0322 23:15:54.038632 11574 net.cpp:122] Setting up inception_5a/relu_5x5
I0322 23:15:54.038640 11574 net.cpp:129] Top shape: 16 128 20 11 (450560)
I0322 23:15:54.038643 11574 net.cpp:137] Memory required for data: 4540649472
I0322 23:15:54.038645 11574 layer_factory.hpp:77] Creating layer inception_5a/pool
I0322 23:15:54.038651 11574 net.cpp:84] Creating Layer inception_5a/pool
I0322 23:15:54.038655 11574 net.cpp:406] inception_5a/pool <- pool4/3x3_s2_pool4/3x3_s2_0_split_3
I0322 23:15:54.038658 11574 net.cpp:380] inception_5a/pool -> inception_5a/pool
I0322 23:15:54.038697 11574 net.cpp:122] Setting up inception_5a/pool
I0322 23:15:54.038700 11574 net.cpp:129] Top shape: 16 832 20 11 (2928640)
I0322 23:15:54.038702 11574 net.cpp:137] Memory required for data: 4552364032
I0322 23:15:54.038705 11574 layer_factory.hpp:77] Creating layer inception_5a/pool_proj
I0322 23:15:54.038712 11574 net.cpp:84] Creating Layer inception_5a/pool_proj
I0322 23:15:54.038715 11574 net.cpp:406] inception_5a/pool_proj <- inception_5a/pool
I0322 23:15:54.038720 11574 net.cpp:380] inception_5a/pool_proj -> inception_5a/pool_proj
I0322 23:15:54.040223 11574 net.cpp:122] Setting up inception_5a/pool_proj
I0322 23:15:54.040235 11574 net.cpp:129] Top shape: 16 128 20 11 (450560)
I0322 23:15:54.040252 11574 net.cpp:137] Memory required for data: 4554166272
I0322 23:15:54.040257 11574 layer_factory.hpp:77] Creating layer inception_5a/relu_pool_proj
I0322 23:15:54.040262 11574 net.cpp:84] Creating Layer inception_5a/relu_pool_proj
I0322 23:15:54.040266 11574 net.cpp:406] inception_5a/relu_pool_proj <- inception_5a/pool_proj
I0322 23:15:54.040271 11574 net.cpp:367] inception_5a/relu_pool_proj -> inception_5a/pool_proj (in-place)
I0322 23:15:54.040410 11574 net.cpp:122] Setting up inception_5a/relu_pool_proj
I0322 23:15:54.040418 11574 net.cpp:129] Top shape: 16 128 20 11 (450560)
I0322 23:15:54.040421 11574 net.cpp:137] Memory required for data: 4555968512
I0322 23:15:54.040423 11574 layer_factory.hpp:77] Creating layer inception_5a/output
I0322 23:15:54.040428 11574 net.cpp:84] Creating Layer inception_5a/output
I0322 23:15:54.040431 11574 net.cpp:406] inception_5a/output <- inception_5a/1x1
I0322 23:15:54.040434 11574 net.cpp:406] inception_5a/output <- inception_5a/3x3
I0322 23:15:54.040437 11574 net.cpp:406] inception_5a/output <- inception_5a/5x5
I0322 23:15:54.040441 11574 net.cpp:406] inception_5a/output <- inception_5a/pool_proj
I0322 23:15:54.040444 11574 net.cpp:380] inception_5a/output -> inception_5a/output
I0322 23:15:54.040469 11574 net.cpp:122] Setting up inception_5a/output
I0322 23:15:54.040473 11574 net.cpp:129] Top shape: 16 832 20 11 (2928640)
I0322 23:15:54.040475 11574 net.cpp:137] Memory required for data: 4567683072
I0322 23:15:54.040477 11574 layer_factory.hpp:77] Creating layer inception_5a/output_inception_5a/output_0_split
I0322 23:15:54.040482 11574 net.cpp:84] Creating Layer inception_5a/output_inception_5a/output_0_split
I0322 23:15:54.040484 11574 net.cpp:406] inception_5a/output_inception_5a/output_0_split <- inception_5a/output
I0322 23:15:54.040488 11574 net.cpp:380] inception_5a/output_inception_5a/output_0_split -> inception_5a/output_inception_5a/output_0_split_0
I0322 23:15:54.040493 11574 net.cpp:380] inception_5a/output_inception_5a/output_0_split -> inception_5a/output_inception_5a/output_0_split_1
I0322 23:15:54.040498 11574 net.cpp:380] inception_5a/output_inception_5a/output_0_split -> inception_5a/output_inception_5a/output_0_split_2
I0322 23:15:54.040501 11574 net.cpp:380] inception_5a/output_inception_5a/output_0_split -> inception_5a/output_inception_5a/output_0_split_3
I0322 23:15:54.040549 11574 net.cpp:122] Setting up inception_5a/output_inception_5a/output_0_split
I0322 23:15:54.040552 11574 net.cpp:129] Top shape: 16 832 20 11 (2928640)
I0322 23:15:54.040555 11574 net.cpp:129] Top shape: 16 832 20 11 (2928640)
I0322 23:15:54.040557 11574 net.cpp:129] Top shape: 16 832 20 11 (2928640)
I0322 23:15:54.040560 11574 net.cpp:129] Top shape: 16 832 20 11 (2928640)
I0322 23:15:54.040562 11574 net.cpp:137] Memory required for data: 4614541312
I0322 23:15:54.040565 11574 layer_factory.hpp:77] Creating layer inception_5b/1x1
I0322 23:15:54.040572 11574 net.cpp:84] Creating Layer inception_5b/1x1
I0322 23:15:54.040575 11574 net.cpp:406] inception_5b/1x1 <- inception_5a/output_inception_5a/output_0_split_0
I0322 23:15:54.040580 11574 net.cpp:380] inception_5b/1x1 -> inception_5b/1x1
I0322 23:15:54.043503 11574 net.cpp:122] Setting up inception_5b/1x1
I0322 23:15:54.043531 11574 net.cpp:129] Top shape: 16 384 20 11 (1351680)
I0322 23:15:54.043534 11574 net.cpp:137] Memory required for data: 4619948032
I0322 23:15:54.043540 11574 layer_factory.hpp:77] Creating layer inception_5b/relu_1x1
I0322 23:15:54.043543 11574 net.cpp:84] Creating Layer inception_5b/relu_1x1
I0322 23:15:54.043546 11574 net.cpp:406] inception_5b/relu_1x1 <- inception_5b/1x1
I0322 23:15:54.043550 11574 net.cpp:367] inception_5b/relu_1x1 -> inception_5b/1x1 (in-place)
I0322 23:15:54.044179 11574 net.cpp:122] Setting up inception_5b/relu_1x1
I0322 23:15:54.044190 11574 net.cpp:129] Top shape: 16 384 20 11 (1351680)
I0322 23:15:54.044209 11574 net.cpp:137] Memory required for data: 4625354752
I0322 23:15:54.044211 11574 layer_factory.hpp:77] Creating layer inception_5b/3x3_reduce
I0322 23:15:54.044220 11574 net.cpp:84] Creating Layer inception_5b/3x3_reduce
I0322 23:15:54.044224 11574 net.cpp:406] inception_5b/3x3_reduce <- inception_5a/output_inception_5a/output_0_split_1
I0322 23:15:54.044229 11574 net.cpp:380] inception_5b/3x3_reduce -> inception_5b/3x3_reduce
I0322 23:15:54.045485 11574 net.cpp:122] Setting up inception_5b/3x3_reduce
I0322 23:15:54.045495 11574 net.cpp:129] Top shape: 16 192 20 11 (675840)
I0322 23:15:54.045497 11574 net.cpp:137] Memory required for data: 4628058112
I0322 23:15:54.045502 11574 layer_factory.hpp:77] Creating layer inception_5b/relu_3x3_reduce
I0322 23:15:54.045506 11574 net.cpp:84] Creating Layer inception_5b/relu_3x3_reduce
I0322 23:15:54.045509 11574 net.cpp:406] inception_5b/relu_3x3_reduce <- inception_5b/3x3_reduce
I0322 23:15:54.045514 11574 net.cpp:367] inception_5b/relu_3x3_reduce -> inception_5b/3x3_reduce (in-place)
I0322 23:15:54.046159 11574 net.cpp:122] Setting up inception_5b/relu_3x3_reduce
I0322 23:15:54.046169 11574 net.cpp:129] Top shape: 16 192 20 11 (675840)
I0322 23:15:54.046171 11574 net.cpp:137] Memory required for data: 4630761472
I0322 23:15:54.046175 11574 layer_factory.hpp:77] Creating layer inception_5b/3x3
I0322 23:15:54.046182 11574 net.cpp:84] Creating Layer inception_5b/3x3
I0322 23:15:54.046185 11574 net.cpp:406] inception_5b/3x3 <- inception_5b/3x3_reduce
I0322 23:15:54.046191 11574 net.cpp:380] inception_5b/3x3 -> inception_5b/3x3
I0322 23:15:54.051107 11574 net.cpp:122] Setting up inception_5b/3x3
I0322 23:15:54.051120 11574 net.cpp:129] Top shape: 16 384 20 11 (1351680)
I0322 23:15:54.051123 11574 net.cpp:137] Memory required for data: 4636168192
I0322 23:15:54.051128 11574 layer_factory.hpp:77] Creating layer inception_5b/relu_3x3
I0322 23:15:54.051133 11574 net.cpp:84] Creating Layer inception_5b/relu_3x3
I0322 23:15:54.051136 11574 net.cpp:406] inception_5b/relu_3x3 <- inception_5b/3x3
I0322 23:15:54.051141 11574 net.cpp:367] inception_5b/relu_3x3 -> inception_5b/3x3 (in-place)
I0322 23:15:54.051300 11574 net.cpp:122] Setting up inception_5b/relu_3x3
I0322 23:15:54.051308 11574 net.cpp:129] Top shape: 16 384 20 11 (1351680)
I0322 23:15:54.051311 11574 net.cpp:137] Memory required for data: 4641574912
I0322 23:15:54.051313 11574 layer_factory.hpp:77] Creating layer inception_5b/5x5_reduce
I0322 23:15:54.051321 11574 net.cpp:84] Creating Layer inception_5b/5x5_reduce
I0322 23:15:54.051324 11574 net.cpp:406] inception_5b/5x5_reduce <- inception_5a/output_inception_5a/output_0_split_2
I0322 23:15:54.051329 11574 net.cpp:380] inception_5b/5x5_reduce -> inception_5b/5x5_reduce
I0322 23:15:54.052639 11574 net.cpp:122] Setting up inception_5b/5x5_reduce
I0322 23:15:54.052651 11574 net.cpp:129] Top shape: 16 48 20 11 (168960)
I0322 23:15:54.052654 11574 net.cpp:137] Memory required for data: 4642250752
I0322 23:15:54.052659 11574 layer_factory.hpp:77] Creating layer inception_5b/relu_5x5_reduce
I0322 23:15:54.052664 11574 net.cpp:84] Creating Layer inception_5b/relu_5x5_reduce
I0322 23:15:54.052666 11574 net.cpp:406] inception_5b/relu_5x5_reduce <- inception_5b/5x5_reduce
I0322 23:15:54.052670 11574 net.cpp:367] inception_5b/relu_5x5_reduce -> inception_5b/5x5_reduce (in-place)
I0322 23:15:54.052822 11574 net.cpp:122] Setting up inception_5b/relu_5x5_reduce
I0322 23:15:54.052830 11574 net.cpp:129] Top shape: 16 48 20 11 (168960)
I0322 23:15:54.052832 11574 net.cpp:137] Memory required for data: 4642926592
I0322 23:15:54.052835 11574 layer_factory.hpp:77] Creating layer inception_5b/5x5
I0322 23:15:54.052842 11574 net.cpp:84] Creating Layer inception_5b/5x5
I0322 23:15:54.052845 11574 net.cpp:406] inception_5b/5x5 <- inception_5b/5x5_reduce
I0322 23:15:54.052851 11574 net.cpp:380] inception_5b/5x5 -> inception_5b/5x5
I0322 23:15:54.054569 11574 net.cpp:122] Setting up inception_5b/5x5
I0322 23:15:54.054579 11574 net.cpp:129] Top shape: 16 128 20 11 (450560)
I0322 23:15:54.054582 11574 net.cpp:137] Memory required for data: 4644728832
I0322 23:15:54.054587 11574 layer_factory.hpp:77] Creating layer inception_5b/relu_5x5
I0322 23:15:54.054592 11574 net.cpp:84] Creating Layer inception_5b/relu_5x5
I0322 23:15:54.054595 11574 net.cpp:406] inception_5b/relu_5x5 <- inception_5b/5x5
I0322 23:15:54.054600 11574 net.cpp:367] inception_5b/relu_5x5 -> inception_5b/5x5 (in-place)
I0322 23:15:54.054749 11574 net.cpp:122] Setting up inception_5b/relu_5x5
I0322 23:15:54.054757 11574 net.cpp:129] Top shape: 16 128 20 11 (450560)
I0322 23:15:54.054759 11574 net.cpp:137] Memory required for data: 4646531072
I0322 23:15:54.054762 11574 layer_factory.hpp:77] Creating layer inception_5b/pool
I0322 23:15:54.054766 11574 net.cpp:84] Creating Layer inception_5b/pool
I0322 23:15:54.054769 11574 net.cpp:406] inception_5b/pool <- inception_5a/output_inception_5a/output_0_split_3
I0322 23:15:54.054774 11574 net.cpp:380] inception_5b/pool -> inception_5b/pool
I0322 23:15:54.054811 11574 net.cpp:122] Setting up inception_5b/pool
I0322 23:15:54.054816 11574 net.cpp:129] Top shape: 16 832 20 11 (2928640)
I0322 23:15:54.054817 11574 net.cpp:137] Memory required for data: 4658245632
I0322 23:15:54.054821 11574 layer_factory.hpp:77] Creating layer inception_5b/pool_proj
I0322 23:15:54.054827 11574 net.cpp:84] Creating Layer inception_5b/pool_proj
I0322 23:15:54.054831 11574 net.cpp:406] inception_5b/pool_proj <- inception_5b/pool
I0322 23:15:54.054834 11574 net.cpp:380] inception_5b/pool_proj -> inception_5b/pool_proj
I0322 23:15:54.056375 11574 net.cpp:122] Setting up inception_5b/pool_proj
I0322 23:15:54.056386 11574 net.cpp:129] Top shape: 16 128 20 11 (450560)
I0322 23:15:54.056390 11574 net.cpp:137] Memory required for data: 4660047872
I0322 23:15:54.056394 11574 layer_factory.hpp:77] Creating layer inception_5b/relu_pool_proj
I0322 23:15:54.056401 11574 net.cpp:84] Creating Layer inception_5b/relu_pool_proj
I0322 23:15:54.056403 11574 net.cpp:406] inception_5b/relu_pool_proj <- inception_5b/pool_proj
I0322 23:15:54.056407 11574 net.cpp:367] inception_5b/relu_pool_proj -> inception_5b/pool_proj (in-place)
I0322 23:15:54.056545 11574 net.cpp:122] Setting up inception_5b/relu_pool_proj
I0322 23:15:54.056552 11574 net.cpp:129] Top shape: 16 128 20 11 (450560)
I0322 23:15:54.056555 11574 net.cpp:137] Memory required for data: 4661850112
I0322 23:15:54.056557 11574 layer_factory.hpp:77] Creating layer inception_5b/output
I0322 23:15:54.056562 11574 net.cpp:84] Creating Layer inception_5b/output
I0322 23:15:54.056565 11574 net.cpp:406] inception_5b/output <- inception_5b/1x1
I0322 23:15:54.056568 11574 net.cpp:406] inception_5b/output <- inception_5b/3x3
I0322 23:15:54.056572 11574 net.cpp:406] inception_5b/output <- inception_5b/5x5
I0322 23:15:54.056576 11574 net.cpp:406] inception_5b/output <- inception_5b/pool_proj
I0322 23:15:54.056578 11574 net.cpp:380] inception_5b/output -> inception_5b/output
I0322 23:15:54.056604 11574 net.cpp:122] Setting up inception_5b/output
I0322 23:15:54.056608 11574 net.cpp:129] Top shape: 16 1024 20 11 (3604480)
I0322 23:15:54.056610 11574 net.cpp:137] Memory required for data: 4676268032
I0322 23:15:54.056613 11574 layer_factory.hpp:77] Creating layer pool5/drop_7x7_s1
I0322 23:15:54.056617 11574 net.cpp:84] Creating Layer pool5/drop_7x7_s1
I0322 23:15:54.056620 11574 net.cpp:406] pool5/drop_7x7_s1 <- inception_5b/output
I0322 23:15:54.056624 11574 net.cpp:367] pool5/drop_7x7_s1 -> inception_5b/output (in-place)
I0322 23:15:54.056644 11574 net.cpp:122] Setting up pool5/drop_7x7_s1
I0322 23:15:54.056649 11574 net.cpp:129] Top shape: 16 1024 20 11 (3604480)
I0322 23:15:54.056651 11574 net.cpp:137] Memory required for data: 4690685952
I0322 23:15:54.056653 11574 layer_factory.hpp:77] Creating layer score2
I0322 23:15:54.056658 11574 net.cpp:84] Creating Layer score2
I0322 23:15:54.056660 11574 net.cpp:406] score2 <- inception_5b/output
I0322 23:15:54.056665 11574 net.cpp:380] score2 -> score2
I0322 23:15:54.057523 11574 net.cpp:122] Setting up score2
I0322 23:15:54.057534 11574 net.cpp:129] Top shape: 16 2 22 13 (9152)
I0322 23:15:54.057538 11574 net.cpp:137] Memory required for data: 4690722560
I0322 23:15:54.057543 11574 layer_factory.hpp:77] Creating layer upscore2
I0322 23:15:54.057548 11574 net.cpp:84] Creating Layer upscore2
I0322 23:15:54.057551 11574 net.cpp:406] upscore2 <- score2
I0322 23:15:54.057555 11574 net.cpp:380] upscore2 -> upscore2
I0322 23:15:54.057724 11574 net.cpp:122] Setting up upscore2
I0322 23:15:54.057731 11574 net.cpp:129] Top shape: 16 2 46 28 (41216)
I0322 23:15:54.057734 11574 net.cpp:137] Memory required for data: 4690887424
I0322 23:15:54.057737 11574 layer_factory.hpp:77] Creating layer score-inception_4e/output
I0322 23:15:54.057744 11574 net.cpp:84] Creating Layer score-inception_4e/output
I0322 23:15:54.057746 11574 net.cpp:406] score-inception_4e/output <- inception_4e/output_inception_4e/output_0_split_1
I0322 23:15:54.057750 11574 net.cpp:380] score-inception_4e/output -> score-inception_4e/output
I0322 23:15:54.057986 11574 net.cpp:122] Setting up score-inception_4e/output
I0322 23:15:54.057992 11574 net.cpp:129] Top shape: 16 2 42 25 (33600)
I0322 23:15:54.057994 11574 net.cpp:137] Memory required for data: 4691021824
I0322 23:15:54.057998 11574 layer_factory.hpp:77] Creating layer score-inception_4e/output_score-inception_4e/output_0_split
I0322 23:15:54.058002 11574 net.cpp:84] Creating Layer score-inception_4e/output_score-inception_4e/output_0_split
I0322 23:15:54.058006 11574 net.cpp:406] score-inception_4e/output_score-inception_4e/output_0_split <- score-inception_4e/output
I0322 23:15:54.058010 11574 net.cpp:380] score-inception_4e/output_score-inception_4e/output_0_split -> score-inception_4e/output_score-inception_4e/output_0_split_0
I0322 23:15:54.058024 11574 net.cpp:380] score-inception_4e/output_score-inception_4e/output_0_split -> score-inception_4e/output_score-inception_4e/output_0_split_1
I0322 23:15:54.058056 11574 net.cpp:122] Setting up score-inception_4e/output_score-inception_4e/output_0_split
I0322 23:15:54.058064 11574 net.cpp:129] Top shape: 16 2 42 25 (33600)
I0322 23:15:54.058066 11574 net.cpp:129] Top shape: 16 2 42 25 (33600)
I0322 23:15:54.058069 11574 net.cpp:137] Memory required for data: 4691290624
I0322 23:15:54.058071 11574 layer_factory.hpp:77] Creating layer upscore2c
I0322 23:15:54.058078 11574 net.cpp:84] Creating Layer upscore2c
I0322 23:15:54.058079 11574 net.cpp:406] upscore2c <- upscore2
I0322 23:15:54.058084 11574 net.cpp:406] upscore2c <- score-inception_4e/output_score-inception_4e/output_0_split_0
I0322 23:15:54.058086 11574 net.cpp:380] upscore2c -> upscore2c
I0322 23:15:54.058107 11574 net.cpp:122] Setting up upscore2c
I0322 23:15:54.058111 11574 net.cpp:129] Top shape: 16 2 42 25 (33600)
I0322 23:15:54.058113 11574 net.cpp:137] Memory required for data: 4691425024
I0322 23:15:54.058115 11574 layer_factory.hpp:77] Creating layer score-fused
I0322 23:15:54.058120 11574 net.cpp:84] Creating Layer score-fused
I0322 23:15:54.058122 11574 net.cpp:406] score-fused <- upscore2c
I0322 23:15:54.058125 11574 net.cpp:406] score-fused <- score-inception_4e/output_score-inception_4e/output_0_split_1
I0322 23:15:54.058130 11574 net.cpp:380] score-fused -> score-fused
I0322 23:15:54.058151 11574 net.cpp:122] Setting up score-fused
I0322 23:15:54.058154 11574 net.cpp:129] Top shape: 16 2 42 25 (33600)
I0322 23:15:54.058156 11574 net.cpp:137] Memory required for data: 4691559424
I0322 23:15:54.058158 11574 layer_factory.hpp:77] Creating layer upsample-fused-16
I0322 23:15:54.058162 11574 net.cpp:84] Creating Layer upsample-fused-16
I0322 23:15:54.058166 11574 net.cpp:406] upsample-fused-16 <- score-fused
I0322 23:15:54.058169 11574 net.cpp:380] upsample-fused-16 -> score4
I0322 23:15:54.058316 11574 net.cpp:122] Setting up upsample-fused-16
I0322 23:15:54.058323 11574 net.cpp:129] Top shape: 16 2 86 52 (143104)
I0322 23:15:54.058326 11574 net.cpp:137] Memory required for data: 4692131840
I0322 23:15:54.058328 11574 layer_factory.hpp:77] Creating layer score-inception_3b/output
I0322 23:15:54.058333 11574 net.cpp:84] Creating Layer score-inception_3b/output
I0322 23:15:54.058336 11574 net.cpp:406] score-inception_3b/output <- inception_3b/output_inception_3b/output_0_split_1
I0322 23:15:54.058341 11574 net.cpp:380] score-inception_3b/output -> score-inception_3b/output
I0322 23:15:54.058563 11574 net.cpp:122] Setting up score-inception_3b/output
I0322 23:15:54.058570 11574 net.cpp:129] Top shape: 16 2 83 49 (130144)
I0322 23:15:54.058573 11574 net.cpp:137] Memory required for data: 4692652416
I0322 23:15:54.058576 11574 layer_factory.hpp:77] Creating layer score-inception_3b/output_score-inception_3b/output_0_split
I0322 23:15:54.058580 11574 net.cpp:84] Creating Layer score-inception_3b/output_score-inception_3b/output_0_split
I0322 23:15:54.058585 11574 net.cpp:406] score-inception_3b/output_score-inception_3b/output_0_split <- score-inception_3b/output
I0322 23:15:54.058589 11574 net.cpp:380] score-inception_3b/output_score-inception_3b/output_0_split -> score-inception_3b/output_score-inception_3b/output_0_split_0
I0322 23:15:54.058593 11574 net.cpp:380] score-inception_3b/output_score-inception_3b/output_0_split -> score-inception_3b/output_score-inception_3b/output_0_split_1
I0322 23:15:54.058624 11574 net.cpp:122] Setting up score-inception_3b/output_score-inception_3b/output_0_split
I0322 23:15:54.058629 11574 net.cpp:129] Top shape: 16 2 83 49 (130144)
I0322 23:15:54.058631 11574 net.cpp:129] Top shape: 16 2 83 49 (130144)
I0322 23:15:54.058634 11574 net.cpp:137] Memory required for data: 4693693568
I0322 23:15:54.058635 11574 layer_factory.hpp:77] Creating layer score4c
I0322 23:15:54.058640 11574 net.cpp:84] Creating Layer score4c
I0322 23:15:54.058642 11574 net.cpp:406] score4c <- score4
I0322 23:15:54.058645 11574 net.cpp:406] score4c <- score-inception_3b/output_score-inception_3b/output_0_split_0
I0322 23:15:54.058648 11574 net.cpp:380] score4c -> score4c
I0322 23:15:54.058667 11574 net.cpp:122] Setting up score4c
I0322 23:15:54.058671 11574 net.cpp:129] Top shape: 16 2 83 49 (130144)
I0322 23:15:54.058673 11574 net.cpp:137] Memory required for data: 4694214144
I0322 23:15:54.058676 11574 layer_factory.hpp:77] Creating layer fuse
I0322 23:15:54.058681 11574 net.cpp:84] Creating Layer fuse
I0322 23:15:54.058682 11574 net.cpp:406] fuse <- score4c
I0322 23:15:54.058686 11574 net.cpp:406] fuse <- score-inception_3b/output_score-inception_3b/output_0_split_1
I0322 23:15:54.058688 11574 net.cpp:380] fuse -> score-final
I0322 23:15:54.058706 11574 net.cpp:122] Setting up fuse
I0322 23:15:54.058710 11574 net.cpp:129] Top shape: 16 2 83 49 (130144)
I0322 23:15:54.058712 11574 net.cpp:137] Memory required for data: 4694734720
I0322 23:15:54.058714 11574 layer_factory.hpp:77] Creating layer upsample
I0322 23:15:54.058719 11574 net.cpp:84] Creating Layer upsample
I0322 23:15:54.058722 11574 net.cpp:406] upsample <- score-final
I0322 23:15:54.058725 11574 net.cpp:380] upsample -> bigscore
I0322 23:15:54.058873 11574 net.cpp:122] Setting up upsample
I0322 23:15:54.058879 11574 net.cpp:129] Top shape: 16 2 672 400 (8601600)
I0322 23:15:54.058881 11574 net.cpp:137] Memory required for data: 4729141120
I0322 23:15:54.058884 11574 layer_factory.hpp:77] Creating layer score
I0322 23:15:54.058889 11574 net.cpp:84] Creating Layer score
I0322 23:15:54.058892 11574 net.cpp:406] score <- bigscore
I0322 23:15:54.058894 11574 net.cpp:406] score <- data_data_0_split_1
I0322 23:15:54.058899 11574 net.cpp:380] score -> score
I0322 23:15:54.058918 11574 net.cpp:122] Setting up score
I0322 23:15:54.058923 11574 net.cpp:129] Top shape: 16 2 640 368 (7536640)
I0322 23:15:54.058924 11574 net.cpp:137] Memory required for data: 4759287680
I0322 23:15:54.058926 11574 layer_factory.hpp:77] Creating layer loss
I0322 23:15:54.058934 11574 net.cpp:84] Creating Layer loss
I0322 23:15:54.058938 11574 net.cpp:406] loss <- score
I0322 23:15:54.058940 11574 net.cpp:406] loss <- sem
I0322 23:15:54.058943 11574 net.cpp:380] loss -> loss
I0322 23:15:54.058954 11574 layer_factory.hpp:77] Creating layer loss
…
W0322 23:15:54.486373 11574 _caffe.cpp:135] DEPRECATION WARNING - deprecated use of Python interface
W0322 23:15:54.486380 11574 _caffe.cpp:136] Use this instead (with the named "weights" parameter):
W0322 23:15:54.486382 11574 _caffe.cpp:138] Net('../../ilsvrc-nets/deploy.prototxt', 1, weights='../../ilsvrc-nets/bvlc_googlenet.caffemodel')
I0322 23:15:54.488878 11574 net.cpp:51] Initializing net from parameters: 
name: "GoogleNet"
state {
  phase: TEST
  level: 0
}
layer {
  name: "data"
  type: "Input"
  top: "data"
  input_param {
    shape {
      dim: 10
      dim: 3
      dim: 224
      dim: 224
    }
  }
}
layer {
  name: "conv1/7x7_s2"
  type: "Convolution"
  bottom: "data"
  top: "conv1/7x7_s2"
  param {
    lr_mult: 1
    decay_mult: 1
  }
  param {
    lr_mult: 2
    decay_mult: 0
  }
  convolution_param {
    num_output: 64
    pad: 3
    kernel_size: 7
    stride: 2
    weight_filler {
      type: "xavier"
      std: 0.1
    }
    bias_filler {
      type: "constant"
      value: 0.2
    }
  }
}
layer {
  name: "conv1/relu_7x7"
  type: "ReLU"
  bottom: "conv1/7x7_s2"
  top: "conv1/7x7_s2"
}
layer {
  name: "pool1/3x3_s2"
  type: "Pooling"
  bottom: "conv1/7x7_s2"
  top: "pool1/3x3_s2"
  pooling_param {
    pool: MAX
    kernel_size: 3
    stride: 2
  }
}
layer {
  name: "pool1/norm1"
  type: "LRN"
  bottom: "pool1/3x3_s2"
  top: "pool1/norm1"
  lrn_param {
    local_size: 5
    alpha: 0.0001
    beta: 0.75
  }
}
layer {
  name: "conv2/3x3_reduce"
  type: "Convolution"
  bottom: "pool1/norm1"
  top: "conv2/3x3_reduce"
  param {
    lr_mult: 1
    decay_mult: 1
  }
  param {
    lr_mult: 2
    decay_mult: 0
  }
  convolution_param {
    num_output: 64
    kernel_size: 1
    weight_filler {
      type: "xavier"
      std: 0.1
    }
    bias_filler {
      type: "constant"
      value: 0.2
    }
  }
}
layer {
  name: "conv2/relu_3x3_reduce"
  type: "ReLU"
  bottom: "conv2/3x3_reduce"
  top: "conv2/3x3_reduce"
}
layer {
  name: "conv2/3x3"
  type: "Convolution"
  bottom: "conv2/3x3_reduce"
  top: "conv2/3x3"
  param {
    lr_mult: 1
    decay_mult: 1
  }
  param {
    lr_mult: 2
    decay_mult: 0
  }
  convolution_param {
    num_output: 192
    pad: 1
    kernel_size: 3
    weight_filler {
      type: "xavier"
      std: 0.03
    }
    bias_filler {
      type: "constant"
      value: 0.2
    }
  }
}
layer {
  name: "conv2/relu_3x3"
  type: "ReLU"
  bottom: "conv2/3x3"
  top: "conv2/3x3"
}
layer {
  name: "conv2/norm2"
  type: "LRN"
  bottom: "conv2/3x3"
  top: "conv2/norm2"
  lrn_param {
    local_size: 5
    alpha: 0.0001
    beta: 0.75
  }
}
layer {
  name: "pool2/3x3_s2"
  type: "Pooling"
  bottom: "conv2/norm2"
  top: "pool2/3x3_s2"
  pooling_param {
    pool: MAX
    kernel_size: 3
    stride: 2
  }
}
layer {
  name: "inception_3a/1x1"
  type: "Convolution"
  bottom: "pool2/3x3_s2"
  top: "inception_3a/1x1"
  param {
    lr_mult: 1
    decay_mult: 1
  }
  param {
    lr_mult: 2
    decay_mult: 0
  }
  convolution_param {
    num_output: 64
    kernel_size: 1
    weight_filler {
      type: "xavier"
      std: 0.03
    }
    bias_filler {
      type: "constant"
      value: 0.2
    }
  }
}
layer {
  name: "inception_3a/relu_1x1"
  type: "ReLU"
  bottom: "inception_3a/1x1"
  top: "inception_3a/1x1"
}
layer {
  name: "inception_3a/3x3_reduce"
  type: "Convolution"
  bottom: "pool2/3x3_s2"
  top: "inception_3a/3x3_reduce"
  param {
    lr_mult: 1
    decay_mult: 1
  }
  param {
    lr_mult: 2
    decay_mult: 0
  }
  convolution_param {
    num_output: 96
    kernel_size: 1
    weight_filler {
      type: "xavier"
      std: 0.09
    }
    bias_filler {
      type: "constant"
      value: 0.2
    }
  }
}
layer {
  name: "inception_3a/relu_3x3_reduce"
  type: "ReLU"
  bottom: "inception_3a/3x3_reduce"
  top: "inception_3a/3x3_reduce"
}
layer {
  name: "inception_3a/3x3"
  type: "Convolution"
  bottom: "inception_3a/3x3_reduce"
  top: "inception_3a/3x3"
  param {
    lr_mult: 1
    decay_mult: 1
  }
  param {
    lr_mult: 2
    decay_mult: 0
  }
  convolution_param {
    num_output: 128
    pad: 1
    kernel_size: 3
    weight_filler {
      type: "xavier"
      std: 0.03
    }
    bias_filler {
      type: "constant"
      value: 0.2
    }
  }
}
layer {
  name: "inception_3a/relu_3x3"
  type: "ReLU"
  bottom: "inception_3a/3x3"
  top: "inception_3a/3x3"
}
layer {
  name: "inception_3a/5x5_reduce"
  type: "Convolution"
  bottom: "pool2/3x3_s2"
  top: "inception_3a/5x5_reduce"
  param {
    lr_mult: 1
    decay_mult: 1
  }
  param {
    lr_mult: 2
    decay_mult: 0
  }
  convolution_param {
    num_output: 16
    kernel_size: 1
    weight_filler {
      type: "xavier"
      std: 0.2
    }
    bias_filler {
      type: "constant"
      value: 0.2
    }
  }
}
layer {
  name: "inception_3a/relu_5x5_reduce"
  type: "ReLU"
  bottom: "inception_3a/5x5_reduce"
  top: "inception_3a/5x5_reduce"
}
layer {
  name: "inception_3a/5x5"
  type: "Convolution"
  bottom: "inception_3a/5x5_reduce"
  top: "inception_3a/5x5"
  param {
    lr_mult: 1
    decay_mult: 1
  }
  param {
    lr_mult: 2
    decay_mult: 0
  }
  convolution_param {
    num_output: 32
    pad: 2
    kernel_size: 5
    weight_filler {
      type: "xavier"
      std: 0.03
    }
    bias_filler {
      type: "constant"
      value: 0.2
    }
  }
}
layer {
  name: "inception_3a/relu_5x5"
  type: "ReLU"
  bottom: "inception_3a/5x5"
  top: "inception_3a/5x5"
}
layer {
  name: "inception_3a/pool"
  type: "Pooling"
  bottom: "pool2/3x3_s2"
  top: "inception_3a/pool"
  pooling_param {
    pool: MAX
    kernel_size: 3
    stride: 1
    pad: 1
  }
}
layer {
  name: "inception_3a/pool_proj"
  type: "Convolution"
  bottom: "inception_3a/pool"
  top: "inception_3a/pool_proj"
  param {
    lr_mult: 1
    decay_mult: 1
  }
  param {
    lr_mult: 2
    decay_mult: 0
  }
  convolution_param {
    num_output: 32
    kernel_size: 1
    weight_filler {
      type: "xavier"
      std: 0.1
    }
    bias_filler {
      type: "constant"
      value: 0.2
    }
  }
}
layer {
  name: "inception_3a/relu_pool_proj"
  type: "ReLU"
  bottom: "inception_3a/pool_proj"
  top: "inception_3a/pool_proj"
}
layer {
  name: "inception_3a/output"
  type: "Concat"
  bottom: "inception_3a/1x1"
  bottom: "inception_3a/3x3"
  bottom: "inception_3a/5x5"
  bottom: "inception_3a/pool_proj"
  top: "inception_3a/output"
}
layer {
  name: "inception_3b/1x1"
  type: "Convolution"
  bottom: "inception_3a/output"
  top: "inception_3b/1x1"
  param {
    lr_mult: 1
    decay_mult: 1
  }
  param {
    lr_mult: 2
    decay_mult: 0
  }
  convolution_param {
    num_output: 128
    kernel_size: 1
    weight_filler {
      type: "xavier"
      std: 0.03
    }
    bias_filler {
      type: "constant"
      value: 0.2
    }
  }
}
layer {
  name: "inception_3b/relu_1x1"
  type: "ReLU"
  bottom: "inception_3b/1x1"
  top: "inception_3b/1x1"
}
layer {
  name: "inception_3b/3x3_reduce"
  type: "Convolution"
  bottom: "inception_3a/output"
  top: "inception_3b/3x3_reduce"
  param {
    lr_mult: 1
    decay_mult: 1
  }
  param {
    lr_mult: 2
    decay_mult: 0
  }
  convolution_param {
    num_output: 128
    kernel_size: 1
    weight_filler {
      type: "xavier"
      std: 0.09
    }
    bias_filler {
      type: "constant"
      value: 0.2
    }
  }
}
layer {
  name: "inception_3b/relu_3x3_reduce"
  type: "ReLU"
  bottom: "inception_3b/3x3_reduce"
  top: "inception_3b/3x3_reduce"
}
layer {
  name: "inception_3b/3x3"
  type: "Convolution"
  bottom: "inception_3b/3x3_reduce"
  top: "inception_3b/3x3"
  param {
    lr_mult: 1
    decay_mult: 1
  }
  param {
    lr_mult: 2
    decay_mult: 0
  }
  convolution_param {
    num_output: 192
    pad: 1
    kernel_size: 3
    weight_filler {
      type: "xavier"
      std: 0.03
    }
    bias_filler {
      type: "constant"
      value: 0.2
    }
  }
}
layer {
  name: "inception_3b/relu_3x3"
  type: "ReLU"
  bottom: "inception_3b/3x3"
  top: "inception_3b/3x3"
}
layer {
  name: "inception_3b/5x5_reduce"
  type: "Convolution"
  bottom: "inception_3a/output"
  top: "inception_3b/5x5_reduce"
  param {
    lr_mult: 1
    decay_mult: 1
  }
  param {
    lr_mult: 2
    decay_mult: 0
  }
  convolution_param {
    num_output: 32
    kernel_size: 1
    weight_filler {
      type: "xavier"
      std: 0.2
    }
    bias_filler {
      type: "constant"
      value: 0.2
    }
  }
}
layer {
  name: "inception_3b/relu_5x5_reduce"
  type: "ReLU"
  bottom: "inception_3b/5x5_reduce"
  top: "inception_3b/5x5_reduce"
}
layer {
  name: "inception_3b/5x5"
  type: "Convolution"
  bottom: "inception_3b/5x5_reduce"
  top: "inception_3b/5x5"
  param {
    lr_mult: 1
    decay_mult: 1
  }
  param {
    lr_mult: 2
    decay_mult: 0
  }
  convolution_param {
    num_output: 96
    pad: 2
    kernel_size: 5
    weight_filler {
      type: "xavier"
      std: 0.03
    }
    bias_filler {
      type: "constant"
      value: 0.2
    }
  }
}
layer {
  name: "inception_3b/relu_5x5"
  type: "ReLU"
  bottom: "inception_3b/5x5"
  top: "inception_3b/5x5"
}
layer {
  name: "inception_3b/pool"
  type: "Pooling"
  bottom: "inception_3a/output"
  top: "inception_3b/pool"
  pooling_param {
    pool: MAX
    kernel_size: 3
    stride: 1
    pad: 1
  }
}
layer {
  name: "inception_3b/pool_proj"
  type: "Convolution"
  bottom: "inception_3b/pool"
  top: "inception_3b/pool_proj"
  param {
    lr_mult: 1
    decay_mult: 1
  }
  param {
    lr_mult: 2
    decay_mult: 0
  }
  convolution_param {
    num_output: 64
    kernel_size: 1
    weight_filler {
      type: "xavier"
      std: 0.1
    }
    bias_filler {
      type: "constant"
      value: 0.2
    }
  }
}
layer {
  name: "inception_3b/relu_pool_proj"
  type: "ReLU"
  bottom: "inception_3b/pool_proj"
  top: "inception_3b/pool_proj"
}
layer {
  name: "inception_3b/output"
  type: "Concat"
  bottom: "inception_3b/1x1"
  bottom: "inception_3b/3x3"
  bottom: "inception_3b/5x5"
  bottom: "inception_3b/pool_proj"
  top: "inception_3b/output"
}
layer {
  name: "pool3/3x3_s2"
  type: "Pooling"
  bottom: "inception_3b/output"
  top: "pool3/3x3_s2"
  pooling_param {
    pool: MAX
    kernel_size: 3
    stride: 2
  }
}
layer {
  name: "inception_4a/1x1"
  type: "Convolution"
  bottom: "pool3/3x3_s2"
  top: "inception_4a/1x1"
  param {
    lr_mult: 1
    decay_mult: 1
  }
  param {
    lr_mult: 2
    decay_mult: 0
  }
  convolution_param {
    num_output: 192
    kernel_size: 1
    weight_filler {
      type: "xavier"
      std: 0.03
    }
    bias_filler {
      type: "constant"
      value: 0.2
    }
  }
}
layer {
  name: "inception_4a/relu_1x1"
  type: "ReLU"
  bottom: "inception_4a/1x1"
  top: "inception_4a/1x1"
}
layer {
  name: "inception_4a/3x3_reduce"
  type: "Convolution"
  bottom: "pool3/3x3_s2"
  top: "inception_4a/3x3_reduce"
  param {
    lr_mult: 1
    decay_mult: 1
  }
  param {
    lr_mult: 2
    decay_mult: 0
  }
  convolution_param {
    num_output: 96
    kernel_size: 1
    weight_filler {
      type: "xavier"
      std: 0.09
    }
    bias_filler {
      type: "constant"
      value: 0.2
    }
  }
}
layer {
  name: "inception_4a/relu_3x3_reduce"
  type: "ReLU"
  bottom: "inception_4a/3x3_reduce"
  top: "inception_4a/3x3_reduce"
}
layer {
  name: "inception_4a/3x3"
  type: "Convolution"
  bottom: "inception_4a/3x3_reduce"
  top: "inception_4a/3x3"
  param {
    lr_mult: 1
    decay_mult: 1
  }
  param {
    lr_mult: 2
    decay_mult: 0
  }
  convolution_param {
    num_output: 208
    pad: 1
    kernel_size: 3
    weight_filler {
      type: "xavier"
      std: 0.03
    }
    bias_filler {
      type: "constant"
      value: 0.2
    }
  }
}
layer {
  name: "inception_4a/relu_3x3"
  type: "ReLU"
  bottom: "inception_4a/3x3"
  top: "inception_4a/3x3"
}
layer {
  name: "inception_4a/5x5_reduce"
  type: "Convolution"
  bottom: "pool3/3x3_s2"
  top: "inception_4a/5x5_reduce"
  param {
    lr_mult: 1
    decay_mult: 1
  }
  param {
    lr_mult: 2
    decay_mult: 0
  }
  convolution_param {
    num_output: 16
    kernel_size: 1
    weight_filler {
      type: "xavier"
      std: 0.2
    }
    bias_filler {
      type: "constant"
      value: 0.2
    }
  }
}
layer {
  name: "inception_4a/relu_5x5_reduce"
  type: "ReLU"
  bottom: "inception_4a/5x5_reduce"
  top: "inception_4a/5x5_reduce"
}
layer {
  name: "inception_4a/5x5"
  type: "Convolution"
  bottom: "inception_4a/5x5_reduce"
  top: "inception_4a/5x5"
  param {
    lr_mult: 1
    decay_mult: 1
  }
  param {
    lr_mult: 2
    decay_mult: 0
  }
  convolution_param {
    num_output: 48
    pad: 2
    kernel_size: 5
    weight_filler {
      type: "xavier"
      std: 0.03
    }
    bias_filler {
      type: "constant"
      value: 0.2
    }
  }
}
layer {
  name: "inception_4a/relu_5x5"
  type: "ReLU"
  bottom: "inception_4a/5x5"
  top: "inception_4a/5x5"
}
layer {
  name: "inception_4a/pool"
  type: "Pooling"
  bottom: "pool3/3x3_s2"
  top: "inception_4a/pool"
  pooling_param {
    pool: MAX
    kernel_size: 3
    stride: 1
    pad: 1
  }
}
layer {
  name: "inception_4a/pool_proj"
  type: "Convolution"
  bottom: "inception_4a/pool"
  top: "inception_4a/pool_proj"
  param {
    lr_mult: 1
    decay_mult: 1
  }
  param {
    lr_mult: 2
    decay_mult: 0
  }
  convolution_param {
    num_output: 64
    kernel_size: 1
    weight_filler {
      type: "xavier"
      std: 0.1
    }
    bias_filler {
      type: "constant"
      value: 0.2
    }
  }
}
layer {
  name: "inception_4a/relu_pool_proj"
  type: "ReLU"
  bottom: "inception_4a/pool_proj"
  top: "inception_4a/pool_proj"
}
layer {
  name: "inception_4a/output"
  type: "Concat"
  bottom: "inception_4a/1x1"
  bottom: "inception_4a/3x3"
  bottom: "inception_4a/5x5"
  bottom: "inception_4a/pool_proj"
  top: "inception_4a/output"
}
layer {
  name: "inception_4b/1x1"
  type: "Convolution"
  bottom: "inception_4a/output"
  top: "inception_4b/1x1"
  param {
    lr_mult: 1
    decay_mult: 1
  }
  param {
    lr_mult: 2
    decay_mult: 0
  }
  convolution_param {
    num_output: 160
    kernel_size: 1
    weight_filler {
      type: "xavier"
      std: 0.03
    }
    bias_filler {
      type: "constant"
      value: 0.2
    }
  }
}
layer {
  name: "inception_4b/relu_1x1"
  type: "ReLU"
  bottom: "inception_4b/1x1"
  top: "inception_4b/1x1"
}
layer {
  name: "inception_4b/3x3_reduce"
  type: "Convolution"
  bottom: "inception_4a/output"
  top: "inception_4b/3x3_reduce"
  param {
    lr_mult: 1
    decay_mult: 1
  }
  param {
    lr_mult: 2
    decay_mult: 0
  }
  convolution_param {
    num_output: 112
    kernel_size: 1
    weight_filler {
      type: "xavier"
      std: 0.09
    }
    bias_filler {
      type: "constant"
      value: 0.2
    }
  }
}
layer {
  name: "inception_4b/relu_3x3_reduce"
  type: "ReLU"
…
I0322 23:15:54.545809 11574 net.cpp:122] Setting up inception_4b/output_inception_4b/output_0_split
I0322 23:15:54.545814 11574 net.cpp:129] Top shape: 10 512 14 14 (1003520)
I0322 23:15:54.545816 11574 net.cpp:129] Top shape: 10 512 14 14 (1003520)
I0322 23:15:54.545819 11574 net.cpp:129] Top shape: 10 512 14 14 (1003520)
I0322 23:15:54.545821 11574 net.cpp:129] Top shape: 10 512 14 14 (1003520)
I0322 23:15:54.545824 11574 net.cpp:137] Memory required for data: 423861760
I0322 23:15:54.545825 11574 layer_factory.hpp:77] Creating layer inception_4c/1x1
I0322 23:15:54.545833 11574 net.cpp:84] Creating Layer inception_4c/1x1
I0322 23:15:54.545836 11574 net.cpp:406] inception_4c/1x1 <- inception_4b/output_inception_4b/output_0_split_0
I0322 23:15:54.545842 11574 net.cpp:380] inception_4c/1x1 -> inception_4c/1x1
I0322 23:15:54.548007 11574 net.cpp:122] Setting up inception_4c/1x1
I0322 23:15:54.548018 11574 net.cpp:129] Top shape: 10 128 14 14 (250880)
I0322 23:15:54.548022 11574 net.cpp:137] Memory required for data: 424865280
I0322 23:15:54.548027 11574 layer_factory.hpp:77] Creating layer inception_4c/relu_1x1
I0322 23:15:54.548032 11574 net.cpp:84] Creating Layer inception_4c/relu_1x1
I0322 23:15:54.548035 11574 net.cpp:406] inception_4c/relu_1x1 <- inception_4c/1x1
I0322 23:15:54.548038 11574 net.cpp:367] inception_4c/relu_1x1 -> inception_4c/1x1 (in-place)
I0322 23:15:54.548204 11574 net.cpp:122] Setting up inception_4c/relu_1x1
I0322 23:15:54.548213 11574 net.cpp:129] Top shape: 10 128 14 14 (250880)
I0322 23:15:54.548216 11574 net.cpp:137] Memory required for data: 425868800
I0322 23:15:54.548218 11574 layer_factory.hpp:77] Creating layer inception_4c/3x3_reduce
I0322 23:15:54.548228 11574 net.cpp:84] Creating Layer inception_4c/3x3_reduce
I0322 23:15:54.548230 11574 net.cpp:406] inception_4c/3x3_reduce <- inception_4b/output_inception_4b/output_0_split_1
I0322 23:15:54.548234 11574 net.cpp:380] inception_4c/3x3_reduce -> inception_4c/3x3_reduce
I0322 23:15:54.549782 11574 net.cpp:122] Setting up inception_4c/3x3_reduce
I0322 23:15:54.549793 11574 net.cpp:129] Top shape: 10 128 14 14 (250880)
I0322 23:15:54.549795 11574 net.cpp:137] Memory required for data: 426872320
I0322 23:15:54.549800 11574 layer_factory.hpp:77] Creating layer inception_4c/relu_3x3_reduce
I0322 23:15:54.549806 11574 net.cpp:84] Creating Layer inception_4c/relu_3x3_reduce
I0322 23:15:54.549809 11574 net.cpp:406] inception_4c/relu_3x3_reduce <- inception_4c/3x3_reduce
I0322 23:15:54.549813 11574 net.cpp:367] inception_4c/relu_3x3_reduce -> inception_4c/3x3_reduce (in-place)
I0322 23:15:54.549980 11574 net.cpp:122] Setting up inception_4c/relu_3x3_reduce
I0322 23:15:54.549988 11574 net.cpp:129] Top shape: 10 128 14 14 (250880)
I0322 23:15:54.549990 11574 net.cpp:137] Memory required for data: 427875840
I0322 23:15:54.549993 11574 layer_factory.hpp:77] Creating layer inception_4c/3x3
I0322 23:15:54.550000 11574 net.cpp:84] Creating Layer inception_4c/3x3
I0322 23:15:54.550004 11574 net.cpp:406] inception_4c/3x3 <- inception_4c/3x3_reduce
I0322 23:15:54.550009 11574 net.cpp:380] inception_4c/3x3 -> inception_4c/3x3
I0322 23:15:54.552960 11574 net.cpp:122] Setting up inception_4c/3x3
I0322 23:15:54.552973 11574 net.cpp:129] Top shape: 10 256 14 14 (501760)
I0322 23:15:54.552974 11574 net.cpp:137] Memory required for data: 429882880
I0322 23:15:54.552979 11574 layer_factory.hpp:77] Creating layer inception_4c/relu_3x3
I0322 23:15:54.552985 11574 net.cpp:84] Creating Layer inception_4c/relu_3x3
I0322 23:15:54.552989 11574 net.cpp:406] inception_4c/relu_3x3 <- inception_4c/3x3
I0322 23:15:54.552991 11574 net.cpp:367] inception_4c/relu_3x3 -> inception_4c/3x3 (in-place)
I0322 23:15:54.553172 11574 net.cpp:122] Setting up inception_4c/relu_3x3
I0322 23:15:54.553180 11574 net.cpp:129] Top shape: 10 256 14 14 (501760)
I0322 23:15:54.553182 11574 net.cpp:137] Memory required for data: 431889920
I0322 23:15:54.553185 11574 layer_factory.hpp:77] Creating layer inception_4c/5x5_reduce
I0322 23:15:54.553194 11574 net.cpp:84] Creating Layer inception_4c/5x5_reduce
I0322 23:15:54.553196 11574 net.cpp:406] inception_4c/5x5_reduce <- inception_4b/output_inception_4b/output_0_split_2
I0322 23:15:54.553201 11574 net.cpp:380] inception_4c/5x5_reduce -> inception_4c/5x5_reduce
I0322 23:15:54.554544 11574 net.cpp:122] Setting up inception_4c/5x5_reduce
I0322 23:15:54.554556 11574 net.cpp:129] Top shape: 10 24 14 14 (47040)
I0322 23:15:54.554559 11574 net.cpp:137] Memory required for data: 432078080
I0322 23:15:54.554563 11574 layer_factory.hpp:77] Creating layer inception_4c/relu_5x5_reduce
I0322 23:15:54.554569 11574 net.cpp:84] Creating Layer inception_4c/relu_5x5_reduce
I0322 23:15:54.554572 11574 net.cpp:406] inception_4c/relu_5x5_reduce <- inception_4c/5x5_reduce
I0322 23:15:54.554575 11574 net.cpp:367] inception_4c/relu_5x5_reduce -> inception_4c/5x5_reduce (in-place)
I0322 23:15:54.555274 11574 net.cpp:122] Setting up inception_4c/relu_5x5_reduce
I0322 23:15:54.555284 11574 net.cpp:129] Top shape: 10 24 14 14 (47040)
I0322 23:15:54.555286 11574 net.cpp:137] Memory required for data: 432266240
I0322 23:15:54.555289 11574 layer_factory.hpp:77] Creating layer inception_4c/5x5
I0322 23:15:54.555297 11574 net.cpp:84] Creating Layer inception_4c/5x5
I0322 23:15:54.555301 11574 net.cpp:406] inception_4c/5x5 <- inception_4c/5x5_reduce
I0322 23:15:54.555305 11574 net.cpp:380] inception_4c/5x5 -> inception_4c/5x5
I0322 23:15:54.557301 11574 net.cpp:122] Setting up inception_4c/5x5
I0322 23:15:54.557313 11574 net.cpp:129] Top shape: 10 64 14 14 (125440)
I0322 23:15:54.557317 11574 net.cpp:137] Memory required for data: 432768000
I0322 23:15:54.557320 11574 layer_factory.hpp:77] Creating layer inception_4c/relu_5x5
I0322 23:15:54.557325 11574 net.cpp:84] Creating Layer inception_4c/relu_5x5
I0322 23:15:54.557328 11574 net.cpp:406] inception_4c/relu_5x5 <- inception_4c/5x5
I0322 23:15:54.557332 11574 net.cpp:367] inception_4c/relu_5x5 -> inception_4c/5x5 (in-place)
I0322 23:15:54.557505 11574 net.cpp:122] Setting up inception_4c/relu_5x5
I0322 23:15:54.557513 11574 net.cpp:129] Top shape: 10 64 14 14 (125440)
I0322 23:15:54.557517 11574 net.cpp:137] Memory required for data: 433269760
I0322 23:15:54.557519 11574 layer_factory.hpp:77] Creating layer inception_4c/pool
I0322 23:15:54.557524 11574 net.cpp:84] Creating Layer inception_4c/pool
I0322 23:15:54.557526 11574 net.cpp:406] inception_4c/pool <- inception_4b/output_inception_4b/output_0_split_3
I0322 23:15:54.557531 11574 net.cpp:380] inception_4c/pool -> inception_4c/pool
I0322 23:15:54.557585 11574 net.cpp:122] Setting up inception_4c/pool
I0322 23:15:54.557590 11574 net.cpp:129] Top shape: 10 512 14 14 (1003520)
I0322 23:15:54.557593 11574 net.cpp:137] Memory required for data: 437283840
I0322 23:15:54.557595 11574 layer_factory.hpp:77] Creating layer inception_4c/pool_proj
I0322 23:15:54.557603 11574 net.cpp:84] Creating Layer inception_4c/pool_proj
I0322 23:15:54.557606 11574 net.cpp:406] inception_4c/pool_proj <- inception_4c/pool
I0322 23:15:54.557610 11574 net.cpp:380] inception_4c/pool_proj -> inception_4c/pool_proj
I0322 23:15:54.559015 11574 net.cpp:122] Setting up inception_4c/pool_proj
I0322 23:15:54.559026 11574 net.cpp:129] Top shape: 10 64 14 14 (125440)
I0322 23:15:54.559029 11574 net.cpp:137] Memory required for data: 437785600
I0322 23:15:54.559041 11574 layer_factory.hpp:77] Creating layer inception_4c/relu_pool_proj
I0322 23:15:54.559046 11574 net.cpp:84] Creating Layer inception_4c/relu_pool_proj
I0322 23:15:54.559049 11574 net.cpp:406] inception_4c/relu_pool_proj <- inception_4c/pool_proj
I0322 23:15:54.559053 11574 net.cpp:367] inception_4c/relu_pool_proj -> inception_4c/pool_proj (in-place)
I0322 23:15:54.559224 11574 net.cpp:122] Setting up inception_4c/relu_pool_proj
I0322 23:15:54.559232 11574 net.cpp:129] Top shape: 10 64 14 14 (125440)
I0322 23:15:54.559236 11574 net.cpp:137] Memory required for data: 438287360
I0322 23:15:54.559237 11574 layer_factory.hpp:77] Creating layer inception_4c/output
I0322 23:15:54.559242 11574 net.cpp:84] Creating Layer inception_4c/output
I0322 23:15:54.559244 11574 net.cpp:406] inception_4c/output <- inception_4c/1x1
I0322 23:15:54.559249 11574 net.cpp:406] inception_4c/output <- inception_4c/3x3
I0322 23:15:54.559252 11574 net.cpp:406] inception_4c/output <- inception_4c/5x5
I0322 23:15:54.559254 11574 net.cpp:406] inception_4c/output <- inception_4c/pool_proj
I0322 23:15:54.559259 11574 net.cpp:380] inception_4c/output -> inception_4c/output
I0322 23:15:54.559291 11574 net.cpp:122] Setting up inception_4c/output
I0322 23:15:54.559296 11574 net.cpp:129] Top shape: 10 512 14 14 (1003520)
I0322 23:15:54.559298 11574 net.cpp:137] Memory required for data: 442301440
I0322 23:15:54.559300 11574 layer_factory.hpp:77] Creating layer inception_4c/output_inception_4c/output_0_split
I0322 23:15:54.559305 11574 net.cpp:84] Creating Layer inception_4c/output_inception_4c/output_0_split
I0322 23:15:54.559309 11574 net.cpp:406] inception_4c/output_inception_4c/output_0_split <- inception_4c/output
I0322 23:15:54.559311 11574 net.cpp:380] inception_4c/output_inception_4c/output_0_split -> inception_4c/output_inception_4c/output_0_split_0
I0322 23:15:54.559316 11574 net.cpp:380] inception_4c/output_inception_4c/output_0_split -> inception_4c/output_inception_4c/output_0_split_1
I0322 23:15:54.559320 11574 net.cpp:380] inception_4c/output_inception_4c/output_0_split -> inception_4c/output_inception_4c/output_0_split_2
I0322 23:15:54.559324 11574 net.cpp:380] inception_4c/output_inception_4c/output_0_split -> inception_4c/output_inception_4c/output_0_split_3
I0322 23:15:54.559394 11574 net.cpp:122] Setting up inception_4c/output_inception_4c/output_0_split
I0322 23:15:54.559401 11574 net.cpp:129] Top shape: 10 512 14 14 (1003520)
I0322 23:15:54.559403 11574 net.cpp:129] Top shape: 10 512 14 14 (1003520)
I0322 23:15:54.559406 11574 net.cpp:129] Top shape: 10 512 14 14 (1003520)
I0322 23:15:54.559408 11574 net.cpp:129] Top shape: 10 512 14 14 (1003520)
I0322 23:15:54.559411 11574 net.cpp:137] Memory required for data: 458357760
I0322 23:15:54.559412 11574 layer_factory.hpp:77] Creating layer inception_4d/1x1
I0322 23:15:54.559420 11574 net.cpp:84] Creating Layer inception_4d/1x1
I0322 23:15:54.559422 11574 net.cpp:406] inception_4d/1x1 <- inception_4c/output_inception_4c/output_0_split_0
I0322 23:15:54.559428 11574 net.cpp:380] inception_4d/1x1 -> inception_4d/1x1
I0322 23:15:54.560941 11574 net.cpp:122] Setting up inception_4d/1x1
I0322 23:15:54.560953 11574 net.cpp:129] Top shape: 10 112 14 14 (219520)
I0322 23:15:54.560956 11574 net.cpp:137] Memory required for data: 459235840
I0322 23:15:54.560961 11574 layer_factory.hpp:77] Creating layer inception_4d/relu_1x1
I0322 23:15:54.560966 11574 net.cpp:84] Creating Layer inception_4d/relu_1x1
I0322 23:15:54.560969 11574 net.cpp:406] inception_4d/relu_1x1 <- inception_4d/1x1
I0322 23:15:54.560972 11574 net.cpp:367] inception_4d/relu_1x1 -> inception_4d/1x1 (in-place)
I0322 23:15:54.561139 11574 net.cpp:122] Setting up inception_4d/relu_1x1
I0322 23:15:54.561148 11574 net.cpp:129] Top shape: 10 112 14 14 (219520)
I0322 23:15:54.561151 11574 net.cpp:137] Memory required for data: 460113920
I0322 23:15:54.561153 11574 layer_factory.hpp:77] Creating layer inception_4d/3x3_reduce
I0322 23:15:54.561161 11574 net.cpp:84] Creating Layer inception_4d/3x3_reduce
I0322 23:15:54.561164 11574 net.cpp:406] inception_4d/3x3_reduce <- inception_4c/output_inception_4c/output_0_split_1
I0322 23:15:54.561169 11574 net.cpp:380] inception_4d/3x3_reduce -> inception_4d/3x3_reduce
I0322 23:15:54.562752 11574 net.cpp:122] Setting up inception_4d/3x3_reduce
I0322 23:15:54.562763 11574 net.cpp:129] Top shape: 10 144 14 14 (282240)
I0322 23:15:54.562767 11574 net.cpp:137] Memory required for data: 461242880
I0322 23:15:54.562772 11574 layer_factory.hpp:77] Creating layer inception_4d/relu_3x3_reduce
I0322 23:15:54.562775 11574 net.cpp:84] Creating Layer inception_4d/relu_3x3_reduce
I0322 23:15:54.562778 11574 net.cpp:406] inception_4d/relu_3x3_reduce <- inception_4d/3x3_reduce
I0322 23:15:54.562783 11574 net.cpp:367] inception_4d/relu_3x3_reduce -> inception_4d/3x3_reduce (in-place)
I0322 23:15:54.562949 11574 net.cpp:122] Setting up inception_4d/relu_3x3_reduce
I0322 23:15:54.562958 11574 net.cpp:129] Top shape: 10 144 14 14 (282240)
I0322 23:15:54.562960 11574 net.cpp:137] Memory required for data: 462371840
I0322 23:15:54.562963 11574 layer_factory.hpp:77] Creating layer inception_4d/3x3
I0322 23:15:54.562970 11574 net.cpp:84] Creating Layer inception_4d/3x3
I0322 23:15:54.562973 11574 net.cpp:406] inception_4d/3x3 <- inception_4d/3x3_reduce
I0322 23:15:54.562979 11574 net.cpp:380] inception_4d/3x3 -> inception_4d/3x3
I0322 23:15:54.566893 11574 net.cpp:122] Setting up inception_4d/3x3
I0322 23:15:54.566921 11574 net.cpp:129] Top shape: 10 288 14 14 (564480)
I0322 23:15:54.566923 11574 net.cpp:137] Memory required for data: 464629760
I0322 23:15:54.566929 11574 layer_factory.hpp:77] Creating layer inception_4d/relu_3x3
I0322 23:15:54.566936 11574 net.cpp:84] Creating Layer inception_4d/relu_3x3
I0322 23:15:54.566938 11574 net.cpp:406] inception_4d/relu_3x3 <- inception_4d/3x3
I0322 23:15:54.566942 11574 net.cpp:367] inception_4d/relu_3x3 -> inception_4d/3x3 (in-place)
I0322 23:15:54.567107 11574 net.cpp:122] Setting up inception_4d/relu_3x3
I0322 23:15:54.567116 11574 net.cpp:129] Top shape: 10 288 14 14 (564480)
I0322 23:15:54.567117 11574 net.cpp:137] Memory required for data: 466887680
I0322 23:15:54.567121 11574 layer_factory.hpp:77] Creating layer inception_4d/5x5_reduce
I0322 23:15:54.567129 11574 net.cpp:84] Creating Layer inception_4d/5x5_reduce
I0322 23:15:54.567132 11574 net.cpp:406] inception_4d/5x5_reduce <- inception_4c/output_inception_4c/output_0_split_2
I0322 23:15:54.567137 11574 net.cpp:380] inception_4d/5x5_reduce -> inception_4d/5x5_reduce
I0322 23:15:54.568542 11574 net.cpp:122] Setting up inception_4d/5x5_reduce
I0322 23:15:54.568554 11574 net.cpp:129] Top shape: 10 32 14 14 (62720)
I0322 23:15:54.568557 11574 net.cpp:137] Memory required for data: 467138560
I0322 23:15:54.568562 11574 layer_factory.hpp:77] Creating layer inception_4d/relu_5x5_reduce
I0322 23:15:54.568567 11574 net.cpp:84] Creating Layer inception_4d/relu_5x5_reduce
I0322 23:15:54.568570 11574 net.cpp:406] inception_4d/relu_5x5_reduce <- inception_4d/5x5_reduce
I0322 23:15:54.568574 11574 net.cpp:367] inception_4d/relu_5x5_reduce -> inception_4d/5x5_reduce (in-place)
I0322 23:15:54.569262 11574 net.cpp:122] Setting up inception_4d/relu_5x5_reduce
I0322 23:15:54.569273 11574 net.cpp:129] Top shape: 10 32 14 14 (62720)
I0322 23:15:54.569277 11574 net.cpp:137] Memory required for data: 467389440
I0322 23:15:54.569278 11574 layer_factory.hpp:77] Creating layer inception_4d/5x5
I0322 23:15:54.569288 11574 net.cpp:84] Creating Layer inception_4d/5x5
I0322 23:15:54.569290 11574 net.cpp:406] inception_4d/5x5 <- inception_4d/5x5_reduce
I0322 23:15:54.569294 11574 net.cpp:380] inception_4d/5x5 -> inception_4d/5x5
I0322 23:15:54.570811 11574 net.cpp:122] Setting up inception_4d/5x5
I0322 23:15:54.570822 11574 net.cpp:129] Top shape: 10 64 14 14 (125440)
I0322 23:15:54.570824 11574 net.cpp:137] Memory required for data: 467891200
I0322 23:15:54.570829 11574 layer_factory.hpp:77] Creating layer inception_4d/relu_5x5
I0322 23:15:54.570834 11574 net.cpp:84] Creating Layer inception_4d/relu_5x5
I0322 23:15:54.570837 11574 net.cpp:406] inception_4d/relu_5x5 <- inception_4d/5x5
I0322 23:15:54.570840 11574 net.cpp:367] inception_4d/relu_5x5 -> inception_4d/5x5 (in-place)
I0322 23:15:54.571017 11574 net.cpp:122] Setting up inception_4d/relu_5x5
I0322 23:15:54.571025 11574 net.cpp:129] Top shape: 10 64 14 14 (125440)
I0322 23:15:54.571028 11574 net.cpp:137] Memory required for data: 468392960
I0322 23:15:54.571030 11574 layer_factory.hpp:77] Creating layer inception_4d/pool
I0322 23:15:54.571035 11574 net.cpp:84] Creating Layer inception_4d/pool
I0322 23:15:54.571038 11574 net.cpp:406] inception_4d/pool <- inception_4c/output_inception_4c/output_0_split_3
I0322 23:15:54.571043 11574 net.cpp:380] inception_4d/pool -> inception_4d/pool
I0322 23:15:54.571096 11574 net.cpp:122] Setting up inception_4d/pool
I0322 23:15:54.571102 11574 net.cpp:129] Top shape: 10 512 14 14 (1003520)
I0322 23:15:54.571105 11574 net.cpp:137] Memory required for data: 472407040
I0322 23:15:54.571107 11574 layer_factory.hpp:77] Creating layer inception_4d/pool_proj
I0322 23:15:54.571115 11574 net.cpp:84] Creating Layer inception_4d/pool_proj
I0322 23:15:54.571118 11574 net.cpp:406] inception_4d/pool_proj <- inception_4d/pool
I0322 23:15:54.571122 11574 net.cpp:380] inception_4d/pool_proj -> inception_4d/pool_proj
I0322 23:15:54.572578 11574 net.cpp:122] Setting up inception_4d/pool_proj
I0322 23:15:54.572590 11574 net.cpp:129] Top shape: 10 64 14 14 (125440)
I0322 23:15:54.572593 11574 net.cpp:137] Memory required for data: 472908800
I0322 23:15:54.572598 11574 layer_factory.hpp:77] Creating layer inception_4d/relu_pool_proj
I0322 23:15:54.572604 11574 net.cpp:84] Creating Layer inception_4d/relu_pool_proj
I0322 23:15:54.572607 11574 net.cpp:406] inception_4d/relu_pool_proj <- inception_4d/pool_proj
I0322 23:15:54.572612 11574 net.cpp:367] inception_4d/relu_pool_proj -> inception_4d/pool_proj (in-place)
I0322 23:15:54.572767 11574 net.cpp:122] Setting up inception_4d/relu_pool_proj
I0322 23:15:54.572775 11574 net.cpp:129] Top shape: 10 64 14 14 (125440)
I0322 23:15:54.572778 11574 net.cpp:137] Memory required for data: 473410560
I0322 23:15:54.572780 11574 layer_factory.hpp:77] Creating layer inception_4d/output
I0322 23:15:54.572785 11574 net.cpp:84] Creating Layer inception_4d/output
I0322 23:15:54.572788 11574 net.cpp:406] inception_4d/output <- inception_4d/1x1
I0322 23:15:54.572791 11574 net.cpp:406] inception_4d/output <- inception_4d/3x3
I0322 23:15:54.572794 11574 net.cpp:406] inception_4d/output <- inception_4d/5x5
I0322 23:15:54.572798 11574 net.cpp:406] inception_4d/output <- inception_4d/pool_proj
I0322 23:15:54.572801 11574 net.cpp:380] inception_4d/output -> inception_4d/output
I0322 23:15:54.572834 11574 net.cpp:122] Setting up inception_4d/output
I0322 23:15:54.572839 11574 net.cpp:129] Top shape: 10 528 14 14 (1034880)
I0322 23:15:54.572841 11574 net.cpp:137] Memory required for data: 477550080
I0322 23:15:54.572844 11574 layer_factory.hpp:77] Creating layer inception_4d/output_inception_4d/output_0_split
I0322 23:15:54.572849 11574 net.cpp:84] Creating Layer inception_4d/output_inception_4d/output_0_split
I0322 23:15:54.572852 11574 net.cpp:406] inception_4d/output_inception_4d/output_0_split <- inception_4d/output
I0322 23:15:54.572855 11574 net.cpp:380] inception_4d/output_inception_4d/output_0_split -> inception_4d/output_inception_4d/output_0_split_0
I0322 23:15:54.572860 11574 net.cpp:380] inception_4d/output_inception_4d/output_0_split -> inception_4d/output_inception_4d/output_0_split_1
I0322 23:15:54.572865 11574 net.cpp:380] inception_4d/output_inception_4d/output_0_split -> inception_4d/output_inception_4d/output_0_split_2
I0322 23:15:54.572868 11574 net.cpp:380] inception_4d/output_inception_4d/output_0_split -> inception_4d/output_inception_4d/output_0_split_3
I0322 23:15:54.572940 11574 net.cpp:122] Setting up inception_4d/output_inception_4d/output_0_split
I0322 23:15:54.572945 11574 net.cpp:129] Top shape: 10 528 14 14 (1034880)
I0322 23:15:54.572948 11574 net.cpp:129] Top shape: 10 528 14 14 (1034880)
I0322 23:15:54.572952 11574 net.cpp:129] Top shape: 10 528 14 14 (1034880)
I0322 23:15:54.572953 11574 net.cpp:129] Top shape: 10 528 14 14 (1034880)
I0322 23:15:54.572955 11574 net.cpp:137] Memory required for data: 494108160
I0322 23:15:54.572958 11574 layer_factory.hpp:77] Creating layer inception_4e/1x1
I0322 23:15:54.572965 11574 net.cpp:84] Creating Layer inception_4e/1x1
I0322 23:15:54.572968 11574 net.cpp:406] inception_4e/1x1 <- inception_4d/output_inception_4d/output_0_split_0
I0322 23:15:54.572973 11574 net.cpp:380] inception_4e/1x1 -> inception_4e/1x1
I0322 23:15:54.574877 11574 net.cpp:122] Setting up inception_4e/1x1
I0322 23:15:54.574888 11574 net.cpp:129] Top shape: 10 256 14 14 (501760)
I0322 23:15:54.574892 11574 net.cpp:137] Memory required for data: 496115200
I0322 23:15:54.574897 11574 layer_factory.hpp:77] Creating layer inception_4e/relu_1x1
I0322 23:15:54.574903 11574 net.cpp:84] Creating Layer inception_4e/relu_1x1
I0322 23:15:54.574905 11574 net.cpp:406] inception_4e/relu_1x1 <- inception_4e/1x1
I0322 23:15:54.574909 11574 net.cpp:367] inception_4e/relu_1x1 -> inception_4e/1x1 (in-place)
I0322 23:15:54.575083 11574 net.cpp:122] Setting up inception_4e/relu_1x1
I0322 23:15:54.575090 11574 net.cpp:129] Top shape: 10 256 14 14 (501760)
I0322 23:15:54.575093 11574 net.cpp:137] Memory required for data: 498122240
I0322 23:15:54.575095 11574 layer_factory.hpp:77] Creating layer inception_4e/3x3_reduce
I0322 23:15:54.575103 11574 net.cpp:84] Creating Layer inception_4e/3x3_reduce
I0322 23:15:54.575106 11574 net.cpp:406] inception_4e/3x3_reduce <- inception_4d/output_inception_4d/output_0_split_1
I0322 23:15:54.575111 11574 net.cpp:380] inception_4e/3x3_reduce -> inception_4e/3x3_reduce
I0322 23:15:54.576835 11574 net.cpp:122] Setting up inception_4e/3x3_reduce
I0322 23:15:54.576863 11574 net.cpp:129] Top shape: 10 160 14 14 (313600)
I0322 23:15:54.576865 11574 net.cpp:137] Memory required for data: 499376640
I0322 23:15:54.576870 11574 layer_factory.hpp:77] Creating layer inception_4e/relu_3x3_reduce
I0322 23:15:54.576875 11574 net.cpp:84] Creating Layer inception_4e/relu_3x3_reduce
I0322 23:15:54.576880 11574 net.cpp:406] inception_4e/relu_3x3_reduce <- inception_4e/3x3_reduce
I0322 23:15:54.576884 11574 net.cpp:367] inception_4e/relu_3x3_reduce -> inception_4e/3x3_reduce (in-place)
I0322 23:15:54.577041 11574 net.cpp:122] Setting up inception_4e/relu_3x3_reduce
I0322 23:15:54.577049 11574 net.cpp:129] Top shape: 10 160 14 14 (313600)
I0322 23:15:54.577052 11574 net.cpp:137] Memory required for data: 500631040
I0322 23:15:54.577054 11574 layer_factory.hpp:77] Creating layer inception_4e/3x3
I0322 23:15:54.577062 11574 net.cpp:84] Creating Layer inception_4e/3x3
I0322 23:15:54.577065 11574 net.cpp:406] inception_4e/3x3 <- inception_4e/3x3_reduce
I0322 23:15:54.577070 11574 net.cpp:380] inception_4e/3x3 -> inception_4e/3x3
I0322 23:15:54.582772 11574 net.cpp:122] Setting up inception_4e/3x3
I0322 23:15:54.582793 11574 net.cpp:129] Top shape: 10 320 14 14 (627200)
I0322 23:15:54.582811 11574 net.cpp:137] Memory required for data: 503139840
I0322 23:15:54.582818 11574 layer_factory.hpp:77] Creating layer inception_4e/relu_3x3
I0322 23:15:54.582823 11574 net.cpp:84] Creating Layer inception_4e/relu_3x3
I0322 23:15:54.582825 11574 net.cpp:406] inception_4e/relu_3x3 <- inception_4e/3x3
I0322 23:15:54.582830 11574 net.cpp:367] inception_4e/relu_3x3 -> inception_4e/3x3 (in-place)
I0322 23:15:54.583004 11574 net.cpp:122] Setting up inception_4e/relu_3x3
I0322 23:15:54.583014 11574 net.cpp:129] Top shape: 10 320 14 14 (627200)
I0322 23:15:54.583015 11574 net.cpp:137] Memory required for data: 505648640
I0322 23:15:54.583019 11574 layer_factory.hpp:77] Creating layer inception_4e/5x5_reduce
I0322 23:15:54.583026 11574 net.cpp:84] Creating Layer inception_4e/5x5_reduce
I0322 23:15:54.583029 11574 net.cpp:406] inception_4e/5x5_reduce <- inception_4d/output_inception_4d/output_0_split_2
I0322 23:15:54.583035 11574 net.cpp:380] inception_4e/5x5_reduce -> inception_4e/5x5_reduce
I0322 23:15:54.584547 11574 net.cpp:122] Setting up inception_4e/5x5_reduce
I0322 23:15:54.584558 11574 net.cpp:129] Top shape: 10 32 14 14 (62720)
I0322 23:15:54.584561 11574 net.cpp:137] Memory required for data: 505899520
I0322 23:15:54.584566 11574 layer_factory.hpp:77] Creating layer inception_4e/relu_5x5_reduce
I0322 23:15:54.584573 11574 net.cpp:84] Creating Layer inception_4e/relu_5x5_reduce
I0322 23:15:54.584575 11574 net.cpp:406] inception_4e/relu_5x5_reduce <- inception_4e/5x5_reduce
I0322 23:15:54.584579 11574 net.cpp:367] inception_4e/relu_5x5_reduce -> inception_4e/5x5_reduce (in-place)
I0322 23:15:54.585373 11574 net.cpp:122] Setting up inception_4e/relu_5x5_reduce
I0322 23:15:54.585384 11574 net.cpp:129] Top shape: 10 32 14 14 (62720)
I0322 23:15:54.585402 11574 net.cpp:137] Memory required for data: 506150400
I0322 23:15:54.585404 11574 layer_factory.hpp:77] Creating layer inception_4e/5x5
I0322 23:15:54.585413 11574 net.cpp:84] Creating Layer inception_4e/5x5
I0322 23:15:54.585417 11574 net.cpp:406] inception_4e/5x5 <- inception_4e/5x5_reduce
I0322 23:15:54.585422 11574 net.cpp:380] inception_4e/5x5 -> inception_4e/5x5
I0322 23:15:54.589416 11574 net.cpp:122] Setting up inception_4e/5x5
I0322 23:15:54.589428 11574 net.cpp:129] Top shape: 10 128 14 14 (250880)
I0322 23:15:54.589447 11574 net.cpp:137] Memory required for data: 507153920
I0322 23:15:54.589452 11574 layer_factory.hpp:77] Creating layer inception_4e/relu_5x5
I0322 23:15:54.589457 11574 net.cpp:84] Creating Layer inception_4e/relu_5x5
I0322 23:15:54.589459 11574 net.cpp:406] inception_4e/relu_5x5 <- inception_4e/5x5
I0322 23:15:54.589465 11574 net.cpp:367] inception_4e/relu_5x5 -> inception_4e/5x5 (in-place)
I0322 23:15:54.589625 11574 net.cpp:122] Setting up inception_4e/relu_5x5
I0322 23:15:54.589633 11574 net.cpp:129] Top shape: 10 128 14 14 (250880)
I0322 23:15:54.589637 11574 net.cpp:137] Memory required for data: 508157440
I0322 23:15:54.589638 11574 layer_factory.hpp:77] Creating layer inception_4e/pool
I0322 23:15:54.589644 11574 net.cpp:84] Creating Layer inception_4e/pool
I0322 23:15:54.589648 11574 net.cpp:406] inception_4e/pool <- inception_4d/output_inception_4d/output_0_split_3
I0322 23:15:54.589651 11574 net.cpp:380] inception_4e/pool -> inception_4e/pool
I0322 23:15:54.589704 11574 net.cpp:122] Setting up inception_4e/pool
I0322 23:15:54.589709 11574 net.cpp:129] Top shape: 10 528 14 14 (1034880)
I0322 23:15:54.589712 11574 net.cpp:137] Memory required for data: 512296960
I0322 23:15:54.589715 11574 layer_factory.hpp:77] Creating layer inception_4e/pool_proj
I0322 23:15:54.589721 11574 net.cpp:84] Creating Layer inception_4e/pool_proj
I0322 23:15:54.589725 11574 net.cpp:406] inception_4e/pool_proj <- inception_4e/pool
I0322 23:15:54.589728 11574 net.cpp:380] inception_4e/pool_proj -> inception_4e/pool_proj
I0322 23:15:54.591370 11574 net.cpp:122] Setting up inception_4e/pool_proj
I0322 23:15:54.591398 11574 net.cpp:129] Top shape: 10 128 14 14 (250880)
I0322 23:15:54.591401 11574 net.cpp:137] Memory required for data: 513300480
I0322 23:15:54.591405 11574 layer_factory.hpp:77] Creating layer inception_4e/relu_pool_proj
I0322 23:15:54.591410 11574 net.cpp:84] Creating Layer inception_4e/relu_pool_proj
I0322 23:15:54.591414 11574 net.cpp:406] inception_4e/relu_pool_proj <- inception_4e/pool_proj
I0322 23:15:54.591418 11574 net.cpp:367] inception_4e/relu_pool_proj -> inception_4e/pool_proj (in-place)
I0322 23:15:54.591574 11574 net.cpp:122] Setting up inception_4e/relu_pool_proj
I0322 23:15:54.591583 11574 net.cpp:129] Top shape: 10 128 14 14 (250880)
I0322 23:15:54.591586 11574 net.cpp:137] Memory required for data: 514304000
I0322 23:15:54.591588 11574 layer_factory.hpp:77] Creating layer inception_4e/output
I0322 23:15:54.591593 11574 net.cpp:84] Creating Layer inception_4e/output
I0322 23:15:54.591595 11574 net.cpp:406] inception_4e/output <- inception_4e/1x1
I0322 23:15:54.591599 11574 net.cpp:406] inception_4e/output <- inception_4e/3x3
I0322 23:15:54.591603 11574 net.cpp:406] inception_4e/output <- inception_4e/5x5
I0322 23:15:54.591605 11574 net.cpp:406] inception_4e/output <- inception_4e/pool_proj
I0322 23:15:54.591609 11574 net.cpp:380] inception_4e/output -> inception_4e/output
I0322 23:15:54.591642 11574 net.cpp:122] Setting up inception_4e/output
I0322 23:15:54.591647 11574 net.cpp:129] Top shape: 10 832 14 14 (1630720)
I0322 23:15:54.591650 11574 net.cpp:137] Memory required for data: 520826880
I0322 23:15:54.591652 11574 layer_factory.hpp:77] Creating layer pool4/3x3_s2
I0322 23:15:54.591658 11574 net.cpp:84] Creating Layer pool4/3x3_s2
I0322 23:15:54.591660 11574 net.cpp:406] pool4/3x3_s2 <- inception_4e/output
I0322 23:15:54.591665 11574 net.cpp:380] pool4/3x3_s2 -> pool4/3x3_s2
I0322 23:15:54.591709 11574 net.cpp:122] Setting up pool4/3x3_s2
I0322 23:15:54.591713 11574 net.cpp:129] Top shape: 10 832 7 7 (407680)
I0322 23:15:54.591716 11574 net.cpp:137] Memory required for data: 522457600
I0322 23:15:54.591718 11574 layer_factory.hpp:77] Creating layer pool4/3x3_s2_pool4/3x3_s2_0_split
I0322 23:15:54.591722 11574 net.cpp:84] Creating Layer pool4/3x3_s2_pool4/3x3_s2_0_split
I0322 23:15:54.591725 11574 net.cpp:406] pool4/3x3_s2_pool4/3x3_s2_0_split <- pool4/3x3_s2
I0322 23:15:54.591729 11574 net.cpp:380] pool4/3x3_s2_pool4/3x3_s2_0_split -> pool4/3x3_s2_pool4/3x3_s2_0_split_0
I0322 23:15:54.591734 11574 net.cpp:380] pool4/3x3_s2_pool4/3x3_s2_0_split -> pool4/3x3_s2_pool4/3x3_s2_0_split_1
I0322 23:15:54.591738 11574 net.cpp:380] pool4/3x3_s2_pool4/3x3_s2_0_split -> pool4/3x3_s2_pool4/3x3_s2_0_split_2
I0322 23:15:54.591742 11574 net.cpp:380] pool4/3x3_s2_pool4/3x3_s2_0_split -> pool4/3x3_s2_pool4/3x3_s2_0_split_3
I0322 23:15:54.591810 11574 net.cpp:122] Setting up pool4/3x3_s2_pool4/3x3_s2_0_split
I0322 23:15:54.591816 11574 net.cpp:129] Top shape: 10 832 7 7 (407680)
I0322 23:15:54.591820 11574 net.cpp:129] Top shape: 10 832 7 7 (407680)
I0322 23:15:54.591821 11574 net.cpp:129] Top shape: 10 832 7 7 (407680)
I0322 23:15:54.591825 11574 net.cpp:129] Top shape: 10 832 7 7 (407680)
I0322 23:15:54.591826 11574 net.cpp:137] Memory required for data: 528980480
I0322 23:15:54.591828 11574 layer_factory.hpp:77] Creating layer inception_5a/1x1
I0322 23:15:54.591836 11574 net.cpp:84] Creating Layer inception_5a/1x1
I0322 23:15:54.591840 11574 net.cpp:406] inception_5a/1x1 <- pool4/3x3_s2_pool4/3x3_s2_0_split_0
I0322 23:15:54.591843 11574 net.cpp:380] inception_5a/1x1 -> inception_5a/1x1
I0322 23:15:54.594025 11574 net.cpp:122] Setting up inception_5a/1x1
I0322 23:15:54.594038 11574 net.cpp:129] Top shape: 10 256 7 7 (125440)
I0322 23:15:54.594055 11574 net.cpp:137] Memory required for data: 529482240
I0322 23:15:54.594060 11574 layer_factory.hpp:77] Creating layer inception_5a/relu_1x1
I0322 23:15:54.594066 11574 net.cpp:84] Creating Layer inception_5a/relu_1x1
I0322 23:15:54.594069 11574 net.cpp:406] inception_5a/relu_1x1 <- inception_5a/1x1
I0322 23:15:54.594074 11574 net.cpp:367] inception_5a/relu_1x1 -> inception_5a/1x1 (in-place)
I0322 23:15:54.594234 11574 net.cpp:122] Setting up inception_5a/relu_1x1
I0322 23:15:54.594244 11574 net.cpp:129] Top shape: 10 256 7 7 (125440)
I0322 23:15:54.594245 11574 net.cpp:137] Memory required for data: 529984000
I0322 23:15:54.594249 11574 layer_factory.hpp:77] Creating layer inception_5a/3x3_reduce
I0322 23:15:54.594256 11574 net.cpp:84] Creating Layer inception_5a/3x3_reduce
I0322 23:15:54.594260 11574 net.cpp:406] inception_5a/3x3_reduce <- pool4/3x3_s2_pool4/3x3_s2_0_split_1
I0322 23:15:54.594264 11574 net.cpp:380] inception_5a/3x3_reduce -> inception_5a/3x3_reduce
I0322 23:15:54.596642 11574 net.cpp:122] Setting up inception_5a/3x3_reduce
I0322 23:15:54.596654 11574 net.cpp:129] Top shape: 10 160 7 7 (78400)
I0322 23:15:54.596673 11574 net.cpp:137] Memory required for data: 530297600
I0322 23:15:54.596678 11574 layer_factory.hpp:77] Creating layer inception_5a/relu_3x3_reduce
I0322 23:15:54.596683 11574 net.cpp:84] Creating Layer inception_5a/relu_3x3_reduce
I0322 23:15:54.596685 11574 net.cpp:406] inception_5a/relu_3x3_reduce <- inception_5a/3x3_reduce
I0322 23:15:54.596689 11574 net.cpp:367] inception_5a/relu_3x3_reduce -> inception_5a/3x3_reduce (in-place)
I0322 23:15:54.596853 11574 net.cpp:122] Setting up inception_5a/relu_3x3_reduce
I0322 23:15:54.596863 11574 net.cpp:129] Top shape: 10 160 7 7 (78400)
I0322 23:15:54.596864 11574 net.cpp:137] Memory required for data: 530611200
I0322 23:15:54.596868 11574 layer_factory.hpp:77] Creating layer inception_5a/3x3
I0322 23:15:54.596876 11574 net.cpp:84] Creating Layer inception_5a/3x3
I0322 23:15:54.596879 11574 net.cpp:406] inception_5a/3x3 <- inception_5a/3x3_reduce
I0322 23:15:54.596885 11574 net.cpp:380] inception_5a/3x3 -> inception_5a/3x3
I0322 23:15:54.601168 11574 net.cpp:122] Setting up inception_5a/3x3
I0322 23:15:54.601181 11574 net.cpp:129] Top shape: 10 320 7 7 (156800)
I0322 23:15:54.601198 11574 net.cpp:137] Memory required for data: 531238400
I0322 23:15:54.601203 11574 layer_factory.hpp:77] Creating layer inception_5a/relu_3x3
I0322 23:15:54.601209 11574 net.cpp:84] Creating Layer inception_5a/relu_3x3
I0322 23:15:54.601212 11574 net.cpp:406] inception_5a/relu_3x3 <- inception_5a/3x3
I0322 23:15:54.601217 11574 net.cpp:367] inception_5a/relu_3x3 -> inception_5a/3x3 (in-place)
I0322 23:15:54.601383 11574 net.cpp:122] Setting up inception_5a/relu_3x3
I0322 23:15:54.601392 11574 net.cpp:129] Top shape: 10 320 7 7 (156800)
I0322 23:15:54.601394 11574 net.cpp:137] Memory required for data: 531865600
I0322 23:15:54.601397 11574 layer_factory.hpp:77] Creating layer inception_5a/5x5_reduce
I0322 23:15:54.601407 11574 net.cpp:84] Creating Layer inception_5a/5x5_reduce
I0322 23:15:54.601409 11574 net.cpp:406] inception_5a/5x5_reduce <- pool4/3x3_s2_pool4/3x3_s2_0_split_2
I0322 23:15:54.601414 11574 net.cpp:380] inception_5a/5x5_reduce -> inception_5a/5x5_reduce
I0322 23:15:54.602829 11574 net.cpp:122] Setting up inception_5a/5x5_reduce
I0322 23:15:54.602840 11574 net.cpp:129] Top shape: 10 32 7 7 (15680)
I0322 23:15:54.602859 11574 net.cpp:137] Memory required for data: 531928320
I0322 23:15:54.602864 11574 layer_factory.hpp:77] Creating layer inception_5a/relu_5x5_reduce
I0322 23:15:54.602869 11574 net.cpp:84] Creating Layer inception_5a/relu_5x5_reduce
I0322 23:15:54.602874 11574 net.cpp:406] inception_5a/relu_5x5_reduce <- inception_5a/5x5_reduce
I0322 23:15:54.602877 11574 net.cpp:367] inception_5a/relu_5x5_reduce -> inception_5a/5x5_reduce (in-place)
I0322 23:15:54.603576 11574 net.cpp:122] Setting up inception_5a/relu_5x5_reduce
I0322 23:15:54.603586 11574 net.cpp:129] Top shape: 10 32 7 7 (15680)
I0322 23:15:54.603605 11574 net.cpp:137] Memory required for data: 531991040
I0322 23:15:54.603607 11574 layer_factory.hpp:77] Creating layer inception_5a/5x5
I0322 23:15:54.603616 11574 net.cpp:84] Creating Layer inception_5a/5x5
I0322 23:15:54.603621 11574 net.cpp:406] inception_5a/5x5 <- inception_5a/5x5_reduce
I0322 23:15:54.603626 11574 net.cpp:380] inception_5a/5x5 -> inception_5a/5x5
I0322 23:15:54.606043 11574 net.cpp:122] Setting up inception_5a/5x5
I0322 23:15:54.606070 11574 net.cpp:129] Top shape: 10 128 7 7 (62720)
I0322 23:15:54.606073 11574 net.cpp:137] Memory required for data: 532241920
I0322 23:15:54.606078 11574 layer_factory.hpp:77] Creating layer inception_5a/relu_5x5
I0322 23:15:54.606094 11574 net.cpp:84] Creating Layer inception_5a/relu_5x5
I0322 23:15:54.606098 11574 net.cpp:406] inception_5a/relu_5x5 <- inception_5a/5x5
I0322 23:15:54.606102 11574 net.cpp:367] inception_5a/relu_5x5 -> inception_5a/5x5 (in-place)
I0322 23:15:54.606263 11574 net.cpp:122] Setting up inception_5a/relu_5x5
I0322 23:15:54.606273 11574 net.cpp:129] Top shape: 10 128 7 7 (62720)
I0322 23:15:54.606276 11574 net.cpp:137] Memory required for data: 532492800
I0322 23:15:54.606278 11574 layer_factory.hpp:77] Creating layer inception_5a/pool
I0322 23:15:54.606283 11574 net.cpp:84] Creating Layer inception_5a/pool
I0322 23:15:54.606287 11574 net.cpp:406] inception_5a/pool <- pool4/3x3_s2_pool4/3x3_s2_0_split_3
I0322 23:15:54.606292 11574 net.cpp:380] inception_5a/pool -> inception_5a/pool
I0322 23:15:54.606343 11574 net.cpp:122] Setting up inception_5a/pool
I0322 23:15:54.606348 11574 net.cpp:129] Top shape: 10 832 7 7 (407680)
I0322 23:15:54.606351 11574 net.cpp:137] Memory required for data: 534123520
I0322 23:15:54.606353 11574 layer_factory.hpp:77] Creating layer inception_5a/pool_proj
I0322 23:15:54.606360 11574 net.cpp:84] Creating Layer inception_5a/pool_proj
I0322 23:15:54.606364 11574 net.cpp:406] inception_5a/pool_proj <- inception_5a/pool
I0322 23:15:54.606369 11574 net.cpp:380] inception_5a/pool_proj -> inception_5a/pool_proj
I0322 23:15:54.608134 11574 net.cpp:122] Setting up inception_5a/pool_proj
I0322 23:15:54.608145 11574 net.cpp:129] Top shape: 10 128 7 7 (62720)
I0322 23:15:54.608149 11574 net.cpp:137] Memory required for data: 534374400
I0322 23:15:54.608153 11574 layer_factory.hpp:77] Creating layer inception_5a/relu_pool_proj
I0322 23:15:54.608158 11574 net.cpp:84] Creating Layer inception_5a/relu_pool_proj
I0322 23:15:54.608161 11574 net.cpp:406] inception_5a/relu_pool_proj <- inception_5a/pool_proj
I0322 23:15:54.608165 11574 net.cpp:367] inception_5a/relu_pool_proj -> inception_5a/pool_proj (in-place)
I0322 23:15:54.608330 11574 net.cpp:122] Setting up inception_5a/relu_pool_proj
I0322 23:15:54.608340 11574 net.cpp:129] Top shape: 10 128 7 7 (62720)
I0322 23:15:54.608342 11574 net.cpp:137] Memory required for data: 534625280
I0322 23:15:54.608345 11574 layer_factory.hpp:77] Creating layer inception_5a/output
I0322 23:15:54.608348 11574 net.cpp:84] Creating Layer inception_5a/output
I0322 23:15:54.608351 11574 net.cpp:406] inception_5a/output <- inception_5a/1x1
I0322 23:15:54.608355 11574 net.cpp:406] inception_5a/output <- inception_5a/3x3
I0322 23:15:54.608358 11574 net.cpp:406] inception_5a/output <- inception_5a/5x5
I0322 23:15:54.608361 11574 net.cpp:406] inception_5a/output <- inception_5a/pool_proj
I0322 23:15:54.608364 11574 net.cpp:380] inception_5a/output -> inception_5a/output
I0322 23:15:54.608399 11574 net.cpp:122] Setting up inception_5a/output
I0322 23:15:54.608404 11574 net.cpp:129] Top shape: 10 832 7 7 (407680)
I0322 23:15:54.608407 11574 net.cpp:137] Memory required for data: 536256000
I0322 23:15:54.608408 11574 layer_factory.hpp:77] Creating layer inception_5a/output_inception_5a/output_0_split
I0322 23:15:54.608413 11574 net.cpp:84] Creating Layer inception_5a/output_inception_5a/output_0_split
I0322 23:15:54.608417 11574 net.cpp:406] inception_5a/output_inception_5a/output_0_split <- inception_5a/output
I0322 23:15:54.608420 11574 net.cpp:380] inception_5a/output_inception_5a/output_0_split -> inception_5a/output_inception_5a/output_0_split_0
I0322 23:15:54.608424 11574 net.cpp:380] inception_5a/output_inception_5a/output_0_split -> inception_5a/output_inception_5a/output_0_split_1
I0322 23:15:54.608428 11574 net.cpp:380] inception_5a/output_inception_5a/output_0_split -> inception_5a/output_inception_5a/output_0_split_2
I0322 23:15:54.608433 11574 net.cpp:380] inception_5a/output_inception_5a/output_0_split -> inception_5a/output_inception_5a/output_0_split_3
I0322 23:15:54.608512 11574 net.cpp:122] Setting up inception_5a/output_inception_5a/output_0_split
I0322 23:15:54.608518 11574 net.cpp:129] Top shape: 10 832 7 7 (407680)
I0322 23:15:54.608521 11574 net.cpp:129] Top shape: 10 832 7 7 (407680)
I0322 23:15:54.608523 11574 net.cpp:129] Top shape: 10 832 7 7 (407680)
I0322 23:15:54.608526 11574 net.cpp:129] Top shape: 10 832 7 7 (407680)
I0322 23:15:54.608528 11574 net.cpp:137] Memory required for data: 542778880
I0322 23:15:54.608530 11574 layer_factory.hpp:77] Creating layer inception_5b/1x1
I0322 23:15:54.608538 11574 net.cpp:84] Creating Layer inception_5b/1x1
I0322 23:15:54.608541 11574 net.cpp:406] inception_5b/1x1 <- inception_5a/output_inception_5a/output_0_split_0
I0322 23:15:54.608546 11574 net.cpp:380] inception_5b/1x1 -> inception_5b/1x1
I0322 23:15:54.611783 11574 net.cpp:122] Setting up inception_5b/1x1
I0322 23:15:54.611795 11574 net.cpp:129] Top shape: 10 384 7 7 (188160)
I0322 23:15:54.611814 11574 net.cpp:137] Memory required for data: 543531520
I0322 23:15:54.611819 11574 layer_factory.hpp:77] Creating layer inception_5b/relu_1x1
I0322 23:15:54.611824 11574 net.cpp:84] Creating Layer inception_5b/relu_1x1
I0322 23:15:54.611827 11574 net.cpp:406] inception_5b/relu_1x1 <- inception_5b/1x1
I0322 23:15:54.611831 11574 net.cpp:367] inception_5b/relu_1x1 -> inception_5b/1x1 (in-place)
I0322 23:15:54.611990 11574 net.cpp:122] Setting up inception_5b/relu_1x1
I0322 23:15:54.611999 11574 net.cpp:129] Top shape: 10 384 7 7 (188160)
I0322 23:15:54.612001 11574 net.cpp:137] Memory required for data: 544284160
I0322 23:15:54.612004 11574 layer_factory.hpp:77] Creating layer inception_5b/3x3_reduce
I0322 23:15:54.612012 11574 net.cpp:84] Creating Layer inception_5b/3x3_reduce
I0322 23:15:54.612016 11574 net.cpp:406] inception_5b/3x3_reduce <- inception_5a/output_inception_5a/output_0_split_1
I0322 23:15:54.612020 11574 net.cpp:380] inception_5b/3x3_reduce -> inception_5b/3x3_reduce
I0322 23:15:54.613992 11574 net.cpp:122] Setting up inception_5b/3x3_reduce
I0322 23:15:54.614006 11574 net.cpp:129] Top shape: 10 192 7 7 (94080)
I0322 23:15:54.614023 11574 net.cpp:137] Memory required for data: 544660480
I0322 23:15:54.614029 11574 layer_factory.hpp:77] Creating layer inception_5b/relu_3x3_reduce
I0322 23:15:54.614033 11574 net.cpp:84] Creating Layer inception_5b/relu_3x3_reduce
I0322 23:15:54.614037 11574 net.cpp:406] inception_5b/relu_3x3_reduce <- inception_5b/3x3_reduce
I0322 23:15:54.614040 11574 net.cpp:367] inception_5b/relu_3x3_reduce -> inception_5b/3x3_reduce (in-place)
I0322 23:15:54.614202 11574 net.cpp:122] Setting up inception_5b/relu_3x3_reduce
I0322 23:15:54.614212 11574 net.cpp:129] Top shape: 10 192 7 7 (94080)
I0322 23:15:54.614213 11574 net.cpp:137] Memory required for data: 545036800
I0322 23:15:54.614217 11574 layer_factory.hpp:77] Creating layer inception_5b/3x3
I0322 23:15:54.614223 11574 net.cpp:84] Creating Layer inception_5b/3x3
I0322 23:15:54.614226 11574 net.cpp:406] inception_5b/3x3 <- inception_5b/3x3_reduce
I0322 23:15:54.614231 11574 net.cpp:380] inception_5b/3x3 -> inception_5b/3x3
I0322 23:15:54.619469 11574 net.cpp:122] Setting up inception_5b/3x3
I0322 23:15:54.619498 11574 net.cpp:129] Top shape: 10 384 7 7 (188160)
I0322 23:15:54.619500 11574 net.cpp:137] Memory required for data: 545789440
I0322 23:15:54.619505 11574 layer_factory.hpp:77] Creating layer inception_5b/relu_3x3
I0322 23:15:54.619510 11574 net.cpp:84] Creating Layer inception_5b/relu_3x3
I0322 23:15:54.619513 11574 net.cpp:406] inception_5b/relu_3x3 <- inception_5b/3x3
I0322 23:15:54.619518 11574 net.cpp:367] inception_5b/relu_3x3 -> inception_5b/3x3 (in-place)
I0322 23:15:54.619691 11574 net.cpp:122] Setting up inception_5b/relu_3x3
I0322 23:15:54.619699 11574 net.cpp:129] Top shape: 10 384 7 7 (188160)
I0322 23:15:54.619702 11574 net.cpp:137] Memory required for data: 546542080
I0322 23:15:54.619704 11574 layer_factory.hpp:77] Creating layer inception_5b/5x5_reduce
I0322 23:15:54.619712 11574 net.cpp:84] Creating Layer inception_5b/5x5_reduce
I0322 23:15:54.619715 11574 net.cpp:406] inception_5b/5x5_reduce <- inception_5a/output_inception_5a/output_0_split_2
I0322 23:15:54.619721 11574 net.cpp:380] inception_5b/5x5_reduce -> inception_5b/5x5_reduce
I0322 23:15:54.621230 11574 net.cpp:122] Setting up inception_5b/5x5_reduce
I0322 23:15:54.621243 11574 net.cpp:129] Top shape: 10 48 7 7 (23520)
I0322 23:15:54.621260 11574 net.cpp:137] Memory required for data: 546636160
I0322 23:15:54.621265 11574 layer_factory.hpp:77] Creating layer inception_5b/relu_5x5_reduce
I0322 23:15:54.621269 11574 net.cpp:84] Creating Layer inception_5b/relu_5x5_reduce
I0322 23:15:54.621273 11574 net.cpp:406] inception_5b/relu_5x5_reduce <- inception_5b/5x5_reduce
I0322 23:15:54.621279 11574 net.cpp:367] inception_5b/relu_5x5_reduce -> inception_5b/5x5_reduce (in-place)
I0322 23:15:54.621986 11574 net.cpp:122] Setting up inception_5b/relu_5x5_reduce
I0322 23:15:54.621997 11574 net.cpp:129] Top shape: 10 48 7 7 (23520)
I0322 23:15:54.622015 11574 net.cpp:137] Memory required for data: 546730240
I0322 23:15:54.622018 11574 layer_factory.hpp:77] Creating layer inception_5b/5x5
I0322 23:15:54.622026 11574 net.cpp:84] Creating Layer inception_5b/5x5
I0322 23:15:54.622030 11574 net.cpp:406] inception_5b/5x5 <- inception_5b/5x5_reduce
I0322 23:15:54.622035 11574 net.cpp:380] inception_5b/5x5 -> inception_5b/5x5
I0322 23:15:54.623961 11574 net.cpp:122] Setting up inception_5b/5x5
I0322 23:15:54.623972 11574 net.cpp:129] Top shape: 10 128 7 7 (62720)
I0322 23:15:54.623991 11574 net.cpp:137] Memory required for data: 546981120
I0322 23:15:54.623996 11574 layer_factory.hpp:77] Creating layer inception_5b/relu_5x5
I0322 23:15:54.624001 11574 net.cpp:84] Creating Layer inception_5b/relu_5x5
I0322 23:15:54.624004 11574 net.cpp:406] inception_5b/relu_5x5 <- inception_5b/5x5
I0322 23:15:54.624008 11574 net.cpp:367] inception_5b/relu_5x5 -> inception_5b/5x5 (in-place)
I0322 23:15:54.624167 11574 net.cpp:122] Setting up inception_5b/relu_5x5
I0322 23:15:54.624176 11574 net.cpp:129] Top shape: 10 128 7 7 (62720)
I0322 23:15:54.624179 11574 net.cpp:137] Memory required for data: 547232000
I0322 23:15:54.624181 11574 layer_factory.hpp:77] Creating layer inception_5b/pool
I0322 23:15:54.624186 11574 net.cpp:84] Creating Layer inception_5b/pool
I0322 23:15:54.624189 11574 net.cpp:406] inception_5b/pool <- inception_5a/output_inception_5a/output_0_split_3
I0322 23:15:54.624193 11574 net.cpp:380] inception_5b/pool -> inception_5b/pool
I0322 23:15:54.624246 11574 net.cpp:122] Setting up inception_5b/pool
I0322 23:15:54.624253 11574 net.cpp:129] Top shape: 10 832 7 7 (407680)
I0322 23:15:54.624254 11574 net.cpp:137] Memory required for data: 548862720
I0322 23:15:54.624258 11574 layer_factory.hpp:77] Creating layer inception_5b/pool_proj
I0322 23:15:54.624264 11574 net.cpp:84] Creating Layer inception_5b/pool_proj
I0322 23:15:54.624266 11574 net.cpp:406] inception_5b/pool_proj <- inception_5b/pool
I0322 23:15:54.624271 11574 net.cpp:380] inception_5b/pool_proj -> inception_5b/pool_proj
I0322 23:15:54.626022 11574 net.cpp:122] Setting up inception_5b/pool_proj
I0322 23:15:54.626034 11574 net.cpp:129] Top shape: 10 128 7 7 (62720)
I0322 23:15:54.626052 11574 net.cpp:137] Memory required for data: 549113600
I0322 23:15:54.626057 11574 layer_factory.hpp:77] Creating layer inception_5b/relu_pool_proj
I0322 23:15:54.626062 11574 net.cpp:84] Creating Layer inception_5b/relu_pool_proj
I0322 23:15:54.626066 11574 net.cpp:406] inception_5b/relu_pool_proj <- inception_5b/pool_proj
I0322 23:15:54.626070 11574 net.cpp:367] inception_5b/relu_pool_proj -> inception_5b/pool_proj (in-place)
I0322 23:15:54.626229 11574 net.cpp:122] Setting up inception_5b/relu_pool_proj
I0322 23:15:54.626236 11574 net.cpp:129] Top shape: 10 128 7 7 (62720)
I0322 23:15:54.626240 11574 net.cpp:137] Memory required for data: 549364480
I0322 23:15:54.626241 11574 layer_factory.hpp:77] Creating layer inception_5b/output
I0322 23:15:54.626247 11574 net.cpp:84] Creating Layer inception_5b/output
I0322 23:15:54.626250 11574 net.cpp:406] inception_5b/output <- inception_5b/1x1
I0322 23:15:54.626255 11574 net.cpp:406] inception_5b/output <- inception_5b/3x3
I0322 23:15:54.626257 11574 net.cpp:406] inception_5b/output <- inception_5b/5x5
I0322 23:15:54.626260 11574 net.cpp:406] inception_5b/output <- inception_5b/pool_proj
I0322 23:15:54.626263 11574 net.cpp:380] inception_5b/output -> inception_5b/output
I0322 23:15:54.626298 11574 net.cpp:122] Setting up inception_5b/output
I0322 23:15:54.626303 11574 net.cpp:129] Top shape: 10 1024 7 7 (501760)
I0322 23:15:54.626305 11574 net.cpp:137] Memory required for data: 551371520
I0322 23:15:54.626307 11574 layer_factory.hpp:77] Creating layer pool5/7x7_s1
I0322 23:15:54.626312 11574 net.cpp:84] Creating Layer pool5/7x7_s1
I0322 23:15:54.626315 11574 net.cpp:406] pool5/7x7_s1 <- inception_5b/output
I0322 23:15:54.626319 11574 net.cpp:380] pool5/7x7_s1 -> pool5/7x7_s1
I0322 23:15:54.626502 11574 net.cpp:122] Setting up pool5/7x7_s1
I0322 23:15:54.626510 11574 net.cpp:129] Top shape: 10 1024 1 1 (10240)
I0322 23:15:54.626513 11574 net.cpp:137] Memory required for data: 551412480
I0322 23:15:54.626515 11574 layer_factory.hpp:77] Creating layer pool5/drop_7x7_s1
I0322 23:15:54.626521 11574 net.cpp:84] Creating Layer pool5/drop_7x7_s1
I0322 23:15:54.626524 11574 net.cpp:406] pool5/drop_7x7_s1 <- pool5/7x7_s1
I0322 23:15:54.626528 11574 net.cpp:367] pool5/drop_7x7_s1 -> pool5/7x7_s1 (in-place)
I0322 23:15:54.626557 11574 net.cpp:122] Setting up pool5/drop_7x7_s1
I0322 23:15:54.626561 11574 net.cpp:129] Top shape: 10 1024 1 1 (10240)
I0322 23:15:54.626564 11574 net.cpp:137] Memory required for data: 551453440
I0322 23:15:54.626566 11574 layer_factory.hpp:77] Creating layer loss3/classifier
I0322 23:15:54.626572 11574 net.cpp:84] Creating Layer loss3/classifier
I0322 23:15:54.626575 11574 net.cpp:406] loss3/classifier <- pool5/7x7_s1
I0322 23:15:54.626579 11574 net.cpp:380] loss3/classifier -> loss3/classifier
I0322 23:15:54.631734 11574 net.cpp:122] Setting up loss3/classifier
I0322 23:15:54.631747 11574 net.cpp:129] Top shape: 10 1000 (10000)
I0322 23:15:54.631764 11574 net.cpp:137] Memory required for data: 551493440
I0322 23:15:54.631769 11574 layer_factory.hpp:77] Creating layer prob
I0322 23:15:54.631775 11574 net.cpp:84] Creating Layer prob
I0322 23:15:54.631778 11574 net.cpp:406] prob <- loss3/classifier
I0322 23:15:54.631783 11574 net.cpp:380] prob -> prob
I0322 23:15:54.632609 11574 net.cpp:122] Setting up prob
I0322 23:15:54.632635 11574 net.cpp:129] Top shape: 10 1000 (10000)
I0322 23:15:54.632637 11574 net.cpp:137] Memory required for data: 551533440
I0322 23:15:54.632640 11574 net.cpp:200] prob does not need backward computation.
I0322 23:15:54.632658 11574 net.cpp:200] loss3/classifier does not need backward computation.
I0322 23:15:54.632660 11574 net.cpp:200] pool5/drop_7x7_s1 does not need backward computation.
I0322 23:15:54.632663 11574 net.cpp:200] pool5/7x7_s1 does not need backward computation.
…
