…
snapshot_prefix: "/home/dalong//Workspace/FCN/fcn.berkeleyvision.org/douyu1000-googlenet/snapshot/douyu2700_train_without_bn"
test_initialization: false
average_loss: 20
iter_size: 10
I0320 21:56:27.253762 32613 solver.cpp:77] Creating training net from train_net file: trainval_without_bn.prototxt
I0320 21:56:27.256240 32613 net.cpp:51] Initializing net from parameters: 
state {
  phase: TRAIN
}
layer {
  name: "data"
  type: "Python"
  top: "data"
  top: "sem"
  python_param {
    module: "douyu1000_layers"
    layer: "Douyu1000SegDataLayer"
    param_str: "{\'douyu1000_dir\': \'../data/douyu_2700\', \'seed\': 1337, \'split\': \'trainval\'}"
  }
}
layer {
  name: "conv1/7x7_s2"
  type: "Convolution"
  bottom: "data"
  top: "conv1/7x7_s2"
  param {
    lr_mult: 1
    decay_mult: 1
  }
  param {
    lr_mult: 2
    decay_mult: 0
  }
  convolution_param {
    num_output: 64
    pad: 9
    kernel_size: 7
    stride: 2
    weight_filler {
      type: "xavier"
    }
    bias_filler {
      type: "constant"
      value: 0.2
    }
  }
}
layer {
  name: "conv1/relu_7x7"
  type: "ReLU"
  bottom: "conv1/7x7_s2"
  top: "conv1/7x7_s2"
}
layer {
  name: "pool1/3x3_s2"
  type: "Pooling"
  bottom: "conv1/7x7_s2"
  top: "pool1/3x3_s2"
  pooling_param {
    pool: MAX
    kernel_size: 3
    stride: 2
  }
}
layer {
  name: "pool1/norm1"
  type: "LRN"
  bottom: "pool1/3x3_s2"
  top: "pool1/norm1"
  lrn_param {
    local_size: 5
    alpha: 0.0001
    beta: 0.75
  }
}
layer {
  name: "conv2/3x3_reduce"
  type: "Convolution"
  bottom: "pool1/norm1"
  top: "conv2/3x3_reduce"
  param {
    lr_mult: 1
    decay_mult: 1
  }
  param {
    lr_mult: 2
    decay_mult: 0
  }
  convolution_param {
    num_output: 64
    kernel_size: 1
    weight_filler {
      type: "xavier"
    }
    bias_filler {
      type: "constant"
      value: 0.2
    }
  }
}
layer {
  name: "conv2/relu_3x3_reduce"
  type: "ReLU"
  bottom: "conv2/3x3_reduce"
  top: "conv2/3x3_reduce"
}
layer {
  name: "conv2/3x3"
  type: "Convolution"
  bottom: "conv2/3x3_reduce"
  top: "conv2/3x3"
  param {
    lr_mult: 1
    decay_mult: 1
  }
  param {
    lr_mult: 2
    decay_mult: 0
  }
  convolution_param {
    num_output: 192
    pad: 1
    kernel_size: 3
    weight_filler {
      type: "xavier"
    }
    bias_filler {
      type: "constant"
      value: 0.2
    }
  }
}
layer {
  name: "conv2/relu_3x3"
  type: "ReLU"
  bottom: "conv2/3x3"
  top: "conv2/3x3"
}
layer {
  name: "conv2/norm2"
  type: "LRN"
  bottom: "conv2/3x3"
  top: "conv2/norm2"
  lrn_param {
    local_size: 5
    alpha: 0.0001
    beta: 0.75
  }
}
layer {
  name: "pool2/3x3_s2"
  type: "Pooling"
  bottom: "conv2/norm2"
  top: "pool2/3x3_s2"
  pooling_param {
    pool: MAX
    kernel_size: 3
    stride: 2
  }
}
layer {
  name: "inception_3a/1x1"
  type: "Convolution"
  bottom: "pool2/3x3_s2"
  top: "inception_3a/1x1"
  param {
    lr_mult: 1
    decay_mult: 1
  }
  param {
    lr_mult: 2
    decay_mult: 0
  }
  convolution_param {
    num_output: 64
    kernel_size: 1
    weight_filler {
      type: "xavier"
    }
    bias_filler {
      type: "constant"
      value: 0.2
    }
  }
}
layer {
  name: "inception_3a/relu_1x1"
  type: "ReLU"
  bottom: "inception_3a/1x1"
  top: "inception_3a/1x1"
}
layer {
  name: "inception_3a/3x3_reduce"
  type: "Convolution"
  bottom: "pool2/3x3_s2"
  top: "inception_3a/3x3_reduce"
  param {
    lr_mult: 1
    decay_mult: 1
  }
  param {
    lr_mult: 2
    decay_mult: 0
  }
  convolution_param {
    num_output: 96
    kernel_size: 1
    weight_filler {
      type: "xavier"
    }
    bias_filler {
      type: "constant"
      value: 0.2
    }
  }
}
layer {
  name: "inception_3a/relu_3x3_reduce"
  type: "ReLU"
  bottom: "inception_3a/3x3_reduce"
  top: "inception_3a/3x3_reduce"
}
layer {
  name: "inception_3a/3x3"
  type: "Convolution"
  bottom: "inception_3a/3x3_reduce"
  top: "inception_3a/3x3"
  param {
    lr_mult: 1
    decay_mult: 1
  }
  param {
    lr_mult: 2
    decay_mult: 0
  }
  convolution_param {
    num_output: 128
    pad: 1
    kernel_size: 3
    weight_filler {
      type: "xavier"
    }
    bias_filler {
      type: "constant"
      value: 0.2
    }
  }
}
layer {
  name: "inception_3a/relu_3x3"
  type: "ReLU"
  bottom: "inception_3a/3x3"
  top: "inception_3a/3x3"
}
layer {
  name: "inception_3a/5x5_reduce"
  type: "Convolution"
  bottom: "pool2/3x3_s2"
  top: "inception_3a/5x5_reduce"
  param {
    lr_mult: 1
    decay_mult: 1
  }
  param {
    lr_mult: 2
    decay_mult: 0
  }
  convolution_param {
    num_output: 16
    kernel_size: 1
    weight_filler {
      type: "xavier"
    }
    bias_filler {
      type: "constant"
      value: 0.2
    }
  }
}
layer {
  name: "inception_3a/relu_5x5_reduce"
  type: "ReLU"
  bottom: "inception_3a/5x5_reduce"
  top: "inception_3a/5x5_reduce"
}
layer {
  name: "inception_3a/5x5"
  type: "Convolution"
  bottom: "inception_3a/5x5_reduce"
  top: "inception_3a/5x5"
  param {
    lr_mult: 1
    decay_mult: 1
  }
  param {
    lr_mult: 2
    decay_mult: 0
  }
  convolution_param {
    num_output: 32
    pad: 2
    kernel_size: 5
    weight_filler {
      type: "xavier"
    }
    bias_filler {
      type: "constant"
      value: 0.2
    }
  }
}
layer {
  name: "inception_3a/relu_5x5"
  type: "ReLU"
  bottom: "inception_3a/5x5"
  top: "inception_3a/5x5"
}
layer {
  name: "inception_3a/pool"
  type: "Pooling"
  bottom: "pool2/3x3_s2"
  top: "inception_3a/pool"
  pooling_param {
    pool: MAX
    kernel_size: 3
    stride: 1
    pad: 1
  }
}
layer {
  name: "inception_3a/pool_proj"
  type: "Convolution"
  bottom: "inception_3a/pool"
  top: "inception_3a/pool_proj"
  param {
    lr_mult: 1
    decay_mult: 1
  }
  param {
    lr_mult: 2
    decay_mult: 0
  }
  convolution_param {
    num_output: 32
    kernel_size: 1
    weight_filler {
      type: "xavier"
    }
    bias_filler {
      type: "constant"
      value: 0.2
    }
  }
}
layer {
  name: "inception_3a/relu_pool_proj"
  type: "ReLU"
  bottom: "inception_3a/pool_proj"
  top: "inception_3a/pool_proj"
}
layer {
  name: "inception_3a/output"
  type: "Concat"
  bottom: "inception_3a/1x1"
  bottom: "inception_3a/3x3"
  bottom: "inception_3a/5x5"
  bottom: "inception_3a/pool_proj"
  top: "inception_3a/output"
}
layer {
  name: "inception_3b/1x1"
  type: "Convolution"
  bottom: "inception_3a/output"
  top: "inception_3b/1x1"
  param {
    lr_mult: 1
    decay_mult: 1
  }
  param {
    lr_mult: 2
    decay_mult: 0
  }
  convolution_param {
    num_output: 128
    kernel_size: 1
    weight_filler {
      type: "xavier"
    }
    bias_filler {
      type: "constant"
      value: 0.2
    }
  }
}
layer {
  name: "inception_3b/relu_1x1"
  type: "ReLU"
  bottom: "inception_3b/1x1"
  top: "inception_3b/1x1"
}
layer {
  name: "inception_3b/3x3_reduce"
  type: "Convolution"
  bottom: "inception_3a/output"
  top: "inception_3b/3x3_reduce"
  param {
    lr_mult: 1
    decay_mult: 1
  }
  param {
    lr_mult: 2
    decay_mult: 0
  }
  convolution_param {
    num_output: 128
    kernel_size: 1
    weight_filler {
      type: "xavier"
    }
    bias_filler {
      type: "constant"
      value: 0.2
    }
  }
}
layer {
  name: "inception_3b/relu_3x3_reduce"
  type: "ReLU"
  bottom: "inception_3b/3x3_reduce"
  top: "inception_3b/3x3_reduce"
}
layer {
  name: "inception_3b/3x3"
  type: "Convolution"
  bottom: "inception_3b/3x3_reduce"
  top: "inception_3b/3x3"
  param {
    lr_mult: 1
    decay_mult: 1
  }
  param {
    lr_mult: 2
    decay_mult: 0
  }
  convolution_param {
    num_output: 192
    pad: 1
    kernel_size: 3
    weight_filler {
      type: "xavier"
    }
    bias_filler {
      type: "constant"
      value: 0.2
    }
  }
}
layer {
  name: "inception_3b/relu_3x3"
  type: "ReLU"
  bottom: "inception_3b/3x3"
  top: "inception_3b/3x3"
}
layer {
  name: "inception_3b/5x5_reduce"
  type: "Convolution"
  bottom: "inception_3a/output"
  top: "inception_3b/5x5_reduce"
  param {
    lr_mult: 1
    decay_mult: 1
  }
  param {
    lr_mult: 2
    decay_mult: 0
  }
  convolution_param {
    num_output: 32
    kernel_size: 1
    weight_filler {
      type: "xavier"
    }
    bias_filler {
      type: "constant"
      value: 0.2
    }
  }
}
layer {
  name: "inception_3b/relu_5x5_reduce"
  type: "ReLU"
  bottom: "inception_3b/5x5_reduce"
  top: "inception_3b/5x5_reduce"
}
layer {
  name: "inception_3b/5x5"
  type: "Convolution"
  bottom: "inception_3b/5x5_reduce"
  top: "inception_3b/5x5"
  param {
    lr_mult: 1
    decay_mult: 1
  }
  param {
    lr_mult: 2
    decay_mult: 0
  }
  convolution_param {
    num_output: 96
    pad: 2
    kernel_size: 5
    weight_filler {
      type: "xavier"
    }
    bias_filler {
      type: "constant"
      value: 0.2
    }
  }
}
layer {
  name: "inception_3b/relu_5x5"
  type: "ReLU"
  bottom: "inception_3b/5x5"
  top: "inception_3b/5x5"
}
layer {
  name: "inception_3b/pool"
  type: "Pooling"
  bottom: "inception_3a/output"
  top: "inception_3b/pool"
  pooling_param {
    pool: MAX
    kernel_size: 3
    stride: 1
    pad: 1
  }
}
layer {
  name: "inception_3b/pool_proj"
  type: "Convolution"
  bottom: "inception_3b/pool"
  top: "inception_3b/pool_proj"
  param {
    lr_mult: 1
    decay_mult: 1
  }
  param {
    lr_mult: 2
    decay_mult: 0
  }
  convolution_param {
    num_output: 64
    kernel_size: 1
    weight_filler {
      type: "xavier"
    }
    bias_filler {
      type: "constant"
      value: 0.2
    }
  }
}
layer {
  name: "inception_3b/relu_pool_proj"
  type: "ReLU"
  bottom: "inception_3b/pool_proj"
  top: "inception_3b/pool_proj"
}
layer {
  name: "inception_3b/output"
  type: "Concat"
  bottom: "inception_3b/1x1"
  bottom: "inception_3b/3x3"
  bottom: "inception_3b/5x5"
  bottom: "inception_3b/pool_proj"
  top: "inception_3b/output"
}
layer {
  name: "pool3/3x3_s2"
  type: "Pooling"
  bottom: "inception_3b/output"
  top: "pool3/3x3_s2"
  pooling_param {
    pool: MAX
    kernel_size: 3
    stride: 2
  }
}
layer {
  name: "inception_4a/1x1"
  type: "Convolution"
  bottom: "pool3/3x3_s2"
  top: "inception_4a/1x1"
  param {
    lr_mult: 1
    decay_mult: 1
  }
  param {
    lr_mult: 2
    decay_mult: 0
  }
  convolution_param {
    num_output: 192
    kernel_size: 1
    weight_filler {
      type: "xavier"
    }
    bias_filler {
      type: "constant"
      value: 0.2
    }
  }
}
layer {
  name: "inception_4a/relu_1x1"
  type: "ReLU"
  bottom: "inception_4a/1x1"
  top: "inception_4a/1x1"
}
layer {
  name: "inception_4a/3x3_reduce"
  type: "Convolution"
  bottom: "pool3/3x3_s2"
  top: "inception_4a/3x3_reduce"
  param {
    lr_mult: 1
    decay_mult: 1
  }
  param {
    lr_mult: 2
    decay_mult: 0
  }
  convolution_param {
    num_output: 96
    kernel_size: 1
    weight_filler {
      type: "xavier"
    }
    bias_filler {
      type: "constant"
      value: 0.2
    }
  }
}
layer {
  name: "inception_4a/relu_3x3_reduce"
  type: "ReLU"
  bottom: "inception_4a/3x3_reduce"
  top: "inception_4a/3x3_reduce"
}
layer {
  name: "inception_4a/3x3"
  type: "Convolution"
  bottom: "inception_4a/3x3_reduce"
  top: "inception_4a/3x3"
  param {
    lr_mult: 1
    decay_mult: 1
  }
  param {
    lr_mult: 2
    decay_mult: 0
  }
  convolution_param {
    num_output: 208
    pad: 1
    kernel_size: 3
    weight_filler {
      type: "xavier"
    }
    bias_filler {
      type: "constant"
      value: 0.2
    }
  }
}
layer {
  name: "inception_4a/relu_3x3"
  type: "ReLU"
  bottom: "inception_4a/3x3"
  top: "inception_4a/3x3"
}
layer {
  name: "inception_4a/5x5_reduce"
  type: "Convolution"
  bottom: "pool3/3x3_s2"
  top: "inception_4a/5x5_reduce"
  param {
    lr_mult: 1
    decay_mult: 1
  }
  param {
    lr_mult: 2
    decay_mult: 0
  }
  convolution_param {
    num_output: 16
    kernel_size: 1
    weight_filler {
      type: "xavier"
    }
    bias_filler {
      type: "constant"
      value: 0.2
    }
  }
}
layer {
  name: "inception_4a/relu_5x5_reduce"
  type: "ReLU"
  bottom: "inception_4a/5x5_reduce"
  top: "inception_4a/5x5_reduce"
}
layer {
  name: "inception_4a/5x5"
  type: "Convolution"
  bottom: "inception_4a/5x5_reduce"
  top: "inception_4a/5x5"
  param {
    lr_mult: 1
    decay_mult: 1
  }
  param {
    lr_mult: 2
    decay_mult: 0
  }
  convolution_param {
    num_output: 48
    pad: 2
    kernel_size: 5
    weight_filler {
      type: "xavier"
    }
    bias_filler {
      type: "constant"
      value: 0.2
    }
  }
}
layer {
  name: "inception_4a/relu_5x5"
  type: "ReLU"
  bottom: "inception_4a/5x5"
  top: "inception_4a/5x5"
}
layer {
  name: "inception_4a/pool"
  type: "Pooling"
  bottom: "pool3/3x3_s2"
  top: "inception_4a/pool"
  pooling_param {
    pool: MAX
    kernel_size: 3
    stride: 1
    pad: 1
  }
}
layer {
  name: "inception_4a/pool_proj"
  type: "Convolution"
  bottom: "inception_4a/pool"
  top: "inception_4a/pool_proj"
  param {
    lr_mult: 1
    decay_mult: 1
  }
  param {
    lr_mult: 2
    decay_mult: 0
  }
  convolution_param {
    num_output: 64
    kernel_size: 1
    weight_filler {
      type: "xavier"
    }
    bias_filler {
      type: "constant"
      value: 0.2
    }
  }
}
layer {
  name: "inception_4a/relu_pool_proj"
  type: "ReLU"
  bottom: "inception_4a/pool_proj"
  top: "inception_4a/pool_proj"
}
layer {
  name: "inception_4a/output"
  type: "Concat"
  bottom: "inception_4a/1x1"
  bottom: "inception_4a/3x3"
  bottom: "inception_4a/5x5"
  bottom: "inception_4a/pool_proj"
  top: "inception_4a/output"
}
layer {
  name: "inception_4b/1x1"
  type: "Convolution"
  bottom: "inception_4a/output"
  top: "inception_4b/1x1"
  param {
    lr_mult: 1
    decay_mult: 1
  }
  param {
    lr_mult: 2
    decay_mult: 0
  }
  convolution_param {
    num_output: 160
    kernel_size: 1
    weight_filler {
      type: "xavier"
    }
    bias_filler {
      type: "constant"
      value: 0.2
    }
  }
}
layer {
  name: "inception_4b/relu_1x1"
  type: "ReLU"
  bottom: "inception_4b/1x1"
  top: "inception_4b/1x1"
}
layer {
  name: "inception_4b/3x3_reduce"
  type: "Convolution"
  bottom: "inception_4a/output"
  top: "inception_4b/3x3_reduce"
  param {
    lr_mult: 1
    decay_mult: 1
  }
  param {
    lr_mult: 2
    decay_mult: 0
  }
  convolution_param {
    num_output: 112
    kernel_size: 1
    weight_filler {
      type: "xavier"
    }
    bias_filler {
      type: "constant"
      value: 0.2
    }
  }
}
layer {
  name: "inception_4b/relu_3x3_reduce"
  type: "ReLU"
  bottom: "inception_4b/3x3_reduce"
  top: "inception_4b/3x3_reduce"
}
layer {
  name: "inception_4b/3x3"
  type: "Convolution"
  bottom: "inception_4b/3x3_reduce"
  top: "inception_4b/3x3"
  param {
    lr_mult: 1
    decay_mult: 1
  }
  param {
    lr_mult: 2
    decay_mult: 0
  }
  convolution_param {
    num_output: 224
    pad: 1
    kernel_size: 3
    weight_filler {
      type: "xavier"
    }
    bias_filler {
      type: "constant"
      value: 0.2
    }
  }
}
layer {
  name: "inception_4b/relu_3x3"
  type: "ReLU"
  bottom: "inception_4b/3x3"
  top: "inception_4b/3x3"
}
layer {
  name: "inception_4b/5x5_reduce"
  type: "Convolution"
  bottom: "inception_4a/output"
  top: "inception_4b/5x5_reduce"
  param {
    lr_mult: 1
    decay_mult: 1
  }
  param {
    lr_mult: 2
    decay_mult: 0
  }
  convolution_param {
    num_output: 24
    kernel_size: 1
    weight_filler {
      type: "xavier"
    }
    bias_filler {
      type: "constant"
      value: 0.2
    }
  }
}
layer {
  name: "inception_4b/relu_5x5_reduce"
  type: "ReLU"
  bottom: "inception_4b/5x5_reduce"
  top: "inception_4b/5x5_reduce"
}
layer {
  name: "inception_4b/5x5"
  type: "Convolution"
  bottom: "inception_4b/5x5_reduce"
  top: "inception_4b/5x5"
  param {
    lr_mult: 1
    decay_mult: 1
  }
  param {
    lr_mult: 2
    decay_mult: 0
  }
  convolution_param {
    num_output: 64
    pad: 2
    kernel_size: 5
    weight_filler {
      type: "xavier"
    }
    bias_filler {
      type: "constant"
      value: 0.2
    }
  }
}
layer {
  name: "inception_4b/relu_5x5"
  type: "ReLU"
  bottom: "inception_4b/5x5"
  top: "inception_4b/5x5"
}
layer {
  name: "inception_4b/pool"
  type: "Pooling"
  bottom: "inception_4a/output"
  top: "inception_4b/pool"
  pooling_param {
    pool: MAX
    kernel_size: 3
    stride: 1
    pad: 1
  }
}
layer {
  name: "inception_4b/pool_proj"
  type: "Convolution"
  bottom: "inception_4b/pool"
  top: "inception_4b/pool_proj"
  param {
    lr_mult: 1
    decay_mult: 1
  }
  param {
    lr_mult: 2
    decay_mult: 0
  }
  convolution_param {
    num_output: 64
    kernel_size: 1
    weight_filler {
      type: "xavier"
    }
    bias_filler {
      type: "constant"
      value: 0.2
    }
  }
}
layer {
  name: "inception_4b/relu_pool_proj"
  type: "ReLU"
  bottom: "inception_4b/pool_proj"
  top: "inception_4b/pool_proj"
}
layer {
  name: "inception_4b/output"
  type: "Concat"
  bottom: "inception_4b/1x1"
  bottom: "inception_4b/3x3"
  bottom: "inception_4b/5x5"
  bottom: "inception_4b/pool_proj"
  top: "inception_4b/output"
}
layer {
  name: "inception_4c/1x1"
  type: "Convolution"
  bottom: "inception_4b/output"
  top: "inception_4c/1x1"
  param {
    lr_mult: 1
    decay_mult: 1
  }
  param {
    lr_mult: 2
    decay_mult: 0
  }
  convolution_param {
    num_output: 128
    kernel_size: 1
    weight_filler {
      type: "xavier"
    }
    bias_filler {
      type: "constant"
      value: 0.2
    }
  }
}
layer {
  name: "inception_4c/relu_1x1"
  type: "ReLU"
  bottom: "inception_4c/1x1"
  top: "inception_4c/1x1"
}
layer {
  name: "inception_4c/3x3_reduce"
  type: "Convolution"
  bottom: "inception_4b/output"
  top: "inception_4c/3x3_reduce"
  param {
    lr_mult: 1
    decay_mult: 1
  }
  param {
    lr_mult: 2
    decay_mult: 0
  }
  convolution_param {
    num_output: 128
    kernel_size: 1
    weight_filler {
      type: "xavier"
    }
    bias_filler {
      type: "constant"
      value: 0.2
    }
  }
}
layer {
  name: "inception_4c/relu_3x3_reduce"
  type: "ReLU"
  bottom: "inception_4c/3x3_reduce"
  top: "inception_4c/3x3_reduce"
}
layer {
  name: "inception_4c/3x3"
  type: "Convolution"
  bottom: "inception_4c/3x3_reduce"
  top: "inception_4c/3x3"
  param {
    lr_mult: 1
    decay_mult: 1
  }
  param {
    lr_mult: 2
    decay_mult: 0
  }
  convolution_param {
    num_output: 256
    pad: 1
    kernel_size: 3
    weight_filler {
      type: "xavier"
    }
    bias_filler {
      type: "constant"
      value: 0.2
    }
  }
}
layer {
  name: "inception_4c/relu_3x3"
  type: "ReLU"
  bottom: "inception_4c/3x3"
  top: "inception_4c/3x3"
}
layer {
  name: "inception_4c/5x5_reduce"
  type: "Convolution"
  bottom: "inception_4b/output"
  top: "inception_4c/5x5_reduce"
  param {
    lr_mult: 1
    decay_mult: 1
  }
  param {
    lr_mult: 2
    decay_mult: 0
  }
  convolution_param {
    num_output: 24
    kernel_size: 1
    weight_filler {
      type: "xavier"
    }
    bias_filler {
      type: "constant"
      value: 0.2
    }
  }
}
layer {
  name: "inception_4c/relu_5x5_reduce"
  type: "ReLU"
  bottom: "inception_4c/5x5_reduce"
  top: "inception_4c/5x5_reduce"
}
layer {
  name: "inception_4c/5x5"
  type: "Convolution"
  bottom: "inception_4c/5x5_reduce"
  top: "inception_4c/5x5"
  param {
    lr_mult: 1
    decay_mult: 1
  }
  param {
    lr_mult: 2
    decay_mult: 0
  }
  convolution_param {
    num_output: 64
    pad: 2
    kernel_size: 5
    weight_filler {
      type: "xavier"
    }
    bias_filler {
      type: "constant"
      value: 0.2
    }
  }
}
layer {
  name: "inception_4c/relu_5x5"
  type: "ReLU"
  bottom: "inception_4c/5x5"
  top: "inception_4c/5x5"
}
layer {
  name: "inception_4c/pool"
  type: "Pooling"
  bottom: "inception_4b/output"
  top: "inception_4c/pool"
  pooling_param {
    pool: MAX
    kernel_size: 3
    stride: 1
    pad: 1
  }
}
layer {
  name: "inception_4c/pool_proj"
  type: "Convolution"
  bottom: "inception_4c/pool"
  top: "inception_4c/pool_proj"
  param {
    lr_mult: 1
    decay_mult: 1
  }
  param {
    lr_mult: 2
    decay_mult: 0
  }
  convolution_param {
    num_output: 64
    kernel_size: 1
    weight_filler {
      type: "xavier"
    }
    bias_filler {
      type: "constant"
      value: 0.2
    }
  }
}
layer {
  name: "inception_4c/relu_pool_proj"
  type: "ReLU"
  bottom: "inception_4c/pool_proj"
  top: "inception_4c/pool_proj"
}
layer {
  name: "inception_4c/output"
  type: "Concat"
  bottom: "inception_4c/1x1"
  bottom: "inception_4c/3x3"
  bottom: "inception_4c/5x5"
  bottom: "inception_4c/pool_proj"
  top: "inception_4c/output"
}
layer {
  name: "inception_4d/1x1"
  type: "Convolution"
  bottom: "inception_4c/output"
  top: "inception_4d/1x1"
  param {
    lr_mult: 1
    decay_mult: 1
  }
  param {
    lr_mult: 2
    decay_mult: 0
  }
  convolution_param {
    num_output: 112
    kernel_size: 1
    weight_filler {
      type: "xavier"
    }
    bias_filler {
      type: "constant"
      value: 0.2
    }
  }
}
layer {
  name: "inception_4d/relu_1x1"
  type: "ReLU"
  bottom: "inception_4d/1x1"
  top: "inception_4d/1x1"
}
layer {
  name: "inception_4d/3x3_reduce"
  type: "Convolution"
  bottom: "inception_4c/output"
  top: "inception_4d/3x3_reduce"
  param {
    lr_mult: 1
    decay_mult: 1
  }
  param {
    lr_mult: 2
    decay_mult: 0
  }
  convolution_param {
    num_output: 144
    kernel_size: 1
    weight_filler {
      type: "xavier"
    }
    bias_filler {
      type: "constant"
      value: 0.2
    }
  }
}
layer {
  name: "inception_4d/relu_3x3_reduce"
  type: "ReLU"
  bottom: "inception_4d/3x3_reduce"
  top: "inception_4d/3x3_reduce"
}
layer {
  name: "inception_4d/3x3"
  type: "Convolution"
  bottom: "inception_4d/3x3_reduce"
  top: "inception_4d/3x3"
  param {
    lr_mult: 1
    decay_mult: 1
  }
  param {
    lr_mult: 2
    decay_mult: 0
  }
  convolution_param {
    num_output: 288
    pad: 1
    kernel_size: 3
    weight_filler {
      type: "xavier"
    }
    bias_filler {
      type: "constant"
      value: 0.2
    }
  }
}
layer {
  name: "inception_4d/relu_3x3"
  type: "ReLU"
  bottom: "inception_4d/3x3"
  top: "inception_4d/3x3"
}
layer {
  name: "inception_4d/5x5_reduce"
  type: "Convolution"
  bottom: "inception_4c/output"
  top: "inception_4d/5x5_reduce"
  param {
    lr_mult: 1
    decay_mult: 1
  }
  param {
    lr_mult: 2
    decay_mult: 0
  }
  convolution_param {
    num_output: 32
    kernel_size: 1
    weight_filler {
      type: "xavier"
    }
    bias_filler {
      type: "constant"
      value: 0.2
    }
  }
}
layer {
  name: "inception_4d/relu_5x5_reduce"
  type: "ReLU"
  bottom: "inception_4d/5x5_reduce"
  top: "inception_4d/5x5_reduce"
}
layer {
  name: "inception_4d/5x5"
  type: "Convolution"
  bottom: "inception_4d/5x5_reduce"
  top: "inception_4d/5x5"
  param {
    lr_mult: 1
    decay_mult: 1
  }
  param {
    lr_mult: 2
    decay_mult: 0
  }
  convolution_param {
    num_output: 64
    pad: 2
    kernel_size: 5
    weight_filler {
      type: "xavier"
    }
    bias_filler {
      type: "constant"
      value: 0.2
    }
  }
}
layer {
  name: "inception_4d/relu_5x5"
  type: "ReLU"
  bottom: "inception_4d/5x5"
  top: "inception_4d/5x5"
}
layer {
  name: "inception_4d/pool"
  type: "Pooling"
  bottom: "inception_4c/output"
  top: "inception_4d/pool"
  pooling_param {
    pool: MAX
    kernel_size: 3
    stride: 1
    pad: 1
  }
}
layer {
  name: "inception_4d/pool_proj"
  type: "Convolution"
  bottom: "inception_4d/pool"
  top: "inception_4d/pool_proj"
  param {
    lr_mult: 1
    decay_mult: 1
  }
  param {
    lr_mult: 2
    decay_mult: 0
  }
  convolution_param {
    num_output: 64
    kernel_size: 1
    weight_filler {
      type: "xavier"
    }
    bias_filler {
      type: "constant"
      value: 0.2
    }
  }
}
layer {
  name: "inception_4d/relu_pool_proj"
  type: "ReLU"
  bottom: "inception_4d/pool_proj"
  top: "inception_4d/pool_proj"
}
layer {
  name: "inception_4d/output"
  type: "Concat"
  bottom: "inception_4d/1x1"
  bottom: "inception_4d/3x3"
  bottom: "inception_4d/5x5"
  bottom: "inception_4d/pool_proj"
  top: "inception_4d/output"
}
layer {
  name: "inception_4e/1x1"
  type: "Convolution"
  bottom: "inception_4d/output"
  top: "inception_4e/1x1"
  param {
    lr_mult: 1
    decay_mult: 1
  }
  param {
    lr_mult: 2
    decay_mult: 0
  }
  convolution_param {
    num_output: 256
    kernel_size: 1
    weight_filler {
      type: "xavier"
    }
    bias_filler {
      type: "constant"
      value: 0.2
    }
  }
}
layer {
  name: "inception_4e/relu_1x1"
  type: "ReLU"
  bottom: "inception_4e/1x1"
  top: "inception_4e/1x1"
}
layer {
  name: "inception_4e/3x3_reduce"
  type: "Convolution"
  bottom: "inception_4d/output"
  top: "inception_4e/3x3_reduce"
  param {
    lr_mult: 1
    decay_mult: 1
  }
  param {
    lr_mult: 2
    decay_mult: 0
  }
  convolution_param {
    num_output: 160
    kernel_size: 1
    weight_filler {
      type: "xavier"
    }
    bias_filler {
      type: "constant"
      value: 0.2
    }
  }
}
layer {
  name: "inception_4e/relu_3x3_reduce"
  type: "ReLU"
  bottom: "inception_4e/3x3_reduce"
  top: "inception_4e/3x3_reduce"
}
layer {
  name: "inception_4e/3x3"
  type: "Convolution"
  bottom: "inception_4e/3x3_reduce"
  top: "inception_4e/3x3"
  param {
    lr_mult: 1
    decay_mult: 1
  }
  param {
    lr_mult: 2
    decay_mult: 0
  }
  convolution_param {
    num_output: 320
    pad: 1
    kernel_size: 3
    weight_filler {
      type: "xavier"
    }
    bias_filler {
      type: "constant"
      value: 0.2
    }
  }
}
layer {
  name: "inception_4e/relu_3x3"
  type: "ReLU"
  bottom: "inception_4e/3x3"
  top: "inception_4e/3x3"
}
layer {
  name: "inception_4e/5x5_reduce"
  type: "Convolution"
  bottom: "inception_4d/output"
  top: "inception_4e/5x5_reduce"
  param {
    lr_mult: 1
    decay_mult: 1
  }
  param {
    lr_mult: 2
    decay_mult: 0
  }
  convolution_param {
    num_output: 32
    kernel_size: 1
    weight_filler {
      type: "xavier"
    }
    bias_filler {
      type: "constant"
      value: 0.2
    }
  }
}
layer {
  name: "inception_4e/relu_5x5_reduce"
  type: "ReLU"
  bottom: "inception_4e/5x5_reduce"
  top: "inception_4e/5x5_reduce"
}
layer {
  name: "inception_4e/5x5"
  type: "Convolution"
  bottom: "inception_4e/5x5_reduce"
  top: "inception_4e/5x5"
  param {
    lr_mult: 1
    decay_mult: 1
  }
  param {
    lr_mult: 2
    decay_mult: 0
  }
  convolution_param {
    num_output: 128
    pad: 2
    kernel_size: 5
    weight_filler {
      type: "xavier"
    }
    bias_filler {
      type: "constant"
      value: 0.2
    }
  }
}
layer {
  name: "inception_4e/relu_5x5"
  type: "ReLU"
  bottom: "inception_4e/5x5"
  top: "inception_4e/5x5"
}
layer {
  name: "inception_4e/pool"
  type: "Pooling"
  bottom: "inception_4d/output"
  top: "inception_4e/pool"
  pooling_param {
    pool: MAX
    kernel_size: 3
    stride: 1
    pad: 1
  }
}
layer {
  name: "inception_4e/pool_proj"
  type: "Convolution"
  bottom: "inception_4e/pool"
  top: "inception_4e/pool_proj"
  param {
    lr_mult: 1
    decay_mult: 1
  }
  param {
    lr_mult: 2
    decay_mult: 0
  }
  convolution_param {
    num_output: 128
    kernel_size: 1
    weight_filler {
      type: "xavier"
    }
    bias_filler {
      type: "constant"
      value: 0.2
    }
  }
}
layer {
  name: "inception_4e/relu_pool_proj"
  type: "ReLU"
  bottom: "inception_4e/pool_proj"
  top: "inception_4e/pool_proj"
}
layer {
  name: "inception_4e/output"
  type: "Concat"
  bottom: "inception_4e/1x1"
  bottom: "inception_4e/3x3"
  bottom: "inception_4e/5x5"
  bottom: "inception_4e/pool_proj"
  top: "inception_4e/output"
}
layer {
  name: "pool4/3x3_s2"
  type: "Pooling"
  bottom: "inception_4e/output"
  top: "pool4/3x3_s2"
  pooling_param {
    pool: MAX
    kernel_size: 3
    stride: 2
  }
}
layer {
  name: "inception_5a/1x1"
  type: "Convolution"
  bottom: "pool4/3x3_s2"
  top: "inception_5a/1x1"
  param {
    lr_mult: 1
    decay_mult: 1
  }
  param {
    lr_mult: 2
    decay_mult: 0
  }
  convolution_param {
    num_output: 256
    kernel_size: 1
    weight_filler {
      type: "xavier"
    }
    bias_filler {
      type: "constant"
      value: 0.2
    }
  }
}
layer {
  name: "inception_5a/relu_1x1"
  type: "ReLU"
  bottom: "inception_5a/1x1"
  top: "inception_5a/1x1"
}
layer {
  name: "inception_5a/3x3_reduce"
  type: "Convolution"
  bottom: "pool4/3x3_s2"
  top: "inception_5a/3x3_reduce"
  param {
    lr_mult: 1
    decay_mult: 1
  }
  param {
    lr_mult: 2
    decay_mult: 0
  }
  convolution_param {
    num_output: 160
    kernel_size: 1
    weight_filler {
      type: "xavier"
    }
    bias_filler {
      type: "constant"
      value: 0.2
    }
  }
}
layer {
  name: "inception_5a/relu_3x3_reduce"
  type: "ReLU"
  bottom: "inception_5a/3x3_reduce"
  top: "inception_5a/3x3_reduce"
}
layer {
  name: "inception_5a/3x3"
  type: "Convolution"
  bottom: "inception_5a/3x3_reduce"
  top: "inception_5a/3x3"
  param {
    lr_mult: 1
    decay_mult: 1
  }
  param {
    lr_mult: 2
    decay_mult: 0
  }
  convolution_param {
    num_output: 320
    pad: 1
    kernel_size: 3
    weight_filler {
      type: "xavier"
    }
    bias_filler {
      type: "constant"
      value: 0.2
    }
  }
}
layer {
  name: "inception_5a/relu_3x3"
  type: "ReLU"
  bottom: "inception_5a/3x3"
  top: "inception_5a/3x3"
}
layer {
  name: "inception_5a/5x5_reduce"
  type: "Convolution"
  bottom: "pool4/3x3_s2"
  top: "inception_5a/5x5_reduce"
  param {
    lr_mult: 1
    decay_mult: 1
  }
  param {
    lr_mult: 2
    decay_mult: 0
  }
  convolution_param {
    num_output: 32
    kernel_size: 1
    weight_filler {
      type: "xavier"
    }
    bias_filler {
      type: "constant"
      value: 0.2
    }
  }
}
layer {
  name: "inception_5a/relu_5x5_reduce"
  type: "ReLU"
  bottom: "inception_5a/5x5_reduce"
  top: "inception_5a/5x5_reduce"
}
layer {
  name: "inception_5a/5x5"
  type: "Convolution"
  bottom: "inception_5a/5x5_reduce"
  top: "inception_5a/5x5"
  param {
    lr_mult: 1
    decay_mult: 1
  }
  param {
    lr_mult: 2
    decay_mult: 0
  }
  convolution_param {
    num_output: 128
    pad: 2
    kernel_size: 5
    weight_filler {
      type: "xavier"
    }
    bias_filler {
      type: "constant"
      value: 0.2
    }
  }
}
layer {
  name: "inception_5a/relu_5x5"
  type: "ReLU"
  bottom: "inception_5a/5x5"
  top: "inception_5a/5x5"
}
layer {
  name: "incept
I0320 21:56:27.256964 32613 layer_factory.hpp:77] Creating layer data
I0320 21:56:27.282227 32613 net.cpp:84] Creating Layer data
I0320 21:56:27.282269 32613 net.cpp:380] data -> data
I0320 21:56:27.282277 32613 net.cpp:380] data -> sem
I0320 21:56:27.998950 32613 net.cpp:122] Setting up data
I0320 21:56:27.998992 32613 net.cpp:129] Top shape: 1 3 640 368 (706560)
I0320 21:56:27.998996 32613 net.cpp:129] Top shape: 1 1 640 368 (235520)
I0320 21:56:27.998999 32613 net.cpp:137] Memory required for data: 3768320
I0320 21:56:27.999004 32613 layer_factory.hpp:77] Creating layer data_data_0_split
I0320 21:56:27.999019 32613 net.cpp:84] Creating Layer data_data_0_split
I0320 21:56:27.999022 32613 net.cpp:406] data_data_0_split <- data
I0320 21:56:27.999028 32613 net.cpp:380] data_data_0_split -> data_data_0_split_0
I0320 21:56:27.999037 32613 net.cpp:380] data_data_0_split -> data_data_0_split_1
I0320 21:56:27.999061 32613 net.cpp:122] Setting up data_data_0_split
I0320 21:56:27.999065 32613 net.cpp:129] Top shape: 1 3 640 368 (706560)
I0320 21:56:27.999068 32613 net.cpp:129] Top shape: 1 3 640 368 (706560)
I0320 21:56:27.999071 32613 net.cpp:137] Memory required for data: 9420800
I0320 21:56:27.999073 32613 layer_factory.hpp:77] Creating layer conv1/7x7_s2
I0320 21:56:27.999083 32613 net.cpp:84] Creating Layer conv1/7x7_s2
I0320 21:56:27.999085 32613 net.cpp:406] conv1/7x7_s2 <- data_data_0_split_0
I0320 21:56:27.999089 32613 net.cpp:380] conv1/7x7_s2 -> conv1/7x7_s2
I0320 21:56:28.326071 32613 net.cpp:122] Setting up conv1/7x7_s2
I0320 21:56:28.326114 32613 net.cpp:129] Top shape: 1 64 326 190 (3964160)
I0320 21:56:28.326117 32613 net.cpp:137] Memory required for data: 25277440
I0320 21:56:28.326130 32613 layer_factory.hpp:77] Creating layer conv1/relu_7x7
I0320 21:56:28.326139 32613 net.cpp:84] Creating Layer conv1/relu_7x7
I0320 21:56:28.326143 32613 net.cpp:406] conv1/relu_7x7 <- conv1/7x7_s2
I0320 21:56:28.326148 32613 net.cpp:367] conv1/relu_7x7 -> conv1/7x7_s2 (in-place)
I0320 21:56:28.326964 32613 net.cpp:122] Setting up conv1/relu_7x7
I0320 21:56:28.326975 32613 net.cpp:129] Top shape: 1 64 326 190 (3964160)
I0320 21:56:28.326978 32613 net.cpp:137] Memory required for data: 41134080
I0320 21:56:28.326982 32613 layer_factory.hpp:77] Creating layer pool1/3x3_s2
I0320 21:56:28.326989 32613 net.cpp:84] Creating Layer pool1/3x3_s2
I0320 21:56:28.326992 32613 net.cpp:406] pool1/3x3_s2 <- conv1/7x7_s2
I0320 21:56:28.326995 32613 net.cpp:380] pool1/3x3_s2 -> pool1/3x3_s2
I0320 21:56:28.327028 32613 net.cpp:122] Setting up pool1/3x3_s2
I0320 21:56:28.327031 32613 net.cpp:129] Top shape: 1 64 163 95 (991040)
I0320 21:56:28.327033 32613 net.cpp:137] Memory required for data: 45098240
I0320 21:56:28.327036 32613 layer_factory.hpp:77] Creating layer pool1/norm1
I0320 21:56:28.327042 32613 net.cpp:84] Creating Layer pool1/norm1
I0320 21:56:28.327044 32613 net.cpp:406] pool1/norm1 <- pool1/3x3_s2
I0320 21:56:28.327047 32613 net.cpp:380] pool1/norm1 -> pool1/norm1
I0320 21:56:28.327185 32613 net.cpp:122] Setting up pool1/norm1
I0320 21:56:28.327193 32613 net.cpp:129] Top shape: 1 64 163 95 (991040)
I0320 21:56:28.327196 32613 net.cpp:137] Memory required for data: 49062400
I0320 21:56:28.327199 32613 layer_factory.hpp:77] Creating layer conv2/3x3_reduce
I0320 21:56:28.327208 32613 net.cpp:84] Creating Layer conv2/3x3_reduce
I0320 21:56:28.327211 32613 net.cpp:406] conv2/3x3_reduce <- pool1/norm1
I0320 21:56:28.327216 32613 net.cpp:380] conv2/3x3_reduce -> conv2/3x3_reduce
I0320 21:56:28.331830 32613 net.cpp:122] Setting up conv2/3x3_reduce
I0320 21:56:28.331843 32613 net.cpp:129] Top shape: 1 64 163 95 (991040)
I0320 21:56:28.331861 32613 net.cpp:137] Memory required for data: 53026560
I0320 21:56:28.331868 32613 layer_factory.hpp:77] Creating layer conv2/relu_3x3_reduce
I0320 21:56:28.331873 32613 net.cpp:84] Creating Layer conv2/relu_3x3_reduce
I0320 21:56:28.331878 32613 net.cpp:406] conv2/relu_3x3_reduce <- conv2/3x3_reduce
I0320 21:56:28.331881 32613 net.cpp:367] conv2/relu_3x3_reduce -> conv2/3x3_reduce (in-place)
I0320 21:56:28.333994 32613 net.cpp:122] Setting up conv2/relu_3x3_reduce
I0320 21:56:28.334002 32613 net.cpp:129] Top shape: 1 64 163 95 (991040)
I0320 21:56:28.334020 32613 net.cpp:137] Memory required for data: 56990720
I0320 21:56:28.334023 32613 layer_factory.hpp:77] Creating layer conv2/3x3
I0320 21:56:28.334030 32613 net.cpp:84] Creating Layer conv2/3x3
I0320 21:56:28.334033 32613 net.cpp:406] conv2/3x3 <- conv2/3x3_reduce
I0320 21:56:28.334038 32613 net.cpp:380] conv2/3x3 -> conv2/3x3
I0320 21:56:28.341115 32613 net.cpp:122] Setting up conv2/3x3
I0320 21:56:28.341127 32613 net.cpp:129] Top shape: 1 192 163 95 (2973120)
I0320 21:56:28.341146 32613 net.cpp:137] Memory required for data: 68883200
I0320 21:56:28.341152 32613 layer_factory.hpp:77] Creating layer conv2/relu_3x3
I0320 21:56:28.341157 32613 net.cpp:84] Creating Layer conv2/relu_3x3
I0320 21:56:28.341161 32613 net.cpp:406] conv2/relu_3x3 <- conv2/3x3
I0320 21:56:28.341166 32613 net.cpp:367] conv2/relu_3x3 -> conv2/3x3 (in-place)
I0320 21:56:28.342878 32613 net.cpp:122] Setting up conv2/relu_3x3
I0320 21:56:28.342886 32613 net.cpp:129] Top shape: 1 192 163 95 (2973120)
I0320 21:56:28.342890 32613 net.cpp:137] Memory required for data: 80775680
I0320 21:56:28.342907 32613 layer_factory.hpp:77] Creating layer conv2/norm2
I0320 21:56:28.342913 32613 net.cpp:84] Creating Layer conv2/norm2
I0320 21:56:28.342916 32613 net.cpp:406] conv2/norm2 <- conv2/3x3
I0320 21:56:28.342919 32613 net.cpp:380] conv2/norm2 -> conv2/norm2
I0320 21:56:28.345072 32613 net.cpp:122] Setting up conv2/norm2
I0320 21:56:28.345079 32613 net.cpp:129] Top shape: 1 192 163 95 (2973120)
I0320 21:56:28.345082 32613 net.cpp:137] Memory required for data: 92668160
I0320 21:56:28.345099 32613 layer_factory.hpp:77] Creating layer pool2/3x3_s2
I0320 21:56:28.345105 32613 net.cpp:84] Creating Layer pool2/3x3_s2
I0320 21:56:28.345108 32613 net.cpp:406] pool2/3x3_s2 <- conv2/norm2
I0320 21:56:28.345110 32613 net.cpp:380] pool2/3x3_s2 -> pool2/3x3_s2
I0320 21:56:28.345136 32613 net.cpp:122] Setting up pool2/3x3_s2
I0320 21:56:28.345141 32613 net.cpp:129] Top shape: 1 192 81 47 (730944)
I0320 21:56:28.345144 32613 net.cpp:137] Memory required for data: 95591936
I0320 21:56:28.345145 32613 layer_factory.hpp:77] Creating layer pool2/3x3_s2_pool2/3x3_s2_0_split
I0320 21:56:28.345150 32613 net.cpp:84] Creating Layer pool2/3x3_s2_pool2/3x3_s2_0_split
I0320 21:56:28.345154 32613 net.cpp:406] pool2/3x3_s2_pool2/3x3_s2_0_split <- pool2/3x3_s2
I0320 21:56:28.345156 32613 net.cpp:380] pool2/3x3_s2_pool2/3x3_s2_0_split -> pool2/3x3_s2_pool2/3x3_s2_0_split_0
I0320 21:56:28.345161 32613 net.cpp:380] pool2/3x3_s2_pool2/3x3_s2_0_split -> pool2/3x3_s2_pool2/3x3_s2_0_split_1
I0320 21:56:28.345165 32613 net.cpp:380] pool2/3x3_s2_pool2/3x3_s2_0_split -> pool2/3x3_s2_pool2/3x3_s2_0_split_2
I0320 21:56:28.345168 32613 net.cpp:380] pool2/3x3_s2_pool2/3x3_s2_0_split -> pool2/3x3_s2_pool2/3x3_s2_0_split_3
I0320 21:56:28.345204 32613 net.cpp:122] Setting up pool2/3x3_s2_pool2/3x3_s2_0_split
I0320 21:56:28.345208 32613 net.cpp:129] Top shape: 1 192 81 47 (730944)
I0320 21:56:28.345211 32613 net.cpp:129] Top shape: 1 192 81 47 (730944)
I0320 21:56:28.345214 32613 net.cpp:129] Top shape: 1 192 81 47 (730944)
I0320 21:56:28.345216 32613 net.cpp:129] Top shape: 1 192 81 47 (730944)
I0320 21:56:28.345218 32613 net.cpp:137] Memory required for data: 107287040
I0320 21:56:28.345221 32613 layer_factory.hpp:77] Creating layer inception_3a/1x1
I0320 21:56:28.345228 32613 net.cpp:84] Creating Layer inception_3a/1x1
I0320 21:56:28.345230 32613 net.cpp:406] inception_3a/1x1 <- pool2/3x3_s2_pool2/3x3_s2_0_split_0
I0320 21:56:28.345234 32613 net.cpp:380] inception_3a/1x1 -> inception_3a/1x1
I0320 21:56:28.352044 32613 net.cpp:122] Setting up inception_3a/1x1
I0320 21:56:28.352056 32613 net.cpp:129] Top shape: 1 64 81 47 (243648)
I0320 21:56:28.352073 32613 net.cpp:137] Memory required for data: 108261632
I0320 21:56:28.352080 32613 layer_factory.hpp:77] Creating layer inception_3a/relu_1x1
I0320 21:56:28.352085 32613 net.cpp:84] Creating Layer inception_3a/relu_1x1
I0320 21:56:28.352088 32613 net.cpp:406] inception_3a/relu_1x1 <- inception_3a/1x1
I0320 21:56:28.352092 32613 net.cpp:367] inception_3a/relu_1x1 -> inception_3a/1x1 (in-place)
I0320 21:56:28.353838 32613 net.cpp:122] Setting up inception_3a/relu_1x1
I0320 21:56:28.353848 32613 net.cpp:129] Top shape: 1 64 81 47 (243648)
I0320 21:56:28.353868 32613 net.cpp:137] Memory required for data: 109236224
I0320 21:56:28.353869 32613 layer_factory.hpp:77] Creating layer inception_3a/3x3_reduce
I0320 21:56:28.353878 32613 net.cpp:84] Creating Layer inception_3a/3x3_reduce
I0320 21:56:28.353880 32613 net.cpp:406] inception_3a/3x3_reduce <- pool2/3x3_s2_pool2/3x3_s2_0_split_1
I0320 21:56:28.353886 32613 net.cpp:380] inception_3a/3x3_reduce -> inception_3a/3x3_reduce
I0320 21:56:28.360469 32613 net.cpp:122] Setting up inception_3a/3x3_reduce
I0320 21:56:28.360515 32613 net.cpp:129] Top shape: 1 96 81 47 (365472)
I0320 21:56:28.360518 32613 net.cpp:137] Memory required for data: 110698112
I0320 21:56:28.360527 32613 layer_factory.hpp:77] Creating layer inception_3a/relu_3x3_reduce
I0320 21:56:28.360533 32613 net.cpp:84] Creating Layer inception_3a/relu_3x3_reduce
I0320 21:56:28.360536 32613 net.cpp:406] inception_3a/relu_3x3_reduce <- inception_3a/3x3_reduce
I0320 21:56:28.360541 32613 net.cpp:367] inception_3a/relu_3x3_reduce -> inception_3a/3x3_reduce (in-place)
I0320 21:56:28.362622 32613 net.cpp:122] Setting up inception_3a/relu_3x3_reduce
I0320 21:56:28.362632 32613 net.cpp:129] Top shape: 1 96 81 47 (365472)
I0320 21:56:28.362650 32613 net.cpp:137] Memory required for data: 112160000
I0320 21:56:28.362653 32613 layer_factory.hpp:77] Creating layer inception_3a/3x3
I0320 21:56:28.362663 32613 net.cpp:84] Creating Layer inception_3a/3x3
I0320 21:56:28.362665 32613 net.cpp:406] inception_3a/3x3 <- inception_3a/3x3_reduce
I0320 21:56:28.362670 32613 net.cpp:380] inception_3a/3x3 -> inception_3a/3x3
I0320 21:56:28.369850 32613 net.cpp:122] Setting up inception_3a/3x3
I0320 21:56:28.369861 32613 net.cpp:129] Top shape: 1 128 81 47 (487296)
I0320 21:56:28.369880 32613 net.cpp:137] Memory required for data: 114109184
I0320 21:56:28.369885 32613 layer_factory.hpp:77] Creating layer inception_3a/relu_3x3
I0320 21:56:28.369891 32613 net.cpp:84] Creating Layer inception_3a/relu_3x3
I0320 21:56:28.369894 32613 net.cpp:406] inception_3a/relu_3x3 <- inception_3a/3x3
I0320 21:56:28.369899 32613 net.cpp:367] inception_3a/relu_3x3 -> inception_3a/3x3 (in-place)
I0320 21:56:28.371621 32613 net.cpp:122] Setting up inception_3a/relu_3x3
I0320 21:56:28.371628 32613 net.cpp:129] Top shape: 1 128 81 47 (487296)
I0320 21:56:28.371646 32613 net.cpp:137] Memory required for data: 116058368
I0320 21:56:28.371649 32613 layer_factory.hpp:77] Creating layer inception_3a/5x5_reduce
I0320 21:56:28.371657 32613 net.cpp:84] Creating Layer inception_3a/5x5_reduce
I0320 21:56:28.371660 32613 net.cpp:406] inception_3a/5x5_reduce <- pool2/3x3_s2_pool2/3x3_s2_0_split_2
I0320 21:56:28.371666 32613 net.cpp:380] inception_3a/5x5_reduce -> inception_3a/5x5_reduce
I0320 21:56:28.376866 32613 net.cpp:122] Setting up inception_3a/5x5_reduce
I0320 21:56:28.376878 32613 net.cpp:129] Top shape: 1 16 81 47 (60912)
I0320 21:56:28.376895 32613 net.cpp:137] Memory required for data: 116302016
I0320 21:56:28.376900 32613 layer_factory.hpp:77] Creating layer inception_3a/relu_5x5_reduce
I0320 21:56:28.376906 32613 net.cpp:84] Creating Layer inception_3a/relu_5x5_reduce
I0320 21:56:28.376909 32613 net.cpp:406] inception_3a/relu_5x5_reduce <- inception_3a/5x5_reduce
I0320 21:56:28.376914 32613 net.cpp:367] inception_3a/relu_5x5_reduce -> inception_3a/5x5_reduce (in-place)
I0320 21:56:28.378949 32613 net.cpp:122] Setting up inception_3a/relu_5x5_reduce
I0320 21:56:28.378957 32613 net.cpp:129] Top shape: 1 16 81 47 (60912)
I0320 21:56:28.378959 32613 net.cpp:137] Memory required for data: 116545664
I0320 21:56:28.378978 32613 layer_factory.hpp:77] Creating layer inception_3a/5x5
I0320 21:56:28.378988 32613 net.cpp:84] Creating Layer inception_3a/5x5
I0320 21:56:28.378989 32613 net.cpp:406] inception_3a/5x5 <- inception_3a/5x5_reduce
I0320 21:56:28.378993 32613 net.cpp:380] inception_3a/5x5 -> inception_3a/5x5
I0320 21:56:28.385571 32613 net.cpp:122] Setting up inception_3a/5x5
I0320 21:56:28.385582 32613 net.cpp:129] Top shape: 1 32 81 47 (121824)
I0320 21:56:28.385586 32613 net.cpp:137] Memory required for data: 117032960
I0320 21:56:28.385589 32613 layer_factory.hpp:77] Creating layer inception_3a/relu_5x5
I0320 21:56:28.385596 32613 net.cpp:84] Creating Layer inception_3a/relu_5x5
I0320 21:56:28.385598 32613 net.cpp:406] inception_3a/relu_5x5 <- inception_3a/5x5
I0320 21:56:28.385602 32613 net.cpp:367] inception_3a/relu_5x5 -> inception_3a/5x5 (in-place)
I0320 21:56:28.387662 32613 net.cpp:122] Setting up inception_3a/relu_5x5
I0320 21:56:28.387670 32613 net.cpp:129] Top shape: 1 32 81 47 (121824)
I0320 21:56:28.387688 32613 net.cpp:137] Memory required for data: 117520256
I0320 21:56:28.387691 32613 layer_factory.hpp:77] Creating layer inception_3a/pool
I0320 21:56:28.387697 32613 net.cpp:84] Creating Layer inception_3a/pool
I0320 21:56:28.387699 32613 net.cpp:406] inception_3a/pool <- pool2/3x3_s2_pool2/3x3_s2_0_split_3
I0320 21:56:28.387703 32613 net.cpp:380] inception_3a/pool -> inception_3a/pool
I0320 21:56:28.387735 32613 net.cpp:122] Setting up inception_3a/pool
I0320 21:56:28.387740 32613 net.cpp:129] Top shape: 1 192 81 47 (730944)
I0320 21:56:28.387742 32613 net.cpp:137] Memory required for data: 120444032
I0320 21:56:28.387744 32613 layer_factory.hpp:77] Creating layer inception_3a/pool_proj
I0320 21:56:28.387753 32613 net.cpp:84] Creating Layer inception_3a/pool_proj
I0320 21:56:28.387754 32613 net.cpp:406] inception_3a/pool_proj <- inception_3a/pool
I0320 21:56:28.387759 32613 net.cpp:380] inception_3a/pool_proj -> inception_3a/pool_proj
I0320 21:56:28.394294 32613 net.cpp:122] Setting up inception_3a/pool_proj
I0320 21:56:28.394305 32613 net.cpp:129] Top shape: 1 32 81 47 (121824)
I0320 21:56:28.394323 32613 net.cpp:137] Memory required for data: 120931328
I0320 21:56:28.394330 32613 layer_factory.hpp:77] Creating layer inception_3a/relu_pool_proj
I0320 21:56:28.394337 32613 net.cpp:84] Creating Layer inception_3a/relu_pool_proj
I0320 21:56:28.394341 32613 net.cpp:406] inception_3a/relu_pool_proj <- inception_3a/pool_proj
I0320 21:56:28.394345 32613 net.cpp:367] inception_3a/relu_pool_proj -> inception_3a/pool_proj (in-place)
I0320 21:56:28.396397 32613 net.cpp:122] Setting up inception_3a/relu_pool_proj
I0320 21:56:28.396405 32613 net.cpp:129] Top shape: 1 32 81 47 (121824)
I0320 21:56:28.396407 32613 net.cpp:137] Memory required for data: 121418624
I0320 21:56:28.396426 32613 layer_factory.hpp:77] Creating layer inception_3a/output
I0320 21:56:28.396436 32613 net.cpp:84] Creating Layer inception_3a/output
I0320 21:56:28.396440 32613 net.cpp:406] inception_3a/output <- inception_3a/1x1
I0320 21:56:28.396443 32613 net.cpp:406] inception_3a/output <- inception_3a/3x3
I0320 21:56:28.396445 32613 net.cpp:406] inception_3a/output <- inception_3a/5x5
I0320 21:56:28.396448 32613 net.cpp:406] inception_3a/output <- inception_3a/pool_proj
I0320 21:56:28.396451 32613 net.cpp:380] inception_3a/output -> inception_3a/output
I0320 21:56:28.396473 32613 net.cpp:122] Setting up inception_3a/output
I0320 21:56:28.396477 32613 net.cpp:129] Top shape: 1 256 81 47 (974592)
I0320 21:56:28.396479 32613 net.cpp:137] Memory required for data: 125316992
I0320 21:56:28.396481 32613 layer_factory.hpp:77] Creating layer inception_3a/output_inception_3a/output_0_split
I0320 21:56:28.396486 32613 net.cpp:84] Creating Layer inception_3a/output_inception_3a/output_0_split
I0320 21:56:28.396488 32613 net.cpp:406] inception_3a/output_inception_3a/output_0_split <- inception_3a/output
I0320 21:56:28.396493 32613 net.cpp:380] inception_3a/output_inception_3a/output_0_split -> inception_3a/output_inception_3a/output_0_split_0
I0320 21:56:28.396497 32613 net.cpp:380] inception_3a/output_inception_3a/output_0_split -> inception_3a/output_inception_3a/output_0_split_1
I0320 21:56:28.396502 32613 net.cpp:380] inception_3a/output_inception_3a/output_0_split -> inception_3a/output_inception_3a/output_0_split_2
I0320 21:56:28.396504 32613 net.cpp:380] inception_3a/output_inception_3a/output_0_split -> inception_3a/output_inception_3a/output_0_split_3
I0320 21:56:28.396545 32613 net.cpp:122] Setting up inception_3a/output_inception_3a/output_0_split
I0320 21:56:28.396549 32613 net.cpp:129] Top shape: 1 256 81 47 (974592)
I0320 21:56:28.396553 32613 net.cpp:129] Top shape: 1 256 81 47 (974592)
I0320 21:56:28.396554 32613 net.cpp:129] Top shape: 1 256 81 47 (974592)
I0320 21:56:28.396558 32613 net.cpp:129] Top shape: 1 256 81 47 (974592)
I0320 21:56:28.396559 32613 net.cpp:137] Memory required for data: 140910464
I0320 21:56:28.396561 32613 layer_factory.hpp:77] Creating layer inception_3b/1x1
I0320 21:56:28.396569 32613 net.cpp:84] Creating Layer inception_3b/1x1
I0320 21:56:28.396571 32613 net.cpp:406] inception_3b/1x1 <- inception_3a/output_inception_3a/output_0_split_0
I0320 21:56:28.396575 32613 net.cpp:380] inception_3b/1x1 -> inception_3b/1x1
I0320 21:56:28.403007 32613 net.cpp:122] Setting up inception_3b/1x1
I0320 21:56:28.403018 32613 net.cpp:129] Top shape: 1 128 81 47 (487296)
I0320 21:56:28.403036 32613 net.cpp:137] Memory required for data: 142859648
I0320 21:56:28.403041 32613 layer_factory.hpp:77] Creating layer inception_3b/relu_1x1
I0320 21:56:28.403048 32613 net.cpp:84] Creating Layer inception_3b/relu_1x1
I0320 21:56:28.403050 32613 net.cpp:406] inception_3b/relu_1x1 <- inception_3b/1x1
I0320 21:56:28.403054 32613 net.cpp:367] inception_3b/relu_1x1 -> inception_3b/1x1 (in-place)
I0320 21:56:28.405120 32613 net.cpp:122] Setting up inception_3b/relu_1x1
I0320 21:56:28.405130 32613 net.cpp:129] Top shape: 1 128 81 47 (487296)
I0320 21:56:28.405149 32613 net.cpp:137] Memory required for data: 144808832
I0320 21:56:28.405153 32613 layer_factory.hpp:77] Creating layer inception_3b/3x3_reduce
I0320 21:56:28.405160 32613 net.cpp:84] Creating Layer inception_3b/3x3_reduce
I0320 21:56:28.405163 32613 net.cpp:406] inception_3b/3x3_reduce <- inception_3a/output_inception_3a/output_0_split_1
I0320 21:56:28.405170 32613 net.cpp:380] inception_3b/3x3_reduce -> inception_3b/3x3_reduce
I0320 21:56:28.410698 32613 net.cpp:122] Setting up inception_3b/3x3_reduce
I0320 21:56:28.410708 32613 net.cpp:129] Top shape: 1 128 81 47 (487296)
I0320 21:56:28.410727 32613 net.cpp:137] Memory required for data: 146758016
I0320 21:56:28.410732 32613 layer_factory.hpp:77] Creating layer inception_3b/relu_3x3_reduce
I0320 21:56:28.410737 32613 net.cpp:84] Creating Layer inception_3b/relu_3x3_reduce
I0320 21:56:28.410739 32613 net.cpp:406] inception_3b/relu_3x3_reduce <- inception_3b/3x3_reduce
I0320 21:56:28.410744 32613 net.cpp:367] inception_3b/relu_3x3_reduce -> inception_3b/3x3_reduce (in-place)
I0320 21:56:28.412812 32613 net.cpp:122] Setting up inception_3b/relu_3x3_reduce
I0320 21:56:28.412822 32613 net.cpp:129] Top shape: 1 128 81 47 (487296)
I0320 21:56:28.412842 32613 net.cpp:137] Memory required for data: 148707200
I0320 21:56:28.412844 32613 layer_factory.hpp:77] Creating layer inception_3b/3x3
I0320 21:56:28.412855 32613 net.cpp:84] Creating Layer inception_3b/3x3
I0320 21:56:28.412858 32613 net.cpp:406] inception_3b/3x3 <- inception_3b/3x3_reduce
I0320 21:56:28.412863 32613 net.cpp:380] inception_3b/3x3 -> inception_3b/3x3
I0320 21:56:28.417762 32613 net.cpp:122] Setting up inception_3b/3x3
I0320 21:56:28.417773 32613 net.cpp:129] Top shape: 1 192 81 47 (730944)
I0320 21:56:28.417791 32613 net.cpp:137] Memory required for data: 151630976
I0320 21:56:28.417798 32613 layer_factory.hpp:77] Creating layer inception_3b/relu_3x3
I0320 21:56:28.417803 32613 net.cpp:84] Creating Layer inception_3b/relu_3x3
I0320 21:56:28.417805 32613 net.cpp:406] inception_3b/relu_3x3 <- inception_3b/3x3
I0320 21:56:28.417809 32613 net.cpp:367] inception_3b/relu_3x3 -> inception_3b/3x3 (in-place)
I0320 21:56:28.419257 32613 net.cpp:122] Setting up inception_3b/relu_3x3
I0320 21:56:28.419266 32613 net.cpp:129] Top shape: 1 192 81 47 (730944)
I0320 21:56:28.419283 32613 net.cpp:137] Memory required for data: 154554752
I0320 21:56:28.419286 32613 layer_factory.hpp:77] Creating layer inception_3b/5x5_reduce
I0320 21:56:28.419294 32613 net.cpp:84] Creating Layer inception_3b/5x5_reduce
I0320 21:56:28.419297 32613 net.cpp:406] inception_3b/5x5_reduce <- inception_3a/output_inception_3a/output_0_split_2
I0320 21:56:28.419302 32613 net.cpp:380] inception_3b/5x5_reduce -> inception_3b/5x5_reduce
I0320 21:56:28.424051 32613 net.cpp:122] Setting up inception_3b/5x5_reduce
I0320 21:56:28.424062 32613 net.cpp:129] Top shape: 1 32 81 47 (121824)
I0320 21:56:28.424079 32613 net.cpp:137] Memory required for data: 155042048
I0320 21:56:28.424084 32613 layer_factory.hpp:77] Creating layer inception_3b/relu_5x5_reduce
I0320 21:56:28.424089 32613 net.cpp:84] Creating Layer inception_3b/relu_5x5_reduce
I0320 21:56:28.424093 32613 net.cpp:406] inception_3b/relu_5x5_reduce <- inception_3b/5x5_reduce
I0320 21:56:28.424099 32613 net.cpp:367] inception_3b/relu_5x5_reduce -> inception_3b/5x5_reduce (in-place)
I0320 21:56:28.426219 32613 net.cpp:122] Setting up inception_3b/relu_5x5_reduce
I0320 21:56:28.426226 32613 net.cpp:129] Top shape: 1 32 81 47 (121824)
I0320 21:56:28.426244 32613 net.cpp:137] Memory required for data: 155529344
I0320 21:56:28.426247 32613 layer_factory.hpp:77] Creating layer inception_3b/5x5
I0320 21:56:28.426255 32613 net.cpp:84] Creating Layer inception_3b/5x5
I0320 21:56:28.426259 32613 net.cpp:406] inception_3b/5x5 <- inception_3b/5x5_reduce
I0320 21:56:28.426265 32613 net.cpp:380] inception_3b/5x5 -> inception_3b/5x5
I0320 21:56:28.432977 32613 net.cpp:122] Setting up inception_3b/5x5
I0320 21:56:28.432988 32613 net.cpp:129] Top shape: 1 96 81 47 (365472)
I0320 21:56:28.433007 32613 net.cpp:137] Memory required for data: 156991232
I0320 21:56:28.433012 32613 layer_factory.hpp:77] Creating layer inception_3b/relu_5x5
I0320 21:56:28.433017 32613 net.cpp:84] Creating Layer inception_3b/relu_5x5
I0320 21:56:28.433020 32613 net.cpp:406] inception_3b/relu_5x5 <- inception_3b/5x5
I0320 21:56:28.433023 32613 net.cpp:367] inception_3b/relu_5x5 -> inception_3b/5x5 (in-place)
I0320 21:56:28.435155 32613 net.cpp:122] Setting up inception_3b/relu_5x5
I0320 21:56:28.435163 32613 net.cpp:129] Top shape: 1 96 81 47 (365472)
I0320 21:56:28.435181 32613 net.cpp:137] Memory required for data: 158453120
I0320 21:56:28.435184 32613 layer_factory.hpp:77] Creating layer inception_3b/pool
I0320 21:56:28.435189 32613 net.cpp:84] Creating Layer inception_3b/pool
I0320 21:56:28.435192 32613 net.cpp:406] inception_3b/pool <- inception_3a/output_inception_3a/output_0_split_3
I0320 21:56:28.435196 32613 net.cpp:380] inception_3b/pool -> inception_3b/pool
I0320 21:56:28.435231 32613 net.cpp:122] Setting up inception_3b/pool
I0320 21:56:28.435237 32613 net.cpp:129] Top shape: 1 256 81 47 (974592)
I0320 21:56:28.435240 32613 net.cpp:137] Memory required for data: 162351488
I0320 21:56:28.435241 32613 layer_factory.hpp:77] Creating layer inception_3b/pool_proj
I0320 21:56:28.435248 32613 net.cpp:84] Creating Layer inception_3b/pool_proj
I0320 21:56:28.435251 32613 net.cpp:406] inception_3b/pool_proj <- inception_3b/pool
I0320 21:56:28.435256 32613 net.cpp:380] inception_3b/pool_proj -> inception_3b/pool_proj
I0320 21:56:28.441766 32613 net.cpp:122] Setting up inception_3b/pool_proj
I0320 21:56:28.441779 32613 net.cpp:129] Top shape: 1 64 81 47 (243648)
I0320 21:56:28.441782 32613 net.cpp:137] Memory required for data: 163326080
I0320 21:56:28.441787 32613 layer_factory.hpp:77] Creating layer inception_3b/relu_pool_proj
I0320 21:56:28.441792 32613 net.cpp:84] Creating Layer inception_3b/relu_pool_proj
I0320 21:56:28.441794 32613 net.cpp:406] inception_3b/relu_pool_proj <- inception_3b/pool_proj
I0320 21:56:28.441798 32613 net.cpp:367] inception_3b/relu_pool_proj -> inception_3b/pool_proj (in-place)
I0320 21:56:28.443857 32613 net.cpp:122] Setting up inception_3b/relu_pool_proj
I0320 21:56:28.443864 32613 net.cpp:129] Top shape: 1 64 81 47 (243648)
I0320 21:56:28.443866 32613 net.cpp:137] Memory required for data: 164300672
I0320 21:56:28.443886 32613 layer_factory.hpp:77] Creating layer inception_3b/output
I0320 21:56:28.443889 32613 net.cpp:84] Creating Layer inception_3b/output
I0320 21:56:28.443892 32613 net.cpp:406] inception_3b/output <- inception_3b/1x1
I0320 21:56:28.443895 32613 net.cpp:406] inception_3b/output <- inception_3b/3x3
I0320 21:56:28.443897 32613 net.cpp:406] inception_3b/output <- inception_3b/5x5
I0320 21:56:28.443900 32613 net.cpp:406] inception_3b/output <- inception_3b/pool_proj
I0320 21:56:28.443904 32613 net.cpp:380] inception_3b/output -> inception_3b/output
I0320 21:56:28.443925 32613 net.cpp:122] Setting up inception_3b/output
I0320 21:56:28.443929 32613 net.cpp:129] Top shape: 1 480 81 47 (1827360)
I0320 21:56:28.443931 32613 net.cpp:137] Memory required for data: 171610112
I0320 21:56:28.443933 32613 layer_factory.hpp:77] Creating layer inception_3b/output_inception_3b/output_0_split
I0320 21:56:28.443938 32613 net.cpp:84] Creating Layer inception_3b/output_inception_3b/output_0_split
I0320 21:56:28.443941 32613 net.cpp:406] inception_3b/output_inception_3b/output_0_split <- inception_3b/output
I0320 21:56:28.443944 32613 net.cpp:380] inception_3b/output_inception_3b/output_0_split -> inception_3b/output_inception_3b/output_0_split_0
I0320 21:56:28.443948 32613 net.cpp:380] inception_3b/output_inception_3b/output_0_split -> inception_3b/output_inception_3b/output_0_split_1
I0320 21:56:28.443974 32613 net.cpp:122] Setting up inception_3b/output_inception_3b/output_0_split
I0320 21:56:28.443979 32613 net.cpp:129] Top shape: 1 480 81 47 (1827360)
I0320 21:56:28.443980 32613 net.cpp:129] Top shape: 1 480 81 47 (1827360)
I0320 21:56:28.443982 32613 net.cpp:137] Memory required for data: 186228992
I0320 21:56:28.443985 32613 layer_factory.hpp:77] Creating layer pool3/3x3_s2
I0320 21:56:28.443989 32613 net.cpp:84] Creating Layer pool3/3x3_s2
I0320 21:56:28.443991 32613 net.cpp:406] pool3/3x3_s2 <- inception_3b/output_inception_3b/output_0_split_0
I0320 21:56:28.443995 32613 net.cpp:380] pool3/3x3_s2 -> pool3/3x3_s2
I0320 21:56:28.444020 32613 net.cpp:122] Setting up pool3/3x3_s2
I0320 21:56:28.444023 32613 net.cpp:129] Top shape: 1 480 40 23 (441600)
I0320 21:56:28.444025 32613 net.cpp:137] Memory required for data: 187995392
I0320 21:56:28.444027 32613 layer_factory.hpp:77] Creating layer pool3/3x3_s2_pool3/3x3_s2_0_split
I0320 21:56:28.444033 32613 net.cpp:84] Creating Layer pool3/3x3_s2_pool3/3x3_s2_0_split
I0320 21:56:28.444036 32613 net.cpp:406] pool3/3x3_s2_pool3/3x3_s2_0_split <- pool3/3x3_s2
I0320 21:56:28.444038 32613 net.cpp:380] pool3/3x3_s2_pool3/3x3_s2_0_split -> pool3/3x3_s2_pool3/3x3_s2_0_split_0
I0320 21:56:28.444042 32613 net.cpp:380] pool3/3x3_s2_pool3/3x3_s2_0_split -> pool3/3x3_s2_pool3/3x3_s2_0_split_1
I0320 21:56:28.444046 32613 net.cpp:380] pool3/3x3_s2_pool3/3x3_s2_0_split -> pool3/3x3_s2_pool3/3x3_s2_0_split_2
I0320 21:56:28.444051 32613 net.cpp:380] pool3/3x3_s2_pool3/3x3_s2_0_split -> pool3/3x3_s2_pool3/3x3_s2_0_split_3
I0320 21:56:28.444088 32613 net.cpp:122] Setting up pool3/3x3_s2_pool3/3x3_s2_0_split
I0320 21:56:28.444092 32613 net.cpp:129] Top shape: 1 480 40 23 (441600)
I0320 21:56:28.444095 32613 net.cpp:129] Top shape: 1 480 40 23 (441600)
I0320 21:56:28.444098 32613 net.cpp:129] Top shape: 1 480 40 23 (441600)
I0320 21:56:28.444100 32613 net.cpp:129] Top shape: 1 480 40 23 (441600)
I0320 21:56:28.444103 32613 net.cpp:137] Memory required for data: 195060992
I0320 21:56:28.444104 32613 layer_factory.hpp:77] Creating layer inception_4a/1x1
I0320 21:56:28.444111 32613 net.cpp:84] Creating Layer inception_4a/1x1
I0320 21:56:28.444113 32613 net.cpp:406] inception_4a/1x1 <- pool3/3x3_s2_pool3/3x3_s2_0_split_0
I0320 21:56:28.444118 32613 net.cpp:380] inception_4a/1x1 -> inception_4a/1x1
I0320 21:56:28.451170 32613 net.cpp:122] Setting up inception_4a/1x1
I0320 21:56:28.451203 32613 net.cpp:129] Top shape: 1 192 40 23 (176640)
I0320 21:56:28.451206 32613 net.cpp:137] Memory required for data: 195767552
I0320 21:56:28.451212 32613 layer_factory.hpp:77] Creating layer inception_4a/relu_1x1
I0320 21:56:28.451220 32613 net.cpp:84] Creating Layer inception_4a/relu_1x1
I0320 21:56:28.451223 32613 net.cpp:406] inception_4a/relu_1x1 <- inception_4a/1x1
I0320 21:56:28.451228 32613 net.cpp:367] inception_4a/relu_1x1 -> inception_4a/1x1 (in-place)
I0320 21:56:28.452728 32613 net.cpp:122] Setting up inception_4a/relu_1x1
I0320 21:56:28.452739 32613 net.cpp:129] Top shape: 1 192 40 23 (176640)
I0320 21:56:28.452759 32613 net.cpp:137] Memory required for data: 196474112
I0320 21:56:28.452761 32613 layer_factory.hpp:77] Creating layer inception_4a/3x3_reduce
I0320 21:56:28.452771 32613 net.cpp:84] Creating Layer inception_4a/3x3_reduce
I0320 21:56:28.452775 32613 net.cpp:406] inception_4a/3x3_reduce <- pool3/3x3_s2_pool3/3x3_s2_0_split_1
I0320 21:56:28.452780 32613 net.cpp:380] inception_4a/3x3_reduce -> inception_4a/3x3_reduce
I0320 21:56:28.459444 32613 net.cpp:122] Setting up inception_4a/3x3_reduce
I0320 21:56:28.459455 32613 net.cpp:129] Top shape: 1 96 40 23 (88320)
I0320 21:56:28.459473 32613 net.cpp:137] Memory required for data: 196827392
I0320 21:56:28.459486 32613 layer_factory.hpp:77] Creating layer inception_4a/relu_3x3_reduce
I0320 21:56:28.459491 32613 net.cpp:84] Creating Layer inception_4a/relu_3x3_reduce
I0320 21:56:28.459493 32613 net.cpp:406] inception_4a/relu_3x3_reduce <- inception_4a/3x3_reduce
I0320 21:56:28.459496 32613 net.cpp:367] inception_4a/relu_3x3_reduce -> inception_4a/3x3_reduce (in-place)
I0320 21:56:28.461621 32613 net.cpp:122] Setting up inception_4a/relu_3x3_reduce
I0320 21:56:28.461632 32613 net.cpp:129] Top shape: 1 96 40 23 (88320)
I0320 21:56:28.461634 32613 net.cpp:137] Memory required for data: 197180672
I0320 21:56:28.461637 32613 layer_factory.hpp:77] Creating layer inception_4a/3x3
I0320 21:56:28.461647 32613 net.cpp:84] Creating Layer inception_4a/3x3
I0320 21:56:28.461649 32613 net.cpp:406] inception_4a/3x3 <- inception_4a/3x3_reduce
I0320 21:56:28.461653 32613 net.cpp:380] inception_4a/3x3 -> inception_4a/3x3
I0320 21:56:28.468673 32613 net.cpp:122] Setting up inception_4a/3x3
I0320 21:56:28.468684 32613 net.cpp:129] Top shape: 1 208 40 23 (191360)
I0320 21:56:28.468703 32613 net.cpp:137] Memory required for data: 197946112
I0320 21:56:28.468708 32613 layer_factory.hpp:77] Creating layer inception_4a/relu_3x3
I0320 21:56:28.468713 32613 net.cpp:84] Creating Layer inception_4a/relu_3x3
I0320 21:56:28.468715 32613 net.cpp:406] inception_4a/relu_3x3 <- inception_4a/3x3
I0320 21:56:28.468720 32613 net.cpp:367] inception_4a/relu_3x3 -> inception_4a/3x3 (in-place)
I0320 21:56:28.468863 32613 net.cpp:122] Setting up inception_4a/relu_3x3
I0320 21:56:28.468870 32613 net.cpp:129] Top shape: 1 208 40 23 (191360)
I0320 21:56:28.468873 32613 net.cpp:137] Memory required for data: 198711552
I0320 21:56:28.468876 32613 layer_factory.hpp:77] Creating layer inception_4a/5x5_reduce
I0320 21:56:28.468883 32613 net.cpp:84] Creating Layer inception_4a/5x5_reduce
I0320 21:56:28.468886 32613 net.cpp:406] inception_4a/5x5_reduce <- pool3/3x3_s2_pool3/3x3_s2_0_split_2
I0320 21:56:28.468893 32613 net.cpp:380] inception_4a/5x5_reduce -> inception_4a/5x5_reduce
I0320 21:56:28.475255 32613 net.cpp:122] Setting up inception_4a/5x5_reduce
I0320 21:56:28.475266 32613 net.cpp:129] Top shape: 1 16 40 23 (14720)
I0320 21:56:28.475284 32613 net.cpp:137] Memory required for data: 198770432
I0320 21:56:28.475289 32613 layer_factory.hpp:77] Creating layer inception_4a/relu_5x5_reduce
I0320 21:56:28.475296 32613 net.cpp:84] Creating Layer inception_4a/relu_5x5_reduce
I0320 21:56:28.475298 32613 net.cpp:406] inception_4a/relu_5x5_reduce <- inception_4a/5x5_reduce
I0320 21:56:28.475303 32613 net.cpp:367] inception_4a/relu_5x5_reduce -> inception_4a/5x5_reduce (in-place)
I0320 21:56:28.477368 32613 net.cpp:122] Setting up inception_4a/relu_5x5_reduce
I0320 21:56:28.477376 32613 net.cpp:129] Top shape: 1 16 40 23 (14720)
I0320 21:56:28.477378 32613 net.cpp:137] Memory required for data: 198829312
I0320 21:56:28.477381 32613 layer_factory.hpp:77] Creating layer inception_4a/5x5
I0320 21:56:28.477390 32613 net.cpp:84] Creating Layer inception_4a/5x5
I0320 21:56:28.477392 32613 net.cpp:406] inception_4a/5x5 <- inception_4a/5x5_reduce
I0320 21:56:28.477396 32613 net.cpp:380] inception_4a/5x5 -> inception_4a/5x5
I0320 21:56:28.483978 32613 net.cpp:122] Setting up inception_4a/5x5
I0320 21:56:28.483989 32613 net.cpp:129] Top shape: 1 48 40 23 (44160)
I0320 21:56:28.483991 32613 net.cpp:137] Memory required for data: 199005952
I0320 21:56:28.483996 32613 layer_factory.hpp:77] Creating layer inception_4a/relu_5x5
I0320 21:56:28.484002 32613 net.cpp:84] Creating Layer inception_4a/relu_5x5
I0320 21:56:28.484005 32613 net.cpp:406] inception_4a/relu_5x5 <- inception_4a/5x5
I0320 21:56:28.484009 32613 net.cpp:367] inception_4a/relu_5x5 -> inception_4a/5x5 (in-place)
I0320 21:56:28.486088 32613 net.cpp:122] Setting up inception_4a/relu_5x5
I0320 21:56:28.486098 32613 net.cpp:129] Top shape: 1 48 40 23 (44160)
I0320 21:56:28.486099 32613 net.cpp:137] Memory required for data: 199182592
I0320 21:56:28.486102 32613 layer_factory.hpp:77] Creating layer inception_4a/pool
I0320 21:56:28.486107 32613 net.cpp:84] Creating Layer inception_4a/pool
I0320 21:56:28.486110 32613 net.cpp:406] inception_4a/pool <- pool3/3x3_s2_pool3/3x3_s2_0_split_3
I0320 21:56:28.486115 32613 net.cpp:380] inception_4a/pool -> inception_4a/pool
I0320 21:56:28.486148 32613 net.cpp:122] Setting up inception_4a/pool
I0320 21:56:28.486155 32613 net.cpp:129] Top shape: 1 480 40 23 (441600)
I0320 21:56:28.486156 32613 net.cpp:137] Memory required for data: 200948992
I0320 21:56:28.486158 32613 layer_factory.hpp:77] Creating layer inception_4a/pool_proj
I0320 21:56:28.486166 32613 net.cpp:84] Creating Layer inception_4a/pool_proj
I0320 21:56:28.486167 32613 net.cpp:406] inception_4a/pool_proj <- inception_4a/pool
I0320 21:56:28.486172 32613 net.cpp:380] inception_4a/pool_proj -> inception_4a/pool_proj
I0320 21:56:28.492681 32613 net.cpp:122] Setting up inception_4a/pool_proj
I0320 21:56:28.492693 32613 net.cpp:129] Top shape: 1 64 40 23 (58880)
I0320 21:56:28.492712 32613 net.cpp:137] Memory required for data: 201184512
I0320 21:56:28.492717 32613 layer_factory.hpp:77] Creating layer inception_4a/relu_pool_proj
I0320 21:56:28.492720 32613 net.cpp:84] Creating Layer inception_4a/relu_pool_proj
I0320 21:56:28.492723 32613 net.cpp:406] inception_4a/relu_pool_proj <- inception_4a/pool_proj
I0320 21:56:28.492728 32613 net.cpp:367] inception_4a/relu_pool_proj -> inception_4a/pool_proj (in-place)
I0320 21:56:28.494794 32613 net.cpp:122] Setting up inception_4a/relu_pool_proj
I0320 21:56:28.494802 32613 net.cpp:129] Top shape: 1 64 40 23 (58880)
I0320 21:56:28.494820 32613 net.cpp:137] Memory required for data: 201420032
I0320 21:56:28.494822 32613 layer_factory.hpp:77] Creating layer inception_4a/output
I0320 21:56:28.494827 32613 net.cpp:84] Creating Layer inception_4a/output
I0320 21:56:28.494829 32613 net.cpp:406] inception_4a/output <- inception_4a/1x1
I0320 21:56:28.494833 32613 net.cpp:406] inception_4a/output <- inception_4a/3x3
I0320 21:56:28.494837 32613 net.cpp:406] inception_4a/output <- inception_4a/5x5
I0320 21:56:28.494839 32613 net.cpp:406] inception_4a/output <- inception_4a/pool_proj
I0320 21:56:28.494843 32613 net.cpp:380] inception_4a/output -> inception_4a/output
I0320 21:56:28.494865 32613 net.cpp:122] Setting up inception_4a/output
I0320 21:56:28.494870 32613 net.cpp:129] Top shape: 1 512 40 23 (471040)
I0320 21:56:28.494873 32613 net.cpp:137] Memory required for data: 203304192
I0320 21:56:28.494874 32613 layer_factory.hpp:77] Creating layer inception_4a/output_inception_4a/output_0_split
I0320 21:56:28.494879 32613 net.cpp:84] Creating Layer inception_4a/output_inception_4a/output_0_split
I0320 21:56:28.494881 32613 net.cpp:406] inception_4a/output_inception_4a/output_0_split <- inception_4a/output
I0320 21:56:28.494884 32613 net.cpp:380] inception_4a/output_inception_4a/output_0_split -> inception_4a/output_inception_4a/output_0_split_0
I0320 21:56:28.494889 32613 net.cpp:380] inception_4a/output_inception_4a/output_0_split -> inception_4a/output_inception_4a/output_0_split_1
I0320 21:56:28.494892 32613 net.cpp:380] inception_4a/output_inception_4a/output_0_split -> inception_4a/output_inception_4a/output_0_split_2
I0320 21:56:28.494897 32613 net.cpp:380] inception_4a/output_inception_4a/output_0_split -> inception_4a/output_inception_4a/output_0_split_3
I0320 21:56:28.494940 32613 net.cpp:122] Setting up inception_4a/output_inception_4a/output_0_split
I0320 21:56:28.494945 32613 net.cpp:129] Top shape: 1 512 40 23 (471040)
I0320 21:56:28.494947 32613 net.cpp:129] Top shape: 1 512 40 23 (471040)
I0320 21:56:28.494949 32613 net.cpp:129] Top shape: 1 512 40 23 (471040)
I0320 21:56:28.494952 32613 net.cpp:129] Top shape: 1 512 40 23 (471040)
I0320 21:56:28.494954 32613 net.cpp:137] Memory required for data: 210840832
I0320 21:56:28.494956 32613 layer_factory.hpp:77] Creating layer inception_4b/1x1
I0320 21:56:28.494963 32613 net.cpp:84] Creating Layer inception_4b/1x1
I0320 21:56:28.494966 32613 net.cpp:406] inception_4b/1x1 <- inception_4a/output_inception_4a/output_0_split_0
I0320 21:56:28.494971 32613 net.cpp:380] inception_4b/1x1 -> inception_4b/1x1
I0320 21:56:28.500367 32613 net.cpp:122] Setting up inception_4b/1x1
I0320 21:56:28.500378 32613 net.cpp:129] Top shape: 1 160 40 23 (147200)
I0320 21:56:28.500397 32613 net.cpp:137] Memory required for data: 211429632
I0320 21:56:28.500401 32613 layer_factory.hpp:77] Creating layer inception_4b/relu_1x1
I0320 21:56:28.500407 32613 net.cpp:84] Creating Layer inception_4b/relu_1x1
I0320 21:56:28.500411 32613 net.cpp:406] inception_4b/relu_1x1 <- inception_4b/1x1
I0320 21:56:28.500414 32613 net.cpp:367] inception_4b/relu_1x1 -> inception_4b/1x1 (in-place)
I0320 21:56:28.502496 32613 net.cpp:122] Setting up inception_4b/relu_1x1
I0320 21:56:28.502508 32613 net.cpp:129] Top shape: 1 160 40 23 (147200)
I0320 21:56:28.502526 32613 net.cpp:137] Memory required for data: 212018432
I0320 21:56:28.502529 32613 layer_factory.hpp:77] Creating layer inception_4b/3x3_reduce
I0320 21:56:28.502537 32613 net.cpp:84] Creating Layer inception_4b/3x3_reduce
I0320 21:56:28.502540 32613 net.cpp:406] inception_4b/3x3_reduce <- inception_4a/output_inception_4a/output_0_split_1
I0320 21:56:28.502544 32613 net.cpp:380] inception_4b/3x3_reduce -> inception_4b/3x3_reduce
I0320 21:56:28.507285 32613 net.cpp:122] Setting up inception_4b/3x3_reduce
I0320 21:56:28.507295 32613 net.cpp:129] Top shape: 1 112 40 23 (103040)
I0320 21:56:28.507313 32613 net.cpp:137] Memory required for data: 212430592
I0320 21:56:28.507318 32613 layer_factory.hpp:77] Creating layer inception_4b/relu_3x3_reduce
I0320 21:56:28.507323 32613 net.cpp:84] Creating Layer inception_4b/relu_3x3_reduce
I0320 21:56:28.507326 32613 net.cpp:406] inception_4b/relu_3x3_reduce <- inception_4b/3x3_reduce
I0320 21:56:28.507331 32613 net.cpp:367] inception_4b/relu_3x3_reduce -> inception_4b/3x3_reduce (in-place)
I0320 21:56:28.509124 32613 net.cpp:122] Setting up inception_4b/relu_3x3_reduce
I0320 21:56:28.509135 32613 net.cpp:129] Top shape: 1 112 40 23 (103040)
I0320 21:56:28.509152 32613 net.cpp:137] Memory required for data: 212842752
I0320 21:56:28.509155 32613 layer_factory.hpp:77] Creating layer inception_4b/3x3
I0320 21:56:28.509171 32613 net.cpp:84] Creating Layer inception_4b/3x3
I0320 21:56:28.509173 32613 net.cpp:406] inception_4b/3x3 <- inception_4b/3x3_reduce
I0320 21:56:28.509178 32613 net.cpp:380] inception_4b/3x3 -> inception_4b/3x3
I0320 21:56:28.512233 32613 net.cpp:122] Setting up inception_4b/3x3
I0320 21:56:28.512244 32613 net.cpp:129] Top shape: 1 224 40 23 (206080)
I0320 21:56:28.512264 32613 net.cpp:137] Memory required for data: 213667072
I0320 21:56:28.512269 32613 layer_factory.hpp:77] Creating layer inception_4b/relu_3x3
I0320 21:56:28.512274 32613 net.cpp:84] Creating Layer inception_4b/relu_3x3
I0320 21:56:28.512277 32613 net.cpp:406] inception_4b/relu_3x3 <- inception_4b/3x3
I0320 21:56:28.512281 32613 net.cpp:367] inception_4b/relu_3x3 -> inception_4b/3x3 (in-place)
I0320 21:56:28.513665 32613 net.cpp:122] Setting up inception_4b/relu_3x3
I0320 21:56:28.513674 32613 net.cpp:129] Top shape: 1 224 40 23 (206080)
I0320 21:56:28.513691 32613 net.cpp:137] Memory required for data: 214491392
I0320 21:56:28.513695 32613 layer_factory.hpp:77] Creating layer inception_4b/5x5_reduce
I0320 21:56:28.513702 32613 net.cpp:84] Creating Layer inception_4b/5x5_reduce
I0320 21:56:28.513705 32613 net.cpp:406] inception_4b/5x5_reduce <- inception_4a/output_inception_4a/output_0_split_2
I0320 21:56:28.513710 32613 net.cpp:380] inception_4b/5x5_reduce -> inception_4b/5x5_reduce
I0320 21:56:28.520447 32613 net.cpp:122] Setting up inception_4b/5x5_reduce
I0320 21:56:28.520458 32613 net.cpp:129] Top shape: 1 24 40 23 (22080)
I0320 21:56:28.520476 32613 net.cpp:137] Memory required for data: 214579712
I0320 21:56:28.520481 32613 layer_factory.hpp:77] Creating layer inception_4b/relu_5x5_reduce
I0320 21:56:28.520488 32613 net.cpp:84] Creating Layer inception_4b/relu_5x5_reduce
I0320 21:56:28.520490 32613 net.cpp:406] inception_4b/relu_5x5_reduce <- inception_4b/5x5_reduce
I0320 21:56:28.520495 32613 net.cpp:367] inception_4b/relu_5x5_reduce -> inception_4b/5x5_reduce (in-place)
I0320 21:56:28.522634 32613 net.cpp:122] Setting up inception_4b/relu_5x5_reduce
I0320 21:56:28.522641 32613 net.cpp:129] Top shape: 1 24 40 23 (22080)
I0320 21:56:28.522660 32613 net.cpp:137] Memory required for data: 214668032
I0320 21:56:28.522662 32613 layer_factory.hpp:77] Creating layer inception_4b/5x5
I0320 21:56:28.522670 32613 net.cpp:84] Creating Layer inception_4b/5x5
I0320 21:56:28.522672 32613 net.cpp:406] inception_4b/5x5 <- inception_4b/5x5_reduce
I0320 21:56:28.522677 32613 net.cpp:380] inception_4b/5x5 -> inception_4b/5x5
I0320 21:56:28.529340 32613 net.cpp:122] Setting up inception_4b/5x5
I0320 21:56:28.529351 32613 net.cpp:129] Top shape: 1 64 40 23 (58880)
I0320 21:56:28.529355 32613 net.cpp:137] Memory required for data: 214903552
I0320 21:56:28.529359 32613 layer_factory.hpp:77] Creating layer inception_4b/relu_5x5
I0320 21:56:28.529364 32613 net.cpp:84] Creating Layer inception_4b/relu_5x5
I0320 21:56:28.529367 32613 net.cpp:406] inception_4b/relu_5x5 <- inception_4b/5x5
I0320 21:56:28.529371 32613 net.cpp:367] inception_4b/relu_5x5 -> inception_4b/5x5 (in-place)
I0320 21:56:28.531420 32613 net.cpp:122] Setting up inception_4b/relu_5x5
I0320 21:56:28.531427 32613 net.cpp:129] Top shape: 1 64 40 23 (58880)
I0320 21:56:28.531430 32613 net.cpp:137] Memory required for data: 215139072
I0320 21:56:28.531447 32613 layer_factory.hpp:77] Creating layer inception_4b/pool
I0320 21:56:28.531452 32613 net.cpp:84] Creating Layer inception_4b/pool
I0320 21:56:28.531455 32613 net.cpp:406] inception_4b/pool <- inception_4a/output_inception_4a/output_0_split_3
I0320 21:56:28.531460 32613 net.cpp:380] inception_4b/pool -> inception_4b/pool
I0320 21:56:28.531496 32613 net.cpp:122] Setting up inception_4b/pool
I0320 21:56:28.531499 32613 net.cpp:129] Top shape: 1 512 40 23 (471040)
I0320 21:56:28.531502 32613 net.cpp:137] Memory required for data: 217023232
I0320 21:56:28.531504 32613 layer_factory.hpp:77] Creating layer inception_4b/pool_proj
I0320 21:56:28.531512 32613 net.cpp:84] Creating Layer inception_4b/pool_proj
I0320 21:56:28.531515 32613 net.cpp:406] inception_4b/pool_proj <- inception_4b/pool
I0320 21:56:28.531518 32613 net.cpp:380] inception_4b/pool_proj -> inception_4b/pool_proj
I0320 21:56:28.538033 32613 net.cpp:122] Setting up inception_4b/pool_proj
I0320 21:56:28.538044 32613 net.cpp:129] Top shape: 1 64 40 23 (58880)
I0320 21:56:28.538063 32613 net.cpp:137] Memory required for data: 217258752
I0320 21:56:28.538067 32613 layer_factory.hpp:77] Creating layer inception_4b/relu_pool_proj
I0320 21:56:28.538074 32613 net.cpp:84] Creating Layer inception_4b/relu_pool_proj
I0320 21:56:28.538076 32613 net.cpp:406] inception_4b/relu_pool_proj <- inception_4b/pool_proj
I0320 21:56:28.538080 32613 net.cpp:367] inception_4b/relu_pool_proj -> inception_4b/pool_proj (in-place)
I0320 21:56:28.540138 32613 net.cpp:122] Setting up inception_4b/relu_pool_proj
I0320 21:56:28.540145 32613 net.cpp:129] Top shape: 1 64 40 23 (58880)
I0320 21:56:28.540163 32613 net.cpp:137] Memory required for data: 217494272
I0320 21:56:28.540166 32613 layer_factory.hpp:77] Creating layer inception_4b/output
I0320 21:56:28.540170 32613 net.cpp:84] Creating Layer inception_4b/output
I0320 21:56:28.540174 32613 net.cpp:406] inception_4b/output <- inception_4b/1x1
I0320 21:56:28.540176 32613 net.cpp:406] inception_4b/output <- inception_4b/3x3
I0320 21:56:28.540179 32613 net.cpp:406] inception_4b/output <- inception_4b/5x5
I0320 21:56:28.540182 32613 net.cpp:406] inception_4b/output <- inception_4b/pool_proj
I0320 21:56:28.540186 32613 net.cpp:380] inception_4b/output -> inception_4b/output
I0320 21:56:28.540207 32613 net.cpp:122] Setting up inception_4b/output
I0320 21:56:28.540211 32613 net.cpp:129] Top shape: 1 512 40 23 (471040)
I0320 21:56:28.540213 32613 net.cpp:137] Memory required for data: 219378432
I0320 21:56:28.540216 32613 layer_factory.hpp:77] Creating layer inception_4b/output_inception_4b/output_0_split
I0320 21:56:28.540221 32613 net.cpp:84] Creating Layer inception_4b/output_inception_4b/output_0_split
I0320 21:56:28.540225 32613 net.cpp:406] inception_4b/output_inception_4b/output_0_split <- inception_4b/output
I0320 21:56:28.540227 32613 net.cpp:380] inception_4b/output_inception_4b/output_0_split -> inception_4b/output_inception_4b/output_0_split_0
I0320 21:56:28.540232 32613 net.cpp:380] inception_4b/output_inception_4b/output_0_split -> inception_4b/output_inception_4b/output_0_split_1
I0320 21:56:28.540236 32613 net.cpp:380] inception_4b/output_inception_4b/output_0_split -> inception_4b/output_inception_4b/output_0_split_2
I0320 21:56:28.540246 32613 net.cpp:380] inception_4b/output_inception_4b/output_0_split -> inception_4b/output_inception_4b/output_0_split_3
I0320 21:56:28.540289 32613 net.cpp:122] Setting up inception_4b/output_inception_4b/output_0_split
I0320 21:56:28.540293 32613 net.cpp:129] Top shape: 1 512 40 23 (471040)
I0320 21:56:28.540297 32613 net.cpp:129] Top shape: 1 512 40 23 (471040)
I0320 21:56:28.540299 32613 net.cpp:129] Top shape: 1 512 40 23 (471040)
I0320 21:56:28.540302 32613 net.cpp:129] Top shape: 1 512 40 23 (471040)
I0320 21:56:28.540304 32613 net.cpp:137] Memory required for data: 226915072
I0320 21:56:28.540307 32613 layer_factory.hpp:77] Creating layer inception_4c/1x1
I0320 21:56:28.540313 32613 net.cpp:84] Creating Layer inception_4c/1x1
I0320 21:56:28.540316 32613 net.cpp:406] inception_4c/1x1 <- inception_4b/output_inception_4b/output_0_split_0
I0320 21:56:28.540320 32613 net.cpp:380] inception_4c/1x1 -> inception_4c/1x1
I0320 21:56:28.546900 32613 net.cpp:122] Setting up inception_4c/1x1
I0320 21:56:28.546931 32613 net.cpp:129] Top shape: 1 128 40 23 (117760)
I0320 21:56:28.546933 32613 net.cpp:137] Memory required for data: 227386112
I0320 21:56:28.546939 32613 layer_factory.hpp:77] Creating layer inception_4c/relu_1x1
I0320 21:56:28.546944 32613 net.cpp:84] Creating Layer inception_4c/relu_1x1
I0320 21:56:28.546947 32613 net.cpp:406] inception_4c/relu_1x1 <- inception_4c/1x1
I0320 21:56:28.546952 32613 net.cpp:367] inception_4c/relu_1x1 -> inception_4c/1x1 (in-place)
I0320 21:56:28.549077 32613 net.cpp:122] Setting up inception_4c/relu_1x1
I0320 21:56:28.549088 32613 net.cpp:129] Top shape: 1 128 40 23 (117760)
I0320 21:56:28.549105 32613 net.cpp:137] Memory required for data: 227857152
I0320 21:56:28.549108 32613 layer_factory.hpp:77] Creating layer inception_4c/3x3_reduce
I0320 21:56:28.549118 32613 net.cpp:84] Creating Layer inception_4c/3x3_reduce
I0320 21:56:28.549120 32613 net.cpp:406] inception_4c/3x3_reduce <- inception_4b/output_inception_4b/output_0_split_1
I0320 21:56:28.549126 32613 net.cpp:380] inception_4c/3x3_reduce -> inception_4c/3x3_reduce
I0320 21:56:28.555838 32613 net.cpp:122] Setting up inception_4c/3x3_reduce
I0320 21:56:28.555848 32613 net.cpp:129] Top shape: 1 128 40 23 (117760)
I0320 21:56:28.555866 32613 net.cpp:137] Memory required for data: 228328192
I0320 21:56:28.555871 32613 layer_factory.hpp:77] Creating layer inception_4c/relu_3x3_reduce
I0320 21:56:28.555876 32613 net.cpp:84] Creating Layer inception_4c/relu_3x3_reduce
I0320 21:56:28.555878 32613 net.cpp:406] inception_4c/relu_3x3_reduce <- inception_4c/3x3_reduce
I0320 21:56:28.555882 32613 net.cpp:367] inception_4c/relu_3x3_reduce -> inception_4c/3x3_reduce (in-place)
I0320 21:56:28.557973 32613 net.cpp:122] Setting up inception_4c/relu_3x3_reduce
I0320 21:56:28.557983 32613 net.cpp:129] Top shape: 1 128 40 23 (117760)
I0320 21:56:28.558001 32613 net.cpp:137] Memory required for data: 228799232
I0320 21:56:28.558004 32613 layer_factory.hpp:77] Creating layer inception_4c/3x3
I0320 21:56:28.558012 32613 net.cpp:84] Creating Layer inception_4c/3x3
I0320 21:56:28.558015 32613 net.cpp:406] inception_4c/3x3 <- inception_4c/3x3_reduce
I0320 21:56:28.558022 32613 net.cpp:380] inception_4c/3x3 -> inception_4c/3x3
I0320 21:56:28.562007 32613 net.cpp:122] Setting up inception_4c/3x3
I0320 21:56:28.562018 32613 net.cpp:129] Top shape: 1 256 40 23 (235520)
I0320 21:56:28.562037 32613 net.cpp:137] Memory required for data: 229741312
I0320 21:56:28.562043 32613 layer_factory.hpp:77] Creating layer inception_4c/relu_3x3
I0320 21:56:28.562048 32613 net.cpp:84] Creating Layer inception_4c/relu_3x3
I0320 21:56:28.562052 32613 net.cpp:406] inception_4c/relu_3x3 <- inception_4c/3x3
I0320 21:56:28.562055 32613 net.cpp:367] inception_4c/relu_3x3 -> inception_4c/3x3 (in-place)
I0320 21:56:28.563005 32613 net.cpp:122] Setting up inception_4c/relu_3x3
I0320 21:56:28.563014 32613 net.cpp:129] Top shape: 1 256 40 23 (235520)
I0320 21:56:28.563032 32613 net.cpp:137] Memory required for data: 230683392
I0320 21:56:28.563035 32613 layer_factory.hpp:77] Creating layer inception_4c/5x5_reduce
I0320 21:56:28.563041 32613 net.cpp:84] Creating Layer inception_4c/5x5_reduce
I0320 21:56:28.563045 32613 net.cpp:406] inception_4c/5x5_reduce <- inception_4b/output_inception_4b/output_0_split_2
I0320 21:56:28.563050 32613 net.cpp:380] inception_4c/5x5_reduce -> inception_4c/5x5_reduce
I0320 21:56:28.569610 32613 net.cpp:122] Setting up inception_4c/5x5_reduce
I0320 21:56:28.569622 32613 net.cpp:129] Top shape: 1 24 40 23 (22080)
I0320 21:56:28.569624 32613 net.cpp:137] Memory required for data: 230771712
I0320 21:56:28.569629 32613 layer_factory.hpp:77] Creating layer inception_4c/relu_5x5_reduce
I0320 21:56:28.569634 32613 net.cpp:84] Creating Layer inception_4c/relu_5x5_reduce
I0320 21:56:28.569638 32613 net.cpp:406] inception_4c/relu_5x5_reduce <- inception_4c/5x5_reduce
I0320 21:56:28.569641 32613 net.cpp:367] inception_4c/relu_5x5_reduce -> inception_4c/5x5_reduce (in-place)
I0320 21:56:28.571707 32613 net.cpp:122] Setting up inception_4c/relu_5x5_reduce
I0320 21:56:28.571714 32613 net.cpp:129] Top shape: 1 24 40 23 (22080)
I0320 21:56:28.571733 32613 net.cpp:137] Memory required for data: 230860032
I0320 21:56:28.571737 32613 layer_factory.hpp:77] Creating layer inception_4c/5x5
I0320 21:56:28.571743 32613 net.cpp:84] Creating Layer inception_4c/5x5
I0320 21:56:28.571746 32613 net.cpp:406] inception_4c/5x5 <- inception_4c/5x5_reduce
I0320 21:56:28.571753 32613 net.cpp:380] inception_4c/5x5 -> inception_4c/5x5
I0320 21:56:28.578325 32613 net.cpp:122] Setting up inception_4c/5x5
I0320 21:56:28.578336 32613 net.cpp:129] Top shape: 1 64 40 23 (58880)
I0320 21:56:28.578354 32613 net.cpp:137] Memory required for data: 231095552
I0320 21:56:28.578359 32613 layer_factory.hpp:77] Creating layer inception_4c/relu_5x5
I0320 21:56:28.578366 32613 net.cpp:84] Creating Layer inception_4c/relu_5x5
I0320 21:56:28.578368 32613 net.cpp:406] inception_4c/relu_5x5 <- inception_4c/5x5
I0320 21:56:28.578373 32613 net.cpp:367] inception_4c/relu_5x5 -> inception_4c/5x5 (in-place)
I0320 21:56:28.580412 32613 net.cpp:122] Setting up inception_4c/relu_5x5
I0320 21:56:28.580420 32613 net.cpp:129] Top shape: 1 64 40 23 (58880)
I0320 21:56:28.580437 32613 net.cpp:137] Memory required for data: 231331072
I0320 21:56:28.580440 32613 layer_factory.hpp:77] Creating layer inception_4c/pool
I0320 21:56:28.580447 32613 net.cpp:84] Creating Layer inception_4c/pool
I0320 21:56:28.580451 32613 net.cpp:406] inception_4c/pool <- inception_4b/output_inception_4b/output_0_split_3
I0320 21:56:28.580454 32613 net.cpp:380] inception_4c/pool -> inception_4c/pool
I0320 21:56:28.580489 32613 net.cpp:122] Setting up inception_4c/pool
I0320 21:56:28.580493 32613 net.cpp:129] Top shape: 1 512 40 23 (471040)
I0320 21:56:28.580495 32613 net.cpp:137] Memory required for data: 233215232
I0320 21:56:28.580498 32613 layer_factory.hpp:77] Creating layer inception_4c/pool_proj
I0320 21:56:28.580505 32613 net.cpp:84] Creating Layer inception_4c/pool_proj
I0320 21:56:28.580507 32613 net.cpp:406] inception_4c/pool_proj <- inception_4c/pool
I0320 21:56:28.580513 32613 net.cpp:380] inception_4c/pool_proj -> inception_4c/pool_proj
I0320 21:56:28.587013 32613 net.cpp:122] Setting up inception_4c/pool_proj
I0320 21:56:28.587024 32613 net.cpp:129] Top shape: 1 64 40 23 (58880)
I0320 21:56:28.587043 32613 net.cpp:137] Memory required for data: 233450752
I0320 21:56:28.587056 32613 layer_factory.hpp:77] Creating layer inception_4c/relu_pool_proj
I0320 21:56:28.587061 32613 net.cpp:84] Creating Layer inception_4c/relu_pool_proj
I0320 21:56:28.587065 32613 net.cpp:406] inception_4c/relu_pool_proj <- inception_4c/pool_proj
I0320 21:56:28.587069 32613 net.cpp:367] inception_4c/relu_pool_proj -> inception_4c/pool_proj (in-place)
I0320 21:56:28.589118 32613 net.cpp:122] Setting up inception_4c/relu_pool_proj
I0320 21:56:28.589125 32613 net.cpp:129] Top shape: 1 64 40 23 (58880)
I0320 21:56:28.589128 32613 net.cpp:137] Memory required for data: 233686272
I0320 21:56:28.589145 32613 layer_factory.hpp:77] Creating layer inception_4c/output
I0320 21:56:28.589150 32613 net.cpp:84] Creating Layer inception_4c/output
I0320 21:56:28.589154 32613 net.cpp:406] inception_4c/output <- inception_4c/1x1
I0320 21:56:28.589156 32613 net.cpp:406] inception_4c/output <- inception_4c/3x3
I0320 21:56:28.589159 32613 net.cpp:406] inception_4c/output <- inception_4c/5x5
I0320 21:56:28.589161 32613 net.cpp:406] inception_4c/output <- inception_4c/pool_proj
I0320 21:56:28.589165 32613 net.cpp:380] inception_4c/output -> inception_4c/output
I0320 21:56:28.589187 32613 net.cpp:122] Setting up inception_4c/output
I0320 21:56:28.589192 32613 net.cpp:129] Top shape: 1 512 40 23 (471040)
I0320 21:56:28.589195 32613 net.cpp:137] Memory required for data: 235570432
I0320 21:56:28.589196 32613 layer_factory.hpp:77] Creating layer inception_4c/output_inception_4c/output_0_split
I0320 21:56:28.589201 32613 net.cpp:84] Creating Layer inception_4c/output_inception_4c/output_0_split
I0320 21:56:28.589205 32613 net.cpp:406] inception_4c/output_inception_4c/output_0_split <- inception_4c/output
I0320 21:56:28.589207 32613 net.cpp:380] inception_4c/output_inception_4c/output_0_split -> inception_4c/output_inception_4c/output_0_split_0
I0320 21:56:28.589212 32613 net.cpp:380] inception_4c/output_inception_4c/output_0_split -> inception_4c/output_inception_4c/output_0_split_1
I0320 21:56:28.589215 32613 net.cpp:380] inception_4c/output_inception_4c/output_0_split -> inception_4c/output_inception_4c/output_0_split_2
I0320 21:56:28.589220 32613 net.cpp:380] inception_4c/output_inception_4c/output_0_split -> inception_4c/output_inception_4c/output_0_split_3
I0320 21:56:28.589264 32613 net.cpp:122] Setting up inception_4c/output_inception_4c/output_0_split
I0320 21:56:28.589269 32613 net.cpp:129] Top shape: 1 512 40 23 (471040)
I0320 21:56:28.589272 32613 net.cpp:129] Top shape: 1 512 40 23 (471040)
I0320 21:56:28.589274 32613 net.cpp:129] Top shape: 1 512 40 23 (471040)
I0320 21:56:28.589277 32613 net.cpp:129] Top shape: 1 512 40 23 (471040)
I0320 21:56:28.589278 32613 net.cpp:137] Memory required for data: 243107072
I0320 21:56:28.589280 32613 layer_factory.hpp:77] Creating layer inception_4d/1x1
I0320 21:56:28.589288 32613 net.cpp:84] Creating Layer inception_4d/1x1
I0320 21:56:28.589290 32613 net.cpp:406] inception_4d/1x1 <- inception_4c/output_inception_4c/output_0_split_0
I0320 21:56:28.589295 32613 net.cpp:380] inception_4d/1x1 -> inception_4d/1x1
I0320 21:56:28.594792 32613 net.cpp:122] Setting up inception_4d/1x1
I0320 21:56:28.594805 32613 net.cpp:129] Top shape: 1 112 40 23 (103040)
I0320 21:56:28.594822 32613 net.cpp:137] Memory required for data: 243519232
I0320 21:56:28.594827 32613 layer_factory.hpp:77] Creating layer inception_4d/relu_1x1
I0320 21:56:28.594832 32613 net.cpp:84] Creating Layer inception_4d/relu_1x1
I0320 21:56:28.594835 32613 net.cpp:406] inception_4d/relu_1x1 <- inception_4d/1x1
I0320 21:56:28.594841 32613 net.cpp:367] inception_4d/relu_1x1 -> inception_4d/1x1 (in-place)
I0320 21:56:28.596901 32613 net.cpp:122] Setting up inception_4d/relu_1x1
I0320 21:56:28.596912 32613 net.cpp:129] Top shape: 1 112 40 23 (103040)
I0320 21:56:28.596915 32613 net.cpp:137] Memory required for data: 243931392
I0320 21:56:28.596917 32613 layer_factory.hpp:77] Creating layer inception_4d/3x3_reduce
I0320 21:56:28.596925 32613 net.cpp:84] Creating Layer inception_4d/3x3_reduce
I0320 21:56:28.596928 32613 net.cpp:406] inception_4d/3x3_reduce <- inception_4c/output_inception_4c/output_0_split_1
I0320 21:56:28.596935 32613 net.cpp:380] inception_4d/3x3_reduce -> inception_4d/3x3_reduce
I0320 21:56:28.601444 32613 net.cpp:122] Setting up inception_4d/3x3_reduce
I0320 21:56:28.601454 32613 net.cpp:129] Top shape: 1 144 40 23 (132480)
I0320 21:56:28.601456 32613 net.cpp:137] Memory required for data: 244461312
I0320 21:56:28.601460 32613 layer_factory.hpp:77] Creating layer inception_4d/relu_3x3_reduce
I0320 21:56:28.601465 32613 net.cpp:84] Creating Layer inception_4d/relu_3x3_reduce
I0320 21:56:28.601469 32613 net.cpp:406] inception_4d/relu_3x3_reduce <- inception_4d/3x3_reduce
I0320 21:56:28.601472 32613 net.cpp:367] inception_4d/relu_3x3_reduce -> inception_4d/3x3_reduce (in-place)
I0320 21:56:28.603368 32613 net.cpp:122] Setting up inception_4d/relu_3x3_reduce
I0320 21:56:28.603377 32613 net.cpp:129] Top shape: 1 144 40 23 (132480)
I0320 21:56:28.603395 32613 net.cpp:137] Memory required for data: 244991232
I0320 21:56:28.603399 32613 layer_factory.hpp:77] Creating layer inception_4d/3x3
I0320 21:56:28.603406 32613 net.cpp:84] Creating Layer inception_4d/3x3
I0320 21:56:28.603410 32613 net.cpp:406] inception_4d/3x3 <- inception_4d/3x3_reduce
I0320 21:56:28.603415 32613 net.cpp:380] inception_4d/3x3 -> inception_4d/3x3
I0320 21:56:28.610640 32613 net.cpp:122] Setting up inception_4d/3x3
I0320 21:56:28.610651 32613 net.cpp:129] Top shape: 1 288 40 23 (264960)
I0320 21:56:28.610671 32613 net.cpp:137] Memory required for data: 246051072
I0320 21:56:28.610676 32613 layer_factory.hpp:77] Creating layer inception_4d/relu_3x3
I0320 21:56:28.610680 32613 net.cpp:84] Creating Layer inception_4d/relu_3x3
I0320 21:56:28.610683 32613 net.cpp:406] inception_4d/relu_3x3 <- inception_4d/3x3
I0320 21:56:28.610688 32613 net.cpp:367] inception_4d/relu_3x3 -> inception_4d/3x3 (in-place)
I0320 21:56:28.612428 32613 net.cpp:122] Setting up inception_4d/relu_3x3
I0320 21:56:28.612435 32613 net.cpp:129] Top shape: 1 288 40 23 (264960)
I0320 21:56:28.612438 32613 net.cpp:137] Memory required for data: 247110912
I0320 21:56:28.612457 32613 layer_factory.hpp:77] Creating layer inception_4d/5x5_reduce
I0320 21:56:28.612463 32613 net.cpp:84] Creating Layer inception_4d/5x5_reduce
I0320 21:56:28.612467 32613 net.cpp:406] inception_4d/5x5_reduce <- inception_4c/output_inception_4c/output_0_split_2
I0320 21:56:28.612473 32613 net.cpp:380] inception_4d/5x5_reduce -> inception_4d/5x5_reduce
I0320 21:56:28.619196 32613 net.cpp:122] Setting up inception_4d/5x5_reduce
I0320 21:56:28.619209 32613 net.cpp:129] Top shape: 1 32 40 23 (29440)
I0320 21:56:28.619226 32613 net.cpp:137] Memory required for data: 247228672
I0320 21:56:28.619231 32613 layer_factory.hpp:77] Creating layer inception_4d/relu_5x5_reduce
I0320 21:56:28.619237 32613 net.cpp:84] Creating Layer inception_4d/relu_5x5_reduce
I0320 21:56:28.619240 32613 net.cpp:406] inception_4d/relu_5x5_reduce <- inception_4d/5x5_reduce
I0320 21:56:28.619244 32613 net.cpp:367] inception_4d/relu_5x5_reduce -> inception_4d/5x5_reduce (in-place)
I0320 21:56:28.621294 32613 net.cpp:122] Setting up inception_4d/relu_5x5_reduce
I0320 21:56:28.621300 32613 net.cpp:129] Top shape: 1 32 40 23 (29440)
I0320 21:56:28.621304 32613 net.cpp:137] Memory required for data: 247346432
I0320 21:56:28.621327 32613 layer_factory.hpp:77] Creating layer inception_4d/5x5
I0320 21:56:28.621336 32613 net.cpp:84] Creating Layer inception_4d/5x5
I0320 21:56:28.621340 32613 net.cpp:406] inception_4d/5x5 <- inception_4d/5x5_reduce
I0320 21:56:28.621345 32613 net.cpp:380] inception_4d/5x5 -> inception_4d/5x5
I0320 21:56:28.627938 32613 net.cpp:122] Setting up inception_4d/5x5
I0320 21:56:28.627949 32613 net.cpp:129] Top shape: 1 64 40 23 (58880)
I0320 21:56:28.627966 32613 net.cpp:137] Memory required for data: 247581952
I0320 21:56:28.627971 32613 layer_factory.hpp:77] Creating layer inception_4d/relu_5x5
I0320 21:56:28.627977 32613 net.cpp:84] Creating Layer inception_4d/relu_5x5
I0320 21:56:28.627980 32613 net.cpp:406] inception_4d/relu_5x5 <- inception_4d/5x5
I0320 21:56:28.627985 32613 net.cpp:367] inception_4d/relu_5x5 -> inception_4d/5x5 (in-place)
I0320 21:56:28.630096 32613 net.cpp:122] Setting up inception_4d/relu_5x5
I0320 21:56:28.630105 32613 net.cpp:129] Top shape: 1 64 40 23 (58880)
I0320 21:56:28.630122 32613 net.cpp:137] Memory required for data: 247817472
I0320 21:56:28.630125 32613 layer_factory.hpp:77] Creating layer inception_4d/pool
I0320 21:56:28.630131 32613 net.cpp:84] Creating Layer inception_4d/pool
I0320 21:56:28.630134 32613 net.cpp:406] inception_4d/pool <- inception_4c/output_inception_4c/output_0_split_3
I0320 21:56:28.630137 32613 net.cpp:380] inception_4d/pool -> inception_4d/pool
I0320 21:56:28.630173 32613 net.cpp:122] Setting up inception_4d/pool
I0320 21:56:28.630177 32613 net.cpp:129] Top shape: 1 512 40 23 (471040)
I0320 21:56:28.630179 32613 net.cpp:137] Memory required for data: 249701632
I0320 21:56:28.630182 32613 layer_factory.hpp:77] Creating layer inception_4d/pool_proj
I0320 21:56:28.630188 32613 net.cpp:84] Creating Layer inception_4d/pool_proj
I0320 21:56:28.630192 32613 net.cpp:406] inception_4d/pool_proj <- inception_4d/pool
I0320 21:56:28.630197 32613 net.cpp:380] inception_4d/pool_proj -> inception_4d/pool_proj
I0320 21:56:28.636729 32613 net.cpp:122] Setting up inception_4d/pool_proj
I0320 21:56:28.636760 32613 net.cpp:129] Top shape: 1 64 40 23 (58880)
I0320 21:56:28.636764 32613 net.cpp:137] Memory required for data: 249937152
I0320 21:56:28.636770 32613 layer_factory.hpp:77] Creating layer inception_4d/relu_pool_proj
I0320 21:56:28.636775 32613 net.cpp:84] Creating Layer inception_4d/relu_pool_proj
I0320 21:56:28.636777 32613 net.cpp:406] inception_4d/relu_pool_proj <- inception_4d/pool_proj
I0320 21:56:28.636781 32613 net.cpp:367] inception_4d/relu_pool_proj -> inception_4d/pool_proj (in-place)
I0320 21:56:28.638816 32613 net.cpp:122] Setting up inception_4d/relu_pool_proj
I0320 21:56:28.638824 32613 net.cpp:129] Top shape: 1 64 40 23 (58880)
I0320 21:56:28.638842 32613 net.cpp:137] Memory required for data: 250172672
I0320 21:56:28.638845 32613 layer_factory.hpp:77] Creating layer inception_4d/output
I0320 21:56:28.638849 32613 net.cpp:84] Creating Layer inception_4d/output
I0320 21:56:28.638852 32613 net.cpp:406] inception_4d/output <- inception_4d/1x1
I0320 21:56:28.638856 32613 net.cpp:406] inception_4d/output <- inception_4d/3x3
I0320 21:56:28.638859 32613 net.cpp:406] inception_4d/output <- inception_4d/5x5
I0320 21:56:28.638861 32613 net.cpp:406] inception_4d/output <- inception_4d/pool_proj
I0320 21:56:28.638866 32613 net.cpp:380] inception_4d/output -> inception_4d/output
I0320 21:56:28.638890 32613 net.cpp:122] Setting up inception_4d/output
I0320 21:56:28.638895 32613 net.cpp:129] Top shape: 1 528 40 23 (485760)
I0320 21:56:28.638897 32613 net.cpp:137] Memory required for data: 252115712
I0320 21:56:28.638900 32613 layer_factory.hpp:77] Creating layer inception_4d/output_inception_4d/output_0_split
I0320 21:56:28.638905 32613 net.cpp:84] Creating Layer inception_4d/output_inception_4d/output_0_split
I0320 21:56:28.638906 32613 net.cpp:406] inception_4d/output_inception_4d/output_0_split <- inception_4d/output
I0320 21:56:28.638911 32613 net.cpp:380] inception_4d/output_inception_4d/output_0_split -> inception_4d/output_inception_4d/output_0_split_0
I0320 21:56:28.638914 32613 net.cpp:380] inception_4d/output_inception_4d/output_0_split -> inception_4d/output_inception_4d/output_0_split_1
I0320 21:56:28.638918 32613 net.cpp:380] inception_4d/output_inception_4d/output_0_split -> inception_4d/output_inception_4d/output_0_split_2
I0320 21:56:28.638923 32613 net.cpp:380] inception_4d/output_inception_4d/output_0_split -> inception_4d/output_inception_4d/output_0_split_3
I0320 21:56:28.638970 32613 net.cpp:122] Setting up inception_4d/output_inception_4d/output_0_split
I0320 21:56:28.638974 32613 net.cpp:129] Top shape: 1 528 40 23 (485760)
I0320 21:56:28.638978 32613 net.cpp:129] Top shape: 1 528 40 23 (485760)
I0320 21:56:28.638980 32613 net.cpp:129] Top shape: 1 528 40 23 (485760)
I0320 21:56:28.638983 32613 net.cpp:129] Top shape: 1 528 40 23 (485760)
I0320 21:56:28.638984 32613 net.cpp:137] Memory required for data: 259887872
I0320 21:56:28.638986 32613 layer_factory.hpp:77] Creating layer inception_4e/1x1
I0320 21:56:28.638995 32613 net.cpp:84] Creating Layer inception_4e/1x1
I0320 21:56:28.638998 32613 net.cpp:406] inception_4e/1x1 <- inception_4d/output_inception_4d/output_0_split_0
I0320 21:56:28.639003 32613 net.cpp:380] inception_4e/1x1 -> inception_4e/1x1
I0320 21:56:28.645630 32613 net.cpp:122] Setting up inception_4e/1x1
I0320 21:56:28.645642 32613 net.cpp:129] Top shape: 1 256 40 23 (235520)
I0320 21:56:28.645645 32613 net.cpp:137] Memory required for data: 260829952
I0320 21:56:28.645650 32613 layer_factory.hpp:77] Creating layer inception_4e/relu_1x1
I0320 21:56:28.645655 32613 net.cpp:84] Creating Layer inception_4e/relu_1x1
I0320 21:56:28.645658 32613 net.cpp:406] inception_4e/relu_1x1 <- inception_4e/1x1
I0320 21:56:28.645663 32613 net.cpp:367] inception_4e/relu_1x1 -> inception_4e/1x1 (in-place)
I0320 21:56:28.647805 32613 net.cpp:122] Setting up inception_4e/relu_1x1
I0320 21:56:28.647815 32613 net.cpp:129] Top shape: 1 256 40 23 (235520)
I0320 21:56:28.647835 32613 net.cpp:137] Memory required for data: 261772032
I0320 21:56:28.647836 32613 layer_factory.hpp:77] Creating layer inception_4e/3x3_reduce
I0320 21:56:28.647845 32613 net.cpp:84] Creating Layer inception_4e/3x3_reduce
I0320 21:56:28.647847 32613 net.cpp:406] inception_4e/3x3_reduce <- inception_4d/output_inception_4d/output_0_split_1
I0320 21:56:28.647853 32613 net.cpp:380] inception_4e/3x3_reduce -> inception_4e/3x3_reduce
I0320 21:56:28.652675 32613 net.cpp:122] Setting up inception_4e/3x3_reduce
I0320 21:56:28.652685 32613 net.cpp:129] Top shape: 1 160 40 23 (147200)
I0320 21:56:28.652704 32613 net.cpp:137] Memory required for data: 262360832
I0320 21:56:28.652709 32613 layer_factory.hpp:77] Creating layer inception_4e/relu_3x3_reduce
I0320 21:56:28.652714 32613 net.cpp:84] Creating Layer inception_4e/relu_3x3_reduce
I0320 21:56:28.652717 32613 net.cpp:406] inception_4e/relu_3x3_reduce <- inception_4e/3x3_reduce
I0320 21:56:28.652722 32613 net.cpp:367] inception_4e/relu_3x3_reduce -> inception_4e/3x3_reduce (in-place)
I0320 21:56:28.653298 32613 net.cpp:122] Setting up inception_4e/relu_3x3_reduce
I0320 21:56:28.653311 32613 net.cpp:129] Top shape: 1 160 40 23 (147200)
I0320 21:56:28.653316 32613 net.cpp:137] Memory required for data: 262949632
I0320 21:56:28.653319 32613 layer_factory.hpp:77] Creating layer inception_4e/3x3
I0320 21:56:28.653328 32613 net.cpp:84] Creating Layer inception_4e/3x3
I0320 21:56:28.653331 32613 net.cpp:406] inception_4e/3x3 <- inception_4e/3x3_reduce
I0320 21:56:28.653336 32613 net.cpp:380] inception_4e/3x3 -> inception_4e/3x3
I0320 21:56:28.659901 32613 net.cpp:122] Setting up inception_4e/3x3
I0320 21:56:28.659914 32613 net.cpp:129] Top shape: 1 320 40 23 (294400)
I0320 21:56:28.659931 32613 net.cpp:137] Memory required for data: 264127232
I0320 21:56:28.659936 32613 layer_factory.hpp:77] Creating layer inception_4e/relu_3x3
I0320 21:56:28.659941 32613 net.cpp:84] Creating Layer inception_4e/relu_3x3
I0320 21:56:28.659945 32613 net.cpp:406] inception_4e/relu_3x3 <- inception_4e/3x3
I0320 21:56:28.659950 32613 net.cpp:367] inception_4e/relu_3x3 -> inception_4e/3x3 (in-place)
I0320 21:56:28.661609 32613 net.cpp:122] Setting up inception_4e/relu_3x3
I0320 21:56:28.661618 32613 net.cpp:129] Top shape: 1 320 40 23 (294400)
I0320 21:56:28.661620 32613 net.cpp:137] Memory required for data: 265304832
I0320 21:56:28.661623 32613 layer_factory.hpp:77] Creating layer inception_4e/5x5_reduce
I0320 21:56:28.661630 32613 net.cpp:84] Creating Layer inception_4e/5x5_reduce
I0320 21:56:28.661634 32613 net.cpp:406] inception_4e/5x5_reduce <- inception_4d/output_inception_4d/output_0_split_2
I0320 21:56:28.661639 32613 net.cpp:380] inception_4e/5x5_reduce -> inception_4e/5x5_reduce
I0320 21:56:28.668272 32613 net.cpp:122] Setting up inception_4e/5x5_reduce
I0320 21:56:28.668283 32613 net.cpp:129] Top shape: 1 32 40 23 (29440)
I0320 21:56:28.668301 32613 net.cpp:137] Memory required for data: 265422592
I0320 21:56:28.668306 32613 layer_factory.hpp:77] Creating layer inception_4e/relu_5x5_reduce
I0320 21:56:28.668313 32613 net.cpp:84] Creating Layer inception_4e/relu_5x5_reduce
I0320 21:56:28.668315 32613 net.cpp:406] inception_4e/relu_5x5_reduce <- inception_4e/5x5_reduce
I0320 21:56:28.668319 32613 net.cpp:367] inception_4e/relu_5x5_reduce -> inception_4e/5x5_reduce (in-place)
I0320 21:56:28.670387 32613 net.cpp:122] Setting up inception_4e/relu_5x5_reduce
I0320 21:56:28.670394 32613 net.cpp:129] Top shape: 1 32 40 23 (29440)
I0320 21:56:28.670413 32613 net.cpp:137] Memory required for data: 265540352
I0320 21:56:28.670415 32613 layer_factory.hpp:77] Creating layer inception_4e/5x5
I0320 21:56:28.670423 32613 net.cpp:84] Creating Layer inception_4e/5x5
I0320 21:56:28.670425 32613 net.cpp:406] inception_4e/5x5 <- inception_4e/5x5_reduce
I0320 21:56:28.670429 32613 net.cpp:380] inception_4e/5x5 -> inception_4e/5x5
I0320 21:56:28.677433 32613 net.cpp:122] Setting up inception_4e/5x5
I0320 21:56:28.677443 32613 net.cpp:129] Top shape: 1 128 40 23 (117760)
I0320 21:56:28.677446 32613 net.cpp:137] Memory required for data: 266011392
I0320 21:56:28.677451 32613 layer_factory.hpp:77] Creating layer inception_4e/relu_5x5
I0320 21:56:28.677456 32613 net.cpp:84] Creating Layer inception_4e/relu_5x5
I0320 21:56:28.677460 32613 net.cpp:406] inception_4e/relu_5x5 <- inception_4e/5x5
I0320 21:56:28.677464 32613 net.cpp:367] inception_4e/relu_5x5 -> inception_4e/5x5 (in-place)
I0320 21:56:28.679128 32613 net.cpp:122] Setting up inception_4e/relu_5x5
I0320 21:56:28.679136 32613 net.cpp:129] Top shape: 1 128 40 23 (117760)
I0320 21:56:28.679153 32613 net.cpp:137] Memory required for data: 266482432
I0320 21:56:28.679157 32613 layer_factory.hpp:77] Creating layer inception_4e/pool
I0320 21:56:28.679162 32613 net.cpp:84] Creating Layer inception_4e/pool
I0320 21:56:28.679165 32613 net.cpp:406] inception_4e/pool <- inception_4d/output_inception_4d/output_0_split_3
I0320 21:56:28.679169 32613 net.cpp:380] inception_4e/pool -> inception_4e/pool
I0320 21:56:28.679206 32613 net.cpp:122] Setting up inception_4e/pool
I0320 21:56:28.679211 32613 net.cpp:129] Top shape: 1 528 40 23 (485760)
I0320 21:56:28.679214 32613 net.cpp:137] Memory required for data: 268425472
I0320 21:56:28.679215 32613 layer_factory.hpp:77] Creating layer inception_4e/pool_proj
I0320 21:56:28.679224 32613 net.cpp:84] Creating Layer inception_4e/pool_proj
I0320 21:56:28.679226 32613 net.cpp:406] inception_4e/pool_proj <- inception_4e/pool
I0320 21:56:28.679230 32613 net.cpp:380] inception_4e/pool_proj -> inception_4e/pool_proj
I0320 21:56:28.684837 32613 net.cpp:122] Setting up inception_4e/pool_proj
I0320 21:56:28.684849 32613 net.cpp:129] Top shape: 1 128 40 23 (117760)
I0320 21:56:28.684869 32613 net.cpp:137] Memory required for data: 268896512
I0320 21:56:28.684873 32613 layer_factory.hpp:77] Creating layer inception_4e/relu_pool_proj
I0320 21:56:28.684878 32613 net.cpp:84] Creating Layer inception_4e/relu_pool_proj
I0320 21:56:28.684881 32613 net.cpp:406] inception_4e/relu_pool_proj <- inception_4e/pool_proj
I0320 21:56:28.684885 32613 net.cpp:367] inception_4e/relu_pool_proj -> inception_4e/pool_proj (in-place)
I0320 21:56:28.686962 32613 net.cpp:122] Setting up inception_4e/relu_pool_proj
I0320 21:56:28.686970 32613 net.cpp:129] Top shape: 1 128 40 23 (117760)
I0320 21:56:28.686972 32613 net.cpp:137] Memory required for data: 269367552
I0320 21:56:28.686991 32613 layer_factory.hpp:77] Creating layer inception_4e/output
I0320 21:56:28.686995 32613 net.cpp:84] Creating Layer inception_4e/output
I0320 21:56:28.686998 32613 net.cpp:406] inception_4e/output <- inception_4e/1x1
I0320 21:56:28.687001 32613 net.cpp:406] inception_4e/output <- inception_4e/3x3
I0320 21:56:28.687005 32613 net.cpp:406] inception_4e/output <- inception_4e/5x5
I0320 21:56:28.687007 32613 net.cpp:406] inception_4e/output <- inception_4e/pool_proj
I0320 21:56:28.687011 32613 net.cpp:380] inception_4e/output -> inception_4e/output
I0320 21:56:28.687034 32613 net.cpp:122] Setting up inception_4e/output
I0320 21:56:28.687041 32613 net.cpp:129] Top shape: 1 832 40 23 (765440)
I0320 21:56:28.687042 32613 net.cpp:137] Memory required for data: 272429312
I0320 21:56:28.687044 32613 layer_factory.hpp:77] Creating layer inception_4e/output_inception_4e/output_0_split
I0320 21:56:28.687049 32613 net.cpp:84] Creating Layer inception_4e/output_inception_4e/output_0_split
I0320 21:56:28.687052 32613 net.cpp:406] inception_4e/output_inception_4e/output_0_split <- inception_4e/output
I0320 21:56:28.687055 32613 net.cpp:380] inception_4e/output_inception_4e/output_0_split -> inception_4e/output_inception_4e/output_0_split_0
I0320 21:56:28.687059 32613 net.cpp:380] inception_4e/output_inception_4e/output_0_split -> inception_4e/output_inception_4e/output_0_split_1
I0320 21:56:28.687088 32613 net.cpp:122] Setting up inception_4e/output_inception_4e/output_0_split
I0320 21:56:28.687093 32613 net.cpp:129] Top shape: 1 832 40 23 (765440)
I0320 21:56:28.687095 32613 net.cpp:129] Top shape: 1 832 40 23 (765440)
I0320 21:56:28.687098 32613 net.cpp:137] Memory required for data: 278552832
I0320 21:56:28.687099 32613 layer_factory.hpp:77] Creating layer pool4/3x3_s2
I0320 21:56:28.687103 32613 net.cpp:84] Creating Layer pool4/3x3_s2
I0320 21:56:28.687106 32613 net.cpp:406] pool4/3x3_s2 <- inception_4e/output_inception_4e/output_0_split_0
I0320 21:56:28.687110 32613 net.cpp:380] pool4/3x3_s2 -> pool4/3x3_s2
I0320 21:56:28.687139 32613 net.cpp:122] Setting up pool4/3x3_s2
I0320 21:56:28.687142 32613 net.cpp:129] Top shape: 1 832 20 11 (183040)
I0320 21:56:28.687144 32613 net.cpp:137] Memory required for data: 279284992
I0320 21:56:28.687146 32613 layer_factory.hpp:77] Creating layer pool4/3x3_s2_pool4/3x3_s2_0_split
I0320 21:56:28.687151 32613 net.cpp:84] Creating Layer pool4/3x3_s2_pool4/3x3_s2_0_split
I0320 21:56:28.687155 32613 net.cpp:406] pool4/3x3_s2_pool4/3x3_s2_0_split <- pool4/3x3_s2
I0320 21:56:28.687157 32613 net.cpp:380] pool4/3x3_s2_pool4/3x3_s2_0_split -> pool4/3x3_s2_pool4/3x3_s2_0_split_0
I0320 21:56:28.687162 32613 net.cpp:380] pool4/3x3_s2_pool4/3x3_s2_0_split -> pool4/3x3_s2_pool4/3x3_s2_0_split_1
I0320 21:56:28.687166 32613 net.cpp:380] pool4/3x3_s2_pool4/3x3_s2_0_split -> pool4/3x3_s2_pool4/3x3_s2_0_split_2
I0320 21:56:28.687170 32613 net.cpp:380] pool4/3x3_s2_pool4/3x3_s2_0_split -> pool4/3x3_s2_pool4/3x3_s2_0_split_3
I0320 21:56:28.687212 32613 net.cpp:122] Setting up pool4/3x3_s2_pool4/3x3_s2_0_split
I0320 21:56:28.687216 32613 net.cpp:129] Top shape: 1 832 20 11 (183040)
I0320 21:56:28.687218 32613 net.cpp:129] Top shape: 1 832 20 11 (183040)
I0320 21:56:28.687222 32613 net.cpp:129] Top shape: 1 832 20 11 (183040)
I0320 21:56:28.687224 32613 net.cpp:129] Top shape: 1 832 20 11 (183040)
I0320 21:56:28.687227 32613 net.cpp:137] Memory required for data: 282213632
I0320 21:56:28.687228 32613 layer_factory.hpp:77] Creating layer inception_5a/1x1
I0320 21:56:28.687235 32613 net.cpp:84] Creating Layer inception_5a/1x1
I0320 21:56:28.687238 32613 net.cpp:406] inception_5a/1x1 <- pool4/3x3_s2_pool4/3x3_s2_0_split_0
I0320 21:56:28.687243 32613 net.cpp:380] inception_5a/1x1 -> inception_5a/1x1
I0320 21:56:28.692163 32613 net.cpp:122] Setting up inception_5a/1x1
I0320 21:56:28.692174 32613 net.cpp:129] Top shape: 1 256 20 11 (56320)
I0320 21:56:28.692193 32613 net.cpp:137] Memory required for data: 282438912
I0320 21:56:28.692198 32613 layer_factory.hpp:77] Creating layer inception_5a/relu_1x1
I0320 21:56:28.692204 32613 net.cpp:84] Creating Layer inception_5a/relu_1x1
I0320 21:56:28.692208 32613 net.cpp:406] inception_5a/relu_1x1 <- inception_5a/1x1
I0320 21:56:28.692211 32613 net.cpp:367] inception_5a/relu_1x1 -> inception_5a/1x1 (in-place)
I0320 21:56:28.693579 32613 net.cpp:122] Setting up inception_5a/relu_1x1
I0320 21:56:28.693589 32613 net.cpp:129] Top shape: 1 256 20 11 (56320)
I0320 21:56:28.693593 32613 net.cpp:137] Memory required for data: 282664192
I0320 21:56:28.693595 32613 layer_factory.hpp:77] Creating layer inception_5a/3x3_reduce
I0320 21:56:28.693603 32613 net.cpp:84] Creating Layer inception_5a/3x3_reduce
I0320 21:56:28.693606 32613 net.cpp:406] inception_5a/3x3_reduce <- pool4/3x3_s2_pool4/3x3_s2_0_split_1
I0320 21:56:28.693611 32613 net.cpp:380] inception_5a/3x3_reduce -> inception_5a/3x3_reduce
I0320 21:56:28.695899 32613 net.cpp:122] Setting up inception_5a/3x3_reduce
I0320 21:56:28.695909 32613 net.cpp:129] Top shape: 1 160 20 11 (35200)
I0320 21:56:28.695926 32613 net.cpp:137] Memory required for data: 282804992
I0320 21:56:28.695931 32613 layer_factory.hpp:77] Creating layer inception_5a/relu_3x3_reduce
I0320 21:56:28.695936 32613 net.cpp:84] Creating Layer inception_5a/relu_3x3_reduce
I0320 21:56:28.695940 32613 net.cpp:406] inception_5a/relu_3x3_reduce <- inception_5a/3x3_reduce
I0320 21:56:28.695945 32613 net.cpp:367] inception_5a/relu_3x3_reduce -> inception_5a/3x3_reduce (in-place)
I0320 21:56:28.696514 32613 net.cpp:122] Setting up inception_5a/relu_3x3_reduce
I0320 21:56:28.696527 32613 net.cpp:129] Top shape: 1 160 20 11 (35200)
I0320 21:56:28.696528 32613 net.cpp:137] Memory required for data: 282945792
I0320 21:56:28.696533 32613 layer_factory.hpp:77] Creating layer inception_5a/3x3
I0320 21:56:28.696542 32613 net.cpp:84] Creating Layer inception_5a/3x3
I0320 21:56:28.696544 32613 net.cpp:406] inception_5a/3x3 <- inception_5a/3x3_reduce
I0320 21:56:28.696549 32613 net.cpp:380] inception_5a/3x3 -> inception_5a/3x3
I0320 21:56:28.703192 32613 net.cpp:122] Setting up inception_5a/3x3
I0320 21:56:28.703203 32613 net.cpp:129] Top shape: 1 320 20 11 (70400)
I0320 21:56:28.703222 32613 net.cpp:137] Memory required for data: 283227392
I0320 21:56:28.703227 32613 layer_factory.hpp:77] Creating layer inception_5a/relu_3x3
I0320 21:56:28.703233 32613 net.cpp:84] Creating Layer inception_5a/relu_3x3
I0320 21:56:28.703235 32613 net.cpp:406] inception_5a/relu_3x3 <- inception_5a/3x3
I0320 21:56:28.703240 32613 net.cpp:367] inception_5a/relu_3x3 -> inception_5a/3x3 (in-place)
I0320 21:56:28.704891 32613 net.cpp:122] Setting up inception_5a/relu_3x3
I0320 21:56:28.704900 32613 net.cpp:129] Top shape: 1 320 20 11 (70400)
I0320 21:56:28.704901 32613 net.cpp:137] Memory required for data: 283508992
I0320 21:56:28.704919 32613 layer_factory.hpp:77] Creating layer inception_5a/5x5_reduce
I0320 21:56:28.704937 32613 net.cpp:84] Creating Layer inception_5a/5x5_reduce
I0320 21:56:28.704941 32613 net.cpp:406] inception_5a/5x5_reduce <- pool4/3x3_s2_pool4/3x3_s2_0_split_2
I0320 21:56:28.704946 32613 net.cpp:380] inception_5a/5x5_reduce -> inception_5a/5x5_reduce
I0320 21:56:28.711601 32613 net.cpp:122] Setting up inception_5a/5x5_reduce
I0320 21:56:28.711611 32613 net.cpp:129] Top shape: 1 32 20 11 (7040)
I0320 21:56:28.711629 32613 net.cpp:137] Memory required for data: 283537152
I0320 21:56:28.711634 32613 layer_factory.hpp:77] Creating layer inception_5a/relu_5x5_reduce
I0320 21:56:28.711639 32613 net.cpp:84] Creating Layer inception_5a/relu_5x5_reduce
I0320 21:56:28.711642 32613 net.cpp:406] inception_5a/relu_5x5_reduce <- inception_5a/5x5_reduce
I0320 21:56:28.711648 32613 net.cpp:367] inception_5a/relu_5x5_reduce -> inception_5a/5x5_reduce (in-place)
I0320 21:56:28.713687 32613 net.cpp:122] Setting up inception_5a/relu_5x5_reduce
I0320 21:56:28.713696 32613 net.cpp:129] Top shape: 1 32 20 11 (7040)
I0320 21:56:28.713698 32613 net.cpp:137] Memory required for data: 283565312
I0320 21:56:28.713716 32613 layer_factory.hpp:77] Creating layer inception_5a/5x5
I0320 21:56:28.713726 32613 net.cpp:84] Creating Layer inception_5a/5x5
I0320 21:56:28.713729 32613 net.cpp:406] inception_5a/5x5 <- inception_5a/5x5_reduce
I0320 21:56:28.713734 32613 net.cpp:380] inception_5a/5x5 -> inception_5a/5x5
I0320 21:56:28.720443 32613 net.cpp:122] Setting up inception_5a/5x5
I0320 21:56:28.720455 32613 net.cpp:129] Top shape: 1 128 20 11 (28160)
I0320 21:56:28.720474 32613 net.cpp:137] Memory required for data: 283677952
I0320 21:56:28.720479 32613 layer_factory.hpp:77] Creating layer inception_5a/relu_5x5
I0320 21:56:28.720484 32613 net.cpp:84] Creating Layer inception_5a/relu_5x5
I0320 21:56:28.720487 32613 net.cpp:406] inception_5a/relu_5x5 <- inception_5a/5x5
I0320 21:56:28.720491 32613 net.cpp:367] inception_5a/relu_5x5 -> inception_5a/5x5 (in-place)
I0320 21:56:28.722623 32613 net.cpp:122] Setting up inception_5a/relu_5x5
I0320 21:56:28.722632 32613 net.cpp:129] Top shape: 1 128 20 11 (28160)
I0320 21:56:28.722650 32613 net.cpp:137] Memory required for data: 283790592
I0320 21:56:28.722652 32613 layer_factory.hpp:77] Creating layer inception_5a/pool
I0320 21:56:28.722657 32613 net.cpp:84] Creating Layer inception_5a/pool
I0320 21:56:28.722661 32613 net.cpp:406] inception_5a/pool <- pool4/3x3_s2_pool4/3x3_s2_0_split_3
I0320 21:56:28.722664 32613 net.cpp:380] inception_5a/pool -> inception_5a/pool
I0320 21:56:28.722703 32613 net.cpp:122] Setting up inception_5a/pool
I0320 21:56:28.722708 32613 net.cpp:129] Top shape: 1 832 20 11 (183040)
I0320 21:56:28.722710 32613 net.cpp:137] Memory required for data: 284522752
I0320 21:56:28.722712 32613 layer_factory.hpp:77] Creating layer inception_5a/pool_proj
I0320 21:56:28.722719 32613 net.cpp:84] Creating Layer inception_5a/pool_proj
I0320 21:56:28.722723 32613 net.cpp:406] inception_5a/pool_proj <- inception_5a/pool
I0320 21:56:28.722726 32613 net.cpp:380] inception_5a/pool_proj -> inception_5a/pool_proj
I0320 21:56:28.729367 32613 net.cpp:122] Setting up inception_5a/pool_proj
I0320 21:56:28.729382 32613 net.cpp:129] Top shape: 1 128 20 11 (28160)
I0320 21:56:28.729384 32613 net.cpp:137] Memory required for data: 284635392
I0320 21:56:28.729390 32613 layer_factory.hpp:77] Creating layer inception_5a/relu_pool_proj
I0320 21:56:28.729395 32613 net.cpp:84] Creating Layer inception_5a/relu_pool_proj
I0320 21:56:28.729398 32613 net.cpp:406] inception_5a/relu_pool_proj <- inception_5a/pool_proj
I0320 21:56:28.729403 32613 net.cpp:367] inception_5a/relu_pool_proj -> inception_5a/pool_proj (in-place)
I0320 21:56:28.731513 32613 net.cpp:122] Setting up inception_5a/relu_pool_proj
I0320 21:56:28.731520 32613 net.cpp:129] Top shape: 1 128 20 11 (28160)
I0320 21:56:28.731539 32613 net.cpp:137] Memory required for data: 284748032
I0320 21:56:28.731540 32613 layer_factory.hpp:77] Creating layer inception_5a/output
I0320 21:56:28.731546 32613 net.cpp:84] Creating Layer inception_5a/output
I0320 21:56:28.731549 32613 net.cpp:406] inception_5a/output <- inception_5a/1x1
I0320 21:56:28.731554 32613 net.cpp:406] inception_5a/output <- inception_5a/3x3
I0320 21:56:28.731556 32613 net.cpp:406] inception_5a/output <- inception_5a/5x5
I0320 21:56:28.731559 32613 net.cpp:406] inception_5a/output <- inception_5a/pool_proj
I0320 21:56:28.731562 32613 net.cpp:380] inception_5a/output -> inception_5a/output
I0320 21:56:28.731590 32613 net.cpp:122] Setting up inception_5a/output
I0320 21:56:28.731595 32613 net.cpp:129] Top shape: 1 832 20 11 (183040)
I0320 21:56:28.731596 32613 net.cpp:137] Memory required for data: 285480192
I0320 21:56:28.731598 32613 layer_factory.hpp:77] Creating layer inception_5a/output_inception_5a/output_0_split
I0320 21:56:28.731603 32613 net.cpp:84] Creating Layer inception_5a/output_inception_5a/output_0_split
I0320 21:56:28.731606 32613 net.cpp:406] inception_5a/output_inception_5a/output_0_split <- inception_5a/output
I0320 21:56:28.731609 32613 net.cpp:380] inception_5a/output_inception_5a/output_0_split -> inception_5a/output_inception_5a/output_0_split_0
I0320 21:56:28.731614 32613 net.cpp:380] inception_5a/output_inception_5a/output_0_split -> inception_5a/output_inception_5a/output_0_split_1
I0320 21:56:28.731618 32613 net.cpp:380] inception_5a/output_inception_5a/output_0_split -> inception_5a/output_inception_5a/output_0_split_2
I0320 21:56:28.731622 32613 net.cpp:380] inception_5a/output_inception_5a/output_0_split -> inception_5a/output_inception_5a/output_0_split_3
I0320 21:56:28.731672 32613 net.cpp:122] Setting up inception_5a/output_inception_5a/output_0_split
I0320 21:56:28.731675 32613 net.cpp:129] Top shape: 1 832 20 11 (183040)
I0320 21:56:28.731678 32613 net.cpp:129] Top shape: 1 832 20 11 (183040)
I0320 21:56:28.731681 32613 net.cpp:129] Top shape: 1 832 20 11 (183040)
I0320 21:56:28.731683 32613 net.cpp:129] Top shape: 1 832 20 11 (183040)
I0320 21:56:28.731685 32613 net.cpp:137] Memory required for data: 288408832
I0320 21:56:28.731688 32613 layer_factory.hpp:77] Creating layer inception_5b/1x1
I0320 21:56:28.731696 32613 net.cpp:84] Creating Layer inception_5b/1x1
I0320 21:56:28.731699 32613 net.cpp:406] inception_5b/1x1 <- inception_5a/output_inception_5a/output_0_split_0
I0320 21:56:28.731703 32613 net.cpp:380] inception_5b/1x1 -> inception_5b/1x1
I0320 21:56:28.738332 32613 net.cpp:122] Setting up inception_5b/1x1
I0320 21:56:28.738343 32613 net.cpp:129] Top shape: 1 384 20 11 (84480)
I0320 21:56:28.738363 32613 net.cpp:137] Memory required for data: 288746752
I0320 21:56:28.738368 32613 layer_factory.hpp:77] Creating layer inception_5b/relu_1x1
I0320 21:56:28.738373 32613 net.cpp:84] Creating Layer inception_5b/relu_1x1
I0320 21:56:28.738375 32613 net.cpp:406] inception_5b/relu_1x1 <- inception_5b/1x1
I0320 21:56:28.738379 32613 net.cpp:367] inception_5b/relu_1x1 -> inception_5b/1x1 (in-place)
I0320 21:56:28.740499 32613 net.cpp:122] Setting up inception_5b/relu_1x1
I0320 21:56:28.740509 32613 net.cpp:129] Top shape: 1 384 20 11 (84480)
I0320 21:56:28.740512 32613 net.cpp:137] Memory required for data: 289084672
I0320 21:56:28.740515 32613 layer_factory.hpp:77] Creating layer inception_5b/3x3_reduce
I0320 21:56:28.740523 32613 net.cpp:84] Creating Layer inception_5b/3x3_reduce
I0320 21:56:28.740526 32613 net.cpp:406] inception_5b/3x3_reduce <- inception_5a/output_inception_5a/output_0_split_1
I0320 21:56:28.740531 32613 net.cpp:380] inception_5b/3x3_reduce -> inception_5b/3x3_reduce
I0320 21:56:28.745455 32613 net.cpp:122] Setting up inception_5b/3x3_reduce
I0320 21:56:28.745465 32613 net.cpp:129] Top shape: 1 192 20 11 (42240)
I0320 21:56:28.745467 32613 net.cpp:137] Memory required for data: 289253632
I0320 21:56:28.745472 32613 layer_factory.hpp:77] Creating layer inception_5b/relu_3x3_reduce
I0320 21:56:28.745478 32613 net.cpp:84] Creating Layer inception_5b/relu_3x3_reduce
I0320 21:56:28.745481 32613 net.cpp:406] inception_5b/relu_3x3_reduce <- inception_5b/3x3_reduce
I0320 21:56:28.745486 32613 net.cpp:367] inception_5b/relu_3x3_reduce -> inception_5b/3x3_reduce (in-place)
I0320 21:56:28.746070 32613 net.cpp:122] Setting up inception_5b/relu_3x3_reduce
I0320 21:56:28.746081 32613 net.cpp:129] Top shape: 1 192 20 11 (42240)
I0320 21:56:28.746084 32613 net.cpp:137] Memory required for data: 289422592
I0320 21:56:28.746088 32613 layer_factory.hpp:77] Creating layer inception_5b/3x3
I0320 21:56:28.746095 32613 net.cpp:84] Creating Layer inception_5b/3x3
I0320 21:56:28.746099 32613 net.cpp:406] inception_5b/3x3 <- inception_5b/3x3_reduce
I0320 21:56:28.746104 32613 net.cpp:380] inception_5b/3x3 -> inception_5b/3x3
I0320 21:56:28.752709 32613 net.cpp:122] Setting up inception_5b/3x3
I0320 21:56:28.752722 32613 net.cpp:129] Top shape: 1 384 20 11 (84480)
I0320 21:56:28.752740 32613 net.cpp:137] Memory required for data: 289760512
I0320 21:56:28.752746 32613 layer_factory.hpp:77] Creating layer inception_5b/relu_3x3
I0320 21:56:28.752751 32613 net.cpp:84] Creating Layer inception_5b/relu_3x3
I0320 21:56:28.752754 32613 net.cpp:406] inception_5b/relu_3x3 <- inception_5b/3x3
I0320 21:56:28.752758 32613 net.cpp:367] inception_5b/relu_3x3 -> inception_5b/3x3 (in-place)
I0320 21:56:28.754410 32613 net.cpp:122] Setting up inception_5b/relu_3x3
I0320 21:56:28.754417 32613 net.cpp:129] Top shape: 1 384 20 11 (84480)
I0320 21:56:28.754436 32613 net.cpp:137] Memory required for data: 290098432
I0320 21:56:28.754438 32613 layer_factory.hpp:77] Creating layer inception_5b/5x5_reduce
I0320 21:56:28.754446 32613 net.cpp:84] Creating Layer inception_5b/5x5_reduce
I0320 21:56:28.754449 32613 net.cpp:406] inception_5b/5x5_reduce <- inception_5a/output_inception_5a/output_0_split_2
I0320 21:56:28.754454 32613 net.cpp:380] inception_5b/5x5_reduce -> inception_5b/5x5_reduce
I0320 21:56:28.761036 32613 net.cpp:122] Setting up inception_5b/5x5_reduce
I0320 21:56:28.761063 32613 net.cpp:129] Top shape: 1 48 20 11 (10560)
I0320 21:56:28.761065 32613 net.cpp:137] Memory required for data: 290140672
I0320 21:56:28.761085 32613 layer_factory.hpp:77] Creating layer inception_5b/relu_5x5_reduce
I0320 21:56:28.761090 32613 net.cpp:84] Creating Layer inception_5b/relu_5x5_reduce
I0320 21:56:28.761093 32613 net.cpp:406] inception_5b/relu_5x5_reduce <- inception_5b/5x5_reduce
I0320 21:56:28.761099 32613 net.cpp:367] inception_5b/relu_5x5_reduce -> inception_5b/5x5_reduce (in-place)
I0320 21:56:28.763113 32613 net.cpp:122] Setting up inception_5b/relu_5x5_reduce
I0320 21:56:28.763121 32613 net.cpp:129] Top shape: 1 48 20 11 (10560)
I0320 21:56:28.763139 32613 net.cpp:137] Memory required for data: 290182912
I0320 21:56:28.763142 32613 layer_factory.hpp:77] Creating layer inception_5b/5x5
I0320 21:56:28.763152 32613 net.cpp:84] Creating Layer inception_5b/5x5
I0320 21:56:28.763155 32613 net.cpp:406] inception_5b/5x5 <- inception_5b/5x5_reduce
I0320 21:56:28.763160 32613 net.cpp:380] inception_5b/5x5 -> inception_5b/5x5
I0320 21:56:28.769733 32613 net.cpp:122] Setting up inception_5b/5x5
I0320 21:56:28.769744 32613 net.cpp:129] Top shape: 1 128 20 11 (28160)
I0320 21:56:28.769762 32613 net.cpp:137] Memory required for data: 290295552
I0320 21:56:28.769767 32613 layer_factory.hpp:77] Creating layer inception_5b/relu_5x5
I0320 21:56:28.769773 32613 net.cpp:84] Creating Layer inception_5b/relu_5x5
I0320 21:56:28.769775 32613 net.cpp:406] inception_5b/relu_5x5 <- inception_5b/5x5
I0320 21:56:28.769781 32613 net.cpp:367] inception_5b/relu_5x5 -> inception_5b/5x5 (in-place)
I0320 21:56:28.771817 32613 net.cpp:122] Setting up inception_5b/relu_5x5
I0320 21:56:28.771826 32613 net.cpp:129] Top shape: 1 128 20 11 (28160)
I0320 21:56:28.771827 32613 net.cpp:137] Memory required for data: 290408192
I0320 21:56:28.771845 32613 layer_factory.hpp:77] Creating layer inception_5b/pool
I0320 21:56:28.771850 32613 net.cpp:84] Creating Layer inception_5b/pool
I0320 21:56:28.771853 32613 net.cpp:406] inception_5b/pool <- inception_5a/output_inception_5a/output_0_split_3
I0320 21:56:28.771858 32613 net.cpp:380] inception_5b/pool -> inception_5b/pool
I0320 21:56:28.771898 32613 net.cpp:122] Setting up inception_5b/pool
I0320 21:56:28.771901 32613 net.cpp:129] Top shape: 1 832 20 11 (183040)
I0320 21:56:28.771903 32613 net.cpp:137] Memory required for data: 291140352
I0320 21:56:28.771905 32613 layer_factory.hpp:77] Creating layer inception_5b/pool_proj
I0320 21:56:28.771913 32613 net.cpp:84] Creating Layer inception_5b/pool_proj
I0320 21:56:28.771915 32613 net.cpp:406] inception_5b/pool_proj <- inception_5b/pool
I0320 21:56:28.771919 32613 net.cpp:380] inception_5b/pool_proj -> inception_5b/pool_proj
I0320 21:56:28.777413 32613 net.cpp:122] Setting up inception_5b/pool_proj
I0320 21:56:28.777426 32613 net.cpp:129] Top shape: 1 128 20 11 (28160)
I0320 21:56:28.777428 32613 net.cpp:137] Memory required for data: 291252992
I0320 21:56:28.777433 32613 layer_factory.hpp:77] Creating layer inception_5b/relu_pool_proj
I0320 21:56:28.777439 32613 net.cpp:84] Creating Layer inception_5b/relu_pool_proj
I0320 21:56:28.777442 32613 net.cpp:406] inception_5b/relu_pool_proj <- inception_5b/pool_proj
I0320 21:56:28.777446 32613 net.cpp:367] inception_5b/relu_pool_proj -> inception_5b/pool_proj (in-place)
I0320 21:56:28.779520 32613 net.cpp:122] Setting up inception_5b/relu_pool_proj
I0320 21:56:28.779527 32613 net.cpp:129] Top shape: 1 128 20 11 (28160)
I0320 21:56:28.779530 32613 net.cpp:137] Memory required for data: 291365632
I0320 21:56:28.779547 32613 layer_factory.hpp:77] Creating layer inception_5b/output
I0320 21:56:28.779553 32613 net.cpp:84] Creating Layer inception_5b/output
I0320 21:56:28.779556 32613 net.cpp:406] inception_5b/output <- inception_5b/1x1
I0320 21:56:28.779559 32613 net.cpp:406] inception_5b/output <- inception_5b/3x3
I0320 21:56:28.779563 32613 net.cpp:406] inception_5b/output <- inception_5b/5x5
I0320 21:56:28.779566 32613 net.cpp:406] inception_5b/output <- inception_5b/pool_proj
I0320 21:56:28.779569 32613 net.cpp:380] inception_5b/output -> inception_5b/output
I0320 21:56:28.779594 32613 net.cpp:122] Setting up inception_5b/output
I0320 21:56:28.779599 32613 net.cpp:129] Top shape: 1 1024 20 11 (225280)
I0320 21:56:28.779600 32613 net.cpp:137] Memory required for data: 292266752
I0320 21:56:28.779603 32613 layer_factory.hpp:77] Creating layer pool5/drop_7x7_s1
I0320 21:56:28.779608 32613 net.cpp:84] Creating Layer pool5/drop_7x7_s1
I0320 21:56:28.779610 32613 net.cpp:406] pool5/drop_7x7_s1 <- inception_5b/output
I0320 21:56:28.779614 32613 net.cpp:367] pool5/drop_7x7_s1 -> inception_5b/output (in-place)
I0320 21:56:28.779635 32613 net.cpp:122] Setting up pool5/drop_7x7_s1
I0320 21:56:28.779639 32613 net.cpp:129] Top shape: 1 1024 20 11 (225280)
I0320 21:56:28.779641 32613 net.cpp:137] Memory required for data: 293167872
I0320 21:56:28.779644 32613 layer_factory.hpp:77] Creating layer score2
I0320 21:56:28.779649 32613 net.cpp:84] Creating Layer score2
I0320 21:56:28.779651 32613 net.cpp:406] score2 <- inception_5b/output
I0320 21:56:28.779656 32613 net.cpp:380] score2 -> score2
I0320 21:56:28.780513 32613 net.cpp:122] Setting up score2
I0320 21:56:28.780524 32613 net.cpp:129] Top shape: 1 2 22 13 (572)
I0320 21:56:28.780526 32613 net.cpp:137] Memory required for data: 293170160
I0320 21:56:28.780531 32613 layer_factory.hpp:77] Creating layer upscore2
I0320 21:56:28.780539 32613 net.cpp:84] Creating Layer upscore2
I0320 21:56:28.780541 32613 net.cpp:406] upscore2 <- score2
I0320 21:56:28.780544 32613 net.cpp:380] upscore2 -> upscore2
I0320 21:56:28.780707 32613 net.cpp:122] Setting up upscore2
I0320 21:56:28.780714 32613 net.cpp:129] Top shape: 1 2 46 28 (2576)
I0320 21:56:28.780717 32613 net.cpp:137] Memory required for data: 293180464
I0320 21:56:28.780720 32613 layer_factory.hpp:77] Creating layer score-inception_4e/output
I0320 21:56:28.780726 32613 net.cpp:84] Creating Layer score-inception_4e/output
I0320 21:56:28.780730 32613 net.cpp:406] score-inception_4e/output <- inception_4e/output_inception_4e/output_0_split_1
I0320 21:56:28.780733 32613 net.cpp:380] score-inception_4e/output -> score-inception_4e/output
I0320 21:56:28.780977 32613 net.cpp:122] Setting up score-inception_4e/output
I0320 21:56:28.780984 32613 net.cpp:129] Top shape: 1 2 42 25 (2100)
I0320 21:56:28.780987 32613 net.cpp:137] Memory required for data: 293188864
I0320 21:56:28.780990 32613 layer_factory.hpp:77] Creating layer score-inception_4e/output_score-inception_4e/output_0_split
I0320 21:56:28.780997 32613 net.cpp:84] Creating Layer score-inception_4e/output_score-inception_4e/output_0_split
I0320 21:56:28.780998 32613 net.cpp:406] score-inception_4e/output_score-inception_4e/output_0_split <- score-inception_4e/output
I0320 21:56:28.781002 32613 net.cpp:380] score-inception_4e/output_score-inception_4e/output_0_split -> score-inception_4e/output_score-inception_4e/output_0_split_0
I0320 21:56:28.781016 32613 net.cpp:380] score-inception_4e/output_score-inception_4e/output_0_split -> score-inception_4e/output_score-inception_4e/output_0_split_1
I0320 21:56:28.781050 32613 net.cpp:122] Setting up score-inception_4e/output_score-inception_4e/output_0_split
I0320 21:56:28.781056 32613 net.cpp:129] Top shape: 1 2 42 25 (2100)
I0320 21:56:28.781059 32613 net.cpp:129] Top shape: 1 2 42 25 (2100)
I0320 21:56:28.781061 32613 net.cpp:137] Memory required for data: 293205664
I0320 21:56:28.781064 32613 layer_factory.hpp:77] Creating layer upscore2c
I0320 21:56:28.781069 32613 net.cpp:84] Creating Layer upscore2c
I0320 21:56:28.781070 32613 net.cpp:406] upscore2c <- upscore2
I0320 21:56:28.781074 32613 net.cpp:406] upscore2c <- score-inception_4e/output_score-inception_4e/output_0_split_0
I0320 21:56:28.781078 32613 net.cpp:380] upscore2c -> upscore2c
I0320 21:56:28.781097 32613 net.cpp:122] Setting up upscore2c
I0320 21:56:28.781101 32613 net.cpp:129] Top shape: 1 2 42 25 (2100)
I0320 21:56:28.781103 32613 net.cpp:137] Memory required for data: 293214064
I0320 21:56:28.781105 32613 layer_factory.hpp:77] Creating layer score-fused
I0320 21:56:28.781111 32613 net.cpp:84] Creating Layer score-fused
I0320 21:56:28.781113 32613 net.cpp:406] score-fused <- upscore2c
I0320 21:56:28.781116 32613 net.cpp:406] score-fused <- score-inception_4e/output_score-inception_4e/output_0_split_1
I0320 21:56:28.781119 32613 net.cpp:380] score-fused -> score-fused
I0320 21:56:28.781138 32613 net.cpp:122] Setting up score-fused
I0320 21:56:28.781142 32613 net.cpp:129] Top shape: 1 2 42 25 (2100)
I0320 21:56:28.781144 32613 net.cpp:137] Memory required for data: 293222464
I0320 21:56:28.781147 32613 layer_factory.hpp:77] Creating layer upsample-fused-16
I0320 21:56:28.781152 32613 net.cpp:84] Creating Layer upsample-fused-16
I0320 21:56:28.781154 32613 net.cpp:406] upsample-fused-16 <- score-fused
I0320 21:56:28.781157 32613 net.cpp:380] upsample-fused-16 -> score4
I0320 21:56:28.781307 32613 net.cpp:122] Setting up upsample-fused-16
I0320 21:56:28.781318 32613 net.cpp:129] Top shape: 1 2 86 52 (8944)
I0320 21:56:28.781321 32613 net.cpp:137] Memory required for data: 293258240
I0320 21:56:28.781324 32613 layer_factory.hpp:77] Creating layer score-inception_3b/output
I0320 21:56:28.781329 32613 net.cpp:84] Creating Layer score-inception_3b/output
I0320 21:56:28.781332 32613 net.cpp:406] score-inception_3b/output <- inception_3b/output_inception_3b/output_0_split_1
I0320 21:56:28.781337 32613 net.cpp:380] score-inception_3b/output -> score-inception_3b/output
I0320 21:56:28.781572 32613 net.cpp:122] Setting up score-inception_3b/output
I0320 21:56:28.781579 32613 net.cpp:129] Top shape: 1 2 83 49 (8134)
I0320 21:56:28.781581 32613 net.cpp:137] Memory required for data: 293290776
I0320 21:56:28.781585 32613 layer_factory.hpp:77] Creating layer score-inception_3b/output_score-inception_3b/output_0_split
I0320 21:56:28.781590 32613 net.cpp:84] Creating Layer score-inception_3b/output_score-inception_3b/output_0_split
I0320 21:56:28.781594 32613 net.cpp:406] score-inception_3b/output_score-inception_3b/output_0_split <- score-inception_3b/output
I0320 21:56:28.781597 32613 net.cpp:380] score-inception_3b/output_score-inception_3b/output_0_split -> score-inception_3b/output_score-inception_3b/output_0_split_0
I0320 21:56:28.781601 32613 net.cpp:380] score-inception_3b/output_score-inception_3b/output_0_split -> score-inception_3b/output_score-inception_3b/output_0_split_1
I0320 21:56:28.781633 32613 net.cpp:122] Setting up score-inception_3b/output_score-inception_3b/output_0_split
I0320 21:56:28.781637 32613 net.cpp:129] Top shape: 1 2 83 49 (8134)
I0320 21:56:28.781641 32613 net.cpp:129] Top shape: 1 2 83 49 (8134)
I0320 21:56:28.781642 32613 net.cpp:137] Memory required for data: 293355848
I0320 21:56:28.781644 32613 layer_factory.hpp:77] Creating layer score4c
I0320 21:56:28.781649 32613 net.cpp:84] Creating Layer score4c
I0320 21:56:28.781651 32613 net.cpp:406] score4c <- score4
I0320 21:56:28.781654 32613 net.cpp:406] score4c <- score-inception_3b/output_score-inception_3b/output_0_split_0
I0320 21:56:28.781658 32613 net.cpp:380] score4c -> score4c
I0320 21:56:28.781677 32613 net.cpp:122] Setting up score4c
I0320 21:56:28.781682 32613 net.cpp:129] Top shape: 1 2 83 49 (8134)
I0320 21:56:28.781683 32613 net.cpp:137] Memory required for data: 293388384
I0320 21:56:28.781685 32613 layer_factory.hpp:77] Creating layer fuse
I0320 21:56:28.781689 32613 net.cpp:84] Creating Layer fuse
I0320 21:56:28.781692 32613 net.cpp:406] fuse <- score4c
I0320 21:56:28.781694 32613 net.cpp:406] fuse <- score-inception_3b/output_score-inception_3b/output_0_split_1
I0320 21:56:28.781697 32613 net.cpp:380] fuse -> score-final
I0320 21:56:28.781715 32613 net.cpp:122] Setting up fuse
I0320 21:56:28.781719 32613 net.cpp:129] Top shape: 1 2 83 49 (8134)
I0320 21:56:28.781721 32613 net.cpp:137] Memory required for data: 293420920
I0320 21:56:28.781724 32613 layer_factory.hpp:77] Creating layer upsample
I0320 21:56:28.781728 32613 net.cpp:84] Creating Layer upsample
I0320 21:56:28.781731 32613 net.cpp:406] upsample <- score-final
I0320 21:56:28.781734 32613 net.cpp:380] upsample -> bigscore
I0320 21:56:28.781890 32613 net.cpp:122] Setting up upsample
I0320 21:56:28.781895 32613 net.cpp:129] Top shape: 1 2 672 400 (537600)
I0320 21:56:28.781898 32613 net.cpp:137] Memory required for data: 295571320
I0320 21:56:28.781900 32613 layer_factory.hpp:77] Creating layer score
I0320 21:56:28.781905 32613 net.cpp:84] Creating Layer score
I0320 21:56:28.781908 32613 net.cpp:406] score <- bigscore
I0320 21:56:28.781911 32613 net.cpp:406] score <- data_data_0_split_1
I0320 21:56:28.781915 32613 net.cpp:380] score -> score
I0320 21:56:28.781934 32613 net.cpp:122] Setting up score
I0320 21:56:28.781937 32613 net.cpp:129] Top shape: 1 2 640 368 (471040)
I0320 21:56:28.781939 32613 net.cpp:137] Memory required for data: 297455480
I0320 21:56:28.781941 32613 layer_factory.hpp:77] Creating layer loss
I0320 21:56:28.781949 32613 net.cpp:84] Creating Layer loss
I0320 21:56:28.781951 32613 net.cpp:406] loss <- score
I0320 21:56:28.781955 32613 net.cpp:406] loss <- sem
I0320 21:56:28.781957 32613 net.cpp:380] loss -> loss
I0320 21:56:28.781966 32613 layer_factory.hpp:77] Creating layer loss
…
W0320 21:56:29.200338 32613 _caffe.cpp:135] DEPRECATION WARNING - deprecated use of Python interface
W0320 21:56:29.200346 32613 _caffe.cpp:136] Use this instead (with the named "weights" parameter):
W0320 21:56:29.200348 32613 _caffe.cpp:138] Net('../ilsvrc-nets/deploy.prototxt', 1, weights='../ilsvrc-nets/bvlc_googlenet.caffemodel')
I0320 21:56:29.202855 32613 net.cpp:51] Initializing net from parameters: 
name: "GoogleNet"
state {
  phase: TEST
  level: 0
}
layer {
  name: "data"
  type: "Input"
  top: "data"
  input_param {
    shape {
      dim: 10
      dim: 3
      dim: 224
      dim: 224
    }
  }
}
layer {
  name: "conv1/7x7_s2"
  type: "Convolution"
  bottom: "data"
  top: "conv1/7x7_s2"
  param {
    lr_mult: 1
    decay_mult: 1
  }
  param {
    lr_mult: 2
    decay_mult: 0
  }
  convolution_param {
    num_output: 64
    pad: 3
    kernel_size: 7
    stride: 2
    weight_filler {
      type: "xavier"
      std: 0.1
    }
    bias_filler {
      type: "constant"
      value: 0.2
    }
  }
}
layer {
  name: "conv1/relu_7x7"
  type: "ReLU"
  bottom: "conv1/7x7_s2"
  top: "conv1/7x7_s2"
}
layer {
  name: "pool1/3x3_s2"
  type: "Pooling"
  bottom: "conv1/7x7_s2"
  top: "pool1/3x3_s2"
  pooling_param {
    pool: MAX
    kernel_size: 3
    stride: 2
  }
}
layer {
  name: "pool1/norm1"
  type: "LRN"
  bottom: "pool1/3x3_s2"
  top: "pool1/norm1"
  lrn_param {
    local_size: 5
    alpha: 0.0001
    beta: 0.75
  }
}
layer {
  name: "conv2/3x3_reduce"
  type: "Convolution"
  bottom: "pool1/norm1"
  top: "conv2/3x3_reduce"
  param {
    lr_mult: 1
    decay_mult: 1
  }
  param {
    lr_mult: 2
    decay_mult: 0
  }
  convolution_param {
    num_output: 64
    kernel_size: 1
    weight_filler {
      type: "xavier"
      std: 0.1
    }
    bias_filler {
      type: "constant"
      value: 0.2
    }
  }
}
layer {
  name: "conv2/relu_3x3_reduce"
  type: "ReLU"
  bottom: "conv2/3x3_reduce"
  top: "conv2/3x3_reduce"
}
layer {
  name: "conv2/3x3"
  type: "Convolution"
  bottom: "conv2/3x3_reduce"
  top: "conv2/3x3"
  param {
    lr_mult: 1
    decay_mult: 1
  }
  param {
    lr_mult: 2
    decay_mult: 0
  }
  convolution_param {
    num_output: 192
    pad: 1
    kernel_size: 3
    weight_filler {
      type: "xavier"
      std: 0.03
    }
    bias_filler {
      type: "constant"
      value: 0.2
    }
  }
}
layer {
  name: "conv2/relu_3x3"
  type: "ReLU"
  bottom: "conv2/3x3"
  top: "conv2/3x3"
}
layer {
  name: "conv2/norm2"
  type: "LRN"
  bottom: "conv2/3x3"
  top: "conv2/norm2"
  lrn_param {
    local_size: 5
    alpha: 0.0001
    beta: 0.75
  }
}
layer {
  name: "pool2/3x3_s2"
  type: "Pooling"
  bottom: "conv2/norm2"
  top: "pool2/3x3_s2"
  pooling_param {
    pool: MAX
    kernel_size: 3
    stride: 2
  }
}
layer {
  name: "inception_3a/1x1"
  type: "Convolution"
  bottom: "pool2/3x3_s2"
  top: "inception_3a/1x1"
  param {
    lr_mult: 1
    decay_mult: 1
  }
  param {
    lr_mult: 2
    decay_mult: 0
  }
  convolution_param {
    num_output: 64
    kernel_size: 1
    weight_filler {
      type: "xavier"
      std: 0.03
    }
    bias_filler {
      type: "constant"
      value: 0.2
    }
  }
}
layer {
  name: "inception_3a/relu_1x1"
  type: "ReLU"
  bottom: "inception_3a/1x1"
  top: "inception_3a/1x1"
}
layer {
  name: "inception_3a/3x3_reduce"
  type: "Convolution"
  bottom: "pool2/3x3_s2"
  top: "inception_3a/3x3_reduce"
  param {
    lr_mult: 1
    decay_mult: 1
  }
  param {
    lr_mult: 2
    decay_mult: 0
  }
  convolution_param {
    num_output: 96
    kernel_size: 1
    weight_filler {
      type: "xavier"
      std: 0.09
    }
    bias_filler {
      type: "constant"
      value: 0.2
    }
  }
}
layer {
  name: "inception_3a/relu_3x3_reduce"
  type: "ReLU"
  bottom: "inception_3a/3x3_reduce"
  top: "inception_3a/3x3_reduce"
}
layer {
  name: "inception_3a/3x3"
  type: "Convolution"
  bottom: "inception_3a/3x3_reduce"
  top: "inception_3a/3x3"
  param {
    lr_mult: 1
    decay_mult: 1
  }
  param {
    lr_mult: 2
    decay_mult: 0
  }
  convolution_param {
    num_output: 128
    pad: 1
    kernel_size: 3
    weight_filler {
      type: "xavier"
      std: 0.03
    }
    bias_filler {
      type: "constant"
      value: 0.2
    }
  }
}
layer {
  name: "inception_3a/relu_3x3"
  type: "ReLU"
  bottom: "inception_3a/3x3"
  top: "inception_3a/3x3"
}
layer {
  name: "inception_3a/5x5_reduce"
  type: "Convolution"
  bottom: "pool2/3x3_s2"
  top: "inception_3a/5x5_reduce"
  param {
    lr_mult: 1
    decay_mult: 1
  }
  param {
    lr_mult: 2
    decay_mult: 0
  }
  convolution_param {
    num_output: 16
    kernel_size: 1
    weight_filler {
      type: "xavier"
      std: 0.2
    }
    bias_filler {
      type: "constant"
      value: 0.2
    }
  }
}
layer {
  name: "inception_3a/relu_5x5_reduce"
  type: "ReLU"
  bottom: "inception_3a/5x5_reduce"
  top: "inception_3a/5x5_reduce"
}
layer {
  name: "inception_3a/5x5"
  type: "Convolution"
  bottom: "inception_3a/5x5_reduce"
  top: "inception_3a/5x5"
  param {
    lr_mult: 1
    decay_mult: 1
  }
  param {
    lr_mult: 2
    decay_mult: 0
  }
  convolution_param {
    num_output: 32
    pad: 2
    kernel_size: 5
    weight_filler {
      type: "xavier"
      std: 0.03
    }
    bias_filler {
      type: "constant"
      value: 0.2
    }
  }
}
layer {
  name: "inception_3a/relu_5x5"
  type: "ReLU"
  bottom: "inception_3a/5x5"
  top: "inception_3a/5x5"
}
layer {
  name: "inception_3a/pool"
  type: "Pooling"
  bottom: "pool2/3x3_s2"
  top: "inception_3a/pool"
  pooling_param {
    pool: MAX
    kernel_size: 3
    stride: 1
    pad: 1
  }
}
layer {
  name: "inception_3a/pool_proj"
  type: "Convolution"
  bottom: "inception_3a/pool"
  top: "inception_3a/pool_proj"
  param {
    lr_mult: 1
    decay_mult: 1
  }
  param {
    lr_mult: 2
    decay_mult: 0
  }
  convolution_param {
    num_output: 32
    kernel_size: 1
    weight_filler {
      type: "xavier"
      std: 0.1
    }
    bias_filler {
      type: "constant"
      value: 0.2
    }
  }
}
layer {
  name: "inception_3a/relu_pool_proj"
  type: "ReLU"
  bottom: "inception_3a/pool_proj"
  top: "inception_3a/pool_proj"
}
layer {
  name: "inception_3a/output"
  type: "Concat"
  bottom: "inception_3a/1x1"
  bottom: "inception_3a/3x3"
  bottom: "inception_3a/5x5"
  bottom: "inception_3a/pool_proj"
  top: "inception_3a/output"
}
layer {
  name: "inception_3b/1x1"
  type: "Convolution"
  bottom: "inception_3a/output"
  top: "inception_3b/1x1"
  param {
    lr_mult: 1
    decay_mult: 1
  }
  param {
    lr_mult: 2
    decay_mult: 0
  }
  convolution_param {
    num_output: 128
    kernel_size: 1
    weight_filler {
      type: "xavier"
      std: 0.03
    }
    bias_filler {
      type: "constant"
      value: 0.2
    }
  }
}
layer {
  name: "inception_3b/relu_1x1"
  type: "ReLU"
  bottom: "inception_3b/1x1"
  top: "inception_3b/1x1"
}
layer {
  name: "inception_3b/3x3_reduce"
  type: "Convolution"
  bottom: "inception_3a/output"
  top: "inception_3b/3x3_reduce"
  param {
    lr_mult: 1
    decay_mult: 1
  }
  param {
    lr_mult: 2
    decay_mult: 0
  }
  convolution_param {
    num_output: 128
    kernel_size: 1
    weight_filler {
      type: "xavier"
      std: 0.09
    }
    bias_filler {
      type: "constant"
      value: 0.2
    }
  }
}
layer {
  name: "inception_3b/relu_3x3_reduce"
  type: "ReLU"
  bottom: "inception_3b/3x3_reduce"
  top: "inception_3b/3x3_reduce"
}
layer {
  name: "inception_3b/3x3"
  type: "Convolution"
  bottom: "inception_3b/3x3_reduce"
  top: "inception_3b/3x3"
  param {
    lr_mult: 1
    decay_mult: 1
  }
  param {
    lr_mult: 2
    decay_mult: 0
  }
  convolution_param {
    num_output: 192
    pad: 1
    kernel_size: 3
    weight_filler {
      type: "xavier"
      std: 0.03
    }
    bias_filler {
      type: "constant"
      value: 0.2
    }
  }
}
layer {
  name: "inception_3b/relu_3x3"
  type: "ReLU"
  bottom: "inception_3b/3x3"
  top: "inception_3b/3x3"
}
layer {
  name: "inception_3b/5x5_reduce"
  type: "Convolution"
  bottom: "inception_3a/output"
  top: "inception_3b/5x5_reduce"
  param {
    lr_mult: 1
    decay_mult: 1
  }
  param {
    lr_mult: 2
    decay_mult: 0
  }
  convolution_param {
    num_output: 32
    kernel_size: 1
    weight_filler {
      type: "xavier"
      std: 0.2
    }
    bias_filler {
      type: "constant"
      value: 0.2
    }
  }
}
layer {
  name: "inception_3b/relu_5x5_reduce"
  type: "ReLU"
  bottom: "inception_3b/5x5_reduce"
  top: "inception_3b/5x5_reduce"
}
layer {
  name: "inception_3b/5x5"
  type: "Convolution"
  bottom: "inception_3b/5x5_reduce"
  top: "inception_3b/5x5"
  param {
    lr_mult: 1
    decay_mult: 1
  }
  param {
    lr_mult: 2
    decay_mult: 0
  }
  convolution_param {
    num_output: 96
    pad: 2
    kernel_size: 5
    weight_filler {
      type: "xavier"
      std: 0.03
    }
    bias_filler {
      type: "constant"
      value: 0.2
    }
  }
}
layer {
  name: "inception_3b/relu_5x5"
  type: "ReLU"
  bottom: "inception_3b/5x5"
  top: "inception_3b/5x5"
}
layer {
  name: "inception_3b/pool"
  type: "Pooling"
  bottom: "inception_3a/output"
  top: "inception_3b/pool"
  pooling_param {
    pool: MAX
    kernel_size: 3
    stride: 1
    pad: 1
  }
}
layer {
  name: "inception_3b/pool_proj"
  type: "Convolution"
  bottom: "inception_3b/pool"
  top: "inception_3b/pool_proj"
  param {
    lr_mult: 1
    decay_mult: 1
  }
  param {
    lr_mult: 2
    decay_mult: 0
  }
  convolution_param {
    num_output: 64
    kernel_size: 1
    weight_filler {
      type: "xavier"
      std: 0.1
    }
    bias_filler {
      type: "constant"
      value: 0.2
    }
  }
}
layer {
  name: "inception_3b/relu_pool_proj"
  type: "ReLU"
  bottom: "inception_3b/pool_proj"
  top: "inception_3b/pool_proj"
}
layer {
  name: "inception_3b/output"
  type: "Concat"
  bottom: "inception_3b/1x1"
  bottom: "inception_3b/3x3"
  bottom: "inception_3b/5x5"
  bottom: "inception_3b/pool_proj"
  top: "inception_3b/output"
}
layer {
  name: "pool3/3x3_s2"
  type: "Pooling"
  bottom: "inception_3b/output"
  top: "pool3/3x3_s2"
  pooling_param {
    pool: MAX
    kernel_size: 3
    stride: 2
  }
}
layer {
  name: "inception_4a/1x1"
  type: "Convolution"
  bottom: "pool3/3x3_s2"
  top: "inception_4a/1x1"
  param {
    lr_mult: 1
    decay_mult: 1
  }
  param {
    lr_mult: 2
    decay_mult: 0
  }
  convolution_param {
    num_output: 192
    kernel_size: 1
    weight_filler {
      type: "xavier"
      std: 0.03
    }
    bias_filler {
      type: "constant"
      value: 0.2
    }
  }
}
layer {
  name: "inception_4a/relu_1x1"
  type: "ReLU"
  bottom: "inception_4a/1x1"
  top: "inception_4a/1x1"
}
layer {
  name: "inception_4a/3x3_reduce"
  type: "Convolution"
  bottom: "pool3/3x3_s2"
  top: "inception_4a/3x3_reduce"
  param {
    lr_mult: 1
    decay_mult: 1
  }
  param {
    lr_mult: 2
    decay_mult: 0
  }
  convolution_param {
    num_output: 96
    kernel_size: 1
    weight_filler {
      type: "xavier"
      std: 0.09
    }
    bias_filler {
      type: "constant"
      value: 0.2
    }
  }
}
layer {
  name: "inception_4a/relu_3x3_reduce"
  type: "ReLU"
  bottom: "inception_4a/3x3_reduce"
  top: "inception_4a/3x3_reduce"
}
layer {
  name: "inception_4a/3x3"
  type: "Convolution"
  bottom: "inception_4a/3x3_reduce"
  top: "inception_4a/3x3"
  param {
    lr_mult: 1
    decay_mult: 1
  }
  param {
    lr_mult: 2
    decay_mult: 0
  }
  convolution_param {
    num_output: 208
    pad: 1
    kernel_size: 3
    weight_filler {
      type: "xavier"
      std: 0.03
    }
    bias_filler {
      type: "constant"
      value: 0.2
    }
  }
}
layer {
  name: "inception_4a/relu_3x3"
  type: "ReLU"
  bottom: "inception_4a/3x3"
  top: "inception_4a/3x3"
}
layer {
  name: "inception_4a/5x5_reduce"
  type: "Convolution"
  bottom: "pool3/3x3_s2"
  top: "inception_4a/5x5_reduce"
  param {
    lr_mult: 1
    decay_mult: 1
  }
  param {
    lr_mult: 2
    decay_mult: 0
  }
  convolution_param {
    num_output: 16
    kernel_size: 1
    weight_filler {
      type: "xavier"
      std: 0.2
    }
    bias_filler {
      type: "constant"
      value: 0.2
    }
  }
}
layer {
  name: "inception_4a/relu_5x5_reduce"
  type: "ReLU"
  bottom: "inception_4a/5x5_reduce"
  top: "inception_4a/5x5_reduce"
}
layer {
  name: "inception_4a/5x5"
  type: "Convolution"
  bottom: "inception_4a/5x5_reduce"
  top: "inception_4a/5x5"
  param {
    lr_mult: 1
    decay_mult: 1
  }
  param {
    lr_mult: 2
    decay_mult: 0
  }
  convolution_param {
    num_output: 48
    pad: 2
    kernel_size: 5
    weight_filler {
      type: "xavier"
      std: 0.03
    }
    bias_filler {
      type: "constant"
      value: 0.2
    }
  }
}
layer {
  name: "inception_4a/relu_5x5"
  type: "ReLU"
  bottom: "inception_4a/5x5"
  top: "inception_4a/5x5"
}
layer {
  name: "inception_4a/pool"
  type: "Pooling"
  bottom: "pool3/3x3_s2"
  top: "inception_4a/pool"
  pooling_param {
    pool: MAX
    kernel_size: 3
    stride: 1
    pad: 1
  }
}
layer {
  name: "inception_4a/pool_proj"
  type: "Convolution"
  bottom: "inception_4a/pool"
  top: "inception_4a/pool_proj"
  param {
    lr_mult: 1
    decay_mult: 1
  }
  param {
    lr_mult: 2
    decay_mult: 0
  }
  convolution_param {
    num_output: 64
    kernel_size: 1
    weight_filler {
      type: "xavier"
      std: 0.1
    }
    bias_filler {
      type: "constant"
      value: 0.2
    }
  }
}
layer {
  name: "inception_4a/relu_pool_proj"
  type: "ReLU"
  bottom: "inception_4a/pool_proj"
  top: "inception_4a/pool_proj"
}
layer {
  name: "inception_4a/output"
  type: "Concat"
  bottom: "inception_4a/1x1"
  bottom: "inception_4a/3x3"
  bottom: "inception_4a/5x5"
  bottom: "inception_4a/pool_proj"
  top: "inception_4a/output"
}
layer {
  name: "inception_4b/1x1"
  type: "Convolution"
  bottom: "inception_4a/output"
  top: "inception_4b/1x1"
  param {
    lr_mult: 1
    decay_mult: 1
  }
  param {
    lr_mult: 2
    decay_mult: 0
  }
  convolution_param {
    num_output: 160
    kernel_size: 1
    weight_filler {
      type: "xavier"
      std: 0.03
    }
    bias_filler {
      type: "constant"
      value: 0.2
    }
  }
}
layer {
  name: "inception_4b/relu_1x1"
  type: "ReLU"
  bottom: "inception_4b/1x1"
  top: "inception_4b/1x1"
}
layer {
  name: "inception_4b/3x3_reduce"
  type: "Convolution"
  bottom: "inception_4a/output"
  top: "inception_4b/3x3_reduce"
  param {
    lr_mult: 1
    decay_mult: 1
  }
  param {
    lr_mult: 2
    decay_mult: 0
  }
  convolution_param {
    num_output: 112
    kernel_size: 1
    weight_filler {
      type: "xavier"
      std: 0.09
    }
    bias_filler {
      type: "constant"
      value: 0.2
    }
  }
}
layer {
  name: "inception_4b/relu_3x3_reduce"
  type: "ReLU"
  bottom: "inception_4b/3x3_reduce"
  top: "inception_4b/3x3_reduce"
}
layer {
  name: "inception_4b/3x3"
  type: "Convolution"
  bottom: "inception_4b/3x3_reduce"
  top: "inception_4b/3x3"
  param {
    lr_mult: 1
    decay_mult: 1
  }
  param {
    lr_mult: 2
    decay_mult: 0
  }
  convolution_param {
    num_output: 224
    pad: 1
    kernel_size: 3
    weight_filler {
      type: "xavier"
      std: 0.03
    }
    bias_filler {
      type: "constant"
      value: 0.2
    }
  }
}
layer {
  name: "inception_4b/relu_3x3"
…
I0320 21:56:29.415529 32613 net.cpp:122] Setting up inception_4b/output_inception_4b/output_0_split
I0320 21:56:29.415534 32613 net.cpp:129] Top shape: 10 512 14 14 (1003520)
I0320 21:56:29.415536 32613 net.cpp:129] Top shape: 10 512 14 14 (1003520)
I0320 21:56:29.415539 32613 net.cpp:129] Top shape: 10 512 14 14 (1003520)
I0320 21:56:29.415541 32613 net.cpp:129] Top shape: 10 512 14 14 (1003520)
I0320 21:56:29.415544 32613 net.cpp:137] Memory required for data: 423861760
I0320 21:56:29.415545 32613 layer_factory.hpp:77] Creating layer inception_4c/1x1
I0320 21:56:29.415554 32613 net.cpp:84] Creating Layer inception_4c/1x1
I0320 21:56:29.415555 32613 net.cpp:406] inception_4c/1x1 <- inception_4b/output_inception_4b/output_0_split_0
I0320 21:56:29.415561 32613 net.cpp:380] inception_4c/1x1 -> inception_4c/1x1
I0320 21:56:29.422003 32613 net.cpp:122] Setting up inception_4c/1x1
I0320 21:56:29.422014 32613 net.cpp:129] Top shape: 10 128 14 14 (250880)
I0320 21:56:29.422032 32613 net.cpp:137] Memory required for data: 424865280
I0320 21:56:29.422037 32613 layer_factory.hpp:77] Creating layer inception_4c/relu_1x1
I0320 21:56:29.422044 32613 net.cpp:84] Creating Layer inception_4c/relu_1x1
I0320 21:56:29.422046 32613 net.cpp:406] inception_4c/relu_1x1 <- inception_4c/1x1
I0320 21:56:29.422051 32613 net.cpp:367] inception_4c/relu_1x1 -> inception_4c/1x1 (in-place)
I0320 21:56:29.424113 32613 net.cpp:122] Setting up inception_4c/relu_1x1
I0320 21:56:29.424120 32613 net.cpp:129] Top shape: 10 128 14 14 (250880)
I0320 21:56:29.424139 32613 net.cpp:137] Memory required for data: 425868800
I0320 21:56:29.424140 32613 layer_factory.hpp:77] Creating layer inception_4c/3x3_reduce
I0320 21:56:29.424149 32613 net.cpp:84] Creating Layer inception_4c/3x3_reduce
I0320 21:56:29.424151 32613 net.cpp:406] inception_4c/3x3_reduce <- inception_4b/output_inception_4b/output_0_split_1
I0320 21:56:29.424156 32613 net.cpp:380] inception_4c/3x3_reduce -> inception_4c/3x3_reduce
I0320 21:56:29.430197 32613 net.cpp:122] Setting up inception_4c/3x3_reduce
I0320 21:56:29.430209 32613 net.cpp:129] Top shape: 10 128 14 14 (250880)
I0320 21:56:29.430228 32613 net.cpp:137] Memory required for data: 426872320
I0320 21:56:29.430233 32613 layer_factory.hpp:77] Creating layer inception_4c/relu_3x3_reduce
I0320 21:56:29.430238 32613 net.cpp:84] Creating Layer inception_4c/relu_3x3_reduce
I0320 21:56:29.430243 32613 net.cpp:406] inception_4c/relu_3x3_reduce <- inception_4c/3x3_reduce
I0320 21:56:29.430246 32613 net.cpp:367] inception_4c/relu_3x3_reduce -> inception_4c/3x3_reduce (in-place)
I0320 21:56:29.432272 32613 net.cpp:122] Setting up inception_4c/relu_3x3_reduce
I0320 21:56:29.432281 32613 net.cpp:129] Top shape: 10 128 14 14 (250880)
I0320 21:56:29.432282 32613 net.cpp:137] Memory required for data: 427875840
I0320 21:56:29.432301 32613 layer_factory.hpp:77] Creating layer inception_4c/3x3
I0320 21:56:29.432308 32613 net.cpp:84] Creating Layer inception_4c/3x3
I0320 21:56:29.432312 32613 net.cpp:406] inception_4c/3x3 <- inception_4c/3x3_reduce
I0320 21:56:29.432315 32613 net.cpp:380] inception_4c/3x3 -> inception_4c/3x3
I0320 21:56:29.437572 32613 net.cpp:122] Setting up inception_4c/3x3
I0320 21:56:29.437584 32613 net.cpp:129] Top shape: 10 256 14 14 (501760)
I0320 21:56:29.437587 32613 net.cpp:137] Memory required for data: 429882880
I0320 21:56:29.437592 32613 layer_factory.hpp:77] Creating layer inception_4c/relu_3x3
I0320 21:56:29.437597 32613 net.cpp:84] Creating Layer inception_4c/relu_3x3
I0320 21:56:29.437599 32613 net.cpp:406] inception_4c/relu_3x3 <- inception_4c/3x3
I0320 21:56:29.437604 32613 net.cpp:367] inception_4c/relu_3x3 -> inception_4c/3x3 (in-place)
I0320 21:56:29.438910 32613 net.cpp:122] Setting up inception_4c/relu_3x3
I0320 21:56:29.438918 32613 net.cpp:129] Top shape: 10 256 14 14 (501760)
I0320 21:56:29.438936 32613 net.cpp:137] Memory required for data: 431889920
I0320 21:56:29.438940 32613 layer_factory.hpp:77] Creating layer inception_4c/5x5_reduce
I0320 21:56:29.438947 32613 net.cpp:84] Creating Layer inception_4c/5x5_reduce
I0320 21:56:29.438951 32613 net.cpp:406] inception_4c/5x5_reduce <- inception_4b/output_inception_4b/output_0_split_2
I0320 21:56:29.438956 32613 net.cpp:380] inception_4c/5x5_reduce -> inception_4c/5x5_reduce
I0320 21:56:29.441336 32613 net.cpp:122] Setting up inception_4c/5x5_reduce
I0320 21:56:29.441349 32613 net.cpp:129] Top shape: 10 24 14 14 (47040)
I0320 21:56:29.441351 32613 net.cpp:137] Memory required for data: 432078080
I0320 21:56:29.441356 32613 layer_factory.hpp:77] Creating layer inception_4c/relu_5x5_reduce
I0320 21:56:29.441360 32613 net.cpp:84] Creating Layer inception_4c/relu_5x5_reduce
I0320 21:56:29.441364 32613 net.cpp:406] inception_4c/relu_5x5_reduce <- inception_4c/5x5_reduce
I0320 21:56:29.441368 32613 net.cpp:367] inception_4c/relu_5x5_reduce -> inception_4c/5x5_reduce (in-place)
I0320 21:56:29.443451 32613 net.cpp:122] Setting up inception_4c/relu_5x5_reduce
I0320 21:56:29.443462 32613 net.cpp:129] Top shape: 10 24 14 14 (47040)
I0320 21:56:29.443480 32613 net.cpp:137] Memory required for data: 432266240
I0320 21:56:29.443482 32613 layer_factory.hpp:77] Creating layer inception_4c/5x5
I0320 21:56:29.443490 32613 net.cpp:84] Creating Layer inception_4c/5x5
I0320 21:56:29.443493 32613 net.cpp:406] inception_4c/5x5 <- inception_4c/5x5_reduce
I0320 21:56:29.443500 32613 net.cpp:380] inception_4c/5x5 -> inception_4c/5x5
I0320 21:56:29.450306 32613 net.cpp:122] Setting up inception_4c/5x5
I0320 21:56:29.450317 32613 net.cpp:129] Top shape: 10 64 14 14 (125440)
I0320 21:56:29.450336 32613 net.cpp:137] Memory required for data: 432768000
I0320 21:56:29.450341 32613 layer_factory.hpp:77] Creating layer inception_4c/relu_5x5
I0320 21:56:29.450346 32613 net.cpp:84] Creating Layer inception_4c/relu_5x5
I0320 21:56:29.450350 32613 net.cpp:406] inception_4c/relu_5x5 <- inception_4c/5x5
I0320 21:56:29.450354 32613 net.cpp:367] inception_4c/relu_5x5 -> inception_4c/5x5 (in-place)
I0320 21:56:29.452450 32613 net.cpp:122] Setting up inception_4c/relu_5x5
I0320 21:56:29.452457 32613 net.cpp:129] Top shape: 10 64 14 14 (125440)
I0320 21:56:29.452460 32613 net.cpp:137] Memory required for data: 433269760
I0320 21:56:29.452477 32613 layer_factory.hpp:77] Creating layer inception_4c/pool
I0320 21:56:29.452484 32613 net.cpp:84] Creating Layer inception_4c/pool
I0320 21:56:29.452486 32613 net.cpp:406] inception_4c/pool <- inception_4b/output_inception_4b/output_0_split_3
I0320 21:56:29.452491 32613 net.cpp:380] inception_4c/pool -> inception_4c/pool
I0320 21:56:29.452543 32613 net.cpp:122] Setting up inception_4c/pool
I0320 21:56:29.452548 32613 net.cpp:129] Top shape: 10 512 14 14 (1003520)
I0320 21:56:29.452550 32613 net.cpp:137] Memory required for data: 437283840
I0320 21:56:29.452553 32613 layer_factory.hpp:77] Creating layer inception_4c/pool_proj
I0320 21:56:29.452559 32613 net.cpp:84] Creating Layer inception_4c/pool_proj
I0320 21:56:29.452561 32613 net.cpp:406] inception_4c/pool_proj <- inception_4c/pool
I0320 21:56:29.452566 32613 net.cpp:380] inception_4c/pool_proj -> inception_4c/pool_proj
I0320 21:56:29.459174 32613 net.cpp:122] Setting up inception_4c/pool_proj
I0320 21:56:29.459187 32613 net.cpp:129] Top shape: 10 64 14 14 (125440)
I0320 21:56:29.459205 32613 net.cpp:137] Memory required for data: 437785600
I0320 21:56:29.459218 32613 layer_factory.hpp:77] Creating layer inception_4c/relu_pool_proj
I0320 21:56:29.459224 32613 net.cpp:84] Creating Layer inception_4c/relu_pool_proj
I0320 21:56:29.459228 32613 net.cpp:406] inception_4c/relu_pool_proj <- inception_4c/pool_proj
I0320 21:56:29.459233 32613 net.cpp:367] inception_4c/relu_pool_proj -> inception_4c/pool_proj (in-place)
I0320 21:56:29.461220 32613 net.cpp:122] Setting up inception_4c/relu_pool_proj
I0320 21:56:29.461227 32613 net.cpp:129] Top shape: 10 64 14 14 (125440)
I0320 21:56:29.461230 32613 net.cpp:137] Memory required for data: 438287360
I0320 21:56:29.461247 32613 layer_factory.hpp:77] Creating layer inception_4c/output
I0320 21:56:29.461252 32613 net.cpp:84] Creating Layer inception_4c/output
I0320 21:56:29.461256 32613 net.cpp:406] inception_4c/output <- inception_4c/1x1
I0320 21:56:29.461258 32613 net.cpp:406] inception_4c/output <- inception_4c/3x3
I0320 21:56:29.461261 32613 net.cpp:406] inception_4c/output <- inception_4c/5x5
I0320 21:56:29.461264 32613 net.cpp:406] inception_4c/output <- inception_4c/pool_proj
I0320 21:56:29.461267 32613 net.cpp:380] inception_4c/output -> inception_4c/output
I0320 21:56:29.461302 32613 net.cpp:122] Setting up inception_4c/output
I0320 21:56:29.461307 32613 net.cpp:129] Top shape: 10 512 14 14 (1003520)
I0320 21:56:29.461308 32613 net.cpp:137] Memory required for data: 442301440
I0320 21:56:29.461310 32613 layer_factory.hpp:77] Creating layer inception_4c/output_inception_4c/output_0_split
I0320 21:56:29.461318 32613 net.cpp:84] Creating Layer inception_4c/output_inception_4c/output_0_split
I0320 21:56:29.461323 32613 net.cpp:406] inception_4c/output_inception_4c/output_0_split <- inception_4c/output
I0320 21:56:29.461330 32613 net.cpp:380] inception_4c/output_inception_4c/output_0_split -> inception_4c/output_inception_4c/output_0_split_0
I0320 21:56:29.461338 32613 net.cpp:380] inception_4c/output_inception_4c/output_0_split -> inception_4c/output_inception_4c/output_0_split_1
I0320 21:56:29.461344 32613 net.cpp:380] inception_4c/output_inception_4c/output_0_split -> inception_4c/output_inception_4c/output_0_split_2
I0320 21:56:29.461349 32613 net.cpp:380] inception_4c/output_inception_4c/output_0_split -> inception_4c/output_inception_4c/output_0_split_3
I0320 21:56:29.461423 32613 net.cpp:122] Setting up inception_4c/output_inception_4c/output_0_split
I0320 21:56:29.461431 32613 net.cpp:129] Top shape: 10 512 14 14 (1003520)
I0320 21:56:29.461433 32613 net.cpp:129] Top shape: 10 512 14 14 (1003520)
I0320 21:56:29.461436 32613 net.cpp:129] Top shape: 10 512 14 14 (1003520)
I0320 21:56:29.461439 32613 net.cpp:129] Top shape: 10 512 14 14 (1003520)
I0320 21:56:29.461441 32613 net.cpp:137] Memory required for data: 458357760
I0320 21:56:29.461443 32613 layer_factory.hpp:77] Creating layer inception_4d/1x1
I0320 21:56:29.461452 32613 net.cpp:84] Creating Layer inception_4d/1x1
I0320 21:56:29.461454 32613 net.cpp:406] inception_4d/1x1 <- inception_4c/output_inception_4c/output_0_split_0
I0320 21:56:29.461458 32613 net.cpp:380] inception_4d/1x1 -> inception_4d/1x1
I0320 21:56:29.467950 32613 net.cpp:122] Setting up inception_4d/1x1
I0320 21:56:29.467962 32613 net.cpp:129] Top shape: 10 112 14 14 (219520)
I0320 21:56:29.467980 32613 net.cpp:137] Memory required for data: 459235840
I0320 21:56:29.467985 32613 layer_factory.hpp:77] Creating layer inception_4d/relu_1x1
I0320 21:56:29.467990 32613 net.cpp:84] Creating Layer inception_4d/relu_1x1
I0320 21:56:29.467993 32613 net.cpp:406] inception_4d/relu_1x1 <- inception_4d/1x1
I0320 21:56:29.467998 32613 net.cpp:367] inception_4d/relu_1x1 -> inception_4d/1x1 (in-place)
I0320 21:56:29.470067 32613 net.cpp:122] Setting up inception_4d/relu_1x1
I0320 21:56:29.470075 32613 net.cpp:129] Top shape: 10 112 14 14 (219520)
I0320 21:56:29.470093 32613 net.cpp:137] Memory required for data: 460113920
I0320 21:56:29.470095 32613 layer_factory.hpp:77] Creating layer inception_4d/3x3_reduce
I0320 21:56:29.470103 32613 net.cpp:84] Creating Layer inception_4d/3x3_reduce
I0320 21:56:29.470106 32613 net.cpp:406] inception_4d/3x3_reduce <- inception_4c/output_inception_4c/output_0_split_1
I0320 21:56:29.470113 32613 net.cpp:380] inception_4d/3x3_reduce -> inception_4d/3x3_reduce
I0320 21:56:29.476760 32613 net.cpp:122] Setting up inception_4d/3x3_reduce
I0320 21:56:29.476773 32613 net.cpp:129] Top shape: 10 144 14 14 (282240)
I0320 21:56:29.476793 32613 net.cpp:137] Memory required for data: 461242880
I0320 21:56:29.476797 32613 layer_factory.hpp:77] Creating layer inception_4d/relu_3x3_reduce
I0320 21:56:29.476804 32613 net.cpp:84] Creating Layer inception_4d/relu_3x3_reduce
I0320 21:56:29.476809 32613 net.cpp:406] inception_4d/relu_3x3_reduce <- inception_4d/3x3_reduce
I0320 21:56:29.476812 32613 net.cpp:367] inception_4d/relu_3x3_reduce -> inception_4d/3x3_reduce (in-place)
I0320 21:56:29.478883 32613 net.cpp:122] Setting up inception_4d/relu_3x3_reduce
I0320 21:56:29.478893 32613 net.cpp:129] Top shape: 10 144 14 14 (282240)
I0320 21:56:29.478910 32613 net.cpp:137] Memory required for data: 462371840
I0320 21:56:29.478914 32613 layer_factory.hpp:77] Creating layer inception_4d/3x3
I0320 21:56:29.478921 32613 net.cpp:84] Creating Layer inception_4d/3x3
I0320 21:56:29.478925 32613 net.cpp:406] inception_4d/3x3 <- inception_4d/3x3_reduce
I0320 21:56:29.478930 32613 net.cpp:380] inception_4d/3x3 -> inception_4d/3x3
I0320 21:56:29.486109 32613 net.cpp:122] Setting up inception_4d/3x3
I0320 21:56:29.486120 32613 net.cpp:129] Top shape: 10 288 14 14 (564480)
I0320 21:56:29.486138 32613 net.cpp:137] Memory required for data: 464629760
I0320 21:56:29.486143 32613 layer_factory.hpp:77] Creating layer inception_4d/relu_3x3
I0320 21:56:29.486148 32613 net.cpp:84] Creating Layer inception_4d/relu_3x3
I0320 21:56:29.486151 32613 net.cpp:406] inception_4d/relu_3x3 <- inception_4d/3x3
I0320 21:56:29.486156 32613 net.cpp:367] inception_4d/relu_3x3 -> inception_4d/3x3 (in-place)
I0320 21:56:29.487754 32613 net.cpp:122] Setting up inception_4d/relu_3x3
I0320 21:56:29.487761 32613 net.cpp:129] Top shape: 10 288 14 14 (564480)
I0320 21:56:29.487764 32613 net.cpp:137] Memory required for data: 466887680
I0320 21:56:29.487782 32613 layer_factory.hpp:77] Creating layer inception_4d/5x5_reduce
I0320 21:56:29.487790 32613 net.cpp:84] Creating Layer inception_4d/5x5_reduce
I0320 21:56:29.487793 32613 net.cpp:406] inception_4d/5x5_reduce <- inception_4c/output_inception_4c/output_0_split_2
I0320 21:56:29.487798 32613 net.cpp:380] inception_4d/5x5_reduce -> inception_4d/5x5_reduce
I0320 21:56:29.490303 32613 net.cpp:122] Setting up inception_4d/5x5_reduce
I0320 21:56:29.490314 32613 net.cpp:129] Top shape: 10 32 14 14 (62720)
I0320 21:56:29.490332 32613 net.cpp:137] Memory required for data: 467138560
I0320 21:56:29.490337 32613 layer_factory.hpp:77] Creating layer inception_4d/relu_5x5_reduce
I0320 21:56:29.490344 32613 net.cpp:84] Creating Layer inception_4d/relu_5x5_reduce
I0320 21:56:29.490346 32613 net.cpp:406] inception_4d/relu_5x5_reduce <- inception_4d/5x5_reduce
I0320 21:56:29.490350 32613 net.cpp:367] inception_4d/relu_5x5_reduce -> inception_4d/5x5_reduce (in-place)
I0320 21:56:29.492355 32613 net.cpp:122] Setting up inception_4d/relu_5x5_reduce
I0320 21:56:29.492367 32613 net.cpp:129] Top shape: 10 32 14 14 (62720)
I0320 21:56:29.492368 32613 net.cpp:137] Memory required for data: 467389440
I0320 21:56:29.492372 32613 layer_factory.hpp:77] Creating layer inception_4d/5x5
I0320 21:56:29.492379 32613 net.cpp:84] Creating Layer inception_4d/5x5
I0320 21:56:29.492383 32613 net.cpp:406] inception_4d/5x5 <- inception_4d/5x5_reduce
I0320 21:56:29.492388 32613 net.cpp:380] inception_4d/5x5 -> inception_4d/5x5
I0320 21:56:29.499557 32613 net.cpp:122] Setting up inception_4d/5x5
I0320 21:56:29.499572 32613 net.cpp:129] Top shape: 10 64 14 14 (125440)
I0320 21:56:29.499589 32613 net.cpp:137] Memory required for data: 467891200
I0320 21:56:29.499594 32613 layer_factory.hpp:77] Creating layer inception_4d/relu_5x5
I0320 21:56:29.499599 32613 net.cpp:84] Creating Layer inception_4d/relu_5x5
I0320 21:56:29.499603 32613 net.cpp:406] inception_4d/relu_5x5 <- inception_4d/5x5
I0320 21:56:29.499606 32613 net.cpp:367] inception_4d/relu_5x5 -> inception_4d/5x5 (in-place)
I0320 21:56:29.501662 32613 net.cpp:122] Setting up inception_4d/relu_5x5
I0320 21:56:29.501669 32613 net.cpp:129] Top shape: 10 64 14 14 (125440)
I0320 21:56:29.501672 32613 net.cpp:137] Memory required for data: 468392960
I0320 21:56:29.501690 32613 layer_factory.hpp:77] Creating layer inception_4d/pool
I0320 21:56:29.501695 32613 net.cpp:84] Creating Layer inception_4d/pool
I0320 21:56:29.501698 32613 net.cpp:406] inception_4d/pool <- inception_4c/output_inception_4c/output_0_split_3
I0320 21:56:29.501704 32613 net.cpp:380] inception_4d/pool -> inception_4d/pool
I0320 21:56:29.501758 32613 net.cpp:122] Setting up inception_4d/pool
I0320 21:56:29.501763 32613 net.cpp:129] Top shape: 10 512 14 14 (1003520)
I0320 21:56:29.501765 32613 net.cpp:137] Memory required for data: 472407040
I0320 21:56:29.501768 32613 layer_factory.hpp:77] Creating layer inception_4d/pool_proj
I0320 21:56:29.501776 32613 net.cpp:84] Creating Layer inception_4d/pool_proj
I0320 21:56:29.501780 32613 net.cpp:406] inception_4d/pool_proj <- inception_4d/pool
I0320 21:56:29.501783 32613 net.cpp:380] inception_4d/pool_proj -> inception_4d/pool_proj
I0320 21:56:29.508371 32613 net.cpp:122] Setting up inception_4d/pool_proj
I0320 21:56:29.508383 32613 net.cpp:129] Top shape: 10 64 14 14 (125440)
I0320 21:56:29.508402 32613 net.cpp:137] Memory required for data: 472908800
I0320 21:56:29.508406 32613 layer_factory.hpp:77] Creating layer inception_4d/relu_pool_proj
I0320 21:56:29.508412 32613 net.cpp:84] Creating Layer inception_4d/relu_pool_proj
I0320 21:56:29.508416 32613 net.cpp:406] inception_4d/relu_pool_proj <- inception_4d/pool_proj
I0320 21:56:29.508420 32613 net.cpp:367] inception_4d/relu_pool_proj -> inception_4d/pool_proj (in-place)
I0320 21:56:29.510426 32613 net.cpp:122] Setting up inception_4d/relu_pool_proj
I0320 21:56:29.510433 32613 net.cpp:129] Top shape: 10 64 14 14 (125440)
I0320 21:56:29.510437 32613 net.cpp:137] Memory required for data: 473410560
I0320 21:56:29.510454 32613 layer_factory.hpp:77] Creating layer inception_4d/output
I0320 21:56:29.510459 32613 net.cpp:84] Creating Layer inception_4d/output
I0320 21:56:29.510462 32613 net.cpp:406] inception_4d/output <- inception_4d/1x1
I0320 21:56:29.510465 32613 net.cpp:406] inception_4d/output <- inception_4d/3x3
I0320 21:56:29.510469 32613 net.cpp:406] inception_4d/output <- inception_4d/5x5
I0320 21:56:29.510473 32613 net.cpp:406] inception_4d/output <- inception_4d/pool_proj
I0320 21:56:29.510475 32613 net.cpp:380] inception_4d/output -> inception_4d/output
I0320 21:56:29.510509 32613 net.cpp:122] Setting up inception_4d/output
I0320 21:56:29.510514 32613 net.cpp:129] Top shape: 10 528 14 14 (1034880)
I0320 21:56:29.510516 32613 net.cpp:137] Memory required for data: 477550080
I0320 21:56:29.510519 32613 layer_factory.hpp:77] Creating layer inception_4d/output_inception_4d/output_0_split
I0320 21:56:29.510524 32613 net.cpp:84] Creating Layer inception_4d/output_inception_4d/output_0_split
I0320 21:56:29.510526 32613 net.cpp:406] inception_4d/output_inception_4d/output_0_split <- inception_4d/output
I0320 21:56:29.510531 32613 net.cpp:380] inception_4d/output_inception_4d/output_0_split -> inception_4d/output_inception_4d/output_0_split_0
I0320 21:56:29.510536 32613 net.cpp:380] inception_4d/output_inception_4d/output_0_split -> inception_4d/output_inception_4d/output_0_split_1
I0320 21:56:29.510540 32613 net.cpp:380] inception_4d/output_inception_4d/output_0_split -> inception_4d/output_inception_4d/output_0_split_2
I0320 21:56:29.510543 32613 net.cpp:380] inception_4d/output_inception_4d/output_0_split -> inception_4d/output_inception_4d/output_0_split_3
I0320 21:56:29.510617 32613 net.cpp:122] Setting up inception_4d/output_inception_4d/output_0_split
I0320 21:56:29.510622 32613 net.cpp:129] Top shape: 10 528 14 14 (1034880)
I0320 21:56:29.510624 32613 net.cpp:129] Top shape: 10 528 14 14 (1034880)
I0320 21:56:29.510627 32613 net.cpp:129] Top shape: 10 528 14 14 (1034880)
I0320 21:56:29.510629 32613 net.cpp:129] Top shape: 10 528 14 14 (1034880)
I0320 21:56:29.510632 32613 net.cpp:137] Memory required for data: 494108160
I0320 21:56:29.510634 32613 layer_factory.hpp:77] Creating layer inception_4e/1x1
I0320 21:56:29.510642 32613 net.cpp:84] Creating Layer inception_4e/1x1
I0320 21:56:29.510644 32613 net.cpp:406] inception_4e/1x1 <- inception_4d/output_inception_4d/output_0_split_0
I0320 21:56:29.510648 32613 net.cpp:380] inception_4e/1x1 -> inception_4e/1x1
I0320 21:56:29.517112 32613 net.cpp:122] Setting up inception_4e/1x1
I0320 21:56:29.517124 32613 net.cpp:129] Top shape: 10 256 14 14 (501760)
I0320 21:56:29.517127 32613 net.cpp:137] Memory required for data: 496115200
I0320 21:56:29.517132 32613 layer_factory.hpp:77] Creating layer inception_4e/relu_1x1
I0320 21:56:29.517137 32613 net.cpp:84] Creating Layer inception_4e/relu_1x1
I0320 21:56:29.517139 32613 net.cpp:406] inception_4e/relu_1x1 <- inception_4e/1x1
I0320 21:56:29.517144 32613 net.cpp:367] inception_4e/relu_1x1 -> inception_4e/1x1 (in-place)
I0320 21:56:29.519162 32613 net.cpp:122] Setting up inception_4e/relu_1x1
I0320 21:56:29.519171 32613 net.cpp:129] Top shape: 10 256 14 14 (501760)
I0320 21:56:29.519174 32613 net.cpp:137] Memory required for data: 498122240
I0320 21:56:29.519176 32613 layer_factory.hpp:77] Creating layer inception_4e/3x3_reduce
I0320 21:56:29.519184 32613 net.cpp:84] Creating Layer inception_4e/3x3_reduce
I0320 21:56:29.519187 32613 net.cpp:406] inception_4e/3x3_reduce <- inception_4d/output_inception_4d/output_0_split_1
I0320 21:56:29.519192 32613 net.cpp:380] inception_4e/3x3_reduce -> inception_4e/3x3_reduce
I0320 21:56:29.525157 32613 net.cpp:122] Setting up inception_4e/3x3_reduce
I0320 21:56:29.525169 32613 net.cpp:129] Top shape: 10 160 14 14 (313600)
I0320 21:56:29.525172 32613 net.cpp:137] Memory required for data: 499376640
I0320 21:56:29.525177 32613 layer_factory.hpp:77] Creating layer inception_4e/relu_3x3_reduce
I0320 21:56:29.525183 32613 net.cpp:84] Creating Layer inception_4e/relu_3x3_reduce
I0320 21:56:29.525187 32613 net.cpp:406] inception_4e/relu_3x3_reduce <- inception_4e/3x3_reduce
I0320 21:56:29.525190 32613 net.cpp:367] inception_4e/relu_3x3_reduce -> inception_4e/3x3_reduce (in-place)
I0320 21:56:29.527209 32613 net.cpp:122] Setting up inception_4e/relu_3x3_reduce
I0320 21:56:29.527218 32613 net.cpp:129] Top shape: 10 160 14 14 (313600)
I0320 21:56:29.527236 32613 net.cpp:137] Memory required for data: 500631040
I0320 21:56:29.527238 32613 layer_factory.hpp:77] Creating layer inception_4e/3x3
I0320 21:56:29.527246 32613 net.cpp:84] Creating Layer inception_4e/3x3
I0320 21:56:29.527251 32613 net.cpp:406] inception_4e/3x3 <- inception_4e/3x3_reduce
I0320 21:56:29.527256 32613 net.cpp:380] inception_4e/3x3 -> inception_4e/3x3
I0320 21:56:29.532201 32613 net.cpp:122] Setting up inception_4e/3x3
I0320 21:56:29.532212 32613 net.cpp:129] Top shape: 10 320 14 14 (627200)
I0320 21:56:29.532230 32613 net.cpp:137] Memory required for data: 503139840
I0320 21:56:29.532235 32613 layer_factory.hpp:77] Creating layer inception_4e/relu_3x3
I0320 21:56:29.532240 32613 net.cpp:84] Creating Layer inception_4e/relu_3x3
I0320 21:56:29.532243 32613 net.cpp:406] inception_4e/relu_3x3 <- inception_4e/3x3
I0320 21:56:29.532248 32613 net.cpp:367] inception_4e/relu_3x3 -> inception_4e/3x3 (in-place)
I0320 21:56:29.533677 32613 net.cpp:122] Setting up inception_4e/relu_3x3
I0320 21:56:29.533685 32613 net.cpp:129] Top shape: 10 320 14 14 (627200)
I0320 21:56:29.533702 32613 net.cpp:137] Memory required for data: 505648640
I0320 21:56:29.533705 32613 layer_factory.hpp:77] Creating layer inception_4e/5x5_reduce
I0320 21:56:29.533713 32613 net.cpp:84] Creating Layer inception_4e/5x5_reduce
I0320 21:56:29.533716 32613 net.cpp:406] inception_4e/5x5_reduce <- inception_4d/output_inception_4d/output_0_split_2
I0320 21:56:29.533722 32613 net.cpp:380] inception_4e/5x5_reduce -> inception_4e/5x5_reduce
I0320 21:56:29.538496 32613 net.cpp:122] Setting up inception_4e/5x5_reduce
I0320 21:56:29.538507 32613 net.cpp:129] Top shape: 10 32 14 14 (62720)
I0320 21:56:29.538524 32613 net.cpp:137] Memory required for data: 505899520
I0320 21:56:29.538529 32613 layer_factory.hpp:77] Creating layer inception_4e/relu_5x5_reduce
I0320 21:56:29.538535 32613 net.cpp:84] Creating Layer inception_4e/relu_5x5_reduce
I0320 21:56:29.538538 32613 net.cpp:406] inception_4e/relu_5x5_reduce <- inception_4e/5x5_reduce
I0320 21:56:29.538542 32613 net.cpp:367] inception_4e/relu_5x5_reduce -> inception_4e/5x5_reduce (in-place)
I0320 21:56:29.540621 32613 net.cpp:122] Setting up inception_4e/relu_5x5_reduce
I0320 21:56:29.540630 32613 net.cpp:129] Top shape: 10 32 14 14 (62720)
I0320 21:56:29.540649 32613 net.cpp:137] Memory required for data: 506150400
I0320 21:56:29.540652 32613 layer_factory.hpp:77] Creating layer inception_4e/5x5
I0320 21:56:29.540659 32613 net.cpp:84] Creating Layer inception_4e/5x5
I0320 21:56:29.540663 32613 net.cpp:406] inception_4e/5x5 <- inception_4e/5x5_reduce
I0320 21:56:29.540669 32613 net.cpp:380] inception_4e/5x5 -> inception_4e/5x5
I0320 21:56:29.547425 32613 net.cpp:122] Setting up inception_4e/5x5
I0320 21:56:29.547436 32613 net.cpp:129] Top shape: 10 128 14 14 (250880)
I0320 21:56:29.547454 32613 net.cpp:137] Memory required for data: 507153920
I0320 21:56:29.547459 32613 layer_factory.hpp:77] Creating layer inception_4e/relu_5x5
I0320 21:56:29.547466 32613 net.cpp:84] Creating Layer inception_4e/relu_5x5
I0320 21:56:29.547468 32613 net.cpp:406] inception_4e/relu_5x5 <- inception_4e/5x5
I0320 21:56:29.547472 32613 net.cpp:367] inception_4e/relu_5x5 -> inception_4e/5x5 (in-place)
I0320 21:56:29.549532 32613 net.cpp:122] Setting up inception_4e/relu_5x5
I0320 21:56:29.549540 32613 net.cpp:129] Top shape: 10 128 14 14 (250880)
I0320 21:56:29.549543 32613 net.cpp:137] Memory required for data: 508157440
I0320 21:56:29.549546 32613 layer_factory.hpp:77] Creating layer inception_4e/pool
I0320 21:56:29.549551 32613 net.cpp:84] Creating Layer inception_4e/pool
I0320 21:56:29.549553 32613 net.cpp:406] inception_4e/pool <- inception_4d/output_inception_4d/output_0_split_3
I0320 21:56:29.549558 32613 net.cpp:380] inception_4e/pool -> inception_4e/pool
I0320 21:56:29.549612 32613 net.cpp:122] Setting up inception_4e/pool
I0320 21:56:29.549618 32613 net.cpp:129] Top shape: 10 528 14 14 (1034880)
I0320 21:56:29.549621 32613 net.cpp:137] Memory required for data: 512296960
I0320 21:56:29.549623 32613 layer_factory.hpp:77] Creating layer inception_4e/pool_proj
I0320 21:56:29.549630 32613 net.cpp:84] Creating Layer inception_4e/pool_proj
I0320 21:56:29.549633 32613 net.cpp:406] inception_4e/pool_proj <- inception_4e/pool
I0320 21:56:29.549638 32613 net.cpp:380] inception_4e/pool_proj -> inception_4e/pool_proj
I0320 21:56:29.556180 32613 net.cpp:122] Setting up inception_4e/pool_proj
I0320 21:56:29.556191 32613 net.cpp:129] Top shape: 10 128 14 14 (250880)
I0320 21:56:29.556210 32613 net.cpp:137] Memory required for data: 513300480
I0320 21:56:29.556213 32613 layer_factory.hpp:77] Creating layer inception_4e/relu_pool_proj
I0320 21:56:29.556219 32613 net.cpp:84] Creating Layer inception_4e/relu_pool_proj
I0320 21:56:29.556223 32613 net.cpp:406] inception_4e/relu_pool_proj <- inception_4e/pool_proj
I0320 21:56:29.556226 32613 net.cpp:367] inception_4e/relu_pool_proj -> inception_4e/pool_proj (in-place)
I0320 21:56:29.558233 32613 net.cpp:122] Setting up inception_4e/relu_pool_proj
I0320 21:56:29.558243 32613 net.cpp:129] Top shape: 10 128 14 14 (250880)
I0320 21:56:29.558259 32613 net.cpp:137] Memory required for data: 514304000
I0320 21:56:29.558261 32613 layer_factory.hpp:77] Creating layer inception_4e/output
I0320 21:56:29.558267 32613 net.cpp:84] Creating Layer inception_4e/output
I0320 21:56:29.558270 32613 net.cpp:406] inception_4e/output <- inception_4e/1x1
I0320 21:56:29.558274 32613 net.cpp:406] inception_4e/output <- inception_4e/3x3
I0320 21:56:29.558276 32613 net.cpp:406] inception_4e/output <- inception_4e/5x5
I0320 21:56:29.558279 32613 net.cpp:406] inception_4e/output <- inception_4e/pool_proj
I0320 21:56:29.558282 32613 net.cpp:380] inception_4e/output -> inception_4e/output
I0320 21:56:29.558318 32613 net.cpp:122] Setting up inception_4e/output
I0320 21:56:29.558326 32613 net.cpp:129] Top shape: 10 832 14 14 (1630720)
I0320 21:56:29.558327 32613 net.cpp:137] Memory required for data: 520826880
I0320 21:56:29.558329 32613 layer_factory.hpp:77] Creating layer pool4/3x3_s2
I0320 21:56:29.558334 32613 net.cpp:84] Creating Layer pool4/3x3_s2
I0320 21:56:29.558336 32613 net.cpp:406] pool4/3x3_s2 <- inception_4e/output
I0320 21:56:29.558341 32613 net.cpp:380] pool4/3x3_s2 -> pool4/3x3_s2
I0320 21:56:29.558387 32613 net.cpp:122] Setting up pool4/3x3_s2
I0320 21:56:29.558393 32613 net.cpp:129] Top shape: 10 832 7 7 (407680)
I0320 21:56:29.558394 32613 net.cpp:137] Memory required for data: 522457600
I0320 21:56:29.558396 32613 layer_factory.hpp:77] Creating layer pool4/3x3_s2_pool4/3x3_s2_0_split
I0320 21:56:29.558401 32613 net.cpp:84] Creating Layer pool4/3x3_s2_pool4/3x3_s2_0_split
I0320 21:56:29.558403 32613 net.cpp:406] pool4/3x3_s2_pool4/3x3_s2_0_split <- pool4/3x3_s2
I0320 21:56:29.558408 32613 net.cpp:380] pool4/3x3_s2_pool4/3x3_s2_0_split -> pool4/3x3_s2_pool4/3x3_s2_0_split_0
I0320 21:56:29.558411 32613 net.cpp:380] pool4/3x3_s2_pool4/3x3_s2_0_split -> pool4/3x3_s2_pool4/3x3_s2_0_split_1
I0320 21:56:29.558414 32613 net.cpp:380] pool4/3x3_s2_pool4/3x3_s2_0_split -> pool4/3x3_s2_pool4/3x3_s2_0_split_2
I0320 21:56:29.558419 32613 net.cpp:380] pool4/3x3_s2_pool4/3x3_s2_0_split -> pool4/3x3_s2_pool4/3x3_s2_0_split_3
I0320 21:56:29.558491 32613 net.cpp:122] Setting up pool4/3x3_s2_pool4/3x3_s2_0_split
I0320 21:56:29.558496 32613 net.cpp:129] Top shape: 10 832 7 7 (407680)
I0320 21:56:29.558498 32613 net.cpp:129] Top shape: 10 832 7 7 (407680)
I0320 21:56:29.558501 32613 net.cpp:129] Top shape: 10 832 7 7 (407680)
I0320 21:56:29.558504 32613 net.cpp:129] Top shape: 10 832 7 7 (407680)
I0320 21:56:29.558506 32613 net.cpp:137] Memory required for data: 528980480
I0320 21:56:29.558508 32613 layer_factory.hpp:77] Creating layer inception_5a/1x1
I0320 21:56:29.558516 32613 net.cpp:84] Creating Layer inception_5a/1x1
I0320 21:56:29.558518 32613 net.cpp:406] inception_5a/1x1 <- pool4/3x3_s2_pool4/3x3_s2_0_split_0
I0320 21:56:29.558523 32613 net.cpp:380] inception_5a/1x1 -> inception_5a/1x1
I0320 21:56:29.564981 32613 net.cpp:122] Setting up inception_5a/1x1
I0320 21:56:29.564995 32613 net.cpp:129] Top shape: 10 256 7 7 (125440)
I0320 21:56:29.564996 32613 net.cpp:137] Memory required for data: 529482240
I0320 21:56:29.565001 32613 layer_factory.hpp:77] Creating layer inception_5a/relu_1x1
I0320 21:56:29.565006 32613 net.cpp:84] Creating Layer inception_5a/relu_1x1
I0320 21:56:29.565009 32613 net.cpp:406] inception_5a/relu_1x1 <- inception_5a/1x1
I0320 21:56:29.565014 32613 net.cpp:367] inception_5a/relu_1x1 -> inception_5a/1x1 (in-place)
I0320 21:56:29.567026 32613 net.cpp:122] Setting up inception_5a/relu_1x1
I0320 21:56:29.567035 32613 net.cpp:129] Top shape: 10 256 7 7 (125440)
I0320 21:56:29.567054 32613 net.cpp:137] Memory required for data: 529984000
I0320 21:56:29.567056 32613 layer_factory.hpp:77] Creating layer inception_5a/3x3_reduce
I0320 21:56:29.567065 32613 net.cpp:84] Creating Layer inception_5a/3x3_reduce
I0320 21:56:29.567070 32613 net.cpp:406] inception_5a/3x3_reduce <- pool4/3x3_s2_pool4/3x3_s2_0_split_1
I0320 21:56:29.567073 32613 net.cpp:380] inception_5a/3x3_reduce -> inception_5a/3x3_reduce
I0320 21:56:29.573832 32613 net.cpp:122] Setting up inception_5a/3x3_reduce
I0320 21:56:29.573844 32613 net.cpp:129] Top shape: 10 160 7 7 (78400)
I0320 21:56:29.573863 32613 net.cpp:137] Memory required for data: 530297600
I0320 21:56:29.573868 32613 layer_factory.hpp:77] Creating layer inception_5a/relu_3x3_reduce
I0320 21:56:29.573874 32613 net.cpp:84] Creating Layer inception_5a/relu_3x3_reduce
I0320 21:56:29.573878 32613 net.cpp:406] inception_5a/relu_3x3_reduce <- inception_5a/3x3_reduce
I0320 21:56:29.573881 32613 net.cpp:367] inception_5a/relu_3x3_reduce -> inception_5a/3x3_reduce (in-place)
I0320 21:56:29.575917 32613 net.cpp:122] Setting up inception_5a/relu_3x3_reduce
I0320 21:56:29.575923 32613 net.cpp:129] Top shape: 10 160 7 7 (78400)
I0320 21:56:29.575927 32613 net.cpp:137] Memory required for data: 530611200
I0320 21:56:29.575944 32613 layer_factory.hpp:77] Creating layer inception_5a/3x3
I0320 21:56:29.575953 32613 net.cpp:84] Creating Layer inception_5a/3x3
I0320 21:56:29.575955 32613 net.cpp:406] inception_5a/3x3 <- inception_5a/3x3_reduce
I0320 21:56:29.575959 32613 net.cpp:380] inception_5a/3x3 -> inception_5a/3x3
I0320 21:56:29.583483 32613 net.cpp:122] Setting up inception_5a/3x3
I0320 21:56:29.583495 32613 net.cpp:129] Top shape: 10 320 7 7 (156800)
I0320 21:56:29.583513 32613 net.cpp:137] Memory required for data: 531238400
I0320 21:56:29.583519 32613 layer_factory.hpp:77] Creating layer inception_5a/relu_3x3
I0320 21:56:29.583525 32613 net.cpp:84] Creating Layer inception_5a/relu_3x3
I0320 21:56:29.583528 32613 net.cpp:406] inception_5a/relu_3x3 <- inception_5a/3x3
I0320 21:56:29.583533 32613 net.cpp:367] inception_5a/relu_3x3 -> inception_5a/3x3 (in-place)
I0320 21:56:29.583709 32613 net.cpp:122] Setting up inception_5a/relu_3x3
I0320 21:56:29.583717 32613 net.cpp:129] Top shape: 10 320 7 7 (156800)
I0320 21:56:29.583719 32613 net.cpp:137] Memory required for data: 531865600
I0320 21:56:29.583722 32613 layer_factory.hpp:77] Creating layer inception_5a/5x5_reduce
I0320 21:56:29.583731 32613 net.cpp:84] Creating Layer inception_5a/5x5_reduce
I0320 21:56:29.583734 32613 net.cpp:406] inception_5a/5x5_reduce <- pool4/3x3_s2_pool4/3x3_s2_0_split_2
I0320 21:56:29.583739 32613 net.cpp:380] inception_5a/5x5_reduce -> inception_5a/5x5_reduce
I0320 21:56:29.589464 32613 net.cpp:122] Setting up inception_5a/5x5_reduce
I0320 21:56:29.589478 32613 net.cpp:129] Top shape: 10 32 7 7 (15680)
I0320 21:56:29.589481 32613 net.cpp:137] Memory required for data: 531928320
I0320 21:56:29.589486 32613 layer_factory.hpp:77] Creating layer inception_5a/relu_5x5_reduce
I0320 21:56:29.589490 32613 net.cpp:84] Creating Layer inception_5a/relu_5x5_reduce
I0320 21:56:29.589493 32613 net.cpp:406] inception_5a/relu_5x5_reduce <- inception_5a/5x5_reduce
I0320 21:56:29.589498 32613 net.cpp:367] inception_5a/relu_5x5_reduce -> inception_5a/5x5_reduce (in-place)
I0320 21:56:29.591485 32613 net.cpp:122] Setting up inception_5a/relu_5x5_reduce
I0320 21:56:29.591495 32613 net.cpp:129] Top shape: 10 32 7 7 (15680)
I0320 21:56:29.591513 32613 net.cpp:137] Memory required for data: 531991040
I0320 21:56:29.591516 32613 layer_factory.hpp:77] Creating layer inception_5a/5x5
I0320 21:56:29.591523 32613 net.cpp:84] Creating Layer inception_5a/5x5
I0320 21:56:29.591527 32613 net.cpp:406] inception_5a/5x5 <- inception_5a/5x5_reduce
I0320 21:56:29.591532 32613 net.cpp:380] inception_5a/5x5 -> inception_5a/5x5
I0320 21:56:29.598145 32613 net.cpp:122] Setting up inception_5a/5x5
I0320 21:56:29.598157 32613 net.cpp:129] Top shape: 10 128 7 7 (62720)
I0320 21:56:29.598176 32613 net.cpp:137] Memory required for data: 532241920
I0320 21:56:29.598181 32613 layer_factory.hpp:77] Creating layer inception_5a/relu_5x5
I0320 21:56:29.598197 32613 net.cpp:84] Creating Layer inception_5a/relu_5x5
I0320 21:56:29.598201 32613 net.cpp:406] inception_5a/relu_5x5 <- inception_5a/5x5
I0320 21:56:29.598204 32613 net.cpp:367] inception_5a/relu_5x5 -> inception_5a/5x5 (in-place)
I0320 21:56:29.600194 32613 net.cpp:122] Setting up inception_5a/relu_5x5
I0320 21:56:29.600203 32613 net.cpp:129] Top shape: 10 128 7 7 (62720)
I0320 21:56:29.600204 32613 net.cpp:137] Memory required for data: 532492800
I0320 21:56:29.600224 32613 layer_factory.hpp:77] Creating layer inception_5a/pool
I0320 21:56:29.600229 32613 net.cpp:84] Creating Layer inception_5a/pool
I0320 21:56:29.600232 32613 net.cpp:406] inception_5a/pool <- pool4/3x3_s2_pool4/3x3_s2_0_split_3
I0320 21:56:29.600236 32613 net.cpp:380] inception_5a/pool -> inception_5a/pool
I0320 21:56:29.600291 32613 net.cpp:122] Setting up inception_5a/pool
I0320 21:56:29.600296 32613 net.cpp:129] Top shape: 10 832 7 7 (407680)
I0320 21:56:29.600298 32613 net.cpp:137] Memory required for data: 534123520
I0320 21:56:29.600301 32613 layer_factory.hpp:77] Creating layer inception_5a/pool_proj
I0320 21:56:29.600307 32613 net.cpp:84] Creating Layer inception_5a/pool_proj
I0320 21:56:29.600311 32613 net.cpp:406] inception_5a/pool_proj <- inception_5a/pool
I0320 21:56:29.600314 32613 net.cpp:380] inception_5a/pool_proj -> inception_5a/pool_proj
I0320 21:56:29.606860 32613 net.cpp:122] Setting up inception_5a/pool_proj
I0320 21:56:29.606871 32613 net.cpp:129] Top shape: 10 128 7 7 (62720)
I0320 21:56:29.606890 32613 net.cpp:137] Memory required for data: 534374400
I0320 21:56:29.606894 32613 layer_factory.hpp:77] Creating layer inception_5a/relu_pool_proj
I0320 21:56:29.606900 32613 net.cpp:84] Creating Layer inception_5a/relu_pool_proj
I0320 21:56:29.606905 32613 net.cpp:406] inception_5a/relu_pool_proj <- inception_5a/pool_proj
I0320 21:56:29.606909 32613 net.cpp:367] inception_5a/relu_pool_proj -> inception_5a/pool_proj (in-place)
I0320 21:56:29.608902 32613 net.cpp:122] Setting up inception_5a/relu_pool_proj
I0320 21:56:29.608911 32613 net.cpp:129] Top shape: 10 128 7 7 (62720)
I0320 21:56:29.608912 32613 net.cpp:137] Memory required for data: 534625280
I0320 21:56:29.608930 32613 layer_factory.hpp:77] Creating layer inception_5a/output
I0320 21:56:29.608937 32613 net.cpp:84] Creating Layer inception_5a/output
I0320 21:56:29.608938 32613 net.cpp:406] inception_5a/output <- inception_5a/1x1
I0320 21:56:29.608942 32613 net.cpp:406] inception_5a/output <- inception_5a/3x3
I0320 21:56:29.608945 32613 net.cpp:406] inception_5a/output <- inception_5a/5x5
I0320 21:56:29.608947 32613 net.cpp:406] inception_5a/output <- inception_5a/pool_proj
I0320 21:56:29.608952 32613 net.cpp:380] inception_5a/output -> inception_5a/output
I0320 21:56:29.608985 32613 net.cpp:122] Setting up inception_5a/output
I0320 21:56:29.608990 32613 net.cpp:129] Top shape: 10 832 7 7 (407680)
I0320 21:56:29.608992 32613 net.cpp:137] Memory required for data: 536256000
I0320 21:56:29.608994 32613 layer_factory.hpp:77] Creating layer inception_5a/output_inception_5a/output_0_split
I0320 21:56:29.608999 32613 net.cpp:84] Creating Layer inception_5a/output_inception_5a/output_0_split
I0320 21:56:29.609001 32613 net.cpp:406] inception_5a/output_inception_5a/output_0_split <- inception_5a/output
I0320 21:56:29.609005 32613 net.cpp:380] inception_5a/output_inception_5a/output_0_split -> inception_5a/output_inception_5a/output_0_split_0
I0320 21:56:29.609010 32613 net.cpp:380] inception_5a/output_inception_5a/output_0_split -> inception_5a/output_inception_5a/output_0_split_1
I0320 21:56:29.609014 32613 net.cpp:380] inception_5a/output_inception_5a/output_0_split -> inception_5a/output_inception_5a/output_0_split_2
I0320 21:56:29.609017 32613 net.cpp:380] inception_5a/output_inception_5a/output_0_split -> inception_5a/output_inception_5a/output_0_split_3
I0320 21:56:29.609092 32613 net.cpp:122] Setting up inception_5a/output_inception_5a/output_0_split
I0320 21:56:29.609098 32613 net.cpp:129] Top shape: 10 832 7 7 (407680)
I0320 21:56:29.609100 32613 net.cpp:129] Top shape: 10 832 7 7 (407680)
I0320 21:56:29.609103 32613 net.cpp:129] Top shape: 10 832 7 7 (407680)
I0320 21:56:29.609107 32613 net.cpp:129] Top shape: 10 832 7 7 (407680)
I0320 21:56:29.609108 32613 net.cpp:137] Memory required for data: 542778880
I0320 21:56:29.609110 32613 layer_factory.hpp:77] Creating layer inception_5b/1x1
I0320 21:56:29.609117 32613 net.cpp:84] Creating Layer inception_5b/1x1
I0320 21:56:29.609120 32613 net.cpp:406] inception_5b/1x1 <- inception_5a/output_inception_5a/output_0_split_0
I0320 21:56:29.609124 32613 net.cpp:380] inception_5b/1x1 -> inception_5b/1x1
I0320 21:56:29.614598 32613 net.cpp:122] Setting up inception_5b/1x1
I0320 21:56:29.614609 32613 net.cpp:129] Top shape: 10 384 7 7 (188160)
I0320 21:56:29.614629 32613 net.cpp:137] Memory required for data: 543531520
I0320 21:56:29.614634 32613 layer_factory.hpp:77] Creating layer inception_5b/relu_1x1
I0320 21:56:29.614639 32613 net.cpp:84] Creating Layer inception_5b/relu_1x1
I0320 21:56:29.614644 32613 net.cpp:406] inception_5b/relu_1x1 <- inception_5b/1x1
I0320 21:56:29.614647 32613 net.cpp:367] inception_5b/relu_1x1 -> inception_5b/1x1 (in-place)
I0320 21:56:29.616655 32613 net.cpp:122] Setting up inception_5b/relu_1x1
I0320 21:56:29.616663 32613 net.cpp:129] Top shape: 10 384 7 7 (188160)
I0320 21:56:29.616665 32613 net.cpp:137] Memory required for data: 544284160
I0320 21:56:29.616684 32613 layer_factory.hpp:77] Creating layer inception_5b/3x3_reduce
I0320 21:56:29.616691 32613 net.cpp:84] Creating Layer inception_5b/3x3_reduce
I0320 21:56:29.616694 32613 net.cpp:406] inception_5b/3x3_reduce <- inception_5a/output_inception_5a/output_0_split_1
I0320 21:56:29.616701 32613 net.cpp:380] inception_5b/3x3_reduce -> inception_5b/3x3_reduce
I0320 21:56:29.621547 32613 net.cpp:122] Setting up inception_5b/3x3_reduce
I0320 21:56:29.621561 32613 net.cpp:129] Top shape: 10 192 7 7 (94080)
I0320 21:56:29.621562 32613 net.cpp:137] Memory required for data: 544660480
I0320 21:56:29.621568 32613 layer_factory.hpp:77] Creating layer inception_5b/relu_3x3_reduce
I0320 21:56:29.621573 32613 net.cpp:84] Creating Layer inception_5b/relu_3x3_reduce
I0320 21:56:29.621577 32613 net.cpp:406] inception_5b/relu_3x3_reduce <- inception_5b/3x3_reduce
I0320 21:56:29.621580 32613 net.cpp:367] inception_5b/relu_3x3_reduce -> inception_5b/3x3_reduce (in-place)
I0320 21:56:29.623273 32613 net.cpp:122] Setting up inception_5b/relu_3x3_reduce
I0320 21:56:29.623281 32613 net.cpp:129] Top shape: 10 192 7 7 (94080)
I0320 21:56:29.623299 32613 net.cpp:137] Memory required for data: 545036800
I0320 21:56:29.623302 32613 layer_factory.hpp:77] Creating layer inception_5b/3x3
I0320 21:56:29.623309 32613 net.cpp:84] Creating Layer inception_5b/3x3
I0320 21:56:29.623311 32613 net.cpp:406] inception_5b/3x3 <- inception_5b/3x3_reduce
I0320 21:56:29.623318 32613 net.cpp:380] inception_5b/3x3 -> inception_5b/3x3
I0320 21:56:29.630539 32613 net.cpp:122] Setting up inception_5b/3x3
I0320 21:56:29.630551 32613 net.cpp:129] Top shape: 10 384 7 7 (188160)
I0320 21:56:29.630570 32613 net.cpp:137] Memory required for data: 545789440
I0320 21:56:29.630575 32613 layer_factory.hpp:77] Creating layer inception_5b/relu_3x3
I0320 21:56:29.630580 32613 net.cpp:84] Creating Layer inception_5b/relu_3x3
I0320 21:56:29.630584 32613 net.cpp:406] inception_5b/relu_3x3 <- inception_5b/3x3
I0320 21:56:29.630589 32613 net.cpp:367] inception_5b/relu_3x3 -> inception_5b/3x3 (in-place)
I0320 21:56:29.632249 32613 net.cpp:122] Setting up inception_5b/relu_3x3
I0320 21:56:29.632257 32613 net.cpp:129] Top shape: 10 384 7 7 (188160)
I0320 21:56:29.632259 32613 net.cpp:137] Memory required for data: 546542080
I0320 21:56:29.632278 32613 layer_factory.hpp:77] Creating layer inception_5b/5x5_reduce
I0320 21:56:29.632287 32613 net.cpp:84] Creating Layer inception_5b/5x5_reduce
I0320 21:56:29.632289 32613 net.cpp:406] inception_5b/5x5_reduce <- inception_5a/output_inception_5a/output_0_split_2
I0320 21:56:29.632294 32613 net.cpp:380] inception_5b/5x5_reduce -> inception_5b/5x5_reduce
I0320 21:56:29.639066 32613 net.cpp:122] Setting up inception_5b/5x5_reduce
I0320 21:56:29.639078 32613 net.cpp:129] Top shape: 10 48 7 7 (23520)
I0320 21:56:29.639096 32613 net.cpp:137] Memory required for data: 546636160
I0320 21:56:29.639102 32613 layer_factory.hpp:77] Creating layer inception_5b/relu_5x5_reduce
I0320 21:56:29.639106 32613 net.cpp:84] Creating Layer inception_5b/relu_5x5_reduce
I0320 21:56:29.639109 32613 net.cpp:406] inception_5b/relu_5x5_reduce <- inception_5b/5x5_reduce
I0320 21:56:29.639114 32613 net.cpp:367] inception_5b/relu_5x5_reduce -> inception_5b/5x5_reduce (in-place)
I0320 21:56:29.641160 32613 net.cpp:122] Setting up inception_5b/relu_5x5_reduce
I0320 21:56:29.641170 32613 net.cpp:129] Top shape: 10 48 7 7 (23520)
I0320 21:56:29.641189 32613 net.cpp:137] Memory required for data: 546730240
I0320 21:56:29.641192 32613 layer_factory.hpp:77] Creating layer inception_5b/5x5
I0320 21:56:29.641201 32613 net.cpp:84] Creating Layer inception_5b/5x5
I0320 21:56:29.641204 32613 net.cpp:406] inception_5b/5x5 <- inception_5b/5x5_reduce
I0320 21:56:29.641211 32613 net.cpp:380] inception_5b/5x5 -> inception_5b/5x5
I0320 21:56:29.647846 32613 net.cpp:122] Setting up inception_5b/5x5
I0320 21:56:29.647857 32613 net.cpp:129] Top shape: 10 128 7 7 (62720)
I0320 21:56:29.647876 32613 net.cpp:137] Memory required for data: 546981120
I0320 21:56:29.647881 32613 layer_factory.hpp:77] Creating layer inception_5b/relu_5x5
I0320 21:56:29.647887 32613 net.cpp:84] Creating Layer inception_5b/relu_5x5
I0320 21:56:29.647891 32613 net.cpp:406] inception_5b/relu_5x5 <- inception_5b/5x5
I0320 21:56:29.647894 32613 net.cpp:367] inception_5b/relu_5x5 -> inception_5b/5x5 (in-place)
I0320 21:56:29.649891 32613 net.cpp:122] Setting up inception_5b/relu_5x5
I0320 21:56:29.649900 32613 net.cpp:129] Top shape: 10 128 7 7 (62720)
I0320 21:56:29.649917 32613 net.cpp:137] Memory required for data: 547232000
I0320 21:56:29.649920 32613 layer_factory.hpp:77] Creating layer inception_5b/pool
I0320 21:56:29.649926 32613 net.cpp:84] Creating Layer inception_5b/pool
I0320 21:56:29.649930 32613 net.cpp:406] inception_5b/pool <- inception_5a/output_inception_5a/output_0_split_3
I0320 21:56:29.649933 32613 net.cpp:380] inception_5b/pool -> inception_5b/pool
I0320 21:56:29.649991 32613 net.cpp:122] Setting up inception_5b/pool
I0320 21:56:29.649996 32613 net.cpp:129] Top shape: 10 832 7 7 (407680)
I0320 21:56:29.649997 32613 net.cpp:137] Memory required for data: 548862720
I0320 21:56:29.649999 32613 layer_factory.hpp:77] Creating layer inception_5b/pool_proj
I0320 21:56:29.650007 32613 net.cpp:84] Creating Layer inception_5b/pool_proj
I0320 21:56:29.650009 32613 net.cpp:406] inception_5b/pool_proj <- inception_5b/pool
I0320 21:56:29.650014 32613 net.cpp:380] inception_5b/pool_proj -> inception_5b/pool_proj
I0320 21:56:29.656627 32613 net.cpp:122] Setting up inception_5b/pool_proj
I0320 21:56:29.656639 32613 net.cpp:129] Top shape: 10 128 7 7 (62720)
I0320 21:56:29.656657 32613 net.cpp:137] Memory required for data: 549113600
I0320 21:56:29.656662 32613 layer_factory.hpp:77] Creating layer inception_5b/relu_pool_proj
I0320 21:56:29.656666 32613 net.cpp:84] Creating Layer inception_5b/relu_pool_proj
I0320 21:56:29.656669 32613 net.cpp:406] inception_5b/relu_pool_proj <- inception_5b/pool_proj
I0320 21:56:29.656675 32613 net.cpp:367] inception_5b/relu_pool_proj -> inception_5b/pool_proj (in-place)
I0320 21:56:29.658746 32613 net.cpp:122] Setting up inception_5b/relu_pool_proj
I0320 21:56:29.658756 32613 net.cpp:129] Top shape: 10 128 7 7 (62720)
I0320 21:56:29.658757 32613 net.cpp:137] Memory required for data: 549364480
I0320 21:56:29.658776 32613 layer_factory.hpp:77] Creating layer inception_5b/output
I0320 21:56:29.658781 32613 net.cpp:84] Creating Layer inception_5b/output
I0320 21:56:29.658783 32613 net.cpp:406] inception_5b/output <- inception_5b/1x1
I0320 21:56:29.658787 32613 net.cpp:406] inception_5b/output <- inception_5b/3x3
I0320 21:56:29.658789 32613 net.cpp:406] inception_5b/output <- inception_5b/5x5
I0320 21:56:29.658792 32613 net.cpp:406] inception_5b/output <- inception_5b/pool_proj
I0320 21:56:29.658797 32613 net.cpp:380] inception_5b/output -> inception_5b/output
I0320 21:56:29.658838 32613 net.cpp:122] Setting up inception_5b/output
I0320 21:56:29.658841 32613 net.cpp:129] Top shape: 10 1024 7 7 (501760)
I0320 21:56:29.658843 32613 net.cpp:137] Memory required for data: 551371520
I0320 21:56:29.658846 32613 layer_factory.hpp:77] Creating layer pool5/7x7_s1
I0320 21:56:29.658850 32613 net.cpp:84] Creating Layer pool5/7x7_s1
I0320 21:56:29.658852 32613 net.cpp:406] pool5/7x7_s1 <- inception_5b/output
I0320 21:56:29.658856 32613 net.cpp:380] pool5/7x7_s1 -> pool5/7x7_s1
I0320 21:56:29.661018 32613 net.cpp:122] Setting up pool5/7x7_s1
I0320 21:56:29.661026 32613 net.cpp:129] Top shape: 10 1024 1 1 (10240)
I0320 21:56:29.661044 32613 net.cpp:137] Memory required for data: 551412480
I0320 21:56:29.661046 32613 layer_factory.hpp:77] Creating layer pool5/drop_7x7_s1
I0320 21:56:29.661051 32613 net.cpp:84] Creating Layer pool5/drop_7x7_s1
I0320 21:56:29.661054 32613 net.cpp:406] pool5/drop_7x7_s1 <- pool5/7x7_s1
I0320 21:56:29.661058 32613 net.cpp:367] pool5/drop_7x7_s1 -> pool5/7x7_s1 (in-place)
I0320 21:56:29.661089 32613 net.cpp:122] Setting up pool5/drop_7x7_s1
I0320 21:56:29.661093 32613 net.cpp:129] Top shape: 10 1024 1 1 (10240)
I0320 21:56:29.661095 32613 net.cpp:137] Memory required for data: 551453440
I0320 21:56:29.661098 32613 layer_factory.hpp:77] Creating layer loss3/classifier
I0320 21:56:29.661104 32613 net.cpp:84] Creating Layer loss3/classifier
I0320 21:56:29.661106 32613 net.cpp:406] loss3/classifier <- pool5/7x7_s1
I0320 21:56:29.661111 32613 net.cpp:380] loss3/classifier -> loss3/classifier
I0320 21:56:29.666285 32613 net.cpp:122] Setting up loss3/classifier
I0320 21:56:29.666296 32613 net.cpp:129] Top shape: 10 1000 (10000)
I0320 21:56:29.666314 32613 net.cpp:137] Memory required for data: 551493440
I0320 21:56:29.666319 32613 layer_factory.hpp:77] Creating layer prob
I0320 21:56:29.666324 32613 net.cpp:84] Creating Layer prob
I0320 21:56:29.666329 32613 net.cpp:406] prob <- loss3/classifier
I0320 21:56:29.666333 32613 net.cpp:380] prob -> prob
I0320 21:56:29.667114 32613 net.cpp:122] Setting up prob
I0320 21:56:29.667125 32613 net.cpp:129] Top shape: 10 1000 (10000)
I0320 21:56:29.667129 32613 net.cpp:137] Memory required for data: 551533440
I0320 21:56:29.667131 32613 net.cpp:200] prob does not need backward computation.
I0320 21:56:29.667134 32613 net.cpp:200] loss3/classifier does not need backward computation.
I0320 21:56:29.667135 32613 net.cpp:200] pool5/drop_7x7_s1 does not need backward computation.
I0320 21:56:29.667138 32613 net.cpp:200] pool5/7x7_s1 does not need backward computation.
…
